{"format": "graph-model", "generatedBy": "2.15.0", "convertedBy": "TensorFlow.js Converter v4.20.0", "signature": {"inputs": {"input_8": {"name": "input_8:0", "dtype": "DT_FLOAT", "tensorShape": {"dim": [{"size": "-1"}, {"size": "1"}]}}}, "outputs": {"Identity_1:0": {"name": "Identity_1:0", "dtype": "DT_FLOAT", "tensorShape": {"dim": [{"size": "4096"}, {"size": "513"}, {"size": "2"}]}}, "Identity:0": {"name": "Identity:0", "dtype": "DT_FLOAT", "tensorShape": {"dim": [{"size": "4096"}, {"size": "513"}, {"size": "2"}]}}}}, "modelTopology": {"node": [{"name": "StatefulPartitionedCall/model/generate_stereo_layer/split_4/split_dim", "op": "Const", "attr": {"dtype": {"type": "DT_INT32"}, "value": {"tensor": {"dtype": "DT_INT32", "tensorShape": {}}}}}, {"name": "StatefulPartitionedCall/model/generate_stereo_layer/Pow/x", "op": "Const", "attr": {"value": {"tensor": {"dtype": "DT_FLOAT", "tensorShape": {}}}, "dtype": {"type": "DT_FLOAT"}}}, {"name": "StatefulPartitionedCall/model/generate_stereo_layer/mul_1/x", "op": "Const", "attr": {"dtype": {"type": "DT_FLOAT"}, "value": {"tensor": {"dtype": "DT_FLOAT", "tensorShape": {}}}}}, {"name": "StatefulPartitionedCall/model/generate_stereo_layer/DEC/tf.split_3/split/split_dim", "op": "Const", "attr": {"dtype": {"type": "DT_INT32"}, "value": {"tensor": {"dtype": "DT_INT32", "tensorShape": {}}}}}, {"name": "StatefulPartitionedCall/model/generate_stereo_layer/DEC/conv2d_11/Conv2D/Cast", "op": "Const", "attr": {"value": {"tensor": {"dtype": "DT_HALF", "tensorShape": {"dim": [{"size": "1"}, {"size": "1"}, {"size": "768"}, {"size": "513"}]}}}, "dtype": {"type": "DT_HALF"}}}, {"name": "StatefulPartitionedCall/model/generate_stereo_layer/DEC/conv2d_11/BiasAdd/Cast", "op": "Const", "attr": {"dtype": {"type": "DT_HALF"}, "value": {"tensor": {"dtype": "DT_HALF", "tensorShape": {"dim": [{"size": "513"}]}}}}}, {"name": "StatefulPartitionedCall/model/generate_stereo_layer/DEC/tf.clip_by_value/clip_by_value/Minimum/y", "op": "Const", "attr": {"dtype": {"type": "DT_HALF"}, "value": {"tensor": {"dtype": "DT_HALF", "tensorShape": {}}}}}, {"name": "StatefulPartitionedCall/model/generate_stereo_layer/DEC/tf.clip_by_value/clip_by_value/y", "op": "Const", "attr": {"value": {"tensor": {"dtype": "DT_HALF", "tensorShape": {}}}, "dtype": {"type": "DT_HALF"}}}, {"name": "StatefulPartitionedCall/model/generate_stereo_layer/DEC/tf.concat_3/concat/axis", "op": "Const", "attr": {"dtype": {"type": "DT_INT32"}, "value": {"tensor": {"dtype": "DT_INT32", "tensorShape": {}}}}}, {"name": "StatefulPartitionedCall/model/generate_stereo_layer/DEC/tf.compat.v1.transpose_5/transpose/perm", "op": "Const", "attr": {"value": {"tensor": {"dtype": "DT_INT32", "tensorShape": {"dim": [{"size": "4"}]}}}, "dtype": {"type": "DT_INT32"}}}, {"name": "StatefulPartitionedCall/model/generate_stereo_layer/mul/y", "op": "Const", "attr": {"dtype": {"type": "DT_FLOAT"}, "value": {"tensor": {"dtype": "DT_FLOAT", "tensorShape": {}}}}}, {"name": "StatefulPartitionedCall/model/generate_stereo_layer/add/y", "op": "Const", "attr": {"value": {"tensor": {"dtype": "DT_FLOAT", "tensorShape": {}}}, "dtype": {"type": "DT_FLOAT"}}}, {"name": "StatefulPartitionedCall/model/generate_stereo_layer/add_1/y", "op": "Const", "attr": {"dtype": {"type": "DT_FLOAT"}, "value": {"tensor": {"dtype": "DT_FLOAT", "tensorShape": {}}}}}, {"name": "StatefulPartitionedCall/model/generate_stereo_layer/concat_11/axis", "op": "Const", "attr": {"value": {"tensor": {"dtype": "DT_INT32", "tensorShape": {}}}, "dtype": {"type": "DT_INT32"}}}, {"name": "StatefulPartitionedCall/model/generate_stereo_layer/split_9/split_dim", "op": "Const", "attr": {"dtype": {"type": "DT_INT32"}, "value": {"tensor": {"dtype": "DT_INT32", "tensorShape": {}}}}}, {"name": "StatefulPartitionedCall/model/generate_stereo_layer/Pow_1/x", "op": "Const", "attr": {"value": {"tensor": {"dtype": "DT_FLOAT", "tensorShape": {}}}, "dtype": {"type": "DT_FLOAT"}}}, {"name": "StatefulPartitionedCall/model/generate_stereo_layer/mul_5/x", "op": "Const", "attr": {"value": {"tensor": {"dtype": "DT_FLOAT", "tensorShape": {}}}, "dtype": {"type": "DT_FLOAT"}}}, {"name": "StatefulPartitionedCall/model/generate_stereo_layer/DEC/tf.split_3/split_1/split_dim", "op": "Const", "attr": {"value": {"tensor": {"dtype": "DT_INT32", "tensorShape": {}}}, "dtype": {"type": "DT_INT32"}}}, {"name": "StatefulPartitionedCall/model/generate_stereo_layer/DEC/conv2d_11/Conv2D_1/Cast", "op": "Const", "attr": {"value": {"tensor": {"dtype": "DT_HALF", "tensorShape": {"dim": [{"size": "1"}, {"size": "1"}, {"size": "768"}, {"size": "513"}]}}}, "dtype": {"type": "DT_HALF"}}}, {"name": "StatefulPartitionedCall/model/generate_stereo_layer/DEC/conv2d_11/BiasAdd_1/Cast", "op": "Const", "attr": {"value": {"tensor": {"dtype": "DT_HALF", "tensorShape": {"dim": [{"size": "513"}]}}}, "dtype": {"type": "DT_HALF"}}}, {"name": "StatefulPartitionedCall/model/generate_stereo_layer/DEC/tf.clip_by_value/clip_by_value_1/Minimum/y", "op": "Const", "attr": {"dtype": {"type": "DT_HALF"}, "value": {"tensor": {"dtype": "DT_HALF", "tensorShape": {}}}}}, {"name": "StatefulPartitionedCall/model/generate_stereo_layer/DEC/tf.clip_by_value/clip_by_value_1/y", "op": "Const", "attr": {"value": {"tensor": {"dtype": "DT_HALF", "tensorShape": {}}}, "dtype": {"type": "DT_HALF"}}}, {"name": "StatefulPartitionedCall/model/generate_stereo_layer/DEC/tf.concat_3/concat_1/axis", "op": "Const", "attr": {"dtype": {"type": "DT_INT32"}, "value": {"tensor": {"dtype": "DT_INT32", "tensorShape": {}}}}}, {"name": "StatefulPartitionedCall/model/generate_stereo_layer/DEC/tf.compat.v1.transpose_5/transpose_1/perm", "op": "Const", "attr": {"dtype": {"type": "DT_INT32"}, "value": {"tensor": {"dtype": "DT_INT32", "tensorShape": {"dim": [{"size": "4"}]}}}}}, {"name": "StatefulPartitionedCall/model/generate_stereo_layer/mul_4/y", "op": "Const", "attr": {"value": {"tensor": {"dtype": "DT_FLOAT", "tensorShape": {}}}, "dtype": {"type": "DT_FLOAT"}}}, {"name": "StatefulPartitionedCall/model/generate_stereo_layer/add_2/y", "op": "Const", "attr": {"value": {"tensor": {"dtype": "DT_FLOAT", "tensorShape": {}}}, "dtype": {"type": "DT_FLOAT"}}}, {"name": "StatefulPartitionedCall/model/generate_stereo_layer/add_3/y", "op": "Const", "attr": {"value": {"tensor": {"dtype": "DT_FLOAT", "tensorShape": {}}}, "dtype": {"type": "DT_FLOAT"}}}, {"name": "StatefulPartitionedCall/model/generate_stereo_layer/concat_19/axis", "op": "Const", "attr": {"value": {"tensor": {"dtype": "DT_INT32", "tensorShape": {}}}, "dtype": {"type": "DT_INT32"}}}, {"name": "StatefulPartitionedCall/model/generate_stereo_layer/split_5/split_dim", "op": "Const", "attr": {"value": {"tensor": {"dtype": "DT_INT32", "tensorShape": {}}}, "dtype": {"type": "DT_INT32"}}}, {"name": "StatefulPartitionedCall/model/generate_stereo_layer/DEC/tf.split_4/split/split_dim", "op": "Const", "attr": {"dtype": {"type": "DT_INT32"}, "value": {"tensor": {"dtype": "DT_INT32", "tensorShape": {}}}}}, {"name": "StatefulPartitionedCall/model/generate_stereo_layer/DEC/conv2d_transpose_5/stack", "op": "Const", "attr": {"dtype": {"type": "DT_INT32"}, "value": {"tensor": {"dtype": "DT_INT32", "tensorShape": {"dim": [{"size": "4"}]}}}}}, {"name": "StatefulPartitionedCall/model/generate_stereo_layer/DEC/conv2d_transpose_5/conv2d_transpose/Cast", "op": "Const", "attr": {"dtype": {"type": "DT_HALF"}, "value": {"tensor": {"dtype": "DT_HALF", "tensorShape": {"dim": [{"size": "1"}, {"size": "4"}, {"size": "768"}, {"size": "768"}]}}}}}, {"name": "StatefulPartitionedCall/model/generate_stereo_layer/DEC/conv2d_transpose_4/stack", "op": "Const", "attr": {"dtype": {"type": "DT_INT32"}, "value": {"tensor": {"dtype": "DT_INT32", "tensorShape": {"dim": [{"size": "4"}]}}}}}, {"name": "StatefulPartitionedCall/model/generate_stereo_layer/DEC/conv2d_transpose_4/conv2d_transpose/Cast", "op": "Const", "attr": {"value": {"tensor": {"dtype": "DT_HALF", "tensorShape": {"dim": [{"size": "1"}, {"size": "4"}, {"size": "768"}, {"size": "512"}]}}}, "dtype": {"type": "DT_HALF"}}}, {"name": "StatefulPartitionedCall/model/generate_stereo_layer/DEC/conv2d_transpose_4/BiasAdd/Cast", "op": "Const", "attr": {"dtype": {"type": "DT_HALF"}, "value": {"tensor": {"dtype": "DT_HALF", "tensorShape": {"dim": [{"size": "768"}]}}}}}, {"name": "StatefulPartitionedCall/model/generate_stereo_layer/DEC/add_noise_9/Cast", "op": "Const", "attr": {"value": {"tensor": {"dtype": "DT_HALF", "tensorShape": {"dim": [{"size": "1"}]}}}, "dtype": {"type": "DT_HALF"}}}, {"name": "StatefulPartitionedCall/model/generate_stereo_layer/DEC/add_noise_9/random_normal/shape", "op": "Const", "attr": {"value": {"tensor": {"dtype": "DT_INT32", "tensorShape": {"dim": [{"size": "4"}]}}}, "dtype": {"type": "DT_INT32"}}}, {"name": "StatefulPartitionedCall/model/generate_stereo_layer/DEC/conv2d_transpose_5/BiasAdd/Cast", "op": "Const", "attr": {"value": {"tensor": {"dtype": "DT_HALF", "tensorShape": {"dim": [{"size": "768"}]}}}, "dtype": {"type": "DT_HALF"}}}, {"name": "StatefulPartitionedCall/model/generate_stereo_layer/DEC/add_noise_10/Cast", "op": "Const", "attr": {"value": {"tensor": {"dtype": "DT_HALF", "tensorShape": {"dim": [{"size": "1"}]}}}, "dtype": {"type": "DT_HALF"}}}, {"name": "StatefulPartitionedCall/model/generate_stereo_layer/DEC/add_noise_10/random_normal/shape", "op": "Const", "attr": {"value": {"tensor": {"dtype": "DT_INT32", "tensorShape": {"dim": [{"size": "4"}]}}}, "dtype": {"type": "DT_INT32"}}}, {"name": "StatefulPartitionedCall/model/generate_stereo_layer/DEC/conv2d_transpose_3/stack", "op": "Const", "attr": {"value": {"tensor": {"dtype": "DT_INT32", "tensorShape": {"dim": [{"size": "4"}]}}}, "dtype": {"type": "DT_INT32"}}}, {"name": "StatefulPartitionedCall/model/generate_stereo_layer/DEC/conv2d_transpose_3/conv2d_transpose/Cast", "op": "Const", "attr": {"value": {"tensor": {"dtype": "DT_HALF", "tensorShape": {"dim": [{"size": "1"}, {"size": "4"}, {"size": "768"}, {"size": "768"}]}}}, "dtype": {"type": "DT_HALF"}}}, {"name": "StatefulPartitionedCall/model/generate_stereo_layer/DEC/conv2d_transpose_2/stack", "op": "Const", "attr": {"value": {"tensor": {"dtype": "DT_INT32", "tensorShape": {"dim": [{"size": "4"}]}}}, "dtype": {"type": "DT_INT32"}}}, {"name": "StatefulPartitionedCall/model/generate_stereo_layer/DEC/conv2d_transpose_2/conv2d_transpose/Cast", "op": "Const", "attr": {"value": {"tensor": {"dtype": "DT_HALF", "tensorShape": {"dim": [{"size": "1"}, {"size": "4"}, {"size": "768"}, {"size": "512"}]}}}, "dtype": {"type": "DT_HALF"}}}, {"name": "StatefulPartitionedCall/model/generate_stereo_layer/DEC/conv2d_transpose_1/stack", "op": "Const", "attr": {"value": {"tensor": {"dtype": "DT_INT32", "tensorShape": {"dim": [{"size": "4"}]}}}, "dtype": {"type": "DT_INT32"}}}, {"name": "StatefulPartitionedCall/model/generate_stereo_layer/DEC/conv2d_transpose_1/conv2d_transpose/Cast", "op": "Const", "attr": {"value": {"tensor": {"dtype": "DT_HALF", "tensorShape": {"dim": [{"size": "1"}, {"size": "4"}, {"size": "512"}, {"size": "256"}]}}}, "dtype": {"type": "DT_HALF"}}}, {"name": "StatefulPartitionedCall/model/generate_stereo_layer/DEC/conv2d_9/Conv2D/Cast", "op": "Const", "attr": {"value": {"tensor": {"dtype": "DT_HALF", "tensorShape": {"dim": [{"size": "1"}, {"size": "3"}, {"size": "512"}, {"size": "256"}]}}}, "dtype": {"type": "DT_HALF"}}}, {"name": "StatefulPartitionedCall/model/generate_stereo_layer/DEC/conv2d_9/BiasAdd/Cast", "op": "Const", "attr": {"value": {"tensor": {"dtype": "DT_HALF", "tensorShape": {"dim": [{"size": "256"}]}}}, "dtype": {"type": "DT_HALF"}}}, {"name": "StatefulPartitionedCall/model/generate_stereo_layer/DEC/add_noise_3/Cast", "op": "Const", "attr": {"value": {"tensor": {"dtype": "DT_HALF", "tensorShape": {"dim": [{"size": "1"}]}}}, "dtype": {"type": "DT_HALF"}}}, {"name": "StatefulPartitionedCall/model/generate_stereo_layer/DEC/add_noise_3/random_normal/shape", "op": "Const", "attr": {"value": {"tensor": {"dtype": "DT_INT32", "tensorShape": {"dim": [{"size": "4"}]}}}, "dtype": {"type": "DT_INT32"}}}, {"name": "StatefulPartitionedCall/model/generate_stereo_layer/DEC/conv2d_transpose_1/BiasAdd/Cast", "op": "Const", "attr": {"dtype": {"type": "DT_HALF"}, "value": {"tensor": {"dtype": "DT_HALF", "tensorShape": {"dim": [{"size": "512"}]}}}}}, {"name": "StatefulPartitionedCall/model/generate_stereo_layer/DEC/add_noise_6/Cast", "op": "Const", "attr": {"dtype": {"type": "DT_HALF"}, "value": {"tensor": {"dtype": "DT_HALF", "tensorShape": {"dim": [{"size": "1"}]}}}}}, {"name": "StatefulPartitionedCall/model/generate_stereo_layer/DEC/add_noise_6/random_normal/shape", "op": "Const", "attr": {"value": {"tensor": {"dtype": "DT_INT32", "tensorShape": {"dim": [{"size": "4"}]}}}, "dtype": {"type": "DT_INT32"}}}, {"name": "StatefulPartitionedCall/model/generate_stereo_layer/DEC/conv2d_8/Conv2D/Cast", "op": "Const", "attr": {"dtype": {"type": "DT_HALF"}, "value": {"tensor": {"dtype": "DT_HALF", "tensorShape": {"dim": [{"size": "1"}, {"size": "3"}, {"size": "768"}, {"size": "512"}]}}}}}, {"name": "StatefulPartitionedCall/model/generate_stereo_layer/DEC/conv2d_8/BiasAdd/Cast", "op": "Const", "attr": {"value": {"tensor": {"dtype": "DT_HALF", "tensorShape": {"dim": [{"size": "512"}]}}}, "dtype": {"type": "DT_HALF"}}}, {"name": "StatefulPartitionedCall/model/generate_stereo_layer/DEC/add_noise_2/Cast", "op": "Const", "attr": {"dtype": {"type": "DT_HALF"}, "value": {"tensor": {"dtype": "DT_HALF", "tensorShape": {"dim": [{"size": "1"}]}}}}}, {"name": "StatefulPartitionedCall/model/generate_stereo_layer/DEC/add_noise_2/random_normal/shape", "op": "Const", "attr": {"dtype": {"type": "DT_INT32"}, "value": {"tensor": {"dtype": "DT_INT32", "tensorShape": {"dim": [{"size": "4"}]}}}}}, {"name": "StatefulPartitionedCall/model/generate_stereo_layer/DEC/conv2d_transpose_2/BiasAdd/Cast", "op": "Const", "attr": {"dtype": {"type": "DT_HALF"}, "value": {"tensor": {"dtype": "DT_HALF", "tensorShape": {"dim": [{"size": "768"}]}}}}}, {"name": "StatefulPartitionedCall/model/generate_stereo_layer/DEC/add_noise_7/Cast", "op": "Const", "attr": {"dtype": {"type": "DT_HALF"}, "value": {"tensor": {"dtype": "DT_HALF", "tensorShape": {"dim": [{"size": "1"}]}}}}}, {"name": "StatefulPartitionedCall/model/generate_stereo_layer/DEC/add_noise_7/random_normal/shape", "op": "Const", "attr": {"value": {"tensor": {"dtype": "DT_INT32", "tensorShape": {"dim": [{"size": "4"}]}}}, "dtype": {"type": "DT_INT32"}}}, {"name": "StatefulPartitionedCall/model/generate_stereo_layer/split_3/split_dim", "op": "Const", "attr": {"dtype": {"type": "DT_INT32"}, "value": {"tensor": {"dtype": "DT_INT32", "tensorShape": {}}}}}, {"name": "StatefulPartitionedCall/model/generate_stereo_layer/DEC2/tf.split_8/split/split_dim", "op": "Const", "attr": {"value": {"tensor": {"dtype": "DT_INT32", "tensorShape": {}}}, "dtype": {"type": "DT_INT32"}}}, {"name": "StatefulPartitionedCall/model/generate_stereo_layer/DEC2/conv2d_transpose_9/stack", "op": "Const", "attr": {"dtype": {"type": "DT_INT32"}, "value": {"tensor": {"dtype": "DT_INT32", "tensorShape": {"dim": [{"size": "4"}]}}}}}, {"name": "StatefulPartitionedCall/model/generate_stereo_layer/DEC2/conv2d_transpose_9/conv2d_transpose/Cast", "op": "Const", "attr": {"dtype": {"type": "DT_HALF"}, "value": {"tensor": {"dtype": "DT_HALF", "tensorShape": {"dim": [{"size": "1"}, {"size": "4"}, {"size": "256"}, {"size": "384"}]}}}}}, {"name": "StatefulPartitionedCall/model/generate_stereo_layer/DEC2/conv2d_transpose_8/stack", "op": "Const", "attr": {"value": {"tensor": {"dtype": "DT_INT32", "tensorShape": {"dim": [{"size": "4"}]}}}, "dtype": {"type": "DT_INT32"}}}, {"name": "StatefulPartitionedCall/model/generate_stereo_layer/DEC2/conv2d_transpose_8/conv2d_transpose/Cast", "op": "Const", "attr": {"value": {"tensor": {"dtype": "DT_HALF", "tensorShape": {"dim": [{"size": "1"}, {"size": "4"}, {"size": "384"}, {"size": "512"}]}}}, "dtype": {"type": "DT_HALF"}}}, {"name": "StatefulPartitionedCall/model/generate_stereo_layer/DEC2/conv2d_transpose_7/stack", "op": "Const", "attr": {"value": {"tensor": {"dtype": "DT_INT32", "tensorShape": {"dim": [{"size": "4"}]}}}, "dtype": {"type": "DT_INT32"}}}, {"name": "StatefulPartitionedCall/model/generate_stereo_layer/DEC2/conv2d_transpose_7/conv2d_transpose/Cast", "op": "Const", "attr": {"dtype": {"type": "DT_HALF"}, "value": {"tensor": {"dtype": "DT_HALF", "tensorShape": {"dim": [{"size": "1"}, {"size": "4"}, {"size": "512"}, {"size": "640"}]}}}}}, {"name": "StatefulPartitionedCall/model/generate_stereo_layer/DEC2/conv2d_transpose_6/stack", "op": "Const", "attr": {"value": {"tensor": {"dtype": "DT_INT32", "tensorShape": {"dim": [{"size": "4"}]}}}, "dtype": {"type": "DT_INT32"}}}, {"name": "StatefulPartitionedCall/model/generate_stereo_layer/DEC2/conv2d_transpose_6/conv2d_transpose/Cast", "op": "Const", "attr": {"value": {"tensor": {"dtype": "DT_HALF", "tensorShape": {"dim": [{"size": "1"}, {"size": "4"}, {"size": "640"}, {"size": "768"}]}}}, "dtype": {"type": "DT_HALF"}}}, {"name": "StatefulPartitionedCall/model/generate_stereo_layer/split_1/split_dim", "op": "Const", "attr": {"dtype": {"type": "DT_INT32"}, "value": {"tensor": {"dtype": "DT_INT32", "tensorShape": {}}}}}, {"name": "StatefulPartitionedCall/model/generate_stereo_layer/strided_slice_3/stack", "op": "Const", "attr": {"value": {"tensor": {"dtype": "DT_INT32", "tensorShape": {"dim": [{"size": "4"}]}}}, "dtype": {"type": "DT_INT32"}}}, {"name": "StatefulPartitionedCall/model/generate_stereo_layer/strided_slice_3/stack_1", "op": "Const", "attr": {"value": {"tensor": {"dtype": "DT_INT32", "tensorShape": {"dim": [{"size": "4"}]}}}, "dtype": {"type": "DT_INT32"}}}, {"name": "StatefulPartitionedCall/model/generate_stereo_layer/strided_slice_3/stack_2", "op": "Const", "attr": {"value": {"tensor": {"dtype": "DT_INT32", "tensorShape": {"dim": [{"size": "4"}]}}}, "dtype": {"type": "DT_INT32"}}}, {"name": "StatefulPartitionedCall/model/generate_stereo_layer/concat_5/axis", "op": "Const", "attr": {"dtype": {"type": "DT_INT32"}, "value": {"tensor": {"dtype": "DT_INT32", "tensorShape": {}}}}}, {"name": "StatefulPartitionedCall/model/generate_stereo_layer/DEC2/conv2d_20/Conv2D/Cast", "op": "Const", "attr": {"value": {"tensor": {"dtype": "DT_HALF", "tensorShape": {"dim": [{"size": "1"}, {"size": "3"}, {"size": "64"}, {"size": "768"}]}}}, "dtype": {"type": "DT_HALF"}}}, {"name": "StatefulPartitionedCall/model/generate_stereo_layer/DEC2/conv2d_20/BiasAdd/Cast", "op": "Const", "attr": {"value": {"tensor": {"dtype": "DT_HALF", "tensorShape": {"dim": [{"size": "768"}]}}}, "dtype": {"type": "DT_HALF"}}}, {"name": "StatefulPartitionedCall/model/generate_stereo_layer/DEC2/add_noise_11/Cast", "op": "Const", "attr": {"value": {"tensor": {"dtype": "DT_HALF", "tensorShape": {"dim": [{"size": "1"}]}}}, "dtype": {"type": "DT_HALF"}}}, {"name": "StatefulPartitionedCall/model/generate_stereo_layer/DEC2/add_noise_11/random_normal/shape", "op": "Const", "attr": {"value": {"tensor": {"dtype": "DT_INT32", "tensorShape": {"dim": [{"size": "4"}]}}}, "dtype": {"type": "DT_INT32"}}}, {"name": "StatefulPartitionedCall/model/generate_stereo_layer/DEC2/conv2d_transpose_6/BiasAdd/Cast", "op": "Const", "attr": {"value": {"tensor": {"dtype": "DT_HALF", "tensorShape": {"dim": [{"size": "640"}]}}}, "dtype": {"type": "DT_HALF"}}}, {"name": "StatefulPartitionedCall/model/generate_stereo_layer/DEC2/add_noise_12/Cast", "op": "Const", "attr": {"dtype": {"type": "DT_HALF"}, "value": {"tensor": {"dtype": "DT_HALF", "tensorShape": {"dim": [{"size": "1"}]}}}}}, {"name": "StatefulPartitionedCall/model/generate_stereo_layer/DEC2/add_noise_12/random_normal/shape", "op": "Const", "attr": {"value": {"tensor": {"dtype": "DT_INT32", "tensorShape": {"dim": [{"size": "4"}]}}}, "dtype": {"type": "DT_INT32"}}}, {"name": "StatefulPartitionedCall/model/generate_stereo_layer/DEC2/conv2d_21/Conv2D/Cast", "op": "Const", "attr": {"value": {"tensor": {"dtype": "DT_HALF", "tensorShape": {"dim": [{"size": "1"}, {"size": "3"}, {"size": "640"}, {"size": "640"}]}}}, "dtype": {"type": "DT_HALF"}}}, {"name": "StatefulPartitionedCall/model/generate_stereo_layer/DEC2/conv2d_21/BiasAdd/Cast", "op": "Const", "attr": {"dtype": {"type": "DT_HALF"}, "value": {"tensor": {"dtype": "DT_HALF", "tensorShape": {"dim": [{"size": "640"}]}}}}}, {"name": "StatefulPartitionedCall/model/generate_stereo_layer/DEC2/add_noise_13/Cast", "op": "Const", "attr": {"value": {"tensor": {"dtype": "DT_HALF", "tensorShape": {"dim": [{"size": "1"}]}}}, "dtype": {"type": "DT_HALF"}}}, {"name": "StatefulPartitionedCall/model/generate_stereo_layer/DEC2/add_noise_13/random_normal/shape", "op": "Const", "attr": {"value": {"tensor": {"dtype": "DT_INT32", "tensorShape": {"dim": [{"size": "4"}]}}}, "dtype": {"type": "DT_INT32"}}}, {"name": "StatefulPartitionedCall/model/generate_stereo_layer/DEC2/conv2d_transpose_7/BiasAdd/Cast", "op": "Const", "attr": {"value": {"tensor": {"dtype": "DT_HALF", "tensorShape": {"dim": [{"size": "512"}]}}}, "dtype": {"type": "DT_HALF"}}}, {"name": "StatefulPartitionedCall/model/generate_stereo_layer/DEC2/add_noise_14/Cast", "op": "Const", "attr": {"dtype": {"type": "DT_HALF"}, "value": {"tensor": {"dtype": "DT_HALF", "tensorShape": {"dim": [{"size": "1"}]}}}}}, {"name": "StatefulPartitionedCall/model/generate_stereo_layer/DEC2/add_noise_14/random_normal/shape", "op": "Const", "attr": {"value": {"tensor": {"dtype": "DT_INT32", "tensorShape": {"dim": [{"size": "4"}]}}}, "dtype": {"type": "DT_INT32"}}}, {"name": "StatefulPartitionedCall/model/generate_stereo_layer/DEC2/conv2d_22/Conv2D/Cast", "op": "Const", "attr": {"dtype": {"type": "DT_HALF"}, "value": {"tensor": {"dtype": "DT_HALF", "tensorShape": {"dim": [{"size": "1"}, {"size": "3"}, {"size": "512"}, {"size": "512"}]}}}}}, {"name": "StatefulPartitionedCall/model/generate_stereo_layer/DEC2/conv2d_22/BiasAdd/Cast", "op": "Const", "attr": {"value": {"tensor": {"dtype": "DT_HALF", "tensorShape": {"dim": [{"size": "512"}]}}}, "dtype": {"type": "DT_HALF"}}}, {"name": "StatefulPartitionedCall/model/generate_stereo_layer/DEC2/add_noise_15/Cast", "op": "Const", "attr": {"value": {"tensor": {"dtype": "DT_HALF", "tensorShape": {"dim": [{"size": "1"}]}}}, "dtype": {"type": "DT_HALF"}}}, {"name": "StatefulPartitionedCall/model/generate_stereo_layer/DEC2/add_noise_15/random_normal/shape", "op": "Const", "attr": {"dtype": {"type": "DT_INT32"}, "value": {"tensor": {"dtype": "DT_INT32", "tensorShape": {"dim": [{"size": "4"}]}}}}}, {"name": "StatefulPartitionedCall/model/generate_stereo_layer/DEC2/conv2d_transpose_8/BiasAdd/Cast", "op": "Const", "attr": {"dtype": {"type": "DT_HALF"}, "value": {"tensor": {"dtype": "DT_HALF", "tensorShape": {"dim": [{"size": "384"}]}}}}}, {"name": "StatefulPartitionedCall/model/generate_stereo_layer/DEC2/add_noise_16/Cast", "op": "Const", "attr": {"dtype": {"type": "DT_HALF"}, "value": {"tensor": {"dtype": "DT_HALF", "tensorShape": {"dim": [{"size": "1"}]}}}}}, {"name": "StatefulPartitionedCall/model/generate_stereo_layer/DEC2/add_noise_16/random_normal/shape", "op": "Const", "attr": {"dtype": {"type": "DT_INT32"}, "value": {"tensor": {"dtype": "DT_INT32", "tensorShape": {"dim": [{"size": "4"}]}}}}}, {"name": "StatefulPartitionedCall/model/generate_stereo_layer/DEC2/conv2d_transpose_9/BiasAdd/Cast", "op": "Const", "attr": {"dtype": {"type": "DT_HALF"}, "value": {"tensor": {"dtype": "DT_HALF", "tensorShape": {"dim": [{"size": "256"}]}}}}}, {"name": "StatefulPartitionedCall/model/generate_stereo_layer/DEC2/add_noise_17/Cast", "op": "Const", "attr": {"dtype": {"type": "DT_HALF"}, "value": {"tensor": {"dtype": "DT_HALF", "tensorShape": {"dim": [{"size": "1"}]}}}}}, {"name": "StatefulPartitionedCall/model/generate_stereo_layer/DEC2/add_noise_17/random_normal/shape", "op": "Const", "attr": {"value": {"tensor": {"dtype": "DT_INT32", "tensorShape": {"dim": [{"size": "4"}]}}}, "dtype": {"type": "DT_INT32"}}}, {"name": "StatefulPartitionedCall/model/generate_stereo_layer/DEC2/cout/Conv2D/Cast", "op": "Const", "attr": {"value": {"tensor": {"dtype": "DT_HALF", "tensorShape": {"dim": [{"size": "1"}, {"size": "1"}, {"size": "256"}, {"size": "64"}]}}}, "dtype": {"type": "DT_HALF"}}}, {"name": "StatefulPartitionedCall/model/generate_stereo_layer/DEC2/cout/BiasAdd/Cast", "op": "Const", "attr": {"dtype": {"type": "DT_HALF"}, "value": {"tensor": {"dtype": "DT_HALF", "tensorShape": {"dim": [{"size": "64"}]}}}}}, {"name": "StatefulPartitionedCall/model/generate_stereo_layer/DEC2/tf.concat_8/concat/axis", "op": "Const", "attr": {"dtype": {"type": "DT_INT32"}, "value": {"tensor": {"dtype": "DT_INT32", "tensorShape": {}}}}}, {"name": "StatefulPartitionedCall/model/generate_stereo_layer/concat_8/axis", "op": "Const", "attr": {"value": {"tensor": {"dtype": "DT_INT32", "tensorShape": {}}}, "dtype": {"type": "DT_INT32"}}}, {"name": "StatefulPartitionedCall/model/generate_stereo_layer/DEC/conv2d_6/Conv2D/Cast", "op": "Const", "attr": {"value": {"tensor": {"dtype": "DT_HALF", "tensorShape": {"dim": [{"size": "1"}, {"size": "3"}, {"size": "64"}, {"size": "768"}]}}}, "dtype": {"type": "DT_HALF"}}}, {"name": "StatefulPartitionedCall/model/generate_stereo_layer/DEC/conv2d_6/BiasAdd/Cast", "op": "Const", "attr": {"dtype": {"type": "DT_HALF"}, "value": {"tensor": {"dtype": "DT_HALF", "tensorShape": {"dim": [{"size": "768"}]}}}}}, {"name": "StatefulPartitionedCall/model/generate_stereo_layer/DEC/add_noise/Cast", "op": "Const", "attr": {"dtype": {"type": "DT_HALF"}, "value": {"tensor": {"dtype": "DT_HALF", "tensorShape": {"dim": [{"size": "1"}]}}}}}, {"name": "StatefulPartitionedCall/model/generate_stereo_layer/DEC/add_noise/random_normal/shape", "op": "Const", "attr": {"dtype": {"type": "DT_INT32"}, "value": {"tensor": {"dtype": "DT_INT32", "tensorShape": {"dim": [{"size": "4"}]}}}}}, {"name": "StatefulPartitionedCall/model/generate_stereo_layer/DEC/conv2d_7/Conv2D/Cast", "op": "Const", "attr": {"value": {"tensor": {"dtype": "DT_HALF", "tensorShape": {"dim": [{"size": "1"}, {"size": "3"}, {"size": "768"}, {"size": "768"}]}}}, "dtype": {"type": "DT_HALF"}}}, {"name": "StatefulPartitionedCall/model/generate_stereo_layer/DEC/conv2d_7/BiasAdd/Cast", "op": "Const", "attr": {"dtype": {"type": "DT_HALF"}, "value": {"tensor": {"dtype": "DT_HALF", "tensorShape": {"dim": [{"size": "768"}]}}}}}, {"name": "StatefulPartitionedCall/model/generate_stereo_layer/DEC/add_noise_1/Cast", "op": "Const", "attr": {"dtype": {"type": "DT_HALF"}, "value": {"tensor": {"dtype": "DT_HALF", "tensorShape": {"dim": [{"size": "1"}]}}}}}, {"name": "StatefulPartitionedCall/model/generate_stereo_layer/DEC/add_noise_1/random_normal/shape", "op": "Const", "attr": {"dtype": {"type": "DT_INT32"}, "value": {"tensor": {"dtype": "DT_INT32", "tensorShape": {"dim": [{"size": "4"}]}}}}}, {"name": "StatefulPartitionedCall/model/generate_stereo_layer/DEC/conv2d_transpose_3/BiasAdd/Cast", "op": "Const", "attr": {"value": {"tensor": {"dtype": "DT_HALF", "tensorShape": {"dim": [{"size": "768"}]}}}, "dtype": {"type": "DT_HALF"}}}, {"name": "StatefulPartitionedCall/model/generate_stereo_layer/DEC/add_noise_8/Cast", "op": "Const", "attr": {"dtype": {"type": "DT_HALF"}, "value": {"tensor": {"dtype": "DT_HALF", "tensorShape": {"dim": [{"size": "1"}]}}}}}, {"name": "StatefulPartitionedCall/model/generate_stereo_layer/DEC/add_noise_8/random_normal/shape", "op": "Const", "attr": {"value": {"tensor": {"dtype": "DT_INT32", "tensorShape": {"dim": [{"size": "4"}]}}}, "dtype": {"type": "DT_INT32"}}}, {"name": "StatefulPartitionedCall/model/generate_stereo_layer/DEC/conv2d_12/Conv2D/Cast", "op": "Const", "attr": {"value": {"tensor": {"dtype": "DT_HALF", "tensorShape": {"dim": [{"size": "1"}, {"size": "1"}, {"size": "768"}, {"size": "513"}]}}}, "dtype": {"type": "DT_HALF"}}}, {"name": "StatefulPartitionedCall/model/generate_stereo_layer/DEC/conv2d_12/BiasAdd/Cast", "op": "Const", "attr": {"value": {"tensor": {"dtype": "DT_HALF", "tensorShape": {"dim": [{"size": "513"}]}}}, "dtype": {"type": "DT_HALF"}}}, {"name": "StatefulPartitionedCall/model/generate_stereo_layer/DEC/tf.clip_by_value_1/clip_by_value/Minimum/y", "op": "Const", "attr": {"value": {"tensor": {"dtype": "DT_HALF", "tensorShape": {}}}, "dtype": {"type": "DT_HALF"}}}, {"name": "StatefulPartitionedCall/model/generate_stereo_layer/DEC/tf.clip_by_value_1/clip_by_value/y", "op": "Const", "attr": {"value": {"tensor": {"dtype": "DT_HALF", "tensorShape": {}}}, "dtype": {"type": "DT_HALF"}}}, {"name": "StatefulPartitionedCall/model/generate_stereo_layer/DEC/tf.concat_4/concat/axis", "op": "Const", "attr": {"value": {"tensor": {"dtype": "DT_INT32", "tensorShape": {}}}, "dtype": {"type": "DT_INT32"}}}, {"name": "StatefulPartitionedCall/model/generate_stereo_layer/DEC/tf.compat.v1.transpose_6/transpose/perm", "op": "Const", "attr": {"dtype": {"type": "DT_INT32"}, "value": {"tensor": {"dtype": "DT_INT32", "tensorShape": {"dim": [{"size": "4"}]}}}}}, {"name": "StatefulPartitionedCall/model/generate_stereo_layer/mul_3/y", "op": "Const", "attr": {"value": {"tensor": {"dtype": "DT_FLOAT", "tensorShape": {}}}, "dtype": {"type": "DT_FLOAT"}}}, {"name": "StatefulPartitionedCall/model/generate_stereo_layer/concat_12/axis", "op": "Const", "attr": {"value": {"tensor": {"dtype": "DT_INT32", "tensorShape": {}}}, "dtype": {"type": "DT_INT32"}}}, {"name": "StatefulPartitionedCall/model/generate_stereo_layer/split_10/split_dim", "op": "Const", "attr": {"dtype": {"type": "DT_INT32"}, "value": {"tensor": {"dtype": "DT_INT32", "tensorShape": {}}}}}, {"name": "StatefulPartitionedCall/model/generate_stereo_layer/DEC/tf.split_4/split_1/split_dim", "op": "Const", "attr": {"dtype": {"type": "DT_INT32"}, "value": {"tensor": {"dtype": "DT_INT32", "tensorShape": {}}}}}, {"name": "StatefulPartitionedCall/model/generate_stereo_layer/DEC/conv2d_transpose_5/stack_1", "op": "Const", "attr": {"value": {"tensor": {"dtype": "DT_INT32", "tensorShape": {"dim": [{"size": "4"}]}}}, "dtype": {"type": "DT_INT32"}}}, {"name": "StatefulPartitionedCall/model/generate_stereo_layer/DEC/conv2d_transpose_5/conv2d_transpose_1/Cast", "op": "Const", "attr": {"dtype": {"type": "DT_HALF"}, "value": {"tensor": {"dtype": "DT_HALF", "tensorShape": {"dim": [{"size": "1"}, {"size": "4"}, {"size": "768"}, {"size": "768"}]}}}}}, {"name": "StatefulPartitionedCall/model/generate_stereo_layer/DEC/conv2d_transpose_4/stack_1", "op": "Const", "attr": {"dtype": {"type": "DT_INT32"}, "value": {"tensor": {"dtype": "DT_INT32", "tensorShape": {"dim": [{"size": "4"}]}}}}}, {"name": "StatefulPartitionedCall/model/generate_stereo_layer/DEC/conv2d_transpose_4/conv2d_transpose_1/Cast", "op": "Const", "attr": {"dtype": {"type": "DT_HALF"}, "value": {"tensor": {"dtype": "DT_HALF", "tensorShape": {"dim": [{"size": "1"}, {"size": "4"}, {"size": "768"}, {"size": "512"}]}}}}}, {"name": "StatefulPartitionedCall/model/generate_stereo_layer/DEC/conv2d_transpose_4/BiasAdd_1/Cast", "op": "Const", "attr": {"dtype": {"type": "DT_HALF"}, "value": {"tensor": {"dtype": "DT_HALF", "tensorShape": {"dim": [{"size": "768"}]}}}}}, {"name": "StatefulPartitionedCall/model/generate_stereo_layer/DEC/add_noise_9/Cast_1", "op": "Const", "attr": {"dtype": {"type": "DT_HALF"}, "value": {"tensor": {"dtype": "DT_HALF", "tensorShape": {"dim": [{"size": "1"}]}}}}}, {"name": "StatefulPartitionedCall/model/generate_stereo_layer/DEC/add_noise_9/random_normal_1/shape", "op": "Const", "attr": {"dtype": {"type": "DT_INT32"}, "value": {"tensor": {"dtype": "DT_INT32", "tensorShape": {"dim": [{"size": "4"}]}}}}}, {"name": "StatefulPartitionedCall/model/generate_stereo_layer/DEC/conv2d_transpose_5/BiasAdd_1/Cast", "op": "Const", "attr": {"dtype": {"type": "DT_HALF"}, "value": {"tensor": {"dtype": "DT_HALF", "tensorShape": {"dim": [{"size": "768"}]}}}}}, {"name": "StatefulPartitionedCall/model/generate_stereo_layer/DEC/add_noise_10/Cast_1", "op": "Const", "attr": {"dtype": {"type": "DT_HALF"}, "value": {"tensor": {"dtype": "DT_HALF", "tensorShape": {"dim": [{"size": "1"}]}}}}}, {"name": "StatefulPartitionedCall/model/generate_stereo_layer/DEC/add_noise_10/random_normal_1/shape", "op": "Const", "attr": {"dtype": {"type": "DT_INT32"}, "value": {"tensor": {"dtype": "DT_INT32", "tensorShape": {"dim": [{"size": "4"}]}}}}}, {"name": "StatefulPartitionedCall/model/generate_stereo_layer/DEC/conv2d_transpose_3/stack_1", "op": "Const", "attr": {"dtype": {"type": "DT_INT32"}, "value": {"tensor": {"dtype": "DT_INT32", "tensorShape": {"dim": [{"size": "4"}]}}}}}, {"name": "StatefulPartitionedCall/model/generate_stereo_layer/DEC/conv2d_transpose_3/conv2d_transpose_1/Cast", "op": "Const", "attr": {"dtype": {"type": "DT_HALF"}, "value": {"tensor": {"dtype": "DT_HALF", "tensorShape": {"dim": [{"size": "1"}, {"size": "4"}, {"size": "768"}, {"size": "768"}]}}}}}, {"name": "StatefulPartitionedCall/model/generate_stereo_layer/DEC/conv2d_transpose_2/stack_1", "op": "Const", "attr": {"value": {"tensor": {"dtype": "DT_INT32", "tensorShape": {"dim": [{"size": "4"}]}}}, "dtype": {"type": "DT_INT32"}}}, {"name": "StatefulPartitionedCall/model/generate_stereo_layer/DEC/conv2d_transpose_2/conv2d_transpose_1/Cast", "op": "Const", "attr": {"dtype": {"type": "DT_HALF"}, "value": {"tensor": {"dtype": "DT_HALF", "tensorShape": {"dim": [{"size": "1"}, {"size": "4"}, {"size": "768"}, {"size": "512"}]}}}}}, {"name": "StatefulPartitionedCall/model/generate_stereo_layer/DEC/conv2d_transpose_1/stack_1", "op": "Const", "attr": {"value": {"tensor": {"dtype": "DT_INT32", "tensorShape": {"dim": [{"size": "4"}]}}}, "dtype": {"type": "DT_INT32"}}}, {"name": "StatefulPartitionedCall/model/generate_stereo_layer/DEC/conv2d_transpose_1/conv2d_transpose_1/Cast", "op": "Const", "attr": {"value": {"tensor": {"dtype": "DT_HALF", "tensorShape": {"dim": [{"size": "1"}, {"size": "4"}, {"size": "512"}, {"size": "256"}]}}}, "dtype": {"type": "DT_HALF"}}}, {"name": "StatefulPartitionedCall/model/generate_stereo_layer/DEC/conv2d_9/Conv2D_1/Cast", "op": "Const", "attr": {"dtype": {"type": "DT_HALF"}, "value": {"tensor": {"dtype": "DT_HALF", "tensorShape": {"dim": [{"size": "1"}, {"size": "3"}, {"size": "512"}, {"size": "256"}]}}}}}, {"name": "StatefulPartitionedCall/model/generate_stereo_layer/DEC/conv2d_9/BiasAdd_1/Cast", "op": "Const", "attr": {"dtype": {"type": "DT_HALF"}, "value": {"tensor": {"dtype": "DT_HALF", "tensorShape": {"dim": [{"size": "256"}]}}}}}, {"name": "StatefulPartitionedCall/model/generate_stereo_layer/DEC/add_noise_3/Cast_1", "op": "Const", "attr": {"value": {"tensor": {"dtype": "DT_HALF", "tensorShape": {"dim": [{"size": "1"}]}}}, "dtype": {"type": "DT_HALF"}}}, {"name": "StatefulPartitionedCall/model/generate_stereo_layer/DEC/add_noise_3/random_normal_1/shape", "op": "Const", "attr": {"value": {"tensor": {"dtype": "DT_INT32", "tensorShape": {"dim": [{"size": "4"}]}}}, "dtype": {"type": "DT_INT32"}}}, {"name": "StatefulPartitionedCall/model/generate_stereo_layer/DEC/conv2d_transpose_1/BiasAdd_1/Cast", "op": "Const", "attr": {"dtype": {"type": "DT_HALF"}, "value": {"tensor": {"dtype": "DT_HALF", "tensorShape": {"dim": [{"size": "512"}]}}}}}, {"name": "StatefulPartitionedCall/model/generate_stereo_layer/DEC/add_noise_6/Cast_1", "op": "Const", "attr": {"value": {"tensor": {"dtype": "DT_HALF", "tensorShape": {"dim": [{"size": "1"}]}}}, "dtype": {"type": "DT_HALF"}}}, {"name": "StatefulPartitionedCall/model/generate_stereo_layer/DEC/add_noise_6/random_normal_1/shape", "op": "Const", "attr": {"value": {"tensor": {"dtype": "DT_INT32", "tensorShape": {"dim": [{"size": "4"}]}}}, "dtype": {"type": "DT_INT32"}}}, {"name": "StatefulPartitionedCall/model/generate_stereo_layer/DEC/conv2d_8/Conv2D_1/Cast", "op": "Const", "attr": {"dtype": {"type": "DT_HALF"}, "value": {"tensor": {"dtype": "DT_HALF", "tensorShape": {"dim": [{"size": "1"}, {"size": "3"}, {"size": "768"}, {"size": "512"}]}}}}}, {"name": "StatefulPartitionedCall/model/generate_stereo_layer/DEC/conv2d_8/BiasAdd_1/Cast", "op": "Const", "attr": {"dtype": {"type": "DT_HALF"}, "value": {"tensor": {"dtype": "DT_HALF", "tensorShape": {"dim": [{"size": "512"}]}}}}}, {"name": "StatefulPartitionedCall/model/generate_stereo_layer/DEC/add_noise_2/Cast_1", "op": "Const", "attr": {"dtype": {"type": "DT_HALF"}, "value": {"tensor": {"dtype": "DT_HALF", "tensorShape": {"dim": [{"size": "1"}]}}}}}, {"name": "StatefulPartitionedCall/model/generate_stereo_layer/DEC/add_noise_2/random_normal_1/shape", "op": "Const", "attr": {"value": {"tensor": {"dtype": "DT_INT32", "tensorShape": {"dim": [{"size": "4"}]}}}, "dtype": {"type": "DT_INT32"}}}, {"name": "StatefulPartitionedCall/model/generate_stereo_layer/DEC/conv2d_transpose_2/BiasAdd_1/Cast", "op": "Const", "attr": {"dtype": {"type": "DT_HALF"}, "value": {"tensor": {"dtype": "DT_HALF", "tensorShape": {"dim": [{"size": "768"}]}}}}}, {"name": "StatefulPartitionedCall/model/generate_stereo_layer/DEC/add_noise_7/Cast_1", "op": "Const", "attr": {"value": {"tensor": {"dtype": "DT_HALF", "tensorShape": {"dim": [{"size": "1"}]}}}, "dtype": {"type": "DT_HALF"}}}, {"name": "StatefulPartitionedCall/model/generate_stereo_layer/DEC/add_noise_7/random_normal_1/shape", "op": "Const", "attr": {"value": {"tensor": {"dtype": "DT_INT32", "tensorShape": {"dim": [{"size": "4"}]}}}, "dtype": {"type": "DT_INT32"}}}, {"name": "StatefulPartitionedCall/model/generate_stereo_layer/split_8/split_dim", "op": "Const", "attr": {"value": {"tensor": {"dtype": "DT_INT32", "tensorShape": {}}}, "dtype": {"type": "DT_INT32"}}}, {"name": "StatefulPartitionedCall/model/generate_stereo_layer/DEC2/tf.split_8/split_1/split_dim", "op": "Const", "attr": {"value": {"tensor": {"dtype": "DT_INT32", "tensorShape": {}}}, "dtype": {"type": "DT_INT32"}}}, {"name": "StatefulPartitionedCall/model/generate_stereo_layer/DEC2/conv2d_transpose_9/stack_1", "op": "Const", "attr": {"value": {"tensor": {"dtype": "DT_INT32", "tensorShape": {"dim": [{"size": "4"}]}}}, "dtype": {"type": "DT_INT32"}}}, {"name": "StatefulPartitionedCall/model/generate_stereo_layer/DEC2/conv2d_transpose_9/conv2d_transpose_1/Cast", "op": "Const", "attr": {"value": {"tensor": {"dtype": "DT_HALF", "tensorShape": {"dim": [{"size": "1"}, {"size": "4"}, {"size": "256"}, {"size": "384"}]}}}, "dtype": {"type": "DT_HALF"}}}, {"name": "StatefulPartitionedCall/model/generate_stereo_layer/DEC2/conv2d_transpose_8/stack_1", "op": "Const", "attr": {"value": {"tensor": {"dtype": "DT_INT32", "tensorShape": {"dim": [{"size": "4"}]}}}, "dtype": {"type": "DT_INT32"}}}, {"name": "StatefulPartitionedCall/model/generate_stereo_layer/DEC2/conv2d_transpose_8/conv2d_transpose_1/Cast", "op": "Const", "attr": {"dtype": {"type": "DT_HALF"}, "value": {"tensor": {"dtype": "DT_HALF", "tensorShape": {"dim": [{"size": "1"}, {"size": "4"}, {"size": "384"}, {"size": "512"}]}}}}}, {"name": "StatefulPartitionedCall/model/generate_stereo_layer/DEC2/conv2d_transpose_7/stack_1", "op": "Const", "attr": {"value": {"tensor": {"dtype": "DT_INT32", "tensorShape": {"dim": [{"size": "4"}]}}}, "dtype": {"type": "DT_INT32"}}}, {"name": "StatefulPartitionedCall/model/generate_stereo_layer/DEC2/conv2d_transpose_7/conv2d_transpose_1/Cast", "op": "Const", "attr": {"dtype": {"type": "DT_HALF"}, "value": {"tensor": {"dtype": "DT_HALF", "tensorShape": {"dim": [{"size": "1"}, {"size": "4"}, {"size": "512"}, {"size": "640"}]}}}}}, {"name": "StatefulPartitionedCall/model/generate_stereo_layer/DEC2/conv2d_transpose_6/stack_1", "op": "Const", "attr": {"value": {"tensor": {"dtype": "DT_INT32", "tensorShape": {"dim": [{"size": "4"}]}}}, "dtype": {"type": "DT_INT32"}}}, {"name": "StatefulPartitionedCall/model/generate_stereo_layer/DEC2/conv2d_transpose_6/conv2d_transpose_1/Cast", "op": "Const", "attr": {"value": {"tensor": {"dtype": "DT_HALF", "tensorShape": {"dim": [{"size": "1"}, {"size": "4"}, {"size": "640"}, {"size": "768"}]}}}, "dtype": {"type": "DT_HALF"}}}, {"name": "StatefulPartitionedCall/model/generate_stereo_layer/split_6/split_dim", "op": "Const", "attr": {"dtype": {"type": "DT_INT32"}, "value": {"tensor": {"dtype": "DT_INT32", "tensorShape": {}}}}}, {"name": "StatefulPartitionedCall/model/generate_stereo_layer/split/split_dim", "op": "Const", "attr": {"value": {"tensor": {"dtype": "DT_INT32", "tensorShape": {}}}, "dtype": {"type": "DT_INT32"}}}, {"name": "StatefulPartitionedCall/model/generate_stereo_layer/GEN/tf.split_10/split/split_dim", "op": "Const", "attr": {"dtype": {"type": "DT_INT32"}, "value": {"tensor": {"dtype": "DT_INT32", "tensorShape": {}}}}}, {"name": "StatefulPartitionedCall/model/generate_stereo_layer/GEN/8c/stack", "op": "Const", "attr": {"dtype": {"type": "DT_INT32"}, "value": {"tensor": {"dtype": "DT_INT32", "tensorShape": {"dim": [{"size": "4"}]}}}}}, {"name": "StatefulPartitionedCall/model/generate_stereo_layer/GEN/8c/conv2d_transpose/Cast", "op": "Const", "attr": {"value": {"tensor": {"dtype": "DT_HALF", "tensorShape": {"dim": [{"size": "1"}, {"size": "4"}, {"size": "256"}, {"size": "384"}]}}}, "dtype": {"type": "DT_HALF"}}}, {"name": "unknown_57", "op": "Const", "attr": {"dtype": {"type": "DT_HALF"}, "value": {"tensor": {"dtype": "DT_HALF", "tensorShape": {}}}}}, {"name": "StatefulPartitionedCall/model/generate_stereo_layer/GEN/6c/stack", "op": "Const", "attr": {"dtype": {"type": "DT_INT32"}, "value": {"tensor": {"dtype": "DT_INT32", "tensorShape": {"dim": [{"size": "4"}]}}}}}, {"name": "StatefulPartitionedCall/model/generate_stereo_layer/GEN/6c/conv2d_transpose/Cast", "op": "Const", "attr": {"value": {"tensor": {"dtype": "DT_HALF", "tensorShape": {"dim": [{"size": "1"}, {"size": "4"}, {"size": "384"}, {"size": "512"}]}}}, "dtype": {"type": "DT_HALF"}}}, {"name": "StatefulPartitionedCall/model/generate_stereo_layer/GEN/6c/BiasAdd/Cast", "op": "Const", "attr": {"dtype": {"type": "DT_HALF"}, "value": {"tensor": {"dtype": "DT_HALF", "tensorShape": {"dim": [{"size": "384"}]}}}}}, {"name": "StatefulPartitionedCall/model/generate_stereo_layer/GEN/6r/Cast", "op": "Const", "attr": {"dtype": {"type": "DT_HALF"}, "value": {"tensor": {"dtype": "DT_HALF", "tensorShape": {"dim": [{"size": "1"}]}}}}}, {"name": "StatefulPartitionedCall/model/generate_stereo_layer/GEN/6r/random_normal/shape", "op": "Const", "attr": {"dtype": {"type": "DT_INT32"}, "value": {"tensor": {"dtype": "DT_INT32", "tensorShape": {"dim": [{"size": "4"}]}}}}}, {"name": "StatefulPartitionedCall/model/generate_stereo_layer/GEN/tf.math.reduce_std_17/reduce_std/reduce_variance/Mean/reduction_indices", "op": "Const", "attr": {"value": {"tensor": {"dtype": "DT_INT32", "tensorShape": {}}}, "dtype": {"type": "DT_INT32"}}}, {"name": "StatefulPartitionedCall/model/generate_stereo_layer/GEN/tf.math.reduce_std_17/reduce_std/reduce_variance/Mean_1/reduction_indices", "op": "Const", "attr": {"dtype": {"type": "DT_INT32"}, "value": {"tensor": {"dtype": "DT_INT32", "tensorShape": {}}}}}, {"name": "StatefulPartitionedCall/model/generate_stereo_layer/GEN/tf.__operators__.add_34/y", "op": "Const", "attr": {"value": {"tensor": {"dtype": "DT_HALF", "tensorShape": {}}}, "dtype": {"type": "DT_HALF"}}}, {"name": "StatefulPartitionedCall/model/generate_stereo_layer/GEN/6ai/Conv2D/Cast", "op": "Const", "attr": {"dtype": {"type": "DT_HALF"}, "value": {"tensor": {"dtype": "DT_HALF", "tensorShape": {"dim": [{"size": "1"}, {"size": "1"}, {"size": "128"}, {"size": "384"}]}}}}}, {"name": "StatefulPartitionedCall/model/generate_stereo_layer/GEN/6ai/BiasAdd/Cast", "op": "Const", "attr": {"dtype": {"type": "DT_HALF"}, "value": {"tensor": {"dtype": "DT_HALF", "tensorShape": {"dim": [{"size": "384"}]}}}}}, {"name": "StatefulPartitionedCall/model/generate_stereo_layer/GEN/7c/Conv2D/ArithmeticOptimizer/FoldMultiplyIntoConv_scaled_StatefulPartitionedCall/model/generate_stereo_layer/GEN/7c/Conv2D_Cast", "op": "Const", "attr": {"value": {"tensor": {"dtype": "DT_HALF", "tensorShape": {"dim": [{"size": "1"}, {"size": "4"}, {"size": "384"}, {"size": "384"}]}}}, "dtype": {"type": "DT_HALF"}}}, {"name": "StatefulPartitionedCall/model/generate_stereo_layer/GEN/7c/BiasAdd/Cast", "op": "Const", "attr": {"dtype": {"type": "DT_HALF"}, "value": {"tensor": {"dtype": "DT_HALF", "tensorShape": {"dim": [{"size": "384"}]}}}}}, {"name": "StatefulPartitionedCall/model/generate_stereo_layer/GEN/7r/Cast", "op": "Const", "attr": {"value": {"tensor": {"dtype": "DT_HALF", "tensorShape": {"dim": [{"size": "1"}]}}}, "dtype": {"type": "DT_HALF"}}}, {"name": "StatefulPartitionedCall/model/generate_stereo_layer/GEN/7r/random_normal/shape", "op": "Const", "attr": {"dtype": {"type": "DT_INT32"}, "value": {"tensor": {"dtype": "DT_INT32", "tensorShape": {"dim": [{"size": "4"}]}}}}}, {"name": "StatefulPartitionedCall/model/generate_stereo_layer/GEN/tf.math.reduce_std_18/reduce_std/reduce_variance/Mean/reduction_indices", "op": "Const", "attr": {"value": {"tensor": {"dtype": "DT_INT32", "tensorShape": {}}}, "dtype": {"type": "DT_INT32"}}}, {"name": "StatefulPartitionedCall/model/generate_stereo_layer/GEN/tf.math.reduce_std_18/reduce_std/reduce_variance/Mean_1/reduction_indices", "op": "Const", "attr": {"dtype": {"type": "DT_INT32"}, "value": {"tensor": {"dtype": "DT_INT32", "tensorShape": {}}}}}, {"name": "StatefulPartitionedCall/model/generate_stereo_layer/GEN/tf.__operators__.add_35/y", "op": "Const", "attr": {"value": {"tensor": {"dtype": "DT_HALF", "tensorShape": {}}}, "dtype": {"type": "DT_HALF"}}}, {"name": "StatefulPartitionedCall/model/generate_stereo_layer/GEN/7ai/Conv2D/Cast", "op": "Const", "attr": {"dtype": {"type": "DT_HALF"}, "value": {"tensor": {"dtype": "DT_HALF", "tensorShape": {"dim": [{"size": "1"}, {"size": "1"}, {"size": "128"}, {"size": "384"}]}}}}}, {"name": "StatefulPartitionedCall/model/generate_stereo_layer/GEN/7ai/BiasAdd/Cast", "op": "Const", "attr": {"value": {"tensor": {"dtype": "DT_HALF", "tensorShape": {"dim": [{"size": "384"}]}}}, "dtype": {"type": "DT_HALF"}}}, {"name": "unknown_43", "op": "Const", "attr": {"value": {"tensor": {"dtype": "DT_HALF", "tensorShape": {}}}, "dtype": {"type": "DT_HALF"}}}, {"name": "StatefulPartitionedCall/model/generate_stereo_layer/GEN/4c/stack", "op": "Const", "attr": {"value": {"tensor": {"dtype": "DT_INT32", "tensorShape": {"dim": [{"size": "4"}]}}}, "dtype": {"type": "DT_INT32"}}}, {"name": "StatefulPartitionedCall/model/generate_stereo_layer/GEN/4c/conv2d_transpose/Cast", "op": "Const", "attr": {"value": {"tensor": {"dtype": "DT_HALF", "tensorShape": {"dim": [{"size": "1"}, {"size": "4"}, {"size": "512"}, {"size": "640"}]}}}, "dtype": {"type": "DT_HALF"}}}, {"name": "StatefulPartitionedCall/model/generate_stereo_layer/GEN/4c/BiasAdd/Cast", "op": "Const", "attr": {"dtype": {"type": "DT_HALF"}, "value": {"tensor": {"dtype": "DT_HALF", "tensorShape": {"dim": [{"size": "512"}]}}}}}, {"name": "StatefulPartitionedCall/model/generate_stereo_layer/GEN/4r/Cast", "op": "Const", "attr": {"dtype": {"type": "DT_HALF"}, "value": {"tensor": {"dtype": "DT_HALF", "tensorShape": {"dim": [{"size": "1"}]}}}}}, {"name": "StatefulPartitionedCall/model/generate_stereo_layer/GEN/4r/random_normal/shape", "op": "Const", "attr": {"dtype": {"type": "DT_INT32"}, "value": {"tensor": {"dtype": "DT_INT32", "tensorShape": {"dim": [{"size": "4"}]}}}}}, {"name": "StatefulPartitionedCall/model/generate_stereo_layer/GEN/tf.math.reduce_std_15/reduce_std/reduce_variance/Mean/reduction_indices", "op": "Const", "attr": {"value": {"tensor": {"dtype": "DT_INT32", "tensorShape": {}}}, "dtype": {"type": "DT_INT32"}}}, {"name": "StatefulPartitionedCall/model/generate_stereo_layer/GEN/tf.math.reduce_std_15/reduce_std/reduce_variance/Mean_1/reduction_indices", "op": "Const", "attr": {"dtype": {"type": "DT_INT32"}, "value": {"tensor": {"dtype": "DT_INT32", "tensorShape": {}}}}}, {"name": "StatefulPartitionedCall/model/generate_stereo_layer/GEN/tf.__operators__.add_31/y", "op": "Const", "attr": {"value": {"tensor": {"dtype": "DT_HALF", "tensorShape": {}}}, "dtype": {"type": "DT_HALF"}}}, {"name": "StatefulPartitionedCall/model/generate_stereo_layer/GEN/4ai/Conv2D/Cast", "op": "Const", "attr": {"dtype": {"type": "DT_HALF"}, "value": {"tensor": {"dtype": "DT_HALF", "tensorShape": {"dim": [{"size": "1"}, {"size": "1"}, {"size": "128"}, {"size": "512"}]}}}}}, {"name": "StatefulPartitionedCall/model/generate_stereo_layer/GEN/4ai/BiasAdd/Cast", "op": "Const", "attr": {"value": {"tensor": {"dtype": "DT_HALF", "tensorShape": {"dim": [{"size": "512"}]}}}, "dtype": {"type": "DT_HALF"}}}, {"name": "StatefulPartitionedCall/model/generate_stereo_layer/GEN/5c/Conv2D/ArithmeticOptimizer/FoldMultiplyIntoConv_scaled_StatefulPartitionedCall/model/generate_stereo_layer/GEN/5c/Conv2D_Cast", "op": "Const", "attr": {"dtype": {"type": "DT_HALF"}, "value": {"tensor": {"dtype": "DT_HALF", "tensorShape": {"dim": [{"size": "1"}, {"size": "4"}, {"size": "512"}, {"size": "512"}]}}}}}, {"name": "StatefulPartitionedCall/model/generate_stereo_layer/GEN/5c/BiasAdd/Cast", "op": "Const", "attr": {"value": {"tensor": {"dtype": "DT_HALF", "tensorShape": {"dim": [{"size": "512"}]}}}, "dtype": {"type": "DT_HALF"}}}, {"name": "StatefulPartitionedCall/model/generate_stereo_layer/GEN/5r/Cast", "op": "Const", "attr": {"dtype": {"type": "DT_HALF"}, "value": {"tensor": {"dtype": "DT_HALF", "tensorShape": {"dim": [{"size": "1"}]}}}}}, {"name": "StatefulPartitionedCall/model/generate_stereo_layer/GEN/5r/random_normal/shape", "op": "Const", "attr": {"dtype": {"type": "DT_INT32"}, "value": {"tensor": {"dtype": "DT_INT32", "tensorShape": {"dim": [{"size": "4"}]}}}}}, {"name": "StatefulPartitionedCall/model/generate_stereo_layer/GEN/tf.math.reduce_std_16/reduce_std/reduce_variance/Mean/reduction_indices", "op": "Const", "attr": {"value": {"tensor": {"dtype": "DT_INT32", "tensorShape": {}}}, "dtype": {"type": "DT_INT32"}}}, {"name": "StatefulPartitionedCall/model/generate_stereo_layer/GEN/tf.math.reduce_std_16/reduce_std/reduce_variance/Mean_1/reduction_indices", "op": "Const", "attr": {"value": {"tensor": {"dtype": "DT_INT32", "tensorShape": {}}}, "dtype": {"type": "DT_INT32"}}}, {"name": "StatefulPartitionedCall/model/generate_stereo_layer/GEN/tf.__operators__.add_32/y", "op": "Const", "attr": {"value": {"tensor": {"dtype": "DT_HALF", "tensorShape": {}}}, "dtype": {"type": "DT_HALF"}}}, {"name": "StatefulPartitionedCall/model/generate_stereo_layer/GEN/5ai/Conv2D/Cast", "op": "Const", "attr": {"dtype": {"type": "DT_HALF"}, "value": {"tensor": {"dtype": "DT_HALF", "tensorShape": {"dim": [{"size": "1"}, {"size": "1"}, {"size": "128"}, {"size": "512"}]}}}}}, {"name": "StatefulPartitionedCall/model/generate_stereo_layer/GEN/5ai/BiasAdd/Cast", "op": "Const", "attr": {"value": {"tensor": {"dtype": "DT_HALF", "tensorShape": {"dim": [{"size": "512"}]}}}, "dtype": {"type": "DT_HALF"}}}, {"name": "unknown_29", "op": "Const", "attr": {"dtype": {"type": "DT_HALF"}, "value": {"tensor": {"dtype": "DT_HALF", "tensorShape": {}}}}}, {"name": "StatefulPartitionedCall/model/generate_stereo_layer/GEN/2c/stack", "op": "Const", "attr": {"dtype": {"type": "DT_INT32"}, "value": {"tensor": {"dtype": "DT_INT32", "tensorShape": {"dim": [{"size": "4"}]}}}}}, {"name": "StatefulPartitionedCall/model/generate_stereo_layer/GEN/2c/conv2d_transpose/Cast", "op": "Const", "attr": {"value": {"tensor": {"dtype": "DT_HALF", "tensorShape": {"dim": [{"size": "1"}, {"size": "4"}, {"size": "640"}, {"size": "768"}]}}}, "dtype": {"type": "DT_HALF"}}}, {"name": "StatefulPartitionedCall/model/generate_stereo_layer/GEN/2c/BiasAdd/Cast", "op": "Const", "attr": {"dtype": {"type": "DT_HALF"}, "value": {"tensor": {"dtype": "DT_HALF", "tensorShape": {"dim": [{"size": "640"}]}}}}}, {"name": "StatefulPartitionedCall/model/generate_stereo_layer/GEN/2r/Cast", "op": "Const", "attr": {"value": {"tensor": {"dtype": "DT_HALF", "tensorShape": {"dim": [{"size": "1"}]}}}, "dtype": {"type": "DT_HALF"}}}, {"name": "StatefulPartitionedCall/model/generate_stereo_layer/GEN/2r/random_normal/shape", "op": "Const", "attr": {"dtype": {"type": "DT_INT32"}, "value": {"tensor": {"dtype": "DT_INT32", "tensorShape": {"dim": [{"size": "4"}]}}}}}, {"name": "StatefulPartitionedCall/model/generate_stereo_layer/GEN/tf.math.reduce_std_13/reduce_std/reduce_variance/Mean/reduction_indices", "op": "Const", "attr": {"value": {"tensor": {"dtype": "DT_INT32", "tensorShape": {}}}, "dtype": {"type": "DT_INT32"}}}, {"name": "StatefulPartitionedCall/model/generate_stereo_layer/GEN/tf.math.reduce_std_13/reduce_std/reduce_variance/Mean_1/reduction_indices", "op": "Const", "attr": {"dtype": {"type": "DT_INT32"}, "value": {"tensor": {"dtype": "DT_INT32", "tensorShape": {}}}}}, {"name": "StatefulPartitionedCall/model/generate_stereo_layer/GEN/tf.__operators__.add_28/y", "op": "Const", "attr": {"value": {"tensor": {"dtype": "DT_HALF", "tensorShape": {}}}, "dtype": {"type": "DT_HALF"}}}, {"name": "StatefulPartitionedCall/model/generate_stereo_layer/GEN/2ai/Conv2D/Cast", "op": "Const", "attr": {"dtype": {"type": "DT_HALF"}, "value": {"tensor": {"dtype": "DT_HALF", "tensorShape": {"dim": [{"size": "1"}, {"size": "1"}, {"size": "128"}, {"size": "640"}]}}}}}, {"name": "StatefulPartitionedCall/model/generate_stereo_layer/GEN/2ai/BiasAdd/Cast", "op": "Const", "attr": {"dtype": {"type": "DT_HALF"}, "value": {"tensor": {"dtype": "DT_HALF", "tensorShape": {"dim": [{"size": "640"}]}}}}}, {"name": "StatefulPartitionedCall/model/generate_stereo_layer/GEN/3c/Conv2D/ArithmeticOptimizer/FoldMultiplyIntoConv_scaled_StatefulPartitionedCall/model/generate_stereo_layer/GEN/3c/Conv2D_Cast", "op": "Const", "attr": {"value": {"tensor": {"dtype": "DT_HALF", "tensorShape": {"dim": [{"size": "1"}, {"size": "4"}, {"size": "640"}, {"size": "640"}]}}}, "dtype": {"type": "DT_HALF"}}}, {"name": "StatefulPartitionedCall/model/generate_stereo_layer/GEN/3c/BiasAdd/Cast", "op": "Const", "attr": {"value": {"tensor": {"dtype": "DT_HALF", "tensorShape": {"dim": [{"size": "640"}]}}}, "dtype": {"type": "DT_HALF"}}}, {"name": "StatefulPartitionedCall/model/generate_stereo_layer/GEN/3r/Cast", "op": "Const", "attr": {"dtype": {"type": "DT_HALF"}, "value": {"tensor": {"dtype": "DT_HALF", "tensorShape": {"dim": [{"size": "1"}]}}}}}, {"name": "StatefulPartitionedCall/model/generate_stereo_layer/GEN/3r/random_normal/shape", "op": "Const", "attr": {"value": {"tensor": {"dtype": "DT_INT32", "tensorShape": {"dim": [{"size": "4"}]}}}, "dtype": {"type": "DT_INT32"}}}, {"name": "StatefulPartitionedCall/model/generate_stereo_layer/GEN/tf.math.reduce_std_14/reduce_std/reduce_variance/Mean/reduction_indices", "op": "Const", "attr": {"dtype": {"type": "DT_INT32"}, "value": {"tensor": {"dtype": "DT_INT32", "tensorShape": {}}}}}, {"name": "StatefulPartitionedCall/model/generate_stereo_layer/GEN/tf.math.reduce_std_14/reduce_std/reduce_variance/Mean_1/reduction_indices", "op": "Const", "attr": {"dtype": {"type": "DT_INT32"}, "value": {"tensor": {"dtype": "DT_INT32", "tensorShape": {}}}}}, {"name": "StatefulPartitionedCall/model/generate_stereo_layer/GEN/tf.__operators__.add_29/y", "op": "Const", "attr": {"value": {"tensor": {"dtype": "DT_HALF", "tensorShape": {}}}, "dtype": {"type": "DT_HALF"}}}, {"name": "StatefulPartitionedCall/model/generate_stereo_layer/GEN/3ai/Conv2D/Cast", "op": "Const", "attr": {"dtype": {"type": "DT_HALF"}, "value": {"tensor": {"dtype": "DT_HALF", "tensorShape": {"dim": [{"size": "1"}, {"size": "1"}, {"size": "128"}, {"size": "640"}]}}}}}, {"name": "StatefulPartitionedCall/model/generate_stereo_layer/GEN/3ai/BiasAdd/Cast", "op": "Const", "attr": {"dtype": {"type": "DT_HALF"}, "value": {"tensor": {"dtype": "DT_HALF", "tensorShape": {"dim": [{"size": "640"}]}}}}}, {"name": "unknown_15", "op": "Const", "attr": {"value": {"tensor": {"dtype": "DT_HALF", "tensorShape": {}}}, "dtype": {"type": "DT_HALF"}}}, {"name": "StatefulPartitionedCall/model/generate_stereo_layer/GEN/0c/stack", "op": "Const", "attr": {"value": {"tensor": {"dtype": "DT_INT32", "tensorShape": {"dim": [{"size": "4"}]}}}, "dtype": {"type": "DT_INT32"}}}, {"name": "StatefulPartitionedCall/model/generate_stereo_layer/GEN/0c/conv2d_transpose/Cast", "op": "Const", "attr": {"value": {"tensor": {"dtype": "DT_HALF", "tensorShape": {"dim": [{"size": "1"}, {"size": "4"}, {"size": "768"}, {"size": "896"}]}}}, "dtype": {"type": "DT_HALF"}}}, {"name": "StatefulPartitionedCall/model/generate_stereo_layer/GEN/0c/BiasAdd/Cast", "op": "Const", "attr": {"value": {"tensor": {"dtype": "DT_HALF", "tensorShape": {"dim": [{"size": "768"}]}}}, "dtype": {"type": "DT_HALF"}}}, {"name": "StatefulPartitionedCall/model/generate_stereo_layer/GEN/0r/Cast", "op": "Const", "attr": {"dtype": {"type": "DT_HALF"}, "value": {"tensor": {"dtype": "DT_HALF", "tensorShape": {"dim": [{"size": "1"}]}}}}}, {"name": "StatefulPartitionedCall/model/generate_stereo_layer/GEN/0r/random_normal/shape", "op": "Const", "attr": {"value": {"tensor": {"dtype": "DT_INT32", "tensorShape": {"dim": [{"size": "4"}]}}}, "dtype": {"type": "DT_INT32"}}}, {"name": "StatefulPartitionedCall/model/generate_stereo_layer/GEN/tf.math.reduce_std_11/reduce_std/reduce_variance/Mean/reduction_indices", "op": "Const", "attr": {"dtype": {"type": "DT_INT32"}, "value": {"tensor": {"dtype": "DT_INT32", "tensorShape": {}}}}}, {"name": "StatefulPartitionedCall/model/generate_stereo_layer/GEN/tf.math.reduce_std_11/reduce_std/reduce_variance/Mean_1/reduction_indices", "op": "Const", "attr": {"dtype": {"type": "DT_INT32"}, "value": {"tensor": {"dtype": "DT_INT32", "tensorShape": {}}}}}, {"name": "StatefulPartitionedCall/model/generate_stereo_layer/GEN/tf.__operators__.add_25/y", "op": "Const", "attr": {"dtype": {"type": "DT_HALF"}, "value": {"tensor": {"dtype": "DT_HALF", "tensorShape": {}}}}}, {"name": "StatefulPartitionedCall/model/generate_stereo_layer/GEN/0ai/Conv2D/Cast", "op": "Const", "attr": {"value": {"tensor": {"dtype": "DT_HALF", "tensorShape": {"dim": [{"size": "1"}, {"size": "1"}, {"size": "128"}, {"size": "768"}]}}}, "dtype": {"type": "DT_HALF"}}}, {"name": "StatefulPartitionedCall/model/generate_stereo_layer/GEN/0ai/BiasAdd/Cast", "op": "Const", "attr": {"dtype": {"type": "DT_HALF"}, "value": {"tensor": {"dtype": "DT_HALF", "tensorShape": {"dim": [{"size": "768"}]}}}}}, {"name": "StatefulPartitionedCall/model/generate_stereo_layer/GEN/1c/Conv2D/ArithmeticOptimizer/FoldMultiplyIntoConv_scaled_StatefulPartitionedCall/model/generate_stereo_layer/GEN/1c/Conv2D_Cast", "op": "Const", "attr": {"dtype": {"type": "DT_HALF"}, "value": {"tensor": {"dtype": "DT_HALF", "tensorShape": {"dim": [{"size": "1"}, {"size": "4"}, {"size": "768"}, {"size": "768"}]}}}}}, {"name": "StatefulPartitionedCall/model/generate_stereo_layer/GEN/1c/BiasAdd/Cast", "op": "Const", "attr": {"value": {"tensor": {"dtype": "DT_HALF", "tensorShape": {"dim": [{"size": "768"}]}}}, "dtype": {"type": "DT_HALF"}}}, {"name": "StatefulPartitionedCall/model/generate_stereo_layer/GEN/1r/Cast", "op": "Const", "attr": {"dtype": {"type": "DT_HALF"}, "value": {"tensor": {"dtype": "DT_HALF", "tensorShape": {"dim": [{"size": "1"}]}}}}}, {"name": "StatefulPartitionedCall/model/generate_stereo_layer/GEN/1r/random_normal/shape", "op": "Const", "attr": {"value": {"tensor": {"dtype": "DT_INT32", "tensorShape": {"dim": [{"size": "4"}]}}}, "dtype": {"type": "DT_INT32"}}}, {"name": "StatefulPartitionedCall/model/generate_stereo_layer/GEN/tf.math.reduce_std_12/reduce_std/reduce_variance/Mean/reduction_indices", "op": "Const", "attr": {"dtype": {"type": "DT_INT32"}, "value": {"tensor": {"dtype": "DT_INT32", "tensorShape": {}}}}}, {"name": "StatefulPartitionedCall/model/generate_stereo_layer/GEN/tf.math.reduce_std_12/reduce_std/reduce_variance/Mean_1/reduction_indices", "op": "Const", "attr": {"dtype": {"type": "DT_INT32"}, "value": {"tensor": {"dtype": "DT_INT32", "tensorShape": {}}}}}, {"name": "StatefulPartitionedCall/model/generate_stereo_layer/GEN/tf.__operators__.add_26/y", "op": "Const", "attr": {"value": {"tensor": {"dtype": "DT_HALF", "tensorShape": {}}}, "dtype": {"type": "DT_HALF"}}}, {"name": "StatefulPartitionedCall/model/generate_stereo_layer/GEN/1ai/Conv2D/Cast", "op": "Const", "attr": {"dtype": {"type": "DT_HALF"}, "value": {"tensor": {"dtype": "DT_HALF", "tensorShape": {"dim": [{"size": "1"}, {"size": "1"}, {"size": "128"}, {"size": "768"}]}}}}}, {"name": "StatefulPartitionedCall/model/generate_stereo_layer/GEN/1ai/BiasAdd/Cast", "op": "Const", "attr": {"value": {"tensor": {"dtype": "DT_HALF", "tensorShape": {"dim": [{"size": "768"}]}}}, "dtype": {"type": "DT_HALF"}}}, {"name": "StatefulPartitionedCall/model/generate_stereo_layer/GEN/flatten_2/Const", "op": "Const", "attr": {"value": {"tensor": {"dtype": "DT_INT32", "tensorShape": {"dim": [{"size": "2"}]}}}, "dtype": {"type": "DT_INT32"}}}, {"name": "StatefulPartitionedCall/model/generate_stereo_layer/GEN/00d/MatMul/Cast", "op": "Const", "attr": {"dtype": {"type": "DT_HALF"}, "value": {"tensor": {"dtype": "DT_HALF", "tensorShape": {"dim": [{"size": "256"}, {"size": "3584"}]}}}}}, {"name": "StatefulPartitionedCall/model/generate_stereo_layer/GEN/00d/BiasAdd/Cast", "op": "Const", "attr": {"dtype": {"type": "DT_HALF"}, "value": {"tensor": {"dtype": "DT_HALF", "tensorShape": {"dim": [{"size": "3584"}]}}}}}, {"name": "StatefulPartitionedCall/model/generate_stereo_layer/GEN/reshape_1/Reshape/shape", "op": "Const", "attr": {"value": {"tensor": {"dtype": "DT_INT32", "tensorShape": {"dim": [{"size": "4"}]}}}, "dtype": {"type": "DT_INT32"}}}, {"name": "StatefulPartitionedCall/model/generate_stereo_layer/GEN/00n/Cast", "op": "Const", "attr": {"value": {"tensor": {"dtype": "DT_HALF", "tensorShape": {"dim": [{"size": "1"}]}}}, "dtype": {"type": "DT_HALF"}}}, {"name": "StatefulPartitionedCall/model/generate_stereo_layer/GEN/00n/random_normal/shape", "op": "Const", "attr": {"dtype": {"type": "DT_INT32"}, "value": {"tensor": {"dtype": "DT_INT32", "tensorShape": {"dim": [{"size": "4"}]}}}}}, {"name": "StatefulPartitionedCall/model/generate_stereo_layer/GEN/tf.math.reduce_std_10/reduce_std/reduce_variance/Mean/reduction_indices", "op": "Const", "attr": {"value": {"tensor": {"dtype": "DT_INT32", "tensorShape": {}}}, "dtype": {"type": "DT_INT32"}}}, {"name": "StatefulPartitionedCall/model/generate_stereo_layer/GEN/tf.math.reduce_std_10/reduce_std/reduce_variance/Mean_1/reduction_indices", "op": "Const", "attr": {"value": {"tensor": {"dtype": "DT_INT32", "tensorShape": {}}}, "dtype": {"type": "DT_INT32"}}}, {"name": "StatefulPartitionedCall/model/generate_stereo_layer/GEN/tf.__operators__.add_24/y", "op": "Const", "attr": {"value": {"tensor": {"dtype": "DT_HALF", "tensorShape": {}}}, "dtype": {"type": "DT_HALF"}}}, {"name": "StatefulPartitionedCall/model/generate_stereo_layer/GEN/tf.expand_dims_2/ExpandDims/dim", "op": "Const", "attr": {"value": {"tensor": {"dtype": "DT_INT32", "tensorShape": {}}}, "dtype": {"type": "DT_INT32"}}}, {"name": "StatefulPartitionedCall/model/generate_stereo_layer/GEN/00ai/Conv2D/Cast", "op": "Const", "attr": {"value": {"tensor": {"dtype": "DT_HALF", "tensorShape": {"dim": [{"size": "1"}, {"size": "1"}, {"size": "128"}, {"size": "896"}]}}}, "dtype": {"type": "DT_HALF"}}}, {"name": "StatefulPartitionedCall/model/generate_stereo_layer/GEN/00ai/BiasAdd/Cast", "op": "Const", "attr": {"dtype": {"type": "DT_HALF"}, "value": {"tensor": {"dtype": "DT_HALF", "tensorShape": {"dim": [{"size": "896"}]}}}}}, {"name": "StatefulPartitionedCall/model/generate_stereo_layer/GEN/tf.reshape_8/Reshape/shape", "op": "Const", "attr": {"dtype": {"type": "DT_INT32"}, "value": {"tensor": {"dtype": "DT_INT32", "tensorShape": {"dim": [{"size": "5"}]}}}}}, {"name": "StatefulPartitionedCall/model/generate_stereo_layer/GEN/tf.compat.v1.transpose_7/transpose/perm", "op": "Const", "attr": {"value": {"tensor": {"dtype": "DT_INT32", "tensorShape": {"dim": [{"size": "5"}]}}}, "dtype": {"type": "DT_INT32"}}}, {"name": "StatefulPartitionedCall/model/generate_stereo_layer/GEN/tf.reshape_9/Reshape/shape", "op": "Const", "attr": {"value": {"tensor": {"dtype": "DT_INT32", "tensorShape": {"dim": [{"size": "4"}]}}}, "dtype": {"type": "DT_INT32"}}}, {"name": "StatefulPartitionedCall/model/generate_stereo_layer/GEN/res1c/Conv2D/Cast", "op": "Const", "attr": {"value": {"tensor": {"dtype": "DT_HALF", "tensorShape": {"dim": [{"size": "1"}, {"size": "1"}, {"size": "448"}, {"size": "768"}]}}}, "dtype": {"type": "DT_HALF"}}}, {"name": "StatefulPartitionedCall/model/generate_stereo_layer/GEN/res1c/BiasAdd/Cast", "op": "Const", "attr": {"dtype": {"type": "DT_HALF"}, "value": {"tensor": {"dtype": "DT_HALF", "tensorShape": {"dim": [{"size": "768"}]}}}}}, {"name": "StatefulPartitionedCall/model/generate_stereo_layer/GEN/tf.reshape_10/Reshape/shape", "op": "Const", "attr": {"dtype": {"type": "DT_INT32"}, "value": {"tensor": {"dtype": "DT_INT32", "tensorShape": {"dim": [{"size": "5"}]}}}}}, {"name": "StatefulPartitionedCall/model/generate_stereo_layer/GEN/tf.compat.v1.transpose_8/transpose/perm", "op": "Const", "attr": {"dtype": {"type": "DT_INT32"}, "value": {"tensor": {"dtype": "DT_INT32", "tensorShape": {"dim": [{"size": "5"}]}}}}}, {"name": "StatefulPartitionedCall/model/generate_stereo_layer/GEN/tf.reshape_11/Reshape/shape", "op": "Const", "attr": {"value": {"tensor": {"dtype": "DT_INT32", "tensorShape": {"dim": [{"size": "4"}]}}}, "dtype": {"type": "DT_INT32"}}}, {"name": "StatefulPartitionedCall/model/generate_stereo_layer/GEN/res2c/Conv2D/Cast", "op": "Const", "attr": {"value": {"tensor": {"dtype": "DT_HALF", "tensorShape": {"dim": [{"size": "1"}, {"size": "1"}, {"size": "384"}, {"size": "640"}]}}}, "dtype": {"type": "DT_HALF"}}}, {"name": "StatefulPartitionedCall/model/generate_stereo_layer/GEN/res2c/BiasAdd/Cast", "op": "Const", "attr": {"value": {"tensor": {"dtype": "DT_HALF", "tensorShape": {"dim": [{"size": "640"}]}}}, "dtype": {"type": "DT_HALF"}}}, {"name": "StatefulPartitionedCall/model/generate_stereo_layer/GEN/tf.reshape_12/Reshape/shape", "op": "Const", "attr": {"dtype": {"type": "DT_INT32"}, "value": {"tensor": {"dtype": "DT_INT32", "tensorShape": {"dim": [{"size": "5"}]}}}}}, {"name": "StatefulPartitionedCall/model/generate_stereo_layer/GEN/tf.compat.v1.transpose_9/transpose/perm", "op": "Const", "attr": {"dtype": {"type": "DT_INT32"}, "value": {"tensor": {"dtype": "DT_INT32", "tensorShape": {"dim": [{"size": "5"}]}}}}}, {"name": "StatefulPartitionedCall/model/generate_stereo_layer/GEN/tf.reshape_13/Reshape/shape", "op": "Const", "attr": {"dtype": {"type": "DT_INT32"}, "value": {"tensor": {"dtype": "DT_INT32", "tensorShape": {"dim": [{"size": "4"}]}}}}}, {"name": "StatefulPartitionedCall/model/generate_stereo_layer/GEN/res3c/Conv2D/Cast", "op": "Const", "attr": {"dtype": {"type": "DT_HALF"}, "value": {"tensor": {"dtype": "DT_HALF", "tensorShape": {"dim": [{"size": "1"}, {"size": "1"}, {"size": "320"}, {"size": "512"}]}}}}}, {"name": "StatefulPartitionedCall/model/generate_stereo_layer/GEN/res3c/BiasAdd/Cast", "op": "Const", "attr": {"value": {"tensor": {"dtype": "DT_HALF", "tensorShape": {"dim": [{"size": "512"}]}}}, "dtype": {"type": "DT_HALF"}}}, {"name": "StatefulPartitionedCall/model/generate_stereo_layer/GEN/tf.reshape_14/Reshape/shape", "op": "Const", "attr": {"value": {"tensor": {"dtype": "DT_INT32", "tensorShape": {"dim": [{"size": "5"}]}}}, "dtype": {"type": "DT_INT32"}}}, {"name": "StatefulPartitionedCall/model/generate_stereo_layer/GEN/tf.compat.v1.transpose_10/transpose/perm", "op": "Const", "attr": {"value": {"tensor": {"dtype": "DT_INT32", "tensorShape": {"dim": [{"size": "5"}]}}}, "dtype": {"type": "DT_INT32"}}}, {"name": "StatefulPartitionedCall/model/generate_stereo_layer/GEN/tf.reshape_15/Reshape/shape", "op": "Const", "attr": {"value": {"tensor": {"dtype": "DT_INT32", "tensorShape": {"dim": [{"size": "4"}]}}}, "dtype": {"type": "DT_INT32"}}}, {"name": "StatefulPartitionedCall/model/generate_stereo_layer/GEN/res4c/Conv2D/Cast", "op": "Const", "attr": {"dtype": {"type": "DT_HALF"}, "value": {"tensor": {"dtype": "DT_HALF", "tensorShape": {"dim": [{"size": "1"}, {"size": "1"}, {"size": "256"}, {"size": "384"}]}}}}}, {"name": "StatefulPartitionedCall/model/generate_stereo_layer/GEN/res4c/BiasAdd/Cast", "op": "Const", "attr": {"value": {"tensor": {"dtype": "DT_HALF", "tensorShape": {"dim": [{"size": "384"}]}}}, "dtype": {"type": "DT_HALF"}}}, {"name": "StatefulPartitionedCall/model/generate_stereo_layer/GEN/8c/BiasAdd/Cast", "op": "Const", "attr": {"dtype": {"type": "DT_HALF"}, "value": {"tensor": {"dtype": "DT_HALF", "tensorShape": {"dim": [{"size": "256"}]}}}}}, {"name": "StatefulPartitionedCall/model/generate_stereo_layer/GEN/8r/Cast", "op": "Const", "attr": {"dtype": {"type": "DT_HALF"}, "value": {"tensor": {"dtype": "DT_HALF", "tensorShape": {"dim": [{"size": "1"}]}}}}}, {"name": "StatefulPartitionedCall/model/generate_stereo_layer/GEN/8r/random_normal/shape", "op": "Const", "attr": {"value": {"tensor": {"dtype": "DT_INT32", "tensorShape": {"dim": [{"size": "4"}]}}}, "dtype": {"type": "DT_INT32"}}}, {"name": "StatefulPartitionedCall/model/generate_stereo_layer/GEN/tf.math.reduce_std_19/reduce_std/reduce_variance/Mean/reduction_indices", "op": "Const", "attr": {"dtype": {"type": "DT_INT32"}, "value": {"tensor": {"dtype": "DT_INT32", "tensorShape": {}}}}}, {"name": "StatefulPartitionedCall/model/generate_stereo_layer/GEN/tf.math.reduce_std_19/reduce_std/reduce_variance/Mean_1/reduction_indices", "op": "Const", "attr": {"dtype": {"type": "DT_INT32"}, "value": {"tensor": {"dtype": "DT_INT32", "tensorShape": {}}}}}, {"name": "StatefulPartitionedCall/model/generate_stereo_layer/GEN/tf.__operators__.add_37/y", "op": "Const", "attr": {"value": {"tensor": {"dtype": "DT_HALF", "tensorShape": {}}}, "dtype": {"type": "DT_HALF"}}}, {"name": "StatefulPartitionedCall/model/generate_stereo_layer/GEN/tf.split_9/split/split_dim", "op": "Const", "attr": {"value": {"tensor": {"dtype": "DT_INT32", "tensorShape": {}}}, "dtype": {"type": "DT_INT32"}}}, {"name": "StatefulPartitionedCall/model/generate_stereo_layer/strided_slice_1/stack", "op": "Const", "attr": {"dtype": {"type": "DT_INT32"}, "value": {"tensor": {"dtype": "DT_INT32", "tensorShape": {"dim": [{"size": "3"}]}}}}}, {"name": "StatefulPartitionedCall/model/generate_stereo_layer/strided_slice_1/stack_1", "op": "Const", "attr": {"dtype": {"type": "DT_INT32"}, "value": {"tensor": {"dtype": "DT_INT32", "tensorShape": {"dim": [{"size": "3"}]}}}}}, {"name": "StatefulPartitionedCall/model/generate_stereo_layer/strided_slice_1/stack_2", "op": "Const", "attr": {"value": {"tensor": {"dtype": "DT_INT32", "tensorShape": {"dim": [{"size": "3"}]}}}, "dtype": {"type": "DT_INT32"}}}, {"name": "StatefulPartitionedCall/model/generate_stereo_layer/random_normal_1/shape", "op": "Const", "attr": {"dtype": {"type": "DT_INT32"}, "value": {"tensor": {"dtype": "DT_INT32", "tensorShape": {"dim": [{"size": "2"}]}}}}}, {"name": "StatefulPartitionedCall/model/generate_stereo_layer/concat/axis", "op": "Const", "attr": {"dtype": {"type": "DT_INT32"}, "value": {"tensor": {"dtype": "DT_INT32", "tensorShape": {}}}}}, {"name": "StatefulPartitionedCall/model/generate_stereo_layer/linspace/ExpandDims/dim", "op": "Const", "attr": {"dtype": {"type": "DT_INT32"}, "value": {"tensor": {"dtype": "DT_INT32", "tensorShape": {}}}}}, {"name": "StatefulPartitionedCall/model/generate_stereo_layer/linspace/truediv", "op": "Const", "attr": {"dtype": {"type": "DT_FLOAT"}, "value": {"tensor": {"dtype": "DT_FLOAT", "tensorShape": {"dim": [{"size": "1"}, {"size": "383"}, {"size": "1"}]}}}}}, {"name": "StatefulPartitionedCall/model/generate_stereo_layer/linspace/ExpandDims_1/dim", "op": "Const", "attr": {"value": {"tensor": {"dtype": "DT_INT32", "tensorShape": {}}}, "dtype": {"type": "DT_INT32"}}}, {"name": "StatefulPartitionedCall/model/generate_stereo_layer/linspace/SelectV2", "op": "Const", "attr": {"dtype": {"type": "DT_INT32"}, "value": {"tensor": {"dtype": "DT_INT32", "tensorShape": {}}}}}, {"name": "StatefulPartitionedCall/model/generate_stereo_layer/strided_slice/stack", "op": "Const", "attr": {"value": {"tensor": {"dtype": "DT_INT32", "tensorShape": {"dim": [{"size": "3"}]}}}, "dtype": {"type": "DT_INT32"}}}, {"name": "StatefulPartitionedCall/model/generate_stereo_layer/strided_slice/stack_1", "op": "Const", "attr": {"value": {"tensor": {"dtype": "DT_INT32", "tensorShape": {"dim": [{"size": "3"}]}}}, "dtype": {"type": "DT_INT32"}}}, {"name": "StatefulPartitionedCall/model/generate_stereo_layer/strided_slice/stack_2", "op": "Const", "attr": {"dtype": {"type": "DT_INT32"}, "value": {"tensor": {"dtype": "DT_INT32", "tensorShape": {"dim": [{"size": "3"}]}}}}}, {"name": "StatefulPartitionedCall/model/generate_stereo_layer/random_normal_2/shape", "op": "Const", "attr": {"value": {"tensor": {"dtype": "DT_INT32", "tensorShape": {"dim": [{"size": "2"}]}}}, "dtype": {"type": "DT_INT32"}}}, {"name": "StatefulPartitionedCall/model/generate_stereo_layer/concat_1/axis", "op": "Const", "attr": {"dtype": {"type": "DT_INT32"}, "value": {"tensor": {"dtype": "DT_INT32", "tensorShape": {}}}}}, {"name": "StatefulPartitionedCall/model/generate_stereo_layer/linspace_1/ExpandDims/dim", "op": "Const", "attr": {"value": {"tensor": {"dtype": "DT_INT32", "tensorShape": {}}}, "dtype": {"type": "DT_INT32"}}}, {"name": "StatefulPartitionedCall/model/generate_stereo_layer/linspace_1/truediv", "op": "Const", "attr": {"value": {"tensor": {"dtype": "DT_FLOAT", "tensorShape": {"dim": [{"size": "1"}, {"size": "383"}, {"size": "1"}]}}}, "dtype": {"type": "DT_FLOAT"}}}, {"name": "StatefulPartitionedCall/model/generate_stereo_layer/random_normal_3/shape", "op": "Const", "attr": {"value": {"tensor": {"dtype": "DT_INT32", "tensorShape": {"dim": [{"size": "2"}]}}}, "dtype": {"type": "DT_INT32"}}}, {"name": "StatefulPartitionedCall/model/generate_stereo_layer/random_normal/shape", "op": "Const", "attr": {"dtype": {"type": "DT_INT32"}, "value": {"tensor": {"dtype": "DT_INT32", "tensorShape": {"dim": [{"size": "2"}]}}}}}, {"name": "StatefulPartitionedCall/model/generate_stereo_layer/concat_2/axis", "op": "Const", "attr": {"dtype": {"type": "DT_INT32"}, "value": {"tensor": {"dtype": "DT_INT32", "tensorShape": {}}}}}, {"name": "StatefulPartitionedCall/model/generate_stereo_layer/linspace_1/ExpandDims_1/dim", "op": "Const", "attr": {"value": {"tensor": {"dtype": "DT_INT32", "tensorShape": {}}}, "dtype": {"type": "DT_INT32"}}}, {"name": "StatefulPartitionedCall/model/generate_stereo_layer/linspace_1/SelectV2", "op": "Const", "attr": {"dtype": {"type": "DT_INT32"}, "value": {"tensor": {"dtype": "DT_INT32", "tensorShape": {}}}}}, {"name": "StatefulPartitionedCall/model/generate_stereo_layer/concat_3/axis", "op": "Const", "attr": {"value": {"tensor": {"dtype": "DT_INT32", "tensorShape": {}}}, "dtype": {"type": "DT_INT32"}}}, {"name": "StatefulPartitionedCall/model/generate_stereo_layer/strided_slice_2/stack", "op": "Const", "attr": {"dtype": {"type": "DT_INT32"}, "value": {"tensor": {"dtype": "DT_INT32", "tensorShape": {"dim": [{"size": "3"}]}}}}}, {"name": "StatefulPartitionedCall/model/generate_stereo_layer/strided_slice_2/stack_1", "op": "Const", "attr": {"dtype": {"type": "DT_INT32"}, "value": {"tensor": {"dtype": "DT_INT32", "tensorShape": {"dim": [{"size": "3"}]}}}}}, {"name": "StatefulPartitionedCall/model/generate_stereo_layer/strided_slice_2/stack_2", "op": "Const", "attr": {"dtype": {"type": "DT_INT32"}, "value": {"tensor": {"dtype": "DT_INT32", "tensorShape": {"dim": [{"size": "3"}]}}}}}, {"name": "StatefulPartitionedCall/model/generate_stereo_layer/Mean/reduction_indices", "op": "Const", "attr": {"value": {"tensor": {"dtype": "DT_INT32", "tensorShape": {}}}, "dtype": {"type": "DT_INT32"}}}, {"name": "StatefulPartitionedCall/model/generate_stereo_layer/random_uniform/shape", "op": "Const", "attr": {"value": {"tensor": {"dtype": "DT_INT32", "tensorShape": {"dim": [{}]}}}, "dtype": {"type": "DT_INT32"}}}, {"name": "StatefulPartitionedCall/model/generate_stereo_layer/random_uniform/min", "op": "Const", "attr": {"dtype": {"type": "DT_INT32"}, "value": {"tensor": {"dtype": "DT_INT32", "tensorShape": {}}}}}, {"name": "StatefulPartitionedCall/model/generate_stereo_layer/random_uniform/max", "op": "Const", "attr": {"dtype": {"type": "DT_INT32"}, "value": {"tensor": {"dtype": "DT_INT32", "tensorShape": {}}}}}, {"name": "StatefulPartitionedCall/model/generate_stereo_layer/Equal/y", "op": "Const", "attr": {"value": {"tensor": {"dtype": "DT_INT32", "tensorShape": {}}}, "dtype": {"type": "DT_INT32"}}}, {"name": "StatefulPartitionedCall/model/generate_stereo_layer/GEN/tf.concat_9/concat/axis", "op": "Const", "attr": {"dtype": {"type": "DT_INT32"}, "value": {"tensor": {"dtype": "DT_INT32", "tensorShape": {}}}}}, {"name": "StatefulPartitionedCall/model/generate_stereo_layer/GEN/tf.expand_dims_3/ExpandDims/dim", "op": "Const", "attr": {"value": {"tensor": {"dtype": "DT_INT32", "tensorShape": {}}}, "dtype": {"type": "DT_INT32"}}}, {"name": "StatefulPartitionedCall/model/generate_stereo_layer/GEN/8ai/Conv2D/Cast", "op": "Const", "attr": {"dtype": {"type": "DT_HALF"}, "value": {"tensor": {"dtype": "DT_HALF", "tensorShape": {"dim": [{"size": "1"}, {"size": "1"}, {"size": "128"}, {"size": "256"}]}}}}}, {"name": "StatefulPartitionedCall/model/generate_stereo_layer/GEN/8ai/BiasAdd/Cast", "op": "Const", "attr": {"value": {"tensor": {"dtype": "DT_HALF", "tensorShape": {"dim": [{"size": "256"}]}}}, "dtype": {"type": "DT_HALF"}}}, {"name": "StatefulPartitionedCall/model/generate_stereo_layer/GEN/9c/Conv2D/Cast", "op": "Const", "attr": {"dtype": {"type": "DT_HALF"}, "value": {"tensor": {"dtype": "DT_HALF", "tensorShape": {"dim": [{"size": "1"}, {"size": "4"}, {"size": "256"}, {"size": "128"}]}}}}}, {"name": "StatefulPartitionedCall/model/generate_stereo_layer/GEN/9c/BiasAdd/Cast", "op": "Const", "attr": {"value": {"tensor": {"dtype": "DT_HALF", "tensorShape": {"dim": [{"size": "128"}]}}}, "dtype": {"type": "DT_HALF"}}}, {"name": "StatefulPartitionedCall/model/generate_stereo_layer/GEN/tf.concat_10/concat/axis", "op": "Const", "attr": {"dtype": {"type": "DT_INT32"}, "value": {"tensor": {"dtype": "DT_INT32", "tensorShape": {}}}}}, {"name": "StatefulPartitionedCall/model/generate_stereo_layer/concat_4/axis", "op": "Const", "attr": {"value": {"tensor": {"dtype": "DT_INT32", "tensorShape": {}}}, "dtype": {"type": "DT_INT32"}}}, {"name": "StatefulPartitionedCall/model/generate_stereo_layer/strided_slice_6/stack", "op": "Const", "attr": {"dtype": {"type": "DT_INT32"}, "value": {"tensor": {"dtype": "DT_INT32", "tensorShape": {"dim": [{"size": "4"}]}}}}}, {"name": "StatefulPartitionedCall/model/generate_stereo_layer/strided_slice_6/stack_1", "op": "Const", "attr": {"value": {"tensor": {"dtype": "DT_INT32", "tensorShape": {"dim": [{"size": "4"}]}}}, "dtype": {"type": "DT_INT32"}}}, {"name": "StatefulPartitionedCall/model/generate_stereo_layer/strided_slice_6/stack_2", "op": "Const", "attr": {"value": {"tensor": {"dtype": "DT_INT32", "tensorShape": {"dim": [{"size": "4"}]}}}, "dtype": {"type": "DT_INT32"}}}, {"name": "StatefulPartitionedCall/model/generate_stereo_layer/concat_13/axis", "op": "Const", "attr": {"value": {"tensor": {"dtype": "DT_INT32", "tensorShape": {}}}, "dtype": {"type": "DT_INT32"}}}, {"name": "StatefulPartitionedCall/model/generate_stereo_layer/DEC2/conv2d_20/Conv2D_1/Cast", "op": "Const", "attr": {"dtype": {"type": "DT_HALF"}, "value": {"tensor": {"dtype": "DT_HALF", "tensorShape": {"dim": [{"size": "1"}, {"size": "3"}, {"size": "64"}, {"size": "768"}]}}}}}, {"name": "StatefulPartitionedCall/model/generate_stereo_layer/DEC2/conv2d_20/BiasAdd_1/Cast", "op": "Const", "attr": {"dtype": {"type": "DT_HALF"}, "value": {"tensor": {"dtype": "DT_HALF", "tensorShape": {"dim": [{"size": "768"}]}}}}}, {"name": "StatefulPartitionedCall/model/generate_stereo_layer/DEC2/add_noise_11/Cast_1", "op": "Const", "attr": {"value": {"tensor": {"dtype": "DT_HALF", "tensorShape": {"dim": [{"size": "1"}]}}}, "dtype": {"type": "DT_HALF"}}}, {"name": "StatefulPartitionedCall/model/generate_stereo_layer/DEC2/add_noise_11/random_normal_1/shape", "op": "Const", "attr": {"dtype": {"type": "DT_INT32"}, "value": {"tensor": {"dtype": "DT_INT32", "tensorShape": {"dim": [{"size": "4"}]}}}}}, {"name": "StatefulPartitionedCall/model/generate_stereo_layer/DEC2/conv2d_transpose_6/BiasAdd_1/Cast", "op": "Const", "attr": {"value": {"tensor": {"dtype": "DT_HALF", "tensorShape": {"dim": [{"size": "640"}]}}}, "dtype": {"type": "DT_HALF"}}}, {"name": "StatefulPartitionedCall/model/generate_stereo_layer/DEC2/add_noise_12/Cast_1", "op": "Const", "attr": {"value": {"tensor": {"dtype": "DT_HALF", "tensorShape": {"dim": [{"size": "1"}]}}}, "dtype": {"type": "DT_HALF"}}}, {"name": "StatefulPartitionedCall/model/generate_stereo_layer/DEC2/add_noise_12/random_normal_1/shape", "op": "Const", "attr": {"dtype": {"type": "DT_INT32"}, "value": {"tensor": {"dtype": "DT_INT32", "tensorShape": {"dim": [{"size": "4"}]}}}}}, {"name": "StatefulPartitionedCall/model/generate_stereo_layer/DEC2/conv2d_21/Conv2D_1/Cast", "op": "Const", "attr": {"value": {"tensor": {"dtype": "DT_HALF", "tensorShape": {"dim": [{"size": "1"}, {"size": "3"}, {"size": "640"}, {"size": "640"}]}}}, "dtype": {"type": "DT_HALF"}}}, {"name": "StatefulPartitionedCall/model/generate_stereo_layer/DEC2/conv2d_21/BiasAdd_1/Cast", "op": "Const", "attr": {"value": {"tensor": {"dtype": "DT_HALF", "tensorShape": {"dim": [{"size": "640"}]}}}, "dtype": {"type": "DT_HALF"}}}, {"name": "StatefulPartitionedCall/model/generate_stereo_layer/DEC2/add_noise_13/Cast_1", "op": "Const", "attr": {"value": {"tensor": {"dtype": "DT_HALF", "tensorShape": {"dim": [{"size": "1"}]}}}, "dtype": {"type": "DT_HALF"}}}, {"name": "StatefulPartitionedCall/model/generate_stereo_layer/DEC2/add_noise_13/random_normal_1/shape", "op": "Const", "attr": {"value": {"tensor": {"dtype": "DT_INT32", "tensorShape": {"dim": [{"size": "4"}]}}}, "dtype": {"type": "DT_INT32"}}}, {"name": "StatefulPartitionedCall/model/generate_stereo_layer/DEC2/conv2d_transpose_7/BiasAdd_1/Cast", "op": "Const", "attr": {"value": {"tensor": {"dtype": "DT_HALF", "tensorShape": {"dim": [{"size": "512"}]}}}, "dtype": {"type": "DT_HALF"}}}, {"name": "StatefulPartitionedCall/model/generate_stereo_layer/DEC2/add_noise_14/Cast_1", "op": "Const", "attr": {"value": {"tensor": {"dtype": "DT_HALF", "tensorShape": {"dim": [{"size": "1"}]}}}, "dtype": {"type": "DT_HALF"}}}, {"name": "StatefulPartitionedCall/model/generate_stereo_layer/DEC2/add_noise_14/random_normal_1/shape", "op": "Const", "attr": {"value": {"tensor": {"dtype": "DT_INT32", "tensorShape": {"dim": [{"size": "4"}]}}}, "dtype": {"type": "DT_INT32"}}}, {"name": "StatefulPartitionedCall/model/generate_stereo_layer/DEC2/conv2d_22/Conv2D_1/Cast", "op": "Const", "attr": {"dtype": {"type": "DT_HALF"}, "value": {"tensor": {"dtype": "DT_HALF", "tensorShape": {"dim": [{"size": "1"}, {"size": "3"}, {"size": "512"}, {"size": "512"}]}}}}}, {"name": "StatefulPartitionedCall/model/generate_stereo_layer/DEC2/conv2d_22/BiasAdd_1/Cast", "op": "Const", "attr": {"dtype": {"type": "DT_HALF"}, "value": {"tensor": {"dtype": "DT_HALF", "tensorShape": {"dim": [{"size": "512"}]}}}}}, {"name": "StatefulPartitionedCall/model/generate_stereo_layer/DEC2/add_noise_15/Cast_1", "op": "Const", "attr": {"value": {"tensor": {"dtype": "DT_HALF", "tensorShape": {"dim": [{"size": "1"}]}}}, "dtype": {"type": "DT_HALF"}}}, {"name": "StatefulPartitionedCall/model/generate_stereo_layer/DEC2/add_noise_15/random_normal_1/shape", "op": "Const", "attr": {"dtype": {"type": "DT_INT32"}, "value": {"tensor": {"dtype": "DT_INT32", "tensorShape": {"dim": [{"size": "4"}]}}}}}, {"name": "StatefulPartitionedCall/model/generate_stereo_layer/DEC2/conv2d_transpose_8/BiasAdd_1/Cast", "op": "Const", "attr": {"value": {"tensor": {"dtype": "DT_HALF", "tensorShape": {"dim": [{"size": "384"}]}}}, "dtype": {"type": "DT_HALF"}}}, {"name": "StatefulPartitionedCall/model/generate_stereo_layer/DEC2/add_noise_16/Cast_1", "op": "Const", "attr": {"value": {"tensor": {"dtype": "DT_HALF", "tensorShape": {"dim": [{"size": "1"}]}}}, "dtype": {"type": "DT_HALF"}}}, {"name": "StatefulPartitionedCall/model/generate_stereo_layer/DEC2/add_noise_16/random_normal_1/shape", "op": "Const", "attr": {"value": {"tensor": {"dtype": "DT_INT32", "tensorShape": {"dim": [{"size": "4"}]}}}, "dtype": {"type": "DT_INT32"}}}, {"name": "StatefulPartitionedCall/model/generate_stereo_layer/DEC2/conv2d_transpose_9/BiasAdd_1/Cast", "op": "Const", "attr": {"dtype": {"type": "DT_HALF"}, "value": {"tensor": {"dtype": "DT_HALF", "tensorShape": {"dim": [{"size": "256"}]}}}}}, {"name": "StatefulPartitionedCall/model/generate_stereo_layer/DEC2/add_noise_17/Cast_1", "op": "Const", "attr": {"dtype": {"type": "DT_HALF"}, "value": {"tensor": {"dtype": "DT_HALF", "tensorShape": {"dim": [{"size": "1"}]}}}}}, {"name": "StatefulPartitionedCall/model/generate_stereo_layer/DEC2/add_noise_17/random_normal_1/shape", "op": "Const", "attr": {"dtype": {"type": "DT_INT32"}, "value": {"tensor": {"dtype": "DT_INT32", "tensorShape": {"dim": [{"size": "4"}]}}}}}, {"name": "StatefulPartitionedCall/model/generate_stereo_layer/DEC2/cout/Conv2D_1/Cast", "op": "Const", "attr": {"value": {"tensor": {"dtype": "DT_HALF", "tensorShape": {"dim": [{"size": "1"}, {"size": "1"}, {"size": "256"}, {"size": "64"}]}}}, "dtype": {"type": "DT_HALF"}}}, {"name": "StatefulPartitionedCall/model/generate_stereo_layer/DEC2/cout/BiasAdd_1/Cast", "op": "Const", "attr": {"dtype": {"type": "DT_HALF"}, "value": {"tensor": {"dtype": "DT_HALF", "tensorShape": {"dim": [{"size": "64"}]}}}}}, {"name": "StatefulPartitionedCall/model/generate_stereo_layer/DEC2/tf.concat_8/concat_1/axis", "op": "Const", "attr": {"dtype": {"type": "DT_INT32"}, "value": {"tensor": {"dtype": "DT_INT32", "tensorShape": {}}}}}, {"name": "StatefulPartitionedCall/model/generate_stereo_layer/concat_16/axis", "op": "Const", "attr": {"dtype": {"type": "DT_INT32"}, "value": {"tensor": {"dtype": "DT_INT32", "tensorShape": {}}}}}, {"name": "StatefulPartitionedCall/model/generate_stereo_layer/DEC/conv2d_6/Conv2D_1/Cast", "op": "Const", "attr": {"value": {"tensor": {"dtype": "DT_HALF", "tensorShape": {"dim": [{"size": "1"}, {"size": "3"}, {"size": "64"}, {"size": "768"}]}}}, "dtype": {"type": "DT_HALF"}}}, {"name": "StatefulPartitionedCall/model/generate_stereo_layer/DEC/conv2d_6/BiasAdd_1/Cast", "op": "Const", "attr": {"dtype": {"type": "DT_HALF"}, "value": {"tensor": {"dtype": "DT_HALF", "tensorShape": {"dim": [{"size": "768"}]}}}}}, {"name": "StatefulPartitionedCall/model/generate_stereo_layer/DEC/add_noise/Cast_1", "op": "Const", "attr": {"dtype": {"type": "DT_HALF"}, "value": {"tensor": {"dtype": "DT_HALF", "tensorShape": {"dim": [{"size": "1"}]}}}}}, {"name": "StatefulPartitionedCall/model/generate_stereo_layer/DEC/add_noise/random_normal_1/shape", "op": "Const", "attr": {"value": {"tensor": {"dtype": "DT_INT32", "tensorShape": {"dim": [{"size": "4"}]}}}, "dtype": {"type": "DT_INT32"}}}, {"name": "StatefulPartitionedCall/model/generate_stereo_layer/DEC/conv2d_7/Conv2D_1/Cast", "op": "Const", "attr": {"dtype": {"type": "DT_HALF"}, "value": {"tensor": {"dtype": "DT_HALF", "tensorShape": {"dim": [{"size": "1"}, {"size": "3"}, {"size": "768"}, {"size": "768"}]}}}}}, {"name": "StatefulPartitionedCall/model/generate_stereo_layer/DEC/conv2d_7/BiasAdd_1/Cast", "op": "Const", "attr": {"value": {"tensor": {"dtype": "DT_HALF", "tensorShape": {"dim": [{"size": "768"}]}}}, "dtype": {"type": "DT_HALF"}}}, {"name": "StatefulPartitionedCall/model/generate_stereo_layer/DEC/add_noise_1/Cast_1", "op": "Const", "attr": {"value": {"tensor": {"dtype": "DT_HALF", "tensorShape": {"dim": [{"size": "1"}]}}}, "dtype": {"type": "DT_HALF"}}}, {"name": "StatefulPartitionedCall/model/generate_stereo_layer/DEC/add_noise_1/random_normal_1/shape", "op": "Const", "attr": {"dtype": {"type": "DT_INT32"}, "value": {"tensor": {"dtype": "DT_INT32", "tensorShape": {"dim": [{"size": "4"}]}}}}}, {"name": "StatefulPartitionedCall/model/generate_stereo_layer/DEC/conv2d_transpose_3/BiasAdd_1/Cast", "op": "Const", "attr": {"dtype": {"type": "DT_HALF"}, "value": {"tensor": {"dtype": "DT_HALF", "tensorShape": {"dim": [{"size": "768"}]}}}}}, {"name": "StatefulPartitionedCall/model/generate_stereo_layer/DEC/add_noise_8/Cast_1", "op": "Const", "attr": {"dtype": {"type": "DT_HALF"}, "value": {"tensor": {"dtype": "DT_HALF", "tensorShape": {"dim": [{"size": "1"}]}}}}}, {"name": "StatefulPartitionedCall/model/generate_stereo_layer/DEC/add_noise_8/random_normal_1/shape", "op": "Const", "attr": {"dtype": {"type": "DT_INT32"}, "value": {"tensor": {"dtype": "DT_INT32", "tensorShape": {"dim": [{"size": "4"}]}}}}}, {"name": "StatefulPartitionedCall/model/generate_stereo_layer/DEC/conv2d_12/Conv2D_1/Cast", "op": "Const", "attr": {"dtype": {"type": "DT_HALF"}, "value": {"tensor": {"dtype": "DT_HALF", "tensorShape": {"dim": [{"size": "1"}, {"size": "1"}, {"size": "768"}, {"size": "513"}]}}}}}, {"name": "StatefulPartitionedCall/model/generate_stereo_layer/DEC/conv2d_12/BiasAdd_1/Cast", "op": "Const", "attr": {"dtype": {"type": "DT_HALF"}, "value": {"tensor": {"dtype": "DT_HALF", "tensorShape": {"dim": [{"size": "513"}]}}}}}, {"name": "StatefulPartitionedCall/model/generate_stereo_layer/DEC/tf.clip_by_value_1/clip_by_value_1/Minimum/y", "op": "Const", "attr": {"value": {"tensor": {"dtype": "DT_HALF", "tensorShape": {}}}, "dtype": {"type": "DT_HALF"}}}, {"name": "StatefulPartitionedCall/model/generate_stereo_layer/DEC/tf.clip_by_value_1/clip_by_value_1/y", "op": "Const", "attr": {"value": {"tensor": {"dtype": "DT_HALF", "tensorShape": {}}}, "dtype": {"type": "DT_HALF"}}}, {"name": "StatefulPartitionedCall/model/generate_stereo_layer/DEC/tf.concat_4/concat_1/axis", "op": "Const", "attr": {"dtype": {"type": "DT_INT32"}, "value": {"tensor": {"dtype": "DT_INT32", "tensorShape": {}}}}}, {"name": "StatefulPartitionedCall/model/generate_stereo_layer/DEC/tf.compat.v1.transpose_6/transpose_1/perm", "op": "Const", "attr": {"value": {"tensor": {"dtype": "DT_INT32", "tensorShape": {"dim": [{"size": "4"}]}}}, "dtype": {"type": "DT_INT32"}}}, {"name": "StatefulPartitionedCall/model/generate_stereo_layer/mul_7/y", "op": "Const", "attr": {"dtype": {"type": "DT_FLOAT"}, "value": {"tensor": {"dtype": "DT_FLOAT", "tensorShape": {}}}}}, {"name": "StatefulPartitionedCall/model/generate_stereo_layer/concat_20/axis", "op": "Const", "attr": {"dtype": {"type": "DT_INT32"}, "value": {"tensor": {"dtype": "DT_INT32", "tensorShape": {}}}}}, {"name": "input_8", "op": "Placeholder", "attr": {"dtype": {"type": "DT_FLOAT"}, "shape": {"shape": {"dim": [{"size": "-1"}, {"size": "1"}]}}}}, {"name": "StatefulPartitionedCall/model/generate_stereo_layer/DEC/add_noise_9/random_normal/RandomStandardNormal", "op": "RandomStandardNormal", "input": ["StatefulPartitionedCall/model/generate_stereo_layer/DEC/add_noise_9/random_normal/shape"], "attr": {"seed2": {"i": "0"}, "dtype": {"type": "DT_HALF"}, "seed": {"i": "0"}, "T": {"type": "DT_INT32"}}}, {"name": "StatefulPartitionedCall/model/generate_stereo_layer/DEC/add_noise_10/random_normal/RandomStandardNormal", "op": "RandomStandardNormal", "input": ["StatefulPartitionedCall/model/generate_stereo_layer/DEC/add_noise_10/random_normal/shape"], "attr": {"T": {"type": "DT_INT32"}, "seed": {"i": "0"}, "seed2": {"i": "0"}, "dtype": {"type": "DT_HALF"}}}, {"name": "StatefulPartitionedCall/model/generate_stereo_layer/DEC/add_noise_3/random_normal/RandomStandardNormal", "op": "RandomStandardNormal", "input": ["StatefulPartitionedCall/model/generate_stereo_layer/DEC/add_noise_3/random_normal/shape"], "attr": {"seed2": {"i": "0"}, "dtype": {"type": "DT_HALF"}, "T": {"type": "DT_INT32"}, "seed": {"i": "0"}}}, {"name": "StatefulPartitionedCall/model/generate_stereo_layer/DEC/add_noise_6/random_normal/RandomStandardNormal", "op": "RandomStandardNormal", "input": ["StatefulPartitionedCall/model/generate_stereo_layer/DEC/add_noise_6/random_normal/shape"], "attr": {"dtype": {"type": "DT_HALF"}, "T": {"type": "DT_INT32"}, "seed2": {"i": "0"}, "seed": {"i": "0"}}}, {"name": "StatefulPartitionedCall/model/generate_stereo_layer/DEC/add_noise_2/random_normal/RandomStandardNormal", "op": "RandomStandardNormal", "input": ["StatefulPartitionedCall/model/generate_stereo_layer/DEC/add_noise_2/random_normal/shape"], "attr": {"T": {"type": "DT_INT32"}, "seed2": {"i": "0"}, "seed": {"i": "0"}, "dtype": {"type": "DT_HALF"}}}, {"name": "StatefulPartitionedCall/model/generate_stereo_layer/DEC/add_noise_7/random_normal/RandomStandardNormal", "op": "RandomStandardNormal", "input": ["StatefulPartitionedCall/model/generate_stereo_layer/DEC/add_noise_7/random_normal/shape"], "attr": {"seed": {"i": "0"}, "seed2": {"i": "0"}, "T": {"type": "DT_INT32"}, "dtype": {"type": "DT_HALF"}}}, {"name": "StatefulPartitionedCall/model/generate_stereo_layer/DEC2/add_noise_11/random_normal/RandomStandardNormal", "op": "RandomStandardNormal", "input": ["StatefulPartitionedCall/model/generate_stereo_layer/DEC2/add_noise_11/random_normal/shape"], "attr": {"dtype": {"type": "DT_HALF"}, "T": {"type": "DT_INT32"}, "seed": {"i": "0"}, "seed2": {"i": "0"}}}, {"name": "StatefulPartitionedCall/model/generate_stereo_layer/DEC2/add_noise_12/random_normal/RandomStandardNormal", "op": "RandomStandardNormal", "input": ["StatefulPartitionedCall/model/generate_stereo_layer/DEC2/add_noise_12/random_normal/shape"], "attr": {"seed2": {"i": "0"}, "dtype": {"type": "DT_HALF"}, "T": {"type": "DT_INT32"}, "seed": {"i": "0"}}}, {"name": "StatefulPartitionedCall/model/generate_stereo_layer/DEC2/add_noise_13/random_normal/RandomStandardNormal", "op": "RandomStandardNormal", "input": ["StatefulPartitionedCall/model/generate_stereo_layer/DEC2/add_noise_13/random_normal/shape"], "attr": {"T": {"type": "DT_INT32"}, "seed": {"i": "0"}, "seed2": {"i": "0"}, "dtype": {"type": "DT_HALF"}}}, {"name": "StatefulPartitionedCall/model/generate_stereo_layer/DEC2/add_noise_14/random_normal/RandomStandardNormal", "op": "RandomStandardNormal", "input": ["StatefulPartitionedCall/model/generate_stereo_layer/DEC2/add_noise_14/random_normal/shape"], "attr": {"seed2": {"i": "0"}, "seed": {"i": "0"}, "dtype": {"type": "DT_HALF"}, "T": {"type": "DT_INT32"}}}, {"name": "StatefulPartitionedCall/model/generate_stereo_layer/DEC2/add_noise_15/random_normal/RandomStandardNormal", "op": "RandomStandardNormal", "input": ["StatefulPartitionedCall/model/generate_stereo_layer/DEC2/add_noise_15/random_normal/shape"], "attr": {"seed2": {"i": "0"}, "T": {"type": "DT_INT32"}, "seed": {"i": "0"}, "dtype": {"type": "DT_HALF"}}}, {"name": "StatefulPartitionedCall/model/generate_stereo_layer/DEC2/add_noise_16/random_normal/RandomStandardNormal", "op": "RandomStandardNormal", "input": ["StatefulPartitionedCall/model/generate_stereo_layer/DEC2/add_noise_16/random_normal/shape"], "attr": {"seed2": {"i": "0"}, "seed": {"i": "0"}, "dtype": {"type": "DT_HALF"}, "T": {"type": "DT_INT32"}}}, {"name": "StatefulPartitionedCall/model/generate_stereo_layer/DEC2/add_noise_17/random_normal/RandomStandardNormal", "op": "RandomStandardNormal", "input": ["StatefulPartitionedCall/model/generate_stereo_layer/DEC2/add_noise_17/random_normal/shape"], "attr": {"seed": {"i": "0"}, "T": {"type": "DT_INT32"}, "dtype": {"type": "DT_HALF"}, "seed2": {"i": "0"}}}, {"name": "StatefulPartitionedCall/model/generate_stereo_layer/DEC/add_noise/random_normal/RandomStandardNormal", "op": "RandomStandardNormal", "input": ["StatefulPartitionedCall/model/generate_stereo_layer/DEC/add_noise/random_normal/shape"], "attr": {"T": {"type": "DT_INT32"}, "seed": {"i": "0"}, "dtype": {"type": "DT_HALF"}, "seed2": {"i": "0"}}}, {"name": "StatefulPartitionedCall/model/generate_stereo_layer/DEC/add_noise_1/random_normal/RandomStandardNormal", "op": "RandomStandardNormal", "input": ["StatefulPartitionedCall/model/generate_stereo_layer/DEC/add_noise_1/random_normal/shape"], "attr": {"T": {"type": "DT_INT32"}, "seed2": {"i": "0"}, "dtype": {"type": "DT_HALF"}, "seed": {"i": "0"}}}, {"name": "StatefulPartitionedCall/model/generate_stereo_layer/DEC/add_noise_8/random_normal/RandomStandardNormal", "op": "RandomStandardNormal", "input": ["StatefulPartitionedCall/model/generate_stereo_layer/DEC/add_noise_8/random_normal/shape"], "attr": {"dtype": {"type": "DT_HALF"}, "seed2": {"i": "0"}, "T": {"type": "DT_INT32"}, "seed": {"i": "0"}}}, {"name": "StatefulPartitionedCall/model/generate_stereo_layer/DEC/add_noise_9/random_normal_1/RandomStandardNormal", "op": "RandomStandardNormal", "input": ["StatefulPartitionedCall/model/generate_stereo_layer/DEC/add_noise_9/random_normal_1/shape"], "attr": {"dtype": {"type": "DT_HALF"}, "seed2": {"i": "0"}, "T": {"type": "DT_INT32"}, "seed": {"i": "0"}}}, {"name": "StatefulPartitionedCall/model/generate_stereo_layer/DEC/add_noise_10/random_normal_1/RandomStandardNormal", "op": "RandomStandardNormal", "input": ["StatefulPartitionedCall/model/generate_stereo_layer/DEC/add_noise_10/random_normal_1/shape"], "attr": {"seed": {"i": "0"}, "seed2": {"i": "0"}, "dtype": {"type": "DT_HALF"}, "T": {"type": "DT_INT32"}}}, {"name": "StatefulPartitionedCall/model/generate_stereo_layer/DEC/add_noise_3/random_normal_1/RandomStandardNormal", "op": "RandomStandardNormal", "input": ["StatefulPartitionedCall/model/generate_stereo_layer/DEC/add_noise_3/random_normal_1/shape"], "attr": {"dtype": {"type": "DT_HALF"}, "seed2": {"i": "0"}, "T": {"type": "DT_INT32"}, "seed": {"i": "0"}}}, {"name": "StatefulPartitionedCall/model/generate_stereo_layer/DEC/add_noise_6/random_normal_1/RandomStandardNormal", "op": "RandomStandardNormal", "input": ["StatefulPartitionedCall/model/generate_stereo_layer/DEC/add_noise_6/random_normal_1/shape"], "attr": {"seed": {"i": "0"}, "seed2": {"i": "0"}, "T": {"type": "DT_INT32"}, "dtype": {"type": "DT_HALF"}}}, {"name": "StatefulPartitionedCall/model/generate_stereo_layer/DEC/add_noise_2/random_normal_1/RandomStandardNormal", "op": "RandomStandardNormal", "input": ["StatefulPartitionedCall/model/generate_stereo_layer/DEC/add_noise_2/random_normal_1/shape"], "attr": {"dtype": {"type": "DT_HALF"}, "seed": {"i": "0"}, "T": {"type": "DT_INT32"}, "seed2": {"i": "0"}}}, {"name": "StatefulPartitionedCall/model/generate_stereo_layer/DEC/add_noise_7/random_normal_1/RandomStandardNormal", "op": "RandomStandardNormal", "input": ["StatefulPartitionedCall/model/generate_stereo_layer/DEC/add_noise_7/random_normal_1/shape"], "attr": {"seed2": {"i": "0"}, "seed": {"i": "0"}, "dtype": {"type": "DT_HALF"}, "T": {"type": "DT_INT32"}}}, {"name": "StatefulPartitionedCall/model/generate_stereo_layer/GEN/6r/random_normal/RandomStandardNormal", "op": "RandomStandardNormal", "input": ["StatefulPartitionedCall/model/generate_stereo_layer/GEN/6r/random_normal/shape"], "attr": {"seed2": {"i": "0"}, "seed": {"i": "0"}, "dtype": {"type": "DT_HALF"}, "T": {"type": "DT_INT32"}}}, {"name": "StatefulPartitionedCall/model/generate_stereo_layer/GEN/7r/random_normal/RandomStandardNormal", "op": "RandomStandardNormal", "input": ["StatefulPartitionedCall/model/generate_stereo_layer/GEN/7r/random_normal/shape"], "attr": {"seed": {"i": "0"}, "T": {"type": "DT_INT32"}, "dtype": {"type": "DT_HALF"}, "seed2": {"i": "0"}}}, {"name": "StatefulPartitionedCall/model/generate_stereo_layer/GEN/4r/random_normal/RandomStandardNormal", "op": "RandomStandardNormal", "input": ["StatefulPartitionedCall/model/generate_stereo_layer/GEN/4r/random_normal/shape"], "attr": {"seed2": {"i": "0"}, "seed": {"i": "0"}, "T": {"type": "DT_INT32"}, "dtype": {"type": "DT_HALF"}}}, {"name": "StatefulPartitionedCall/model/generate_stereo_layer/GEN/5r/random_normal/RandomStandardNormal", "op": "RandomStandardNormal", "input": ["StatefulPartitionedCall/model/generate_stereo_layer/GEN/5r/random_normal/shape"], "attr": {"seed": {"i": "0"}, "T": {"type": "DT_INT32"}, "seed2": {"i": "0"}, "dtype": {"type": "DT_HALF"}}}, {"name": "StatefulPartitionedCall/model/generate_stereo_layer/GEN/2r/random_normal/RandomStandardNormal", "op": "RandomStandardNormal", "input": ["StatefulPartitionedCall/model/generate_stereo_layer/GEN/2r/random_normal/shape"], "attr": {"T": {"type": "DT_INT32"}, "seed": {"i": "0"}, "seed2": {"i": "0"}, "dtype": {"type": "DT_HALF"}}}, {"name": "StatefulPartitionedCall/model/generate_stereo_layer/GEN/3r/random_normal/RandomStandardNormal", "op": "RandomStandardNormal", "input": ["StatefulPartitionedCall/model/generate_stereo_layer/GEN/3r/random_normal/shape"], "attr": {"seed": {"i": "0"}, "seed2": {"i": "0"}, "T": {"type": "DT_INT32"}, "dtype": {"type": "DT_HALF"}}}, {"name": "StatefulPartitionedCall/model/generate_stereo_layer/GEN/0r/random_normal/RandomStandardNormal", "op": "RandomStandardNormal", "input": ["StatefulPartitionedCall/model/generate_stereo_layer/GEN/0r/random_normal/shape"], "attr": {"dtype": {"type": "DT_HALF"}, "T": {"type": "DT_INT32"}, "seed2": {"i": "0"}, "seed": {"i": "0"}}}, {"name": "StatefulPartitionedCall/model/generate_stereo_layer/GEN/1r/random_normal/RandomStandardNormal", "op": "RandomStandardNormal", "input": ["StatefulPartitionedCall/model/generate_stereo_layer/GEN/1r/random_normal/shape"], "attr": {"seed": {"i": "0"}, "dtype": {"type": "DT_HALF"}, "T": {"type": "DT_INT32"}, "seed2": {"i": "0"}}}, {"name": "StatefulPartitionedCall/model/generate_stereo_layer/GEN/00n/random_normal/RandomStandardNormal", "op": "RandomStandardNormal", "input": ["StatefulPartitionedCall/model/generate_stereo_layer/GEN/00n/random_normal/shape"], "attr": {"T": {"type": "DT_INT32"}, "seed": {"i": "0"}, "dtype": {"type": "DT_HALF"}, "seed2": {"i": "0"}}}, {"name": "StatefulPartitionedCall/model/generate_stereo_layer/GEN/8r/random_normal/RandomStandardNormal", "op": "RandomStandardNormal", "input": ["StatefulPartitionedCall/model/generate_stereo_layer/GEN/8r/random_normal/shape"], "attr": {"dtype": {"type": "DT_HALF"}, "T": {"type": "DT_INT32"}, "seed2": {"i": "0"}, "seed": {"i": "0"}}}, {"name": "StatefulPartitionedCall/model/generate_stereo_layer/random_normal_1/RandomStandardNormal", "op": "RandomStandardNormal", "input": ["StatefulPartitionedCall/model/generate_stereo_layer/random_normal_1/shape"], "attr": {"T": {"type": "DT_INT32"}, "seed2": {"i": "0"}, "seed": {"i": "0"}, "dtype": {"type": "DT_FLOAT"}}}, {"name": "StatefulPartitionedCall/model/generate_stereo_layer/random_normal_2/RandomStandardNormal", "op": "RandomStandardNormal", "input": ["StatefulPartitionedCall/model/generate_stereo_layer/random_normal_2/shape"], "attr": {"dtype": {"type": "DT_FLOAT"}, "T": {"type": "DT_INT32"}, "seed2": {"i": "0"}, "seed": {"i": "0"}}}, {"name": "StatefulPartitionedCall/model/generate_stereo_layer/random_normal_3/RandomStandardNormal", "op": "RandomStandardNormal", "input": ["StatefulPartitionedCall/model/generate_stereo_layer/random_normal_3/shape"], "attr": {"dtype": {"type": "DT_FLOAT"}, "seed2": {"i": "0"}, "seed": {"i": "0"}, "T": {"type": "DT_INT32"}}}, {"name": "StatefulPartitionedCall/model/generate_stereo_layer/random_normal/RandomStandardNormal", "op": "RandomStandardNormal", "input": ["StatefulPartitionedCall/model/generate_stereo_layer/random_normal/shape"], "attr": {"seed": {"i": "0"}, "dtype": {"type": "DT_FLOAT"}, "seed2": {"i": "0"}, "T": {"type": "DT_INT32"}}}, {"name": "StatefulPartitionedCall/model/generate_stereo_layer/random_uniform", "op": "RandomUniformInt", "input": ["StatefulPartitionedCall/model/generate_stereo_layer/random_uniform/shape", "StatefulPartitionedCall/model/generate_stereo_layer/random_uniform/min", "StatefulPartitionedCall/model/generate_stereo_layer/random_uniform/max"], "attr": {"seed2": {"i": "0"}, "T": {"type": "DT_INT32"}, "seed": {"i": "0"}, "Tout": {"type": "DT_INT32"}}}, {"name": "StatefulPartitionedCall/model/generate_stereo_layer/DEC2/add_noise_11/random_normal_1/RandomStandardNormal", "op": "RandomStandardNormal", "input": ["StatefulPartitionedCall/model/generate_stereo_layer/DEC2/add_noise_11/random_normal_1/shape"], "attr": {"T": {"type": "DT_INT32"}, "seed": {"i": "0"}, "seed2": {"i": "0"}, "dtype": {"type": "DT_HALF"}}}, {"name": "StatefulPartitionedCall/model/generate_stereo_layer/DEC2/add_noise_12/random_normal_1/RandomStandardNormal", "op": "RandomStandardNormal", "input": ["StatefulPartitionedCall/model/generate_stereo_layer/DEC2/add_noise_12/random_normal_1/shape"], "attr": {"seed": {"i": "0"}, "dtype": {"type": "DT_HALF"}, "seed2": {"i": "0"}, "T": {"type": "DT_INT32"}}}, {"name": "StatefulPartitionedCall/model/generate_stereo_layer/DEC2/add_noise_13/random_normal_1/RandomStandardNormal", "op": "RandomStandardNormal", "input": ["StatefulPartitionedCall/model/generate_stereo_layer/DEC2/add_noise_13/random_normal_1/shape"], "attr": {"dtype": {"type": "DT_HALF"}, "seed2": {"i": "0"}, "seed": {"i": "0"}, "T": {"type": "DT_INT32"}}}, {"name": "StatefulPartitionedCall/model/generate_stereo_layer/DEC2/add_noise_14/random_normal_1/RandomStandardNormal", "op": "RandomStandardNormal", "input": ["StatefulPartitionedCall/model/generate_stereo_layer/DEC2/add_noise_14/random_normal_1/shape"], "attr": {"seed2": {"i": "0"}, "T": {"type": "DT_INT32"}, "dtype": {"type": "DT_HALF"}, "seed": {"i": "0"}}}, {"name": "StatefulPartitionedCall/model/generate_stereo_layer/DEC2/add_noise_15/random_normal_1/RandomStandardNormal", "op": "RandomStandardNormal", "input": ["StatefulPartitionedCall/model/generate_stereo_layer/DEC2/add_noise_15/random_normal_1/shape"], "attr": {"seed": {"i": "0"}, "seed2": {"i": "0"}, "dtype": {"type": "DT_HALF"}, "T": {"type": "DT_INT32"}}}, {"name": "StatefulPartitionedCall/model/generate_stereo_layer/DEC2/add_noise_16/random_normal_1/RandomStandardNormal", "op": "RandomStandardNormal", "input": ["StatefulPartitionedCall/model/generate_stereo_layer/DEC2/add_noise_16/random_normal_1/shape"], "attr": {"T": {"type": "DT_INT32"}, "dtype": {"type": "DT_HALF"}, "seed": {"i": "0"}, "seed2": {"i": "0"}}}, {"name": "StatefulPartitionedCall/model/generate_stereo_layer/DEC2/add_noise_17/random_normal_1/RandomStandardNormal", "op": "RandomStandardNormal", "input": ["StatefulPartitionedCall/model/generate_stereo_layer/DEC2/add_noise_17/random_normal_1/shape"], "attr": {"seed": {"i": "0"}, "dtype": {"type": "DT_HALF"}, "seed2": {"i": "0"}, "T": {"type": "DT_INT32"}}}, {"name": "StatefulPartitionedCall/model/generate_stereo_layer/DEC/add_noise/random_normal_1/RandomStandardNormal", "op": "RandomStandardNormal", "input": ["StatefulPartitionedCall/model/generate_stereo_layer/DEC/add_noise/random_normal_1/shape"], "attr": {"T": {"type": "DT_INT32"}, "seed": {"i": "0"}, "dtype": {"type": "DT_HALF"}, "seed2": {"i": "0"}}}, {"name": "StatefulPartitionedCall/model/generate_stereo_layer/DEC/add_noise_1/random_normal_1/RandomStandardNormal", "op": "RandomStandardNormal", "input": ["StatefulPartitionedCall/model/generate_stereo_layer/DEC/add_noise_1/random_normal_1/shape"], "attr": {"T": {"type": "DT_INT32"}, "seed": {"i": "0"}, "dtype": {"type": "DT_HALF"}, "seed2": {"i": "0"}}}, {"name": "StatefulPartitionedCall/model/generate_stereo_layer/DEC/add_noise_8/random_normal_1/RandomStandardNormal", "op": "RandomStandardNormal", "input": ["StatefulPartitionedCall/model/generate_stereo_layer/DEC/add_noise_8/random_normal_1/shape"], "attr": {"T": {"type": "DT_INT32"}, "seed": {"i": "0"}, "seed2": {"i": "0"}, "dtype": {"type": "DT_HALF"}}}, {"name": "StatefulPartitionedCall/model/generate_stereo_layer/DEC/add_noise_9/mul", "op": "Mul", "input": ["StatefulPartitionedCall/model/generate_stereo_layer/DEC/add_noise_9/Cast", "StatefulPartitionedCall/model/generate_stereo_layer/DEC/add_noise_9/random_normal/RandomStandardNormal"], "attr": {"T": {"type": "DT_HALF"}}}, {"name": "StatefulPartitionedCall/model/generate_stereo_layer/DEC/add_noise_10/mul", "op": "Mul", "input": ["StatefulPartitionedCall/model/generate_stereo_layer/DEC/add_noise_10/Cast", "StatefulPartitionedCall/model/generate_stereo_layer/DEC/add_noise_10/random_normal/RandomStandardNormal"], "attr": {"T": {"type": "DT_HALF"}}}, {"name": "StatefulPartitionedCall/model/generate_stereo_layer/DEC/add_noise_3/mul", "op": "Mul", "input": ["StatefulPartitionedCall/model/generate_stereo_layer/DEC/add_noise_3/Cast", "StatefulPartitionedCall/model/generate_stereo_layer/DEC/add_noise_3/random_normal/RandomStandardNormal"], "attr": {"T": {"type": "DT_HALF"}}}, {"name": "StatefulPartitionedCall/model/generate_stereo_layer/DEC/add_noise_6/mul", "op": "Mul", "input": ["StatefulPartitionedCall/model/generate_stereo_layer/DEC/add_noise_6/Cast", "StatefulPartitionedCall/model/generate_stereo_layer/DEC/add_noise_6/random_normal/RandomStandardNormal"], "attr": {"T": {"type": "DT_HALF"}}}, {"name": "StatefulPartitionedCall/model/generate_stereo_layer/DEC/add_noise_2/mul", "op": "Mul", "input": ["StatefulPartitionedCall/model/generate_stereo_layer/DEC/add_noise_2/Cast", "StatefulPartitionedCall/model/generate_stereo_layer/DEC/add_noise_2/random_normal/RandomStandardNormal"], "attr": {"T": {"type": "DT_HALF"}}}, {"name": "StatefulPartitionedCall/model/generate_stereo_layer/DEC/add_noise_7/mul", "op": "Mul", "input": ["StatefulPartitionedCall/model/generate_stereo_layer/DEC/add_noise_7/Cast", "StatefulPartitionedCall/model/generate_stereo_layer/DEC/add_noise_7/random_normal/RandomStandardNormal"], "attr": {"T": {"type": "DT_HALF"}}}, {"name": "StatefulPartitionedCall/model/generate_stereo_layer/DEC2/add_noise_11/mul", "op": "Mul", "input": ["StatefulPartitionedCall/model/generate_stereo_layer/DEC2/add_noise_11/Cast", "StatefulPartitionedCall/model/generate_stereo_layer/DEC2/add_noise_11/random_normal/RandomStandardNormal"], "attr": {"T": {"type": "DT_HALF"}}}, {"name": "StatefulPartitionedCall/model/generate_stereo_layer/DEC2/add_noise_12/mul", "op": "Mul", "input": ["StatefulPartitionedCall/model/generate_stereo_layer/DEC2/add_noise_12/Cast", "StatefulPartitionedCall/model/generate_stereo_layer/DEC2/add_noise_12/random_normal/RandomStandardNormal"], "attr": {"T": {"type": "DT_HALF"}}}, {"name": "StatefulPartitionedCall/model/generate_stereo_layer/DEC2/add_noise_13/mul", "op": "Mul", "input": ["StatefulPartitionedCall/model/generate_stereo_layer/DEC2/add_noise_13/Cast", "StatefulPartitionedCall/model/generate_stereo_layer/DEC2/add_noise_13/random_normal/RandomStandardNormal"], "attr": {"T": {"type": "DT_HALF"}}}, {"name": "StatefulPartitionedCall/model/generate_stereo_layer/DEC2/add_noise_14/mul", "op": "Mul", "input": ["StatefulPartitionedCall/model/generate_stereo_layer/DEC2/add_noise_14/Cast", "StatefulPartitionedCall/model/generate_stereo_layer/DEC2/add_noise_14/random_normal/RandomStandardNormal"], "attr": {"T": {"type": "DT_HALF"}}}, {"name": "StatefulPartitionedCall/model/generate_stereo_layer/DEC2/add_noise_15/mul", "op": "Mul", "input": ["StatefulPartitionedCall/model/generate_stereo_layer/DEC2/add_noise_15/Cast", "StatefulPartitionedCall/model/generate_stereo_layer/DEC2/add_noise_15/random_normal/RandomStandardNormal"], "attr": {"T": {"type": "DT_HALF"}}}, {"name": "StatefulPartitionedCall/model/generate_stereo_layer/DEC2/add_noise_16/mul", "op": "Mul", "input": ["StatefulPartitionedCall/model/generate_stereo_layer/DEC2/add_noise_16/Cast", "StatefulPartitionedCall/model/generate_stereo_layer/DEC2/add_noise_16/random_normal/RandomStandardNormal"], "attr": {"T": {"type": "DT_HALF"}}}, {"name": "StatefulPartitionedCall/model/generate_stereo_layer/DEC2/add_noise_17/mul", "op": "Mul", "input": ["StatefulPartitionedCall/model/generate_stereo_layer/DEC2/add_noise_17/Cast", "StatefulPartitionedCall/model/generate_stereo_layer/DEC2/add_noise_17/random_normal/RandomStandardNormal"], "attr": {"T": {"type": "DT_HALF"}}}, {"name": "StatefulPartitionedCall/model/generate_stereo_layer/DEC/add_noise/mul", "op": "Mul", "input": ["StatefulPartitionedCall/model/generate_stereo_layer/DEC/add_noise/Cast", "StatefulPartitionedCall/model/generate_stereo_layer/DEC/add_noise/random_normal/RandomStandardNormal"], "attr": {"T": {"type": "DT_HALF"}}}, {"name": "StatefulPartitionedCall/model/generate_stereo_layer/DEC/add_noise_1/mul", "op": "Mul", "input": ["StatefulPartitionedCall/model/generate_stereo_layer/DEC/add_noise_1/Cast", "StatefulPartitionedCall/model/generate_stereo_layer/DEC/add_noise_1/random_normal/RandomStandardNormal"], "attr": {"T": {"type": "DT_HALF"}}}, {"name": "StatefulPartitionedCall/model/generate_stereo_layer/DEC/add_noise_8/mul", "op": "Mul", "input": ["StatefulPartitionedCall/model/generate_stereo_layer/DEC/add_noise_8/Cast", "StatefulPartitionedCall/model/generate_stereo_layer/DEC/add_noise_8/random_normal/RandomStandardNormal"], "attr": {"T": {"type": "DT_HALF"}}}, {"name": "StatefulPartitionedCall/model/generate_stereo_layer/DEC/add_noise_9/mul_1", "op": "Mul", "input": ["StatefulPartitionedCall/model/generate_stereo_layer/DEC/add_noise_9/Cast_1", "StatefulPartitionedCall/model/generate_stereo_layer/DEC/add_noise_9/random_normal_1/RandomStandardNormal"], "attr": {"T": {"type": "DT_HALF"}}}, {"name": "StatefulPartitionedCall/model/generate_stereo_layer/DEC/add_noise_10/mul_1", "op": "Mul", "input": ["StatefulPartitionedCall/model/generate_stereo_layer/DEC/add_noise_10/Cast_1", "StatefulPartitionedCall/model/generate_stereo_layer/DEC/add_noise_10/random_normal_1/RandomStandardNormal"], "attr": {"T": {"type": "DT_HALF"}}}, {"name": "StatefulPartitionedCall/model/generate_stereo_layer/DEC/add_noise_3/mul_1", "op": "Mul", "input": ["StatefulPartitionedCall/model/generate_stereo_layer/DEC/add_noise_3/Cast_1", "StatefulPartitionedCall/model/generate_stereo_layer/DEC/add_noise_3/random_normal_1/RandomStandardNormal"], "attr": {"T": {"type": "DT_HALF"}}}, {"name": "StatefulPartitionedCall/model/generate_stereo_layer/DEC/add_noise_6/mul_1", "op": "Mul", "input": ["StatefulPartitionedCall/model/generate_stereo_layer/DEC/add_noise_6/Cast_1", "StatefulPartitionedCall/model/generate_stereo_layer/DEC/add_noise_6/random_normal_1/RandomStandardNormal"], "attr": {"T": {"type": "DT_HALF"}}}, {"name": "StatefulPartitionedCall/model/generate_stereo_layer/DEC/add_noise_2/mul_1", "op": "Mul", "input": ["StatefulPartitionedCall/model/generate_stereo_layer/DEC/add_noise_2/Cast_1", "StatefulPartitionedCall/model/generate_stereo_layer/DEC/add_noise_2/random_normal_1/RandomStandardNormal"], "attr": {"T": {"type": "DT_HALF"}}}, {"name": "StatefulPartitionedCall/model/generate_stereo_layer/DEC/add_noise_7/mul_1", "op": "Mul", "input": ["StatefulPartitionedCall/model/generate_stereo_layer/DEC/add_noise_7/Cast_1", "StatefulPartitionedCall/model/generate_stereo_layer/DEC/add_noise_7/random_normal_1/RandomStandardNormal"], "attr": {"T": {"type": "DT_HALF"}}}, {"name": "StatefulPartitionedCall/model/generate_stereo_layer/GEN/6r/mul", "op": "Mul", "input": ["StatefulPartitionedCall/model/generate_stereo_layer/GEN/6r/Cast", "StatefulPartitionedCall/model/generate_stereo_layer/GEN/6r/random_normal/RandomStandardNormal"], "attr": {"T": {"type": "DT_HALF"}}}, {"name": "StatefulPartitionedCall/model/generate_stereo_layer/GEN/7r/mul", "op": "Mul", "input": ["StatefulPartitionedCall/model/generate_stereo_layer/GEN/7r/Cast", "StatefulPartitionedCall/model/generate_stereo_layer/GEN/7r/random_normal/RandomStandardNormal"], "attr": {"T": {"type": "DT_HALF"}}}, {"name": "StatefulPartitionedCall/model/generate_stereo_layer/GEN/4r/mul", "op": "Mul", "input": ["StatefulPartitionedCall/model/generate_stereo_layer/GEN/4r/Cast", "StatefulPartitionedCall/model/generate_stereo_layer/GEN/4r/random_normal/RandomStandardNormal"], "attr": {"T": {"type": "DT_HALF"}}}, {"name": "StatefulPartitionedCall/model/generate_stereo_layer/GEN/5r/mul", "op": "Mul", "input": ["StatefulPartitionedCall/model/generate_stereo_layer/GEN/5r/Cast", "StatefulPartitionedCall/model/generate_stereo_layer/GEN/5r/random_normal/RandomStandardNormal"], "attr": {"T": {"type": "DT_HALF"}}}, {"name": "StatefulPartitionedCall/model/generate_stereo_layer/GEN/2r/mul", "op": "Mul", "input": ["StatefulPartitionedCall/model/generate_stereo_layer/GEN/2r/Cast", "StatefulPartitionedCall/model/generate_stereo_layer/GEN/2r/random_normal/RandomStandardNormal"], "attr": {"T": {"type": "DT_HALF"}}}, {"name": "StatefulPartitionedCall/model/generate_stereo_layer/GEN/3r/mul", "op": "Mul", "input": ["StatefulPartitionedCall/model/generate_stereo_layer/GEN/3r/Cast", "StatefulPartitionedCall/model/generate_stereo_layer/GEN/3r/random_normal/RandomStandardNormal"], "attr": {"T": {"type": "DT_HALF"}}}, {"name": "StatefulPartitionedCall/model/generate_stereo_layer/GEN/0r/mul", "op": "Mul", "input": ["StatefulPartitionedCall/model/generate_stereo_layer/GEN/0r/Cast", "StatefulPartitionedCall/model/generate_stereo_layer/GEN/0r/random_normal/RandomStandardNormal"], "attr": {"T": {"type": "DT_HALF"}}}, {"name": "StatefulPartitionedCall/model/generate_stereo_layer/GEN/1r/mul", "op": "Mul", "input": ["StatefulPartitionedCall/model/generate_stereo_layer/GEN/1r/Cast", "StatefulPartitionedCall/model/generate_stereo_layer/GEN/1r/random_normal/RandomStandardNormal"], "attr": {"T": {"type": "DT_HALF"}}}, {"name": "StatefulPartitionedCall/model/generate_stereo_layer/GEN/00n/mul", "op": "Mul", "input": ["StatefulPartitionedCall/model/generate_stereo_layer/GEN/00n/Cast", "StatefulPartitionedCall/model/generate_stereo_layer/GEN/00n/random_normal/RandomStandardNormal"], "attr": {"T": {"type": "DT_HALF"}}}, {"name": "StatefulPartitionedCall/model/generate_stereo_layer/GEN/8r/mul", "op": "Mul", "input": ["StatefulPartitionedCall/model/generate_stereo_layer/GEN/8r/Cast", "StatefulPartitionedCall/model/generate_stereo_layer/GEN/8r/random_normal/RandomStandardNormal"], "attr": {"T": {"type": "DT_HALF"}}}, {"name": "StatefulPartitionedCall/model/generate_stereo_layer/concat", "op": "ConcatV2", "input": ["StatefulPartitionedCall/model/generate_stereo_layer/random_normal_1/RandomStandardNormal", "StatefulPartitionedCall/model/generate_stereo_layer/random_normal/RandomStandardNormal", "StatefulPartitionedCall/model/generate_stereo_layer/concat/axis"], "attr": {"Tidx": {"type": "DT_INT32"}, "N": {"i": "2"}, "T": {"type": "DT_FLOAT"}}}, {"name": "StatefulPartitionedCall/model/generate_stereo_layer/concat_1", "op": "ConcatV2", "input": ["StatefulPartitionedCall/model/generate_stereo_layer/random_normal_2/RandomStandardNormal", "StatefulPartitionedCall/model/generate_stereo_layer/random_normal/RandomStandardNormal", "StatefulPartitionedCall/model/generate_stereo_layer/concat_1/axis"], "attr": {"N": {"i": "2"}, "Tidx": {"type": "DT_INT32"}, "T": {"type": "DT_FLOAT"}}}, {"name": "StatefulPartitionedCall/model/generate_stereo_layer/concat_2", "op": "ConcatV2", "input": ["StatefulPartitionedCall/model/generate_stereo_layer/random_normal_3/RandomStandardNormal", "StatefulPartitionedCall/model/generate_stereo_layer/random_normal/RandomStandardNormal", "StatefulPartitionedCall/model/generate_stereo_layer/concat_2/axis"], "attr": {"T": {"type": "DT_FLOAT"}, "N": {"i": "2"}, "Tidx": {"type": "DT_INT32"}}}, {"name": "StatefulPartitionedCall/model/generate_stereo_layer/Equal", "op": "Equal", "input": ["StatefulPartitionedCall/model/generate_stereo_layer/random_uniform", "StatefulPartitionedCall/model/generate_stereo_layer/Equal/y"], "attr": {"T": {"type": "DT_INT32"}, "incompatible_shape_error": {"b": false}}}, {"name": "StatefulPartitionedCall/model/generate_stereo_layer/DEC2/add_noise_11/mul_1", "op": "Mul", "input": ["StatefulPartitionedCall/model/generate_stereo_layer/DEC2/add_noise_11/Cast_1", "StatefulPartitionedCall/model/generate_stereo_layer/DEC2/add_noise_11/random_normal_1/RandomStandardNormal"], "attr": {"T": {"type": "DT_HALF"}}}, {"name": "StatefulPartitionedCall/model/generate_stereo_layer/DEC2/add_noise_12/mul_1", "op": "Mul", "input": ["StatefulPartitionedCall/model/generate_stereo_layer/DEC2/add_noise_12/Cast_1", "StatefulPartitionedCall/model/generate_stereo_layer/DEC2/add_noise_12/random_normal_1/RandomStandardNormal"], "attr": {"T": {"type": "DT_HALF"}}}, {"name": "StatefulPartitionedCall/model/generate_stereo_layer/DEC2/add_noise_13/mul_1", "op": "Mul", "input": ["StatefulPartitionedCall/model/generate_stereo_layer/DEC2/add_noise_13/Cast_1", "StatefulPartitionedCall/model/generate_stereo_layer/DEC2/add_noise_13/random_normal_1/RandomStandardNormal"], "attr": {"T": {"type": "DT_HALF"}}}, {"name": "StatefulPartitionedCall/model/generate_stereo_layer/DEC2/add_noise_14/mul_1", "op": "Mul", "input": ["StatefulPartitionedCall/model/generate_stereo_layer/DEC2/add_noise_14/Cast_1", "StatefulPartitionedCall/model/generate_stereo_layer/DEC2/add_noise_14/random_normal_1/RandomStandardNormal"], "attr": {"T": {"type": "DT_HALF"}}}, {"name": "StatefulPartitionedCall/model/generate_stereo_layer/DEC2/add_noise_15/mul_1", "op": "Mul", "input": ["StatefulPartitionedCall/model/generate_stereo_layer/DEC2/add_noise_15/Cast_1", "StatefulPartitionedCall/model/generate_stereo_layer/DEC2/add_noise_15/random_normal_1/RandomStandardNormal"], "attr": {"T": {"type": "DT_HALF"}}}, {"name": "StatefulPartitionedCall/model/generate_stereo_layer/DEC2/add_noise_16/mul_1", "op": "Mul", "input": ["StatefulPartitionedCall/model/generate_stereo_layer/DEC2/add_noise_16/Cast_1", "StatefulPartitionedCall/model/generate_stereo_layer/DEC2/add_noise_16/random_normal_1/RandomStandardNormal"], "attr": {"T": {"type": "DT_HALF"}}}, {"name": "StatefulPartitionedCall/model/generate_stereo_layer/DEC2/add_noise_17/mul_1", "op": "Mul", "input": ["StatefulPartitionedCall/model/generate_stereo_layer/DEC2/add_noise_17/Cast_1", "StatefulPartitionedCall/model/generate_stereo_layer/DEC2/add_noise_17/random_normal_1/RandomStandardNormal"], "attr": {"T": {"type": "DT_HALF"}}}, {"name": "StatefulPartitionedCall/model/generate_stereo_layer/DEC/add_noise/mul_1", "op": "Mul", "input": ["StatefulPartitionedCall/model/generate_stereo_layer/DEC/add_noise/Cast_1", "StatefulPartitionedCall/model/generate_stereo_layer/DEC/add_noise/random_normal_1/RandomStandardNormal"], "attr": {"T": {"type": "DT_HALF"}}}, {"name": "StatefulPartitionedCall/model/generate_stereo_layer/DEC/add_noise_1/mul_1", "op": "Mul", "input": ["StatefulPartitionedCall/model/generate_stereo_layer/DEC/add_noise_1/Cast_1", "StatefulPartitionedCall/model/generate_stereo_layer/DEC/add_noise_1/random_normal_1/RandomStandardNormal"], "attr": {"T": {"type": "DT_HALF"}}}, {"name": "StatefulPartitionedCall/model/generate_stereo_layer/DEC/add_noise_8/mul_1", "op": "Mul", "input": ["StatefulPartitionedCall/model/generate_stereo_layer/DEC/add_noise_8/Cast_1", "StatefulPartitionedCall/model/generate_stereo_layer/DEC/add_noise_8/random_normal_1/RandomStandardNormal"], "attr": {"T": {"type": "DT_HALF"}}}, {"name": "StatefulPartitionedCall/model/generate_stereo_layer/linspace/ExpandDims", "op": "ExpandDims", "input": ["StatefulPartitionedCall/model/generate_stereo_layer/concat", "StatefulPartitionedCall/model/generate_stereo_layer/linspace/ExpandDims/dim"], "attr": {"T": {"type": "DT_FLOAT"}, "Tdim": {"type": "DT_INT32"}}}, {"name": "StatefulPartitionedCall/model/generate_stereo_layer/linspace/ExpandDims_1", "op": "ExpandDims", "input": ["StatefulPartitionedCall/model/generate_stereo_layer/concat_1", "StatefulPartitionedCall/model/generate_stereo_layer/linspace/ExpandDims_1/dim"], "attr": {"Tdim": {"type": "DT_INT32"}, "T": {"type": "DT_FLOAT"}}}, {"name": "StatefulPartitionedCall/model/generate_stereo_layer/linspace_1/ExpandDims", "op": "ExpandDims", "input": ["StatefulPartitionedCall/model/generate_stereo_layer/concat_1", "StatefulPartitionedCall/model/generate_stereo_layer/linspace_1/ExpandDims/dim"], "attr": {"Tdim": {"type": "DT_INT32"}, "T": {"type": "DT_FLOAT"}}}, {"name": "StatefulPartitionedCall/model/generate_stereo_layer/linspace_1/ExpandDims_1", "op": "ExpandDims", "input": ["StatefulPartitionedCall/model/generate_stereo_layer/concat_2", "StatefulPartitionedCall/model/generate_stereo_layer/linspace_1/ExpandDims_1/dim"], "attr": {"T": {"type": "DT_FLOAT"}, "Tdim": {"type": "DT_INT32"}}}, {"name": "StatefulPartitionedCall/model/generate_stereo_layer/cond/StatefulPartitionedCall/model/generate_stereo_layer/random_uniform/_132", "op": "Switch", "input": ["StatefulPartitionedCall/model/generate_stereo_layer/random_uniform", "StatefulPartitionedCall/model/generate_stereo_layer/Equal"], "attr": {"T": {"type": "DT_INT32"}}}, {"name": "StatefulPartitionedCall/model/generate_stereo_layer/cond/switch_pred/_128", "op": "Switch", "input": ["StatefulPartitionedCall/model/generate_stereo_layer/Equal", "StatefulPartitionedCall/model/generate_stereo_layer/Equal"], "attr": {"T": {"type": "DT_BOOL"}}}, {"name": "StatefulPartitionedCall/model/generate_stereo_layer/linspace/sub_2", "op": "Sub", "input": ["StatefulPartitionedCall/model/generate_stereo_layer/linspace/ExpandDims_1", "StatefulPartitionedCall/model/generate_stereo_layer/linspace/ExpandDims"], "attr": {"T": {"type": "DT_FLOAT"}}}, {"name": "StatefulPartitionedCall/model/generate_stereo_layer/linspace_1/sub_2", "op": "Sub", "input": ["StatefulPartitionedCall/model/generate_stereo_layer/linspace_1/ExpandDims_1", "StatefulPartitionedCall/model/generate_stereo_layer/linspace_1/ExpandDims"], "attr": {"T": {"type": "DT_FLOAT"}}}, {"name": "StatefulPartitionedCall/model/generate_stereo_layer/cond/pivot_f/_129", "op": "Identity", "input": ["StatefulPartitionedCall/model/generate_stereo_layer/cond/switch_pred/_128"], "attr": {"T": {"type": "DT_BOOL"}, "_has_manual_control_dependencies": {"b": true}}}, {"name": "StatefulPartitionedCall/model/generate_stereo_layer/cond/pivot_t/_130", "op": "Identity", "input": ["StatefulPartitionedCall/model/generate_stereo_layer/cond/switch_pred/_128:1"], "attr": {"T": {"type": "DT_BOOL"}, "_has_manual_control_dependencies": {"b": true}}}, {"name": "StatefulPartitionedCall/model/generate_stereo_layer/linspace/mul", "op": "Mul", "input": ["StatefulPartitionedCall/model/generate_stereo_layer/linspace/sub_2", "StatefulPartitionedCall/model/generate_stereo_layer/linspace/truediv"], "attr": {"T": {"type": "DT_FLOAT"}}}, {"name": "StatefulPartitionedCall/model/generate_stereo_layer/linspace_1/mul", "op": "Mul", "input": ["StatefulPartitionedCall/model/generate_stereo_layer/linspace_1/sub_2", "StatefulPartitionedCall/model/generate_stereo_layer/linspace_1/truediv"], "attr": {"T": {"type": "DT_FLOAT"}}}, {"name": "StatefulPartitionedCall/model/generate_stereo_layer/cond/else/_127/model/generate_stereo_layer/cond/Equal/y", "op": "Const", "input": ["^StatefulPartitionedCall/model/generate_stereo_layer/cond/pivot_f/_129"], "attr": {"value": {"tensor": {"dtype": "DT_INT32", "tensorShape": {}}}, "dtype": {"type": "DT_INT32"}}}, {"name": "StatefulPartitionedCall/model/generate_stereo_layer/cond/then/_126/model/generate_stereo_layer/cond/strided_slice/stack", "op": "Const", "input": ["^StatefulPartitionedCall/model/generate_stereo_layer/cond/pivot_t/_130"], "attr": {"value": {"tensor": {"dtype": "DT_INT32", "tensorShape": {"dim": [{"size": "3"}]}}}, "dtype": {"type": "DT_INT32"}}}, {"name": "StatefulPartitionedCall/model/generate_stereo_layer/cond/then/_126/model/generate_stereo_layer/cond/strided_slice/stack_1", "op": "Const", "input": ["^StatefulPartitionedCall/model/generate_stereo_layer/cond/pivot_t/_130"], "attr": {"dtype": {"type": "DT_INT32"}, "value": {"tensor": {"dtype": "DT_INT32", "tensorShape": {"dim": [{"size": "3"}]}}}}}, {"name": "StatefulPartitionedCall/model/generate_stereo_layer/cond/then/_126/model/generate_stereo_layer/cond/strided_slice/stack_2", "op": "Const", "input": ["^StatefulPartitionedCall/model/generate_stereo_layer/cond/pivot_t/_130"], "attr": {"value": {"tensor": {"dtype": "DT_INT32", "tensorShape": {"dim": [{"size": "3"}]}}}, "dtype": {"type": "DT_INT32"}}}, {"name": "StatefulPartitionedCall/model/generate_stereo_layer/linspace/add_1", "op": "AddV2", "input": ["StatefulPartitionedCall/model/generate_stereo_layer/linspace/ExpandDims", "StatefulPartitionedCall/model/generate_stereo_layer/linspace/mul"], "attr": {"T": {"type": "DT_FLOAT"}}}, {"name": "StatefulPartitionedCall/model/generate_stereo_layer/linspace_1/add_1", "op": "AddV2", "input": ["StatefulPartitionedCall/model/generate_stereo_layer/linspace_1/ExpandDims", "StatefulPartitionedCall/model/generate_stereo_layer/linspace_1/mul"], "attr": {"T": {"type": "DT_FLOAT"}}}, {"name": "StatefulPartitionedCall/model/generate_stereo_layer/cond/else/_127/model/generate_stereo_layer/cond/Equal", "op": "Equal", "input": ["StatefulPartitionedCall/model/generate_stereo_layer/cond/StatefulPartitionedCall/model/generate_stereo_layer/random_uniform/_132", "StatefulPartitionedCall/model/generate_stereo_layer/cond/else/_127/model/generate_stereo_layer/cond/Equal/y"], "attr": {"incompatible_shape_error": {"b": false}, "T": {"type": "DT_INT32"}}}, {"name": "StatefulPartitionedCall/model/generate_stereo_layer/linspace/concat", "op": "ConcatV2", "input": ["StatefulPartitionedCall/model/generate_stereo_layer/linspace/ExpandDims", "StatefulPartitionedCall/model/generate_stereo_layer/linspace/add_1", "StatefulPartitionedCall/model/generate_stereo_layer/linspace/ExpandDims_1", "StatefulPartitionedCall/model/generate_stereo_layer/linspace/SelectV2"], "attr": {"Tidx": {"type": "DT_INT32"}, "T": {"type": "DT_FLOAT"}, "N": {"i": "3"}}}, {"name": "StatefulPartitionedCall/model/generate_stereo_layer/linspace_1/concat", "op": "ConcatV2", "input": ["StatefulPartitionedCall/model/generate_stereo_layer/linspace_1/ExpandDims", "StatefulPartitionedCall/model/generate_stereo_layer/linspace_1/add_1", "StatefulPartitionedCall/model/generate_stereo_layer/linspace_1/ExpandDims_1", "StatefulPartitionedCall/model/generate_stereo_layer/linspace_1/SelectV2"], "attr": {"Tidx": {"type": "DT_INT32"}, "T": {"type": "DT_FLOAT"}, "N": {"i": "3"}}}, {"name": "StatefulPartitionedCall/model/generate_stereo_layer/cond/else/_127/model/generate_stereo_layer/cond/cond/switch_pred/_147", "op": "Switch", "input": ["StatefulPartitionedCall/model/generate_stereo_layer/cond/else/_127/model/generate_stereo_layer/cond/Equal", "StatefulPartitionedCall/model/generate_stereo_layer/cond/else/_127/model/generate_stereo_layer/cond/Equal"], "attr": {"T": {"type": "DT_BOOL"}}}, {"name": "StatefulPartitionedCall/model/generate_stereo_layer/strided_slice", "op": "StridedSlice", "input": ["StatefulPartitionedCall/model/generate_stereo_layer/linspace/concat", "StatefulPartitionedCall/model/generate_stereo_layer/strided_slice/stack", "StatefulPartitionedCall/model/generate_stereo_layer/strided_slice/stack_1", "StatefulPartitionedCall/model/generate_stereo_layer/strided_slice/stack_2"], "attr": {"begin_mask": {"i": "7"}, "ellipsis_mask": {"i": "0"}, "Index": {"type": "DT_INT32"}, "end_mask": {"i": "5"}, "T": {"type": "DT_FLOAT"}, "shrink_axis_mask": {"i": "0"}, "new_axis_mask": {"i": "0"}}}, {"name": "StatefulPartitionedCall/model/generate_stereo_layer/cond/else/_127/model/generate_stereo_layer/cond/cond/pivot_f/_148", "op": "Identity", "input": ["StatefulPartitionedCall/model/generate_stereo_layer/cond/else/_127/model/generate_stereo_layer/cond/cond/switch_pred/_147"], "attr": {"_has_manual_control_dependencies": {"b": true}, "T": {"type": "DT_BOOL"}}}, {"name": "StatefulPartitionedCall/model/generate_stereo_layer/cond/else/_127/model/generate_stereo_layer/cond/cond/pivot_t/_149", "op": "Identity", "input": ["StatefulPartitionedCall/model/generate_stereo_layer/cond/else/_127/model/generate_stereo_layer/cond/cond/switch_pred/_147:1"], "attr": {"_has_manual_control_dependencies": {"b": true}, "T": {"type": "DT_BOOL"}}}, {"name": "StatefulPartitionedCall/model/generate_stereo_layer/concat_3", "op": "ConcatV2", "input": ["StatefulPartitionedCall/model/generate_stereo_layer/strided_slice", "StatefulPartitionedCall/model/generate_stereo_layer/linspace_1/concat", "StatefulPartitionedCall/model/generate_stereo_layer/concat_3/axis"], "attr": {"Tidx": {"type": "DT_INT32"}, "N": {"i": "2"}, "T": {"type": "DT_FLOAT"}}}, {"name": "StatefulPartitionedCall/model/generate_stereo_layer/cond/else/_127/model/generate_stereo_layer/cond/cond/else/_146/model/generate_stereo_layer/cond/cond/strided_slice/stack", "op": "Const", "input": ["^StatefulPartitionedCall/model/generate_stereo_layer/cond/else/_127/model/generate_stereo_layer/cond/cond/pivot_f/_148"], "attr": {"value": {"tensor": {"dtype": "DT_INT32", "tensorShape": {"dim": [{"size": "3"}]}}}, "dtype": {"type": "DT_INT32"}}}, {"name": "StatefulPartitionedCall/model/generate_stereo_layer/cond/else/_127/model/generate_stereo_layer/cond/cond/else/_146/model/generate_stereo_layer/cond/cond/strided_slice/stack_1", "op": "Const", "input": ["^StatefulPartitionedCall/model/generate_stereo_layer/cond/else/_127/model/generate_stereo_layer/cond/cond/pivot_f/_148"], "attr": {"dtype": {"type": "DT_INT32"}, "value": {"tensor": {"dtype": "DT_INT32", "tensorShape": {"dim": [{"size": "3"}]}}}}}, {"name": "StatefulPartitionedCall/model/generate_stereo_layer/cond/else/_127/model/generate_stereo_layer/cond/cond/else/_146/model/generate_stereo_layer/cond/cond/strided_slice/stack_2", "op": "Const", "input": ["^StatefulPartitionedCall/model/generate_stereo_layer/cond/else/_127/model/generate_stereo_layer/cond/cond/pivot_f/_148"], "attr": {"value": {"tensor": {"dtype": "DT_INT32", "tensorShape": {"dim": [{"size": "3"}]}}}, "dtype": {"type": "DT_INT32"}}}, {"name": "StatefulPartitionedCall/model/generate_stereo_layer/cond/else/_127/model/generate_stereo_layer/cond/cond/then/_145/model/generate_stereo_layer/cond/cond/strided_slice/stack", "op": "Const", "input": ["^StatefulPartitionedCall/model/generate_stereo_layer/cond/else/_127/model/generate_stereo_layer/cond/cond/pivot_t/_149"], "attr": {"value": {"tensor": {"dtype": "DT_INT32", "tensorShape": {"dim": [{"size": "3"}]}}}, "dtype": {"type": "DT_INT32"}}}, {"name": "StatefulPartitionedCall/model/generate_stereo_layer/cond/else/_127/model/generate_stereo_layer/cond/cond/then/_145/model/generate_stereo_layer/cond/cond/strided_slice/stack_1", "op": "Const", "input": ["^StatefulPartitionedCall/model/generate_stereo_layer/cond/else/_127/model/generate_stereo_layer/cond/cond/pivot_t/_149"], "attr": {"value": {"tensor": {"dtype": "DT_INT32", "tensorShape": {"dim": [{"size": "3"}]}}}, "dtype": {"type": "DT_INT32"}}}, {"name": "StatefulPartitionedCall/model/generate_stereo_layer/cond/else/_127/model/generate_stereo_layer/cond/cond/then/_145/model/generate_stereo_layer/cond/cond/strided_slice/stack_2", "op": "Const", "input": ["^StatefulPartitionedCall/model/generate_stereo_layer/cond/else/_127/model/generate_stereo_layer/cond/cond/pivot_t/_149"], "attr": {"value": {"tensor": {"dtype": "DT_INT32", "tensorShape": {"dim": [{"size": "3"}]}}}, "dtype": {"type": "DT_INT32"}}}, {"name": "StatefulPartitionedCall/model/generate_stereo_layer/strided_slice_1", "op": "StridedSlice", "input": ["StatefulPartitionedCall/model/generate_stereo_layer/concat_3", "StatefulPartitionedCall/model/generate_stereo_layer/strided_slice_1/stack", "StatefulPartitionedCall/model/generate_stereo_layer/strided_slice_1/stack_1", "StatefulPartitionedCall/model/generate_stereo_layer/strided_slice_1/stack_2"], "attr": {"shrink_axis_mask": {"i": "0"}, "end_mask": {"i": "5"}, "begin_mask": {"i": "7"}, "Index": {"type": "DT_INT32"}, "T": {"type": "DT_FLOAT"}, "new_axis_mask": {"i": "0"}, "ellipsis_mask": {"i": "0"}}}, {"name": "StatefulPartitionedCall/model/generate_stereo_layer/strided_slice_2", "op": "StridedSlice", "input": ["StatefulPartitionedCall/model/generate_stereo_layer/concat_3", "StatefulPartitionedCall/model/generate_stereo_layer/strided_slice_2/stack", "StatefulPartitionedCall/model/generate_stereo_layer/strided_slice_2/stack_1", "StatefulPartitionedCall/model/generate_stereo_layer/strided_slice_2/stack_2"], "attr": {"shrink_axis_mask": {"i": "0"}, "new_axis_mask": {"i": "0"}, "ellipsis_mask": {"i": "0"}, "Index": {"type": "DT_INT32"}, "end_mask": {"i": "7"}, "T": {"type": "DT_FLOAT"}, "begin_mask": {"i": "5"}}}, {"name": "StatefulPartitionedCall/model/generate_stereo_layer/stack", "op": "Pack", "input": ["StatefulPartitionedCall/model/generate_stereo_layer/strided_slice_1", "StatefulPartitionedCall/model/generate_stereo_layer/strided_slice_2"], "attr": {"T": {"type": "DT_FLOAT"}, "axis": {"i": "0"}, "N": {"i": "2"}}}, {"name": "StatefulPartitionedCall/model/generate_stereo_layer/Mean", "op": "Mean", "input": ["StatefulPartitionedCall/model/generate_stereo_layer/stack", "StatefulPartitionedCall/model/generate_stereo_layer/Mean/reduction_indices"], "attr": {"Tidx": {"type": "DT_INT32"}, "keep_dims": {"b": false}, "T": {"type": "DT_FLOAT"}}}, {"name": "StatefulPartitionedCall/model/generate_stereo_layer/cond/StatefulPartitionedCall/model/generate_stereo_layer/Mean/_131", "op": "Switch", "input": ["StatefulPartitionedCall/model/generate_stereo_layer/Mean", "StatefulPartitionedCall/model/generate_stereo_layer/Equal"], "attr": {"T": {"type": "DT_FLOAT"}}}, {"name": "StatefulPartitionedCall/model/generate_stereo_layer/cond/else/_127/model/generate_stereo_layer/cond/cond/Func/StatefulPartitionedCall/model/generate_stereo_layer/cond/else/_127/input/_141/_150", "op": "Switch", "input": ["StatefulPartitionedCall/model/generate_stereo_layer/cond/StatefulPartitionedCall/model/generate_stereo_layer/Mean/_131", "StatefulPartitionedCall/model/generate_stereo_layer/cond/else/_127/model/generate_stereo_layer/cond/Equal"], "attr": {"T": {"type": "DT_FLOAT"}}}, {"name": "StatefulPartitionedCall/model/generate_stereo_layer/cond/then/_126/model/generate_stereo_layer/cond/strided_slice", "op": "StridedSlice", "input": ["StatefulPartitionedCall/model/generate_stereo_layer/cond/StatefulPartitionedCall/model/generate_stereo_layer/Mean/_131:1", "StatefulPartitionedCall/model/generate_stereo_layer/cond/then/_126/model/generate_stereo_layer/cond/strided_slice/stack", "StatefulPartitionedCall/model/generate_stereo_layer/cond/then/_126/model/generate_stereo_layer/cond/strided_slice/stack_1", "StatefulPartitionedCall/model/generate_stereo_layer/cond/then/_126/model/generate_stereo_layer/cond/strided_slice/stack_2"], "attr": {"begin_mask": {"i": "5"}, "end_mask": {"i": "5"}, "ellipsis_mask": {"i": "0"}, "T": {"type": "DT_FLOAT"}, "new_axis_mask": {"i": "0"}, "shrink_axis_mask": {"i": "0"}, "Index": {"type": "DT_INT32"}}}, {"name": "StatefulPartitionedCall/model/generate_stereo_layer/cond/else/_127/model/generate_stereo_layer/cond/cond/else/_146/model/generate_stereo_layer/cond/cond/strided_slice", "op": "StridedSlice", "input": ["StatefulPartitionedCall/model/generate_stereo_layer/cond/else/_127/model/generate_stereo_layer/cond/cond/Func/StatefulPartitionedCall/model/generate_stereo_layer/cond/else/_127/input/_141/_150", "StatefulPartitionedCall/model/generate_stereo_layer/cond/else/_127/model/generate_stereo_layer/cond/cond/else/_146/model/generate_stereo_layer/cond/cond/strided_slice/stack", "StatefulPartitionedCall/model/generate_stereo_layer/cond/else/_127/model/generate_stereo_layer/cond/cond/else/_146/model/generate_stereo_layer/cond/cond/strided_slice/stack_1", "StatefulPartitionedCall/model/generate_stereo_layer/cond/else/_127/model/generate_stereo_layer/cond/cond/else/_146/model/generate_stereo_layer/cond/cond/strided_slice/stack_2"], "attr": {"end_mask": {"i": "5"}, "begin_mask": {"i": "5"}, "Index": {"type": "DT_INT32"}, "shrink_axis_mask": {"i": "0"}, "T": {"type": "DT_FLOAT"}, "ellipsis_mask": {"i": "0"}, "new_axis_mask": {"i": "0"}}}, {"name": "StatefulPartitionedCall/model/generate_stereo_layer/cond/else/_127/model/generate_stereo_layer/cond/cond/then/_145/model/generate_stereo_layer/cond/cond/strided_slice", "op": "StridedSlice", "input": ["StatefulPartitionedCall/model/generate_stereo_layer/cond/else/_127/model/generate_stereo_layer/cond/cond/Func/StatefulPartitionedCall/model/generate_stereo_layer/cond/else/_127/input/_141/_150:1", "StatefulPartitionedCall/model/generate_stereo_layer/cond/else/_127/model/generate_stereo_layer/cond/cond/then/_145/model/generate_stereo_layer/cond/cond/strided_slice/stack", "StatefulPartitionedCall/model/generate_stereo_layer/cond/else/_127/model/generate_stereo_layer/cond/cond/then/_145/model/generate_stereo_layer/cond/cond/strided_slice/stack_1", "StatefulPartitionedCall/model/generate_stereo_layer/cond/else/_127/model/generate_stereo_layer/cond/cond/then/_145/model/generate_stereo_layer/cond/cond/strided_slice/stack_2"], "attr": {"Index": {"type": "DT_INT32"}, "T": {"type": "DT_FLOAT"}, "end_mask": {"i": "5"}, "begin_mask": {"i": "5"}, "new_axis_mask": {"i": "0"}, "ellipsis_mask": {"i": "0"}, "shrink_axis_mask": {"i": "0"}}}, {"name": "StatefulPartitionedCall/model/generate_stereo_layer/cond/else/_127/model/generate_stereo_layer/cond/cond/output/_151", "op": "Merge", "input": ["StatefulPartitionedCall/model/generate_stereo_layer/cond/else/_127/model/generate_stereo_layer/cond/cond/then/_145/model/generate_stereo_layer/cond/cond/strided_slice", "StatefulPartitionedCall/model/generate_stereo_layer/cond/else/_127/model/generate_stereo_layer/cond/cond/else/_146/model/generate_stereo_layer/cond/cond/strided_slice"], "attr": {"N": {"i": "2"}, "T": {"type": "DT_FLOAT"}}}, {"name": "StatefulPartitionedCall/model/generate_stereo_layer/cond/output/_133", "op": "Merge", "input": ["StatefulPartitionedCall/model/generate_stereo_layer/cond/then/_126/model/generate_stereo_layer/cond/strided_slice", "StatefulPartitionedCall/model/generate_stereo_layer/cond/else/_127/model/generate_stereo_layer/cond/cond/output/_151"], "attr": {"T": {"type": "DT_FLOAT"}, "N": {"i": "2"}}}, {"name": "StatefulPartitionedCall/model/generate_stereo_layer/GEN/tf.split_9/split", "op": "Split", "input": ["StatefulPartitionedCall/model/generate_stereo_layer/GEN/tf.split_9/split/split_dim", "StatefulPartitionedCall/model/generate_stereo_layer/cond/output/_133"], "attr": {"T": {"type": "DT_FLOAT"}, "num_split": {"i": "2"}}}, {"name": "StatefulPartitionedCall/model/generate_stereo_layer/GEN/tf.concat_9/concat", "op": "ConcatV2", "input": ["StatefulPartitionedCall/model/generate_stereo_layer/GEN/tf.split_9/split", "StatefulPartitionedCall/model/generate_stereo_layer/GEN/tf.split_9/split:1", "StatefulPartitionedCall/model/generate_stereo_layer/GEN/tf.concat_9/concat/axis"], "attr": {"T": {"type": "DT_FLOAT"}, "Tidx": {"type": "DT_INT32"}, "N": {"i": "2"}}}, {"name": "StatefulPartitionedCall/model/generate_stereo_layer/GEN/tf.expand_dims_2/ExpandDims", "op": "ExpandDims", "input": ["StatefulPartitionedCall/model/generate_stereo_layer/GEN/tf.concat_9/concat", "StatefulPartitionedCall/model/generate_stereo_layer/GEN/tf.expand_dims_2/ExpandDims/dim"], "attr": {"Tdim": {"type": "DT_INT32"}, "T": {"type": "DT_FLOAT"}}}, {"name": "StatefulPartitionedCall/model/generate_stereo_layer/GEN/tf.cast_8/Cast", "op": "Cast", "input": ["StatefulPartitionedCall/model/generate_stereo_layer/GEN/tf.concat_9/concat"], "attr": {"Truncate": {"b": false}, "SrcT": {"type": "DT_FLOAT"}, "DstT": {"type": "DT_HALF"}}}, {"name": "StatefulPartitionedCall/model/generate_stereo_layer/GEN/average_pooling2d_11/Cast", "op": "Cast", "input": ["StatefulPartitionedCall/model/generate_stereo_layer/GEN/tf.expand_dims_2/ExpandDims"], "attr": {"Truncate": {"b": false}, "SrcT": {"type": "DT_FLOAT"}, "DstT": {"type": "DT_HALF"}}}, {"name": "StatefulPartitionedCall/model/generate_stereo_layer/GEN/tf.expand_dims_3/ExpandDims", "op": "ExpandDims", "input": ["StatefulPartitionedCall/model/generate_stereo_layer/GEN/tf.cast_8/Cast", "StatefulPartitionedCall/model/generate_stereo_layer/GEN/tf.expand_dims_3/ExpandDims/dim"], "attr": {"Tdim": {"type": "DT_INT32"}, "T": {"type": "DT_HALF"}}}, {"name": "StatefulPartitionedCall/model/generate_stereo_layer/GEN/average_pooling2d_11/AvgPool", "op": "AvgPool", "input": ["StatefulPartitionedCall/model/generate_stereo_layer/GEN/average_pooling2d_11/Cast"], "attr": {"ksize": {"list": {"i": ["1", "1", "2", "1"]}}, "strides": {"list": {"i": ["1", "1", "2", "1"]}}, "T": {"type": "DT_HALF"}, "data_format": {"s": "TkhXQw=="}, "padding": {"s": "VkFMSUQ="}}}, {"name": "StatefulPartitionedCall/model/generate_stereo_layer/GEN/8ai/Conv2D", "op": "Conv2D", "input": ["StatefulPartitionedCall/model/generate_stereo_layer/GEN/tf.expand_dims_3/ExpandDims", "StatefulPartitionedCall/model/generate_stereo_layer/GEN/8ai/Conv2D/Cast"], "device": "/device:CPU:0", "attr": {"T": {"type": "DT_HALF"}, "strides": {"list": {"i": ["1", "1", "1", "1"]}}, "explicit_paddings": {"list": {}}, "padding": {"s": "U0FNRQ=="}, "_input_shapes": {"list": {"shape": [{"dim": [{"size": "2"}, {"size": "1"}, {"size": "128"}, {"size": "128"}]}, {"dim": [{"size": "1"}, {"size": "1"}, {"size": "128"}, {"size": "256"}]}]}}, "data_format": {"s": "TkhXQw=="}, "use_cudnn_on_gpu": {"b": true}, "dilations": {"list": {"i": ["1", "1", "1", "1"]}}}}, {"name": "StatefulPartitionedCall/model/generate_stereo_layer/GEN/6ai/Conv2D", "op": "Conv2D", "input": ["StatefulPartitionedCall/model/generate_stereo_layer/GEN/average_pooling2d_11/AvgPool", "StatefulPartitionedCall/model/generate_stereo_layer/GEN/6ai/Conv2D/Cast"], "device": "/device:CPU:0", "attr": {"T": {"type": "DT_HALF"}, "explicit_paddings": {"list": {}}, "use_cudnn_on_gpu": {"b": true}, "dilations": {"list": {"i": ["1", "1", "1", "1"]}}, "strides": {"list": {"i": ["1", "1", "1", "1"]}}, "data_format": {"s": "TkhXQw=="}, "_input_shapes": {"list": {"shape": [{"dim": [{"size": "2"}, {"size": "1"}, {"size": "64"}, {"size": "128"}]}, {"dim": [{"size": "1"}, {"size": "1"}, {"size": "128"}, {"size": "384"}]}]}}, "padding": {"s": "U0FNRQ=="}}}, {"name": "StatefulPartitionedCall/model/generate_stereo_layer/GEN/7ai/Conv2D", "op": "Conv2D", "input": ["StatefulPartitionedCall/model/generate_stereo_layer/GEN/average_pooling2d_11/AvgPool", "StatefulPartitionedCall/model/generate_stereo_layer/GEN/7ai/Conv2D/Cast"], "device": "/device:CPU:0", "attr": {"padding": {"s": "U0FNRQ=="}, "data_format": {"s": "TkhXQw=="}, "explicit_paddings": {"list": {}}, "T": {"type": "DT_HALF"}, "strides": {"list": {"i": ["1", "1", "1", "1"]}}, "use_cudnn_on_gpu": {"b": true}, "_input_shapes": {"list": {"shape": [{"dim": [{"size": "2"}, {"size": "1"}, {"size": "64"}, {"size": "128"}]}, {"dim": [{"size": "1"}, {"size": "1"}, {"size": "128"}, {"size": "384"}]}]}}, "dilations": {"list": {"i": ["1", "1", "1", "1"]}}}}, {"name": "StatefulPartitionedCall/model/generate_stereo_layer/GEN/average_pooling2d_12/AvgPool", "op": "AvgPool", "input": ["StatefulPartitionedCall/model/generate_stereo_layer/GEN/average_pooling2d_11/AvgPool"], "attr": {"T": {"type": "DT_HALF"}, "strides": {"list": {"i": ["1", "1", "2", "1"]}}, "data_format": {"s": "TkhXQw=="}, "ksize": {"list": {"i": ["1", "1", "2", "1"]}}, "padding": {"s": "VkFMSUQ="}}}, {"name": "StatefulPartitionedCall/model/generate_stereo_layer/GEN/8ai/BiasAdd", "op": "BiasAdd", "input": ["StatefulPartitionedCall/model/generate_stereo_layer/GEN/8ai/Conv2D", "StatefulPartitionedCall/model/generate_stereo_layer/GEN/8ai/BiasAdd/Cast"], "attr": {"T": {"type": "DT_HALF"}, "_input_shapes": {"list": {"shape": [{"dim": [{"size": "2"}, {"size": "1"}, {"size": "128"}, {"size": "256"}]}, {"dim": [{"size": "256"}]}]}}, "data_format": {"s": "TkhXQw=="}}}, {"name": "StatefulPartitionedCall/model/generate_stereo_layer/GEN/6ai/BiasAdd", "op": "BiasAdd", "input": ["StatefulPartitionedCall/model/generate_stereo_layer/GEN/6ai/Conv2D", "StatefulPartitionedCall/model/generate_stereo_layer/GEN/6ai/BiasAdd/Cast"], "attr": {"T": {"type": "DT_HALF"}, "_input_shapes": {"list": {"shape": [{"dim": [{"size": "2"}, {"size": "1"}, {"size": "64"}, {"size": "384"}]}, {"dim": [{"size": "384"}]}]}}, "data_format": {"s": "TkhXQw=="}}}, {"name": "StatefulPartitionedCall/model/generate_stereo_layer/GEN/7ai/BiasAdd", "op": "BiasAdd", "input": ["StatefulPartitionedCall/model/generate_stereo_layer/GEN/7ai/Conv2D", "StatefulPartitionedCall/model/generate_stereo_layer/GEN/7ai/BiasAdd/Cast"], "attr": {"_input_shapes": {"list": {"shape": [{"dim": [{"size": "2"}, {"size": "1"}, {"size": "64"}, {"size": "384"}]}, {"dim": [{"size": "384"}]}]}}, "data_format": {"s": "TkhXQw=="}, "T": {"type": "DT_HALF"}}}, {"name": "StatefulPartitionedCall/model/generate_stereo_layer/GEN/4ai/Conv2D", "op": "Conv2D", "input": ["StatefulPartitionedCall/model/generate_stereo_layer/GEN/average_pooling2d_12/AvgPool", "StatefulPartitionedCall/model/generate_stereo_layer/GEN/4ai/Conv2D/Cast"], "device": "/device:CPU:0", "attr": {"padding": {"s": "U0FNRQ=="}, "T": {"type": "DT_HALF"}, "data_format": {"s": "TkhXQw=="}, "dilations": {"list": {"i": ["1", "1", "1", "1"]}}, "use_cudnn_on_gpu": {"b": true}, "_input_shapes": {"list": {"shape": [{"dim": [{"size": "2"}, {"size": "1"}, {"size": "32"}, {"size": "128"}]}, {"dim": [{"size": "1"}, {"size": "1"}, {"size": "128"}, {"size": "512"}]}]}}, "strides": {"list": {"i": ["1", "1", "1", "1"]}}, "explicit_paddings": {"list": {}}}}, {"name": "StatefulPartitionedCall/model/generate_stereo_layer/GEN/5ai/Conv2D", "op": "Conv2D", "input": ["StatefulPartitionedCall/model/generate_stereo_layer/GEN/average_pooling2d_12/AvgPool", "StatefulPartitionedCall/model/generate_stereo_layer/GEN/5ai/Conv2D/Cast"], "device": "/device:CPU:0", "attr": {"strides": {"list": {"i": ["1", "1", "1", "1"]}}, "T": {"type": "DT_HALF"}, "dilations": {"list": {"i": ["1", "1", "1", "1"]}}, "_input_shapes": {"list": {"shape": [{"dim": [{"size": "2"}, {"size": "1"}, {"size": "32"}, {"size": "128"}]}, {"dim": [{"size": "1"}, {"size": "1"}, {"size": "128"}, {"size": "512"}]}]}}, "data_format": {"s": "TkhXQw=="}, "explicit_paddings": {"list": {}}, "use_cudnn_on_gpu": {"b": true}, "padding": {"s": "U0FNRQ=="}}}, {"name": "StatefulPartitionedCall/model/generate_stereo_layer/GEN/average_pooling2d_13/AvgPool", "op": "AvgPool", "input": ["StatefulPartitionedCall/model/generate_stereo_layer/GEN/average_pooling2d_12/AvgPool"], "attr": {"data_format": {"s": "TkhXQw=="}, "padding": {"s": "VkFMSUQ="}, "ksize": {"list": {"i": ["1", "1", "2", "1"]}}, "T": {"type": "DT_HALF"}, "strides": {"list": {"i": ["1", "1", "2", "1"]}}}}, {"name": "StatefulPartitionedCall/model/generate_stereo_layer/GEN/4ai/BiasAdd", "op": "BiasAdd", "input": ["StatefulPartitionedCall/model/generate_stereo_layer/GEN/4ai/Conv2D", "StatefulPartitionedCall/model/generate_stereo_layer/GEN/4ai/BiasAdd/Cast"], "attr": {"_input_shapes": {"list": {"shape": [{"dim": [{"size": "2"}, {"size": "1"}, {"size": "32"}, {"size": "512"}]}, {"dim": [{"size": "512"}]}…
pe": [4], "dtype": "int32"}, {"name": "StatefulPartitionedCall/model/generate_stereo_layer/mul/y", "shape": [], "dtype": "float32"}, {"name": "StatefulPartitionedCall/model/generate_stereo_layer/add/y", "shape": [], "dtype": "float32"}, {"name": "StatefulPartitionedCall/model/generate_stereo_layer/add_1/y", "shape": [], "dtype": "float32"}, {"name": "StatefulPartitionedCall/model/generate_stereo_layer/concat_11/axis", "shape": [], "dtype": "int32"}, {"name": "StatefulPartitionedCall/model/generate_stereo_layer/split_9/split_dim", "shape": [], "dtype": "int32"}, {"name": "StatefulPartitionedCall/model/generate_stereo_layer/Pow_1/x", "shape": [], "dtype": "float32"}, {"name": "StatefulPartitionedCall/model/generate_stereo_layer/mul_5/x", "shape": [], "dtype": "float32"}, {"name": "StatefulPartitionedCall/model/generate_stereo_layer/DEC/tf.split_3/split_1/split_dim", "shape": [], "dtype": "int32"}, {"name": "StatefulPartitionedCall/model/generate_stereo_layer/DEC/conv2d_11/Conv2D_1/Cast", "shape": [1, 1, 768, 513], "dtype": "float32"}, {"name": "StatefulPartitionedCall/model/generate_stereo_layer/DEC/conv2d_11/BiasAdd_1/Cast", "shape": [513], "dtype": "float32"}, {"name": "StatefulPartitionedCall/model/generate_stereo_layer/DEC/tf.clip_by_value/clip_by_value_1/Minimum/y", "shape": [], "dtype": "float32"}, {"name": "StatefulPartitionedCall/model/generate_stereo_layer/DEC/tf.clip_by_value/clip_by_value_1/y", "shape": [], "dtype": "float32"}, {"name": "StatefulPartitionedCall/model/generate_stereo_layer/DEC/tf.concat_3/concat_1/axis", "shape": [], "dtype": "int32"}, {"name": "StatefulPartitionedCall/model/generate_stereo_layer/DEC/tf.compat.v1.transpose_5/transpose_1/perm", "shape": [4], "dtype": "int32"}, {"name": "StatefulPartitionedCall/model/generate_stereo_layer/mul_4/y", "shape": [], "dtype": "float32"}, {"name": "StatefulPartitionedCall/model/generate_stereo_layer/add_2/y", "shape": [], "dtype": "float32"}, {"name": "StatefulPartitionedCall/model/generate_stereo_layer/add_3/y", "shape": [], "dtype": "float32"}, {"name": "StatefulPartitionedCall/model/generate_stereo_layer/concat_19/axis", "shape": [], "dtype": "int32"}, {"name": "StatefulPartitionedCall/model/generate_stereo_layer/split_5/split_dim", "shape": [], "dtype": "int32"}, {"name": "StatefulPartitionedCall/model/generate_stereo_layer/DEC/tf.split_4/split/split_dim", "shape": [], "dtype": "int32"}, {"name": "StatefulPartitionedCall/model/generate_stereo_layer/DEC/conv2d_transpose_5/stack", "shape": [4], "dtype": "int32"}, {"name": "StatefulPartitionedCall/model/generate_stereo_layer/DEC/conv2d_transpose_5/conv2d_transpose/Cast", "shape": [1, 4, 768, 768], "dtype": "float32"}, {"name": "StatefulPartitionedCall/model/generate_stereo_layer/DEC/conv2d_transpose_4/stack", "shape": [4], "dtype": "int32"}, {"name": "StatefulPartitionedCall/model/generate_stereo_layer/DEC/conv2d_transpose_4/conv2d_transpose/Cast", "shape": [1, 4, 768, 512], "dtype": "float32"}, {"name": "StatefulPartitionedCall/model/generate_stereo_layer/DEC/conv2d_transpose_4/BiasAdd/Cast", "shape": [768], "dtype": "float32"}, {"name": "StatefulPartitionedCall/model/generate_stereo_layer/DEC/add_noise_9/Cast", "shape": [1], "dtype": "float32"}, {"name": "StatefulPartitionedCall/model/generate_stereo_layer/DEC/add_noise_9/random_normal/shape", "shape": [4], "dtype": "int32"}, {"name": "StatefulPartitionedCall/model/generate_stereo_layer/DEC/conv2d_transpose_5/BiasAdd/Cast", "shape": [768], "dtype": "float32"}, {"name": "StatefulPartitionedCall/model/generate_stereo_layer/DEC/add_noise_10/Cast", "shape": [1], "dtype": "float32"}, {"name": "StatefulPartitionedCall/model/generate_stereo_layer/DEC/add_noise_10/random_normal/shape", "shape": [4], "dtype": "int32"}, {"name": "StatefulPartitionedCall/model/generate_stereo_layer/DEC/conv2d_transpose_3/stack", "shape": [4], "dtype": "int32"}, {"name": "StatefulPartitionedCall/model/generate_stereo_layer/DEC/conv2d_transpose_3/conv2d_transpose/Cast", "shape": [1, 4, 768, 768], "dtype": "float32"}, {"name": "StatefulPartitionedCall/model/generate_stereo_layer/DEC/conv2d_transpose_2/stack", "shape": [4], "dtype": "int32"}, {"name": "StatefulPartitionedCall/model/generate_stereo_layer/DEC/conv2d_transpose_2/conv2d_transpose/Cast", "shape": [1, 4, 768, 512], "dtype": "float32"}, {"name": "StatefulPartitionedCall/model/generate_stereo_layer/DEC/conv2d_transpose_1/stack", "shape": [4], "dtype": "int32"}, {"name": "StatefulPartitionedCall/model/generate_stereo_layer/DEC/conv2d_transpose_1/conv2d_transpose/Cast", "shape": [1, 4, 512, 256], "dtype": "float32"}, {"name": "StatefulPartitionedCall/model/generate_stereo_layer/DEC/conv2d_9/Conv2D/Cast", "shape": [1, 3, 512, 256], "dtype": "float32"}, {"name": "StatefulPartitionedCall/model/generate_stereo_layer/DEC/conv2d_9/BiasAdd/Cast", "shape": [256], "dtype": "float32"}, {"name": "StatefulPartitionedCall/model/generate_stereo_layer/DEC/add_noise_3/Cast", "shape": [1], "dtype": "float32"}, {"name": "StatefulPartitionedCall/model/generate_stereo_layer/DEC/add_noise_3/random_normal/shape", "shape": [4], "dtype": "int32"}, {"name": "StatefulPartitionedCall/model/generate_stereo_layer/DEC/conv2d_transpose_1/BiasAdd/Cast", "shape": [512], "dtype": "float32"}, {"name": "StatefulPartitionedCall/model/generate_stereo_layer/DEC/add_noise_6/Cast", "shape": [1], "dtype": "float32"}, {"name": "StatefulPartitionedCall/model/generate_stereo_layer/DEC/add_noise_6/random_normal/shape", "shape": [4], "dtype": "int32"}, {"name": "StatefulPartitionedCall/model/generate_stereo_layer/DEC/conv2d_8/Conv2D/Cast", "shape": [1, 3, 768, 512], "dtype": "float32"}, {"name": "StatefulPartitionedCall/model/generate_stereo_layer/DEC/conv2d_8/BiasAdd/Cast", "shape": [512], "dtype": "float32"}, {"name": "StatefulPartitionedCall/model/generate_stereo_layer/DEC/add_noise_2/Cast", "shape": [1], "dtype": "float32"}, {"name": "StatefulPartitionedCall/model/generate_stereo_layer/DEC/add_noise_2/random_normal/shape", "shape": [4], "dtype": "int32"}, {"name": "StatefulPartitionedCall/model/generate_stereo_layer/DEC/conv2d_transpose_2/BiasAdd/Cast", "shape": [768], "dtype": "float32"}, {"name": "StatefulPartitionedCall/model/generate_stereo_layer/DEC/add_noise_7/Cast", "shape": [1], "dtype": "float32"}, {"name": "StatefulPartitionedCall/model/generate_stereo_layer/DEC/add_noise_7/random_normal/shape", "shape": [4], "dtype": "int32"}, {"name": "StatefulPartitionedCall/model/generate_stereo_layer/split_3/split_dim", "shape": [], "dtype": "int32"}, {"name": "StatefulPartitionedCall/model/generate_stereo_layer/DEC2/tf.split_8/split/split_dim", "shape": [], "dtype": "int32"}, {"name": "StatefulPartitionedCall/model/generate_stereo_layer/DEC2/conv2d_transpose_9/stack", "shape": [4], "dtype": "int32"}, {"name": "StatefulPartitionedCall/model/generate_stereo_layer/DEC2/conv2d_transpose_9/conv2d_transpose/Cast", "shape": [1, 4, 256, 384], "dtype": "float32"}, {"name": "StatefulPartitionedCall/model/generate_stereo_layer/DEC2/conv2d_transpose_8/stack", "shape": [4], "dtype": "int32"}, {"name": "StatefulPartitionedCall/model/generate_stereo_layer/DEC2/conv2d_transpose_8/conv2d_transpose/Cast", "shape": [1, 4, 384, 512], "dtype": "float32"}, {"name": "StatefulPartitionedCall/model/generate_stereo_layer/DEC2/conv2d_transpose_7/stack", "shape": [4], "dtype": "int32"}, {"name": "StatefulPartitionedCall/model/generate_stereo_layer/DEC2/conv2d_transpose_7/conv2d_transpose/Cast", "shape": [1, 4, 512, 640], "dtype": "float32"}, {"name": "StatefulPartitionedCall/model/generate_stereo_layer/DEC2/conv2d_transpose_6/stack", "shape": [4], "dtype": "int32"}, {"name": "StatefulPartitionedCall/model/generate_stereo_layer/DEC2/conv2d_transpose_6/conv2d_transpose/Cast", "shape": [1, 4, 640, 768], "dtype": "float32"}, {"name": "StatefulPartitionedCall/model/generate_stereo_layer/split_1/split_dim", "shape": [], "dtype": "int32"}, {"name": "StatefulPartitionedCall/model/generate_stereo_layer/strided_slice_3/stack", "shape": [4], "dtype": "int32"}, {"name": "StatefulPartitionedCall/model/generate_stereo_layer/strided_slice_3/stack_1", "shape": [4], "dtype": "int32"}, {"name": "StatefulPartitionedCall/model/generate_stereo_layer/strided_slice_3/stack_2", "shape": [4], "dtype": "int32"}, {"name": "StatefulPartitionedCall/model/generate_stereo_layer/concat_5/axis", "shape": [], "dtype": "int32"}, {"name": "StatefulPartitionedCall/model/generate_stereo_layer/DEC2/conv2d_20/Conv2D/Cast", "shape": [1, 3, 64, 768], "dtype": "float32"}, {"name": "StatefulPartitionedCall/model/generate_stereo_layer/DEC2/conv2d_20/BiasAdd/Cast", "shape": [768], "dtype": "float32"}, {"name": "StatefulPartitionedCall/model/generate_stereo_layer/DEC2/add_noise_11/Cast", "shape": [1], "dtype": "float32"}, {"name": "StatefulPartitionedCall/model/generate_stereo_layer/DEC2/add_noise_11/random_normal/shape", "shape": [4], "dtype": "int32"}, {"name": "StatefulPartitionedCall/model/generate_stereo_layer/DEC2/conv2d_transpose_6/BiasAdd/Cast", "shape": [640], "dtype": "float32"}, {"name": "StatefulPartitionedCall/model/generate_stereo_layer/DEC2/add_noise_12/Cast", "shape": [1], "dtype": "float32"}, {"name": "StatefulPartitionedCall/model/generate_stereo_layer/DEC2/add_noise_12/random_normal/shape", "shape": [4], "dtype": "int32"}, {"name": "StatefulPartitionedCall/model/generate_stereo_layer/DEC2/conv2d_21/Conv2D/Cast", "shape": [1, 3, 640, 640], "dtype": "float32"}, {"name": "StatefulPartitionedCall/model/generate_stereo_layer/DEC2/conv2d_21/BiasAdd/Cast", "shape": [640], "dtype": "float32"}, {"name": "StatefulPartitionedCall/model/generate_stereo_layer/DEC2/add_noise_13/Cast", "shape": [1], "dtype": "float32"}, {"name": "StatefulPartitionedCall/model/generate_stereo_layer/DEC2/add_noise_13/random_normal/shape", "shape": [4], "dtype": "int32"}, {"name": "StatefulPartitionedCall/model/generate_stereo_layer/DEC2/conv2d_transpose_7/BiasAdd/Cast", "shape": [512], "dtype": "float32"}, {"name": "StatefulPartitionedCall/model/generate_stereo_layer/DEC2/add_noise_14/Cast", "shape": [1], "dtype": "float32"}, {"name": "StatefulPartitionedCall/model/generate_stereo_layer/DEC2/add_noise_14/random_normal/shape", "shape": [4], "dtype": "int32"}, {"name": "StatefulPartitionedCall/model/generate_stereo_layer/DEC2/conv2d_22/Conv2D/Cast", "shape": [1, 3, 512, 512], "dtype": "float32"}, {"name": "StatefulPartitionedCall/model/generate_stereo_layer/DEC2/conv2d_22/BiasAdd/Cast", "shape": [512], "dtype": "float32"}, {"name": "StatefulPartitionedCall/model/generate_stereo_layer/DEC2/add_noise_15/Cast", "shape": [1], "dtype": "float32"}, {"name": "StatefulPartitionedCall/model/generate_stereo_layer/DEC2/add_noise_15/random_normal/shape", "shape": [4], "dtype": "int32"}, {"name": "StatefulPartitionedCall/model/generate_stereo_layer/DEC2/conv2d_transpose_8/BiasAdd/Cast", "shape": [384], "dtype": "float32"}, {"name": "StatefulPartitionedCall/model/generate_stereo_layer/DEC2/add_noise_16/Cast", "shape": [1], "dtype": "float32"}, {"name": "StatefulPartitionedCall/model/generate_stereo_layer/DEC2/add_noise_16/random_normal/shape", "shape": [4], "dtype": "int32"}, {"name": "StatefulPartitionedCall/model/generate_stereo_layer/DEC2/conv2d_transpose_9/BiasAdd/Cast", "shape": [256], "dtype": "float32"}, {"name": "StatefulPartitionedCall/model/generate_stereo_layer/DEC2/add_noise_17/Cast", "shape": [1], "dtype": "float32"}, {"name": "StatefulPartitionedCall/model/generate_stereo_layer/DEC2/add_noise_17/random_normal/shape", "shape": [4], "dtype": "int32"}, {"name": "StatefulPartitionedCall/model/generate_stereo_layer/DEC2/cout/Conv2D/Cast", "shape": [1, 1, 256, 64], "dtype": "float32"}, {"name": "StatefulPartitionedCall/model/generate_stereo_layer/DEC2/cout/BiasAdd/Cast", "shape": [64], "dtype": "float32"}, {"name": "StatefulPartitionedCall/model/generate_stereo_layer/DEC2/tf.concat_8/concat/axis", "shape": [], "dtype": "int32"}, {"name": "StatefulPartitionedCall/model/generate_stereo_layer/concat_8/axis", "shape": [], "dtype": "int32"}, {"name": "StatefulPartitionedCall/model/generate_stereo_layer/DEC/conv2d_6/Conv2D/Cast", "shape": [1, 3, 64, 768], "dtype": "float32"}, {"name": "StatefulPartitionedCall/model/generate_stereo_layer/DEC/conv2d_6/BiasAdd/Cast", "shape": [768], "dtype": "float32"}, {"name": "StatefulPartitionedCall/model/generate_stereo_layer/DEC/add_noise/Cast", "shape": [1], "dtype": "float32"}, {"name": "StatefulPartitionedCall/model/generate_stereo_layer/DEC/add_noise/random_normal/shape", "shape": [4], "dtype": "int32"}, {"name": "StatefulPartitionedCall/model/generate_stereo_layer/DEC/conv2d_7/Conv2D/Cast", "shape": [1, 3, 768, 768], "dtype": "float32"}, {"name": "StatefulPartitionedCall/model/generate_stereo_layer/DEC/conv2d_7/BiasAdd/Cast", "shape": [768], "dtype": "float32"}, {"name": "StatefulPartitionedCall/model/generate_stereo_layer/DEC/add_noise_1/Cast", "shape": [1], "dtype": "float32"}, {"name": "StatefulPartitionedCall/model/generate_stereo_layer/DEC/add_noise_1/random_normal/shape", "shape": [4], "dtype": "int32"}, {"name": "StatefulPartitionedCall/model/generate_stereo_layer/DEC/conv2d_transpose_3/BiasAdd/Cast", "shape": [768], "dtype": "float32"}, {"name": "StatefulPartitionedCall/model/generate_stereo_layer/DEC/add_noise_8/Cast", "shape": [1], "dtype": "float32"}, {"name": "StatefulPartitionedCall/model/generate_stereo_layer/DEC/add_noise_8/random_normal/shape", "shape": [4], "dtype": "int32"}, {"name": "StatefulPartitionedCall/model/generate_stereo_layer/DEC/conv2d_12/Conv2D/Cast", "shape": [1, 1, 768, 513], "dtype": "float32"}, {"name": "StatefulPartitionedCall/model/generate_stereo_layer/DEC/conv2d_12/BiasAdd/Cast", "shape": [513], "dtype": "float32"}, {"name": "StatefulPartitionedCall/model/generate_stereo_layer/DEC/tf.clip_by_value_1/clip_by_value/Minimum/y", "shape": [], "dtype": "float32"}, {"name": "StatefulPartitionedCall/model/generate_stereo_layer/DEC/tf.clip_by_value_1/clip_by_value/y", "shape": [], "dtype": "float32"}, {"name": "StatefulPartitionedCall/model/generate_stereo_layer/DEC/tf.concat_4/concat/axis", "shape": [], "dtype": "int32"}, {"name": "StatefulPartitionedCall/model/generate_stereo_layer/DEC/tf.compat.v1.transpose_6/transpose/perm", "shape": [4], "dtype": "int32"}, {"name": "StatefulPartitionedCall/model/generate_stereo_layer/mul_3/y", "shape": [], "dtype": "float32"}, {"name": "StatefulPartitionedCall/model/generate_stereo_layer/concat_12/axis", "shape": [], "dtype": "int32"}, {"name": "StatefulPartitionedCall/model/generate_stereo_layer/split_10/split_dim", "shape": [], "dtype": "int32"}, {"name": "StatefulPartitionedCall/model/generate_stereo_layer/DEC/tf.split_4/split_1/split_dim", "shape": [], "dtype": "int32"}, {"name": "StatefulPartitionedCall/model/generate_stereo_layer/DEC/conv2d_transpose_5/stack_1", "shape": [4], "dtype": "int32"}, {"name": "StatefulPartitionedCall/model/generate_stereo_layer/DEC/conv2d_transpose_5/conv2d_transpose_1/Cast", "shape": [1, 4, 768, 768], "dtype": "float32"}, {"name": "StatefulPartitionedCall/model/generate_stereo_layer/DEC/conv2d_transpose_4/stack_1", "shape": [4], "dtype": "int32"}, {"name": "StatefulPartitionedCall/model/generate_stereo_layer/DEC/conv2d_transpose_4/conv2d_transpose_1/Cast", "shape": [1, 4, 768, 512], "dtype": "float32"}, {"name": "StatefulPartitionedCall/model/generate_stereo_layer/DEC/conv2d_transpose_4/BiasAdd_1/Cast", "shape": [768], "dtype": "float32"}, {"name": "StatefulPartitionedCall/model/generate_stereo_layer/DEC/add_noise_9/Cast_1", "shape": [1], "dtype": "float32"}, {"name": "StatefulPartitionedCall/model/generate_stereo_layer/DEC/add_noise_9/random_normal_1/shape", "shape": [4], "dtype": "int32"}, {"name": "StatefulPartitionedCall/model/generate_stereo_layer/DEC/conv2d_transpose_5/BiasAdd_1/Cast", "shape": [768], "dtype": "float32"}, {"name": "StatefulPartitionedCall/model/generate_stereo_layer/DEC/add_noise_10/Cast_1", "shape": [1], "dtype": "float32"}, {"name": "StatefulPartitionedCall/model/generate_stereo_layer/DEC/add_noise_10/random_normal_1/shape", "shape": [4], "dtype": "int32"}, {"name": "StatefulPartitionedCall/model/generate_stereo_layer/DEC/conv2d_transpose_3/stack_1", "shape": [4], "dtype": "int32"}, {"name": "StatefulPartitionedCall/model/generate_stereo_layer/DEC/conv2d_transpose_3/conv2d_transpose_1/Cast", "shape": [1, 4, 768, 768], "dtype": "float32"}, {"name": "StatefulPartitionedCall/model/generate_stereo_layer/DEC/conv2d_transpose_2/stack_1", "shape": [4], "dtype": "int32"}, {"name": "StatefulPartitionedCall/model/generate_stereo_layer/DEC/conv2d_transpose_2/conv2d_transpose_1/Cast", "shape": [1, 4, 768, 512], "dtype": "float32"}, {"name": "StatefulPartitionedCall/model/generate_stereo_layer/DEC/conv2d_transpose_1/stack_1", "shape": [4], "dtype": "int32"}, {"name": "StatefulPartitionedCall/model/generate_stereo_layer/DEC/conv2d_transpose_1/conv2d_transpose_1/Cast", "shape": [1, 4, 512, 256], "dtype": "float32"}, {"name": "StatefulPartitionedCall/model/generate_stereo_layer/DEC/conv2d_9/Conv2D_1/Cast", "shape": [1, 3, 512, 256], "dtype": "float32"}, {"name": "StatefulPartitionedCall/model/generate_stereo_layer/DEC/conv2d_9/BiasAdd_1/Cast", "shape": [256], "dtype": "float32"}, {"name": "StatefulPartitionedCall/model/generate_stereo_layer/DEC/add_noise_3/Cast_1", "shape": [1], "dtype": "float32"}, {"name": "StatefulPartitionedCall/model/generate_stereo_layer/DEC/add_noise_3/random_normal_1/shape", "shape": [4], "dtype": "int32"}, {"name": "StatefulPartitionedCall/model/generate_stereo_layer/DEC/conv2d_transpose_1/BiasAdd_1/Cast", "shape": [512], "dtype": "float32"}, {"name": "StatefulPartitionedCall/model/generate_stereo_layer/DEC/add_noise_6/Cast_1", "shape": [1], "dtype": "float32"}, {"name": "StatefulPartitionedCall/model/generate_stereo_layer/DEC/add_noise_6/random_normal_1/shape", "shape": [4], "dtype": "int32"}, {"name": "StatefulPartitionedCall/model/generate_stereo_layer/DEC/conv2d_8/Conv2D_1/Cast", "shape": [1, 3, 768, 512], "dtype": "float32"}, {"name": "StatefulPartitionedCall/model/generate_stereo_layer/DEC/conv2d_8/BiasAdd_1/Cast", "shape": [512], "dtype": "float32"}, {"name": "StatefulPartitionedCall/model/generate_stereo_layer/DEC/add_noise_2/Cast_1", "shape": [1], "dtype": "float32"}, {"name": "StatefulPartitionedCall/model/generate_stereo_layer/DEC/add_noise_2/random_normal_1/shape", "shape": [4], "dtype": "int32"}, {"name": "StatefulPartitionedCall/model/generate_stereo_layer/DEC/conv2d_transpose_2/BiasAdd_1/Cast", "shape": [768], "dtype": "float32"}, {"name": "StatefulPartitionedCall/model/generate_stereo_layer/DEC/add_noise_7/Cast_1", "shape": [1], "dtype": "float32"}, {"name": "StatefulPartitionedCall/model/generate_stereo_layer/DEC/add_noise_7/random_normal_1/shape", "shape": [4], "dtype": "int32"}, {"name": "StatefulPartitionedCall/model/generate_stereo_layer/split_8/split_dim", "shape": [], "dtype": "int32"}, {"name": "StatefulPartitionedCall/model/generate_stereo_layer/DEC2/tf.split_8/split_1/split_dim", "shape": [], "dtype": "int32"}, {"name": "StatefulPartitionedCall/model/generate_stereo_layer/DEC2/conv2d_transpose_9/stack_1", "shape": [4], "dtype": "int32"}, {"name": "StatefulPartitionedCall/model/generate_stereo_layer/DEC2/conv2d_transpose_9/conv2d_transpose_1/Cast", "shape": [1, 4, 256, 384], "dtype": "float32"}, {"name": "StatefulPartitionedCall/model/generate_stereo_layer/DEC2/conv2d_transpose_8/stack_1", "shape": [4], "dtype": "int32"}, {"name": "StatefulPartitionedCall/model/generate_stereo_layer/DEC2/conv2d_transpose_8/conv2d_transpose_1/Cast", "shape": [1, 4, 384, 512], "dtype": "float32"}, {"name": "StatefulPartitionedCall/model/generate_stereo_layer/DEC2/conv2d_transpose_7/stack_1", "shape": [4], "dtype": "int32"}, {"name": "StatefulPartitionedCall/model/generate_stereo_layer/DEC2/conv2d_transpose_7/conv2d_transpose_1/Cast", "shape": [1, 4, 512, 640], "dtype": "float32"}, {"name": "StatefulPartitionedCall/model/generate_stereo_layer/DEC2/conv2d_transpose_6/stack_1", "shape": [4], "dtype": "int32"}, {"name": "StatefulPartitionedCall/model/generate_stereo_layer/DEC2/conv2d_transpose_6/conv2d_transpose_1/Cast", "shape": [1, 4, 640, 768], "dtype": "float32"}, {"name": "StatefulPartitionedCall/model/generate_stereo_layer/split_6/split_dim", "shape": [], "dtype": "int32"}, {"name": "StatefulPartitionedCall/model/generate_stereo_layer/split/split_dim", "shape": [], "dtype": "int32"}, {"name": "StatefulPartitionedCall/model/generate_stereo_layer/GEN/tf.split_10/split/split_dim", "shape": [], "dtype": "int32"}, {"name": "StatefulPartitionedCall/model/generate_stereo_layer/GEN/8c/stack", "shape": [4], "dtype": "int32"}, {"name": "StatefulPartitionedCall/model/generate_stereo_layer/GEN/8c/conv2d_transpose/Cast", "shape": [1, 4, 256, 384], "dtype": "float32"}, {"name": "unknown_57", "shape": [], "dtype": "float32"}, {"name": "StatefulPartitionedCall/model/generate_stereo_layer/GEN/6c/stack", "shape": [4], "dtype": "int32"}, {"name": "StatefulPartitionedCall/model/generate_stereo_layer/GEN/6c/conv2d_transpose/Cast", "shape": [1, 4, 384, 512], "dtype": "float32"}, {"name": "StatefulPartitionedCall/model/generate_stereo_layer/GEN/6c/BiasAdd/Cast", "shape": [384], "dtype": "float32"}, {"name": "StatefulPartitionedCall/model/generate_stereo_layer/GEN/6r/Cast", "shape": [1], "dtype": "float32"}, {"name": "StatefulPartitionedCall/model/generate_stereo_layer/GEN/6r/random_normal/shape", "shape": [4], "dtype": "int32"}, {"name": "StatefulPartitionedCall/model/generate_stereo_layer/GEN/tf.math.reduce_std_17/reduce_std/reduce_variance/Mean/reduction_indices", "shape": [], "dtype": "int32"}, {"name": "StatefulPartitionedCall/model/generate_stereo_layer/GEN/tf.math.reduce_std_17/reduce_std/reduce_variance/Mean_1/reduction_indices", "shape": [], "dtype": "int32"}, {"name": "StatefulPartitionedCall/model/generate_stereo_layer/GEN/tf.__operators__.add_34/y", "shape": [], "dtype": "float32"}, {"name": "StatefulPartitionedCall/model/generate_stereo_layer/GEN/6ai/Conv2D/Cast", "shape": [1, 1, 128, 384], "dtype": "float32"}, {"name": "StatefulPartitionedCall/model/generate_stereo_layer/GEN/6ai/BiasAdd/Cast", "shape": [384], "dtype": "float32"}, {"name": "StatefulPartitionedCall/model/generate_stereo_layer/GEN/7c/Conv2D/ArithmeticOptimizer/FoldMultiplyIntoConv_scaled_StatefulPartitionedCall/model/generate_stereo_layer/GEN/7c/Conv2D_Cast", "shape": [1, 4, 384, 384], "dtype": "float32"}, {"name": "StatefulPartitionedCall/model/generate_stereo_layer/GEN/7c/BiasAdd/Cast", "shape": [384], "dtype": "float32"}, {"name": "StatefulPartitionedCall/model/generate_stereo_layer/GEN/7r/Cast", "shape": [1], "dtype": "float32"}, {"name": "StatefulPartitionedCall/model/generate_stereo_layer/GEN/7r/random_normal/shape", "shape": [4], "dtype": "int32"}, {"name": "StatefulPartitionedCall/model/generate_stereo_layer/GEN/tf.math.reduce_std_18/reduce_std/reduce_variance/Mean/reduction_indices", "shape": [], "dtype": "int32"}, {"name": "StatefulPartitionedCall/model/generate_stereo_layer/GEN/tf.math.reduce_std_18/reduce_std/reduce_variance/Mean_1/reduction_indices", "shape": [], "dtype": "int32"}, {"name": "StatefulPartitionedCall/model/generate_stereo_layer/GEN/tf.__operators__.add_35/y", "shape": [], "dtype": "float32"}, {"name": "StatefulPartitionedCall/model/generate_stereo_layer/GEN/7ai/Conv2D/Cast", "shape": [1, 1, 128, 384], "dtype": "float32"}, {"name": "StatefulPartitionedCall/model/generate_stereo_layer/GEN/7ai/BiasAdd/Cast", "shape": [384], "dtype": "float32"}, {"name": "unknown_43", "shape": [], "dtype": "float32"}, {"name": "StatefulPartitionedCall/model/generate_stereo_layer/GEN/4c/stack", "shape": [4], "dtype": "int32"}, {"name": "StatefulPartitionedCall/model/generate_stereo_layer/GEN/4c/conv2d_transpose/Cast", "shape": [1, 4, 512, 640], "dtype": "float32"}, {"name": "StatefulPartitionedCall/model/generate_stereo_layer/GEN/4c/BiasAdd/Cast", "shape": [512], "dtype": "float32"}, {"name": "StatefulPartitionedCall/model/generate_stereo_layer/GEN/4r/Cast", "shape": [1], "dtype": "float32"}, {"name": "StatefulPartitionedCall/model/generate_stereo_layer/GEN/4r/random_normal/shape", "shape": [4], "dtype": "int32"}, {"name": "StatefulPartitionedCall/model/generate_stereo_layer/GEN/tf.math.reduce_std_15/reduce_std/reduce_variance/Mean/reduction_indices", "shape": [], "dtype": "int32"}, {"name": "StatefulPartitionedCall/model/generate_stereo_layer/GEN/tf.math.reduce_std_15/reduce_std/reduce_variance/Mean_1/reduction_indices", "shape": [], "dtype": "int32"}, {"name": "StatefulPartitionedCall/model/generate_stereo_layer/GEN/tf.__operators__.add_31/y", "shape": [], "dtype": "float32"}, {"name": "StatefulPartitionedCall/model/generate_stereo_layer/GEN/4ai/Conv2D/Cast", "shape": [1, 1, 128, 512], "dtype": "float32"}, {"name": "StatefulPartitionedCall/model/generate_stereo_layer/GEN/4ai/BiasAdd/Cast", "shape": [512], "dtype": "float32"}, {"name": "StatefulPartitionedCall/model/generate_stereo_layer/GEN/5c/Conv2D/ArithmeticOptimizer/FoldMultiplyIntoConv_scaled_StatefulPartitionedCall/model/generate_stereo_layer/GEN/5c/Conv2D_Cast", "shape": [1, 4, 512, 512], "dtype": "float32"}, {"name": "StatefulPartitionedCall/model/generate_stereo_layer/GEN/5c/BiasAdd/Cast", "shape": [512], "dtype": "float32"}, {"name": "StatefulPartitionedCall/model/generate_stereo_layer/GEN/5r/Cast", "shape": [1], "dtype": "float32"}, {"name": "StatefulPartitionedCall/model/generate_stereo_layer/GEN/5r/random_normal/shape", "shape": [4], "dtype": "int32"}, {"name": "StatefulPartitionedCall/model/generate_stereo_layer/GEN/tf.math.reduce_std_16/reduce_std/reduce_variance/Mean/reduction_indices", "shape": [], "dtype": "int32"}, {"name": "StatefulPartitionedCall/model/generate_stereo_layer/GEN/tf.math.reduce_std_16/reduce_std/reduce_variance/Mean_1/reduction_indices", "shape": [], "dtype": "int32"}, {"name": "StatefulPartitionedCall/model/generate_stereo_layer/GEN/tf.__operators__.add_32/y", "shape": [], "dtype": "float32"}, {"name": "StatefulPartitionedCall/model/generate_stereo_layer/GEN/5ai/Conv2D/Cast", "shape": [1, 1, 128, 512], "dtype": "float32"}, {"name": "StatefulPartitionedCall/model/generate_stereo_layer/GEN/5ai/BiasAdd/Cast", "shape": [512], "dtype": "float32"}, {"name": "unknown_29", "shape": [], "dtype": "float32"}, {"name": "StatefulPartitionedCall/model/generate_stereo_layer/GEN/2c/stack", "shape": [4], "dtype": "int32"}, {"name": "StatefulPartitionedCall/model/generate_stereo_layer/GEN/2c/conv2d_transpose/Cast", "shape": [1, 4, 640, 768], "dtype": "float32"}, {"name": "StatefulPartitionedCall/model/generate_stereo_layer/GEN/2c/BiasAdd/Cast", "shape": [640], "dtype": "float32"}, {"name": "StatefulPartitionedCall/model/generate_stereo_layer/GEN/2r/Cast", "shape": [1], "dtype": "float32"}, {"name": "StatefulPartitionedCall/model/generate_stereo_layer/GEN/2r/random_normal/shape", "shape": [4], "dtype": "int32"}, {"name": "StatefulPartitionedCall/model/generate_stereo_layer/GEN/tf.math.reduce_std_13/reduce_std/reduce_variance/Mean/reduction_indices", "shape": [], "dtype": "int32"}, {"name": "StatefulPartitionedCall/model/generate_stereo_layer/GEN/tf.math.reduce_std_13/reduce_std/reduce_variance/Mean_1/reduction_indices", "shape": [], "dtype": "int32"}, {"name": "StatefulPartitionedCall/model/generate_stereo_layer/GEN/tf.__operators__.add_28/y", "shape": [], "dtype": "float32"}, {"name": "StatefulPartitionedCall/model/generate_stereo_layer/GEN/2ai/Conv2D/Cast", "shape": [1, 1, 128, 640], "dtype": "float32"}, {"name": "StatefulPartitionedCall/model/generate_stereo_layer/GEN/2ai/BiasAdd/Cast", "shape": [640], "dtype": "float32"}, {"name": "StatefulPartitionedCall/model/generate_stereo_layer/GEN/3c/Conv2D/ArithmeticOptimizer/FoldMultiplyIntoConv_scaled_StatefulPartitionedCall/model/generate_stereo_layer/GEN/3c/Conv2D_Cast", "shape": [1, 4, 640, 640], "dtype": "float32"}, {"name": "StatefulPartitionedCall/model/generate_stereo_layer/GEN/3c/BiasAdd/Cast", "shape": [640], "dtype": "float32"}, {"name": "StatefulPartitionedCall/model/generate_stereo_layer/GEN/3r/Cast", "shape": [1], "dtype": "float32"}, {"name": "StatefulPartitionedCall/model/generate_stereo_layer/GEN/3r/random_normal/shape", "shape": [4], "dtype": "int32"}, {"name": "StatefulPartitionedCall/model/generate_stereo_layer/GEN/tf.math.reduce_std_14/reduce_std/reduce_variance/Mean/reduction_indices", "shape": [], "dtype": "int32"}, {"name": "StatefulPartitionedCall/model/generate_stereo_layer/GEN/tf.math.reduce_std_14/reduce_std/reduce_variance/Mean_1/reduction_indices", "shape": [], "dtype": "int32"}, {"name": "StatefulPartitionedCall/model/generate_stereo_layer/GEN/tf.__operators__.add_29/y", "shape": [], "dtype": "float32"}, {"name": "StatefulPartitionedCall/model/generate_stereo_layer/GEN/3ai/Conv2D/Cast", "shape": [1, 1, 128, 640], "dtype": "float32"}, {"name": "StatefulPartitionedCall/model/generate_stereo_layer/GEN/3ai/BiasAdd/Cast", "shape": [640], "dtype": "float32"}, {"name": "unknown_15", "shape": [], "dtype": "float32"}, {"name": "StatefulPartitionedCall/model/generate_stereo_layer/GEN/0c/stack", "shape": [4], "dtype": "int32"}, {"name": "StatefulPartitionedCall/model/generate_stereo_layer/GEN/0c/conv2d_transpose/Cast", "shape": [1, 4, 768, 896], "dtype": "float32"}, {"name": "StatefulPartitionedCall/model/generate_stereo_layer/GEN/0c/BiasAdd/Cast", "shape": [768], "dtype": "float32"}, {"name": "StatefulPartitionedCall/model/generate_stereo_layer/GEN/0r/Cast", "shape": [1], "dtype": "float32"}, {"name": "StatefulPartitionedCall/model/generate_stereo_layer/GEN/0r/random_normal/shape", "shape": [4], "dtype": "int32"}, {"name": "StatefulPartitionedCall/model/generate_stereo_layer/GEN/tf.math.reduce_std_11/reduce_std/reduce_variance/Mean/reduction_indices", "shape": [], "dtype": "int32"}, {"name": "StatefulPartitionedCall/model/generate_stereo_layer/GEN/tf.math.reduce_std_11/reduce_std/reduce_variance/Mean_1/reduction_indices", "shape": [], "dtype": "int32"}, {"name": "StatefulPartitionedCall/model/generate_stereo_layer/GEN/tf.__operators__.add_25/y", "shape": [], "dtype": "float32"}, {"name": "StatefulPartitionedCall/model/generate_stereo_layer/GEN/0ai/Conv2D/Cast", "shape": [1, 1, 128, 768], "dtype": "float32"}, {"name": "StatefulPartitionedCall/model/generate_stereo_layer/GEN/0ai/BiasAdd/Cast", "shape": [768], "dtype": "float32"}, {"name": "StatefulPartitionedCall/model/generate_stereo_layer/GEN/1c/Conv2D/ArithmeticOptimizer/FoldMultiplyIntoConv_scaled_StatefulPartitionedCall/model/generate_stereo_layer/GEN/1c/Conv2D_Cast", "shape": [1, 4, 768, 768], "dtype": "float32"}, {"name": "StatefulPartitionedCall/model/generate_stereo_layer/GEN/1c/BiasAdd/Cast", "shape": [768], "dtype": "float32"}, {"name": "StatefulPartitionedCall/model/generate_stereo_layer/GEN/1r/Cast", "shape": [1], "dtype": "float32"}, {"name": "StatefulPartitionedCall/model/generate_stereo_layer/GEN/1r/random_normal/shape", "shape": [4], "dtype": "int32"}, {"name": "StatefulPartitionedCall/model/generate_stereo_layer/GEN/tf.math.reduce_std_12/reduce_std/reduce_variance/Mean/reduction_indices", "shape": [], "dtype": "int32"}, {"name": "StatefulPartitionedCall/model/generate_stereo_layer/GEN/tf.math.reduce_std_12/reduce_std/reduce_variance/Mean_1/reduction_indices", "shape": [], "dtype": "int32"}, {"name": "StatefulPartitionedCall/model/generate_stereo_layer/GEN/tf.__operators__.add_26/y", "shape": [], "dtype": "float32"}, {"name": "StatefulPartitionedCall/model/generate_stereo_layer/GEN/1ai/Conv2D/Cast", "shape": [1, 1, 128, 768], "dtype": "float32"}, {"name": "StatefulPartitionedCall/model/generate_stereo_layer/GEN/1ai/BiasAdd/Cast", "shape": [768], "dtype": "float32"}, {"name": "StatefulPartitionedCall/model/generate_stereo_layer/GEN/flatten_2/Const", "shape": [2], "dtype": "int32"}, {"name": "StatefulPartitionedCall/model/generate_stereo_layer/GEN/00d/MatMul/Cast", "shape": [256, 3584], "dtype": "float32"}, {"name": "StatefulPartitionedCall/model/generate_stereo_layer/GEN/00d/BiasAdd/Cast", "shape": [3584], "dtype": "float32"}, {"name": "StatefulPartitionedCall/model/generate_stereo_layer/GEN/reshape_1/Reshape/shape", "shape": [4], "dtype": "int32"}, {"name": "StatefulPartitionedCall/model/generate_stereo_layer/GEN/00n/Cast", "shape": [1], "dtype": "float32"}, {"name": "StatefulPartitionedCall/model/generate_stereo_layer/GEN/00n/random_normal/shape", "shape": [4], "dtype": "int32"}, {"name": "StatefulPartitionedCall/model/generate_stereo_layer/GEN/tf.math.reduce_std_10/reduce_std/reduce_variance/Mean/reduction_indices", "shape": [], "dtype": "int32"}, {"name": "StatefulPartitionedCall/model/generate_stereo_layer/GEN/tf.math.reduce_std_10/reduce_std/reduce_variance/Mean_1/reduction_indices", "shape": [], "dtype": "int32"}, {"name": "StatefulPartitionedCall/model/generate_stereo_layer/GEN/tf.__operators__.add_24/y", "shape": [], "dtype": "float32"}, {"name": "StatefulPartitionedCall/model/generate_stereo_layer/GEN/tf.expand_dims_2/ExpandDims/dim", "shape": [], "dtype": "int32"}, {"name": "StatefulPartitionedCall/model/generate_stereo_layer/GEN/00ai/Conv2D/Cast", "shape": [1, 1, 128, 896], "dtype": "float32"}, {"name": "StatefulPartitionedCall/model/generate_stereo_layer/GEN/00ai/BiasAdd/Cast", "shape": [896], "dtype": "float32"}, {"name": "StatefulPartitionedCall/model/generate_stereo_layer/GEN/tf.reshape_8/Reshape/shape", "shape": [5], "dtype": "int32"}, {"name": "StatefulPartitionedCall/model/generate_stereo_layer/GEN/tf.compat.v1.transpose_7/transpose/perm", "shape": [5], "dtype": "int32"}, {"name": "StatefulPartitionedCall/model/generate_stereo_layer/GEN/tf.reshape_9/Reshape/shape", "shape": [4], "dtype": "int32"}, {"name": "StatefulPartitionedCall/model/generate_stereo_layer/GEN/res1c/Conv2D/Cast", "shape": [1, 1, 448, 768], "dtype": "float32"}, {"name": "StatefulPartitionedCall/model/generate_stereo_layer/GEN/res1c/BiasAdd/Cast", "shape": [768], "dtype": "float32"}, {"name": "StatefulPartitionedCall/model/generate_stereo_layer/GEN/tf.reshape_10/Reshape/shape", "shape": [5], "dtype": "int32"}, {"name": "StatefulPartitionedCall/model/generate_stereo_layer/GEN/tf.compat.v1.transpose_8/transpose/perm", "shape": [5], "dtype": "int32"}, {"name": "StatefulPartitionedCall/model/generate_stereo_layer/GEN/tf.reshape_11/Reshape/shape", "shape": [4], "dtype": "int32"}, {"name": "StatefulPartitionedCall/model/generate_stereo_layer/GEN/res2c/Conv2D/Cast", "shape": [1, 1, 384, 640], "dtype": "float32"}, {"name": "StatefulPartitionedCall/model/generate_stereo_layer/GEN/res2c/BiasAdd/Cast", "shape": [640], "dtype": "float32"}, {"name": "StatefulPartitionedCall/model/generate_stereo_layer/GEN/tf.reshape_12/Reshape/shape", "shape": [5], "dtype": "int32"}, {"name": "StatefulPartitionedCall/model/generate_stereo_layer/GEN/tf.compat.v1.transpose_9/transpose/perm", "shape": [5], "dtype": "int32"}, {"name": "StatefulPartitionedCall/model/generate_stereo_layer/GEN/tf.reshape_13/Reshape/shape", "shape": [4], "dtype": "int32"}, {"name": "StatefulPartitionedCall/model/generate_stereo_layer/GEN/res3c/Conv2D/Cast", "shape": [1, 1, 320, 512], "dtype": "float32"}, {"name": "StatefulPartitionedCall/model/generate_stereo_layer/GEN/res3c/BiasAdd/Cast", "shape": [512], "dtype": "float32"}, {"name": "StatefulPartitionedCall/model/generate_stereo_layer/GEN/tf.reshape_14/Reshape/shape", "shape": [5], "dtype": "int32"}, {"name": "StatefulPartitionedCall/model/generate_stereo_layer/GEN/tf.compat.v1.transpose_10/transpose/perm", "shape": [5], "dtype": "int32"}, {"name": "StatefulPartitionedCall/model/generate_stereo_layer/GEN/tf.reshape_15/Reshape/shape", "shape": [4], "dtype": "int32"}, {"name": "StatefulPartitionedCall/model/generate_stereo_layer/GEN/res4c/Conv2D/Cast", "shape": [1, 1, 256, 384], "dtype": "float32"}, {"name": "StatefulPartitionedCall/model/generate_stereo_layer/GEN/res4c/BiasAdd/Cast", "shape": [384], "dtype": "float32"}, {"name": "StatefulPartitionedCall/model/generate_stereo_layer/GEN/8c/BiasAdd/Cast", "shape": [256], "dtype": "float32"}, {"name": "StatefulPartitionedCall/model/generate_stereo_layer/GEN/8r/Cast", "shape": [1], "dtype": "float32"}, {"name": "StatefulPartitionedCall/model/generate_stereo_layer/GEN/8r/random_normal/shape", "shape": [4], "dtype": "int32"}, {"name": "StatefulPartitionedCall/model/generate_stereo_layer/GEN/tf.math.reduce_std_19/reduce_std/reduce_variance/Mean/reduction_indices", "shape": [], "dtype": "int32"}, {"name": "StatefulPartitionedCall/model/generate_stereo_layer/GEN/tf.math.reduce_std_19/reduce_std/reduce_variance/Mean_1/reduction_indices", "shape": [], "dtype": "int32"}, {"name": "StatefulPartitionedCall/model/generate_stereo_layer/GEN/tf.__operators__.add_37/y", "shape": [], "dtype": "float32"}, {"name": "StatefulPartitionedCall/model/generate_stereo_layer/GEN/tf.split_9/split/split_dim", "shape": [], "dtype": "int32"}, {"name": "StatefulPartitionedCall/model/generate_stereo_layer/strided_slice_1/stack", "shape": [3], "dtype": "int32"}, {"name": "StatefulPartitionedCall/model/generate_stereo_layer/strided_slice_1/stack_1", "shape": [3], "dtype": "int32"}, {"name": "StatefulPartitionedCall/model/generate_stereo_layer/strided_slice_1/stack_2", "shape": [3], "dtype": "int32"}, {"name": "StatefulPartitionedCall/model/generate_stereo_layer/random_normal_1/shape", "shape": [2], "dtype": "int32"}, {"name": "StatefulPartitionedCall/model/generate_stereo_layer/concat/axis", "shape": [], "dtype": "int32"}, {"name": "StatefulPartitionedCall/model/generate_stereo_layer/linspace/ExpandDims/dim", "shape": [], "dtype": "int32"}, {"name": "StatefulPartitionedCall/model/generate_stereo_layer/linspace/truediv", "shape": [1, 383, 1], "dtype": "float32"}, {"name": "StatefulPartitionedCall/model/generate_stereo_layer/linspace/ExpandDims_1/dim", "shape": [], "dtype": "int32"}, {"name": "StatefulPartitionedCall/model/generate_stereo_layer/linspace/SelectV2", "shape": [], "dtype": "int32"}, {"name": "StatefulPartitionedCall/model/generate_stereo_layer/strided_slice/stack", "shape": [3], "dtype": "int32"}, {"name": "StatefulPartitionedCall/model/generate_stereo_layer/strided_slice/stack_1", "shape": [3], "dtype": "int32"}, {"name": "StatefulPartitionedCall/model/generate_stereo_layer/strided_slice/stack_2", "shape": [3], "dtype": "int32"}, {"name": "StatefulPartitionedCall/model/generate_stereo_layer/random_normal_2/shape", "shape": [2], "dtype": "int32"}, {"name": "StatefulPartitionedCall/model/generate_stereo_layer/concat_1/axis", "shape": [], "dtype": "int32"}, {"name": "StatefulPartitionedCall/model/generate_stereo_layer/linspace_1/ExpandDims/dim", "shape": [], "dtype": "int32"}, {"name": "StatefulPartitionedCall/model/generate_stereo_layer/linspace_1/truediv", "shape": [1, 383, 1], "dtype": "float32"}, {"name": "StatefulPartitionedCall/model/generate_stereo_layer/random_normal_3/shape", "shape": [2], "dtype": "int32"}, {"name": "StatefulPartitionedCall/model/generate_stereo_layer/random_normal/shape", "shape": [2], "dtype": "int32"}, {"name": "StatefulPartitionedCall/model/generate_stereo_layer/concat_2/axis", "shape": [], "dtype": "int32"}, {"name": "StatefulPartitionedCall/model/generate_stereo_layer/linspace_1/ExpandDims_1/dim", "shape": [], "dtype": "int32"}, {"name": "StatefulPartitionedCall/model/generate_stereo_layer/linspace_1/SelectV2", "shape": [], "dtype": "int32"}, {"name": "StatefulPartitionedCall/model/generate_stereo_layer/concat_3/axis", "shape": [], "dtype": "int32"}, {"name": "StatefulPartitionedCall/model/generate_stereo_layer/strided_slice_2/stack", "shape": [3], "dtype": "int32"}, {"name": "StatefulPartitionedCall/model/generate_stereo_layer/strided_slice_2/stack_1", "shape": [3], "dtype": "int32"}, {"name": "StatefulPartitionedCall/model/generate_stereo_layer/strided_slice_2/stack_2", "shape": [3], "dtype": "int32"}, {"name": "StatefulPartitionedCall/model/generate_stereo_layer/Mean/reduction_indices", "shape": [], "dtype": "int32"}, {"name": "StatefulPartitionedCall/model/generate_stereo_layer/random_uniform/shape", "shape": [0], "dtype": "int32"}, {"name": "StatefulPartitionedCall/model/generate_stereo_layer/random_uniform/min", "shape": [], "dtype": "int32"}, {"name": "StatefulPartitionedCall/model/generate_stereo_layer/random_uniform/max", "shape": [], "dtype": "int32"}, {"name": "StatefulPartitionedCall/model/generate_stereo_layer/Equal/y", "shape": [], "dtype": "int32"}, {"name": "StatefulPartitionedCall/model/generate_stereo_layer/GEN/tf.concat_9/concat/axis", "shape": [], "dtype": "int32"}, {"name": "StatefulPartitionedCall/model/generate_stereo_layer/GEN/tf.expand_dims_3/ExpandDims/dim", "shape": [], "dtype": "int32"}, {"name": "StatefulPartitionedCall/model/generate_stereo_layer/GEN/8ai/Conv2D/Cast", "shape": [1, 1, 128, 256], "dtype": "float32"}, {"name": "StatefulPartitionedCall/model/generate_stereo_layer/GEN/8ai/BiasAdd/Cast", "shape": [256], "dtype": "float32"}, {"name": "StatefulPartitionedCall/model/generate_stereo_layer/GEN/9c/Conv2D/Cast", "shape": [1, 4, 256, 128], "dtype": "float32"}, {"name": "StatefulPartitionedCall/model/generate_stereo_layer/GEN/9c/BiasAdd/Cast", "shape": [128], "dtype": "float32"}, {"name": "StatefulPartitionedCall/model/generate_stereo_layer/GEN/tf.concat_10/concat/axis", "shape": [], "dtype": "int32"}, {"name": "StatefulPartitionedCall/model/generate_stereo_layer/concat_4/axis", "shape": [], "dtype": "int32"}, {"name": "StatefulPartitionedCall/model/generate_stereo_layer/strided_slice_6/stack", "shape": [4], "dtype": "int32"}, {"name": "StatefulPartitionedCall/model/generate_stereo_layer/strided_slice_6/stack_1", "shape": [4], "dtype": "int32"}, {"name": "StatefulPartitionedCall/model/generate_stereo_layer/strided_slice_6/stack_2", "shape": [4], "dtype": "int32"}, {"name": "StatefulPartitionedCall/model/generate_stereo_layer/concat_13/axis", "shape": [], "dtype": "int32"}, {"name": "StatefulPartitionedCall/model/generate_stereo_layer/DEC2/conv2d_20/Conv2D_1/Cast", "shape": [1, 3, 64, 768], "dtype": "float32"}, {"name": "StatefulPartitionedCall/model/generate_stereo_layer/DEC2/conv2d_20/BiasAdd_1/Cast", "shape": [768], "dtype": "float32"}, {"name": "StatefulPartitionedCall/model/generate_stereo_layer/DEC2/add_noise_11/Cast_1", "shape": [1], "dtype": "float32"}, {"name": "StatefulPartitionedCall/model/generate_stereo_layer/DEC2/add_noise_11/random_normal_1/shape", "shape": [4], "dtype": "int32"}, {"name": "StatefulPartitionedCall/model/generate_stereo_layer/DEC2/conv2d_transpose_6/BiasAdd_1/Cast", "shape": [640], "dtype": "float32"}, {"name": "StatefulPartitionedCall/model/generate_stereo_layer/DEC2/add_noise_12/Cast_1", "shape": [1], "dtype": "float32"}, {"name": "StatefulPartitionedCall/model/generate_stereo_layer/DEC2/add_noise_12/random_normal_1/shape", "shape": [4], "dtype": "int32"}, {"name": "StatefulPartitionedCall/model/generate_stereo_layer/DEC2/conv2d_21/Conv2D_1/Cast", "shape": [1, 3, 640, 640], "dtype": "float32"}, {"name": "StatefulPartitionedCall/model/generate_stereo_layer/DEC2/conv2d_21/BiasAdd_1/Cast", "shape": [640], "dtype": "float32"}, {"name": "StatefulPartitionedCall/model/generate_stereo_layer/DEC2/add_noise_13/Cast_1", "shape": [1], "dtype": "float32"}, {"name": "StatefulPartitionedCall/model/generate_stereo_layer/DEC2/add_noise_13/random_normal_1/shape", "shape": [4], "dtype": "int32"}, {"name": "StatefulPartitionedCall/model/generate_stereo_layer/DEC2/conv2d_transpose_7/BiasAdd_1/Cast", "shape": [512], "dtype": "float32"}, {"name": "StatefulPartitionedCall/model/generate_stereo_layer/DEC2/add_noise_14/Cast_1", "shape": [1], "dtype": "float32"}, {"name": "StatefulPartitionedCall/model/generate_stereo_layer/DEC2/add_noise_14/random_normal_1/shape", "shape": [4], "dtype": "int32"}, {"name": "StatefulPartitionedCall/model/generate_stereo_layer/DEC2/conv2d_22/Conv2D_1/Cast", "shape": [1, 3, 512, 512], "dtype": "float32"}, {"name": "StatefulPartitionedCall/model/generate_stereo_layer/DEC2/conv2d_22/BiasAdd_1/Cast", "shape": [512], "dtype": "float32"}, {"name": "StatefulPartitionedCall/model/generate_stereo_layer/DEC2/add_noise_15/Cast_1", "shape": [1], "dtype": "float32"}, {"name": "StatefulPartitionedCall/model/generate_stereo_layer/DEC2/add_noise_15/random_normal_1/shape", "shape": [4], "dtype": "int32"}, {"name": "StatefulPartitionedCall/model/generate_stereo_layer/DEC2/conv2d_transpose_8/BiasAdd_1/Cast", "shape": [384], "dtype": "float32"}, {"name": "StatefulPartitionedCall/model/generate_stereo_layer/DEC2/add_noise_16/Cast_1", "shape": [1], "dtype": "float32"}, {"name": "StatefulPartitionedCall/model/generate_stereo_layer/DEC2/add_noise_16/random_normal_1/shape", "shape": [4], "dtype": "int32"}, {"name": "StatefulPartitionedCall/model/generate_stereo_layer/DEC2/conv2d_transpose_9/BiasAdd_1/Cast", "shape": [256], "dtype": "float32"}, {"name": "StatefulPartitionedCall/model/generate_stereo_layer/DEC2/add_noise_17/Cast_1", "shape": [1], "dtype": "float32"}, {"name": "StatefulPartitionedCall/model/generate_stereo_layer/DEC2/add_noise_17/random_normal_1/shape", "shape": [4], "dtype": "int32"}, {"name": "StatefulPartitionedCall/model/generate_stereo_layer/DEC2/cout/Conv2D_1/Cast", "shape": [1, 1, 256, 64], "dtype": "float32"}, {"name": "StatefulPartitionedCall/model/generate_stereo_layer/DEC2/cout/BiasAdd_1/Cast", "shape": [64], "dtype": "float32"}, {"name": "StatefulPartitionedCall/model/generate_stereo_layer/DEC2/tf.concat_8/concat_1/axis", "shape": [], "dtype": "int32"}, {"name": "StatefulPartitionedCall/model/generate_stereo_layer/concat_16/axis", "shape": [], "dtype": "int32"}, {"name": "StatefulPartitionedCall/model/generate_stereo_layer/DEC/conv2d_6/Conv2D_1/Cast", "shape": [1, 3, 64, 768], "dtype": "float32"}, {"name": "StatefulPartitionedCall/model/generate_stereo_layer/DEC/conv2d_6/BiasAdd_1/Cast", "shape": [768], "dtype": "float32"}, {"name": "StatefulPartitionedCall/model/generate_stereo_layer/DEC/add_noise/Cast_1", "shape": [1], "dtype": "float32"}, {"name": "StatefulPartitionedCall/model/generate_stereo_layer/DEC/add_noise/random_normal_1/shape", "shape": [4], "dtype": "int32"}, {"name": "StatefulPartitionedCall/model/generate_stereo_layer/DEC/conv2d_7/Conv2D_1/Cast", "shape": [1, 3, 768, 768], "dtype": "float32"}, {"name": "StatefulPartitionedCall/model/generate_stereo_layer/DEC/conv2d_7/BiasAdd_1/Cast", "shape": [768], "dtype": "float32"}, {"name": "StatefulPartitionedCall/model/generate_stereo_layer/DEC/add_noise_1/Cast_1", "shape": [1], "dtype": "float32"}, {"name": "StatefulPartitionedCall/model/generate_stereo_layer/DEC/add_noise_1/random_normal_1/shape", "shape": [4], "dtype": "int32"}, {"name": "StatefulPartitionedCall/model/generate_stereo_layer/DEC/conv2d_transpose_3/BiasAdd_1/Cast", "shape": [768], "dtype": "float32"}, {"name": "StatefulPartitionedCall/model/generate_stereo_layer/DEC/add_noise_8/Cast_1", "shape": [1], "dtype": "float32"}, {"name": "StatefulPartitionedCall/model/generate_stereo_layer/DEC/add_noise_8/random_normal_1/shape", "shape": [4], "dtype": "int32"}, {"name": "StatefulPartitionedCall/model/generate_stereo_layer/DEC/conv2d_12/Conv2D_1/Cast", "shape": [1, 1, 768, 513], "dtype": "float32"}, {"name": "StatefulPartitionedCall/model/generate_stereo_layer/DEC/conv2d_12/BiasAdd_1/Cast", "shape": [513], "dtype": "float32"}, {"name": "StatefulPartitionedCall/model/generate_stereo_layer/DEC/tf.clip_by_value_1/clip_by_value_1/Minimum/y", "shape": [], "dtype": "float32"}, {"name": "StatefulPartitionedCall/model/generate_stereo_layer/DEC/tf.clip_by_value_1/clip_by_value_1/y", "shape": [], "dtype": "float32"}, {"name": "StatefulPartitionedCall/model/generate_stereo_layer/DEC/tf.concat_4/concat_1/axis", "shape": [], "dtype": "int32"}, {"name": "StatefulPartitionedCall/model/generate_stereo_layer/DEC/tf.compat.v1.transpose_6/transpose_1/perm", "shape": [4], "dtype": "int32"}, {"name": "StatefulPartitionedCall/model/generate_stereo_layer/mul_7/y", "shape": [], "dtype": "float32"}, {"name": "StatefulPartitionedCall/model/generate_stereo_layer/concat_20/axis", "shape": [], "dtype": "int32"}, {"name": "StatefulPartitionedCall/model/generate_stereo_layer/cond/else/_127/model/generate_stereo_layer/cond/Equal/y", "shape": [], "dtype": "int32"}, {"name": "StatefulPartitionedCall/model/generate_stereo_layer/cond/then/_126/model/generate_stereo_layer/cond/strided_slice/stack", "shape": [3], "dtype": "int32"}, {"name": "StatefulPartitionedCall/model/generate_stereo_layer/cond/then/_126/model/generate_stereo_layer/cond/strided_slice/stack_1", "shape": [3], "dtype": "int32"}, {"name": "StatefulPartitionedCall/model/generate_stereo_layer/cond/then/_126/model/generate_stereo_layer/cond/strided_slice/stack_2", "shape": [3], "dtype": "int32"}, {"name": "StatefulPartitionedCall/model/generate_stereo_layer/cond/else/_127/model/generate_stereo_layer/cond/cond/else/_146/model/generate_stereo_layer/cond/cond/strided_slice/stack", "shape": [3], "dtype": "int32"}, {"name": "StatefulPartitionedCall/model/generate_stereo_layer/cond/else/_127/model/generate_stereo_layer/cond/cond/else/_146/model/generate_stereo_layer/cond/cond/strided_slice/stack_1", "shape": [3], "dtype": "int32"}, {"name": "StatefulPartitionedCall/model/generate_stereo_layer/cond/else/_127/model/generate_stereo_layer/cond/cond/else/_146/model/generate_stereo_layer/cond/cond/strided_slice/stack_2", "shape": [3], "dtype": "int32"}, {"name": "StatefulPartitionedCall/model/generate_stereo_layer/cond/else/_127/model/generate_stereo_layer/cond/cond/then/_145/model/generate_stereo_layer/cond/cond/strided_slice/stack", "shape": [3], "dtype": "int32"}, {"name": "StatefulPartitionedCall/model/generate_stereo_layer/cond/else/_127/model/generate_stereo_layer/cond/cond/then/_145/model/generate_stereo_layer/cond/cond/strided_slice/stack_1", "shape": [3], "dtype": "int32"}, {"name": "StatefulPartitionedCall/model/generate_stereo_layer/cond/else/_127/model/generate_stereo_layer/cond/cond/then/_145/model/generate_stereo_layer/cond/cond/strided_slice/stack_2", "shape": [3], "dtype": "int32"}]}]}