{"format": "graph-model", "generatedBy": "2.15.0", "convertedBy": "TensorFlow.js Converter v4.21.0", "signature": {"inputs": {"input_8": {"name": "input_8:0", "dtype": "DT_FLOAT", "tensorShape": {"dim": [{"size": "1"}, {"size": "256"}, {"size": "128"}]}}}, "outputs": {"generate_waveform_layer": {"name": "Identity:0", "dtype": "DT_FLOAT", "tensorShape": {"dim": [{"size": "1049344"}, {"size": "2"}]}}}}, "modelTopology": {"node": [{"name": "StatefulPartitionedCall/model/generate_waveform_layer/split_5/split_dim", "op": "Const", "attr": {"value": {"tensor": {"dtype": "DT_INT32", "tensorShape": {}}}, "dtype": {"type": "DT_INT32"}}}, {"name": "StatefulPartitionedCall/model/generate_waveform_layer/Pow/x", "op": "Const", "attr": {"dtype": {"type": "DT_FLOAT"}, "value": {"tensor": {"dtype": "DT_FLOAT", "tensorShape": {}}}}}, {"name": "StatefulPartitionedCall/model/generate_waveform_layer/mul_1/x", "op": "Const", "attr": {"dtype": {"type": "DT_FLOAT"}, "value": {"tensor": {"dtype": "DT_FLOAT", "tensorShape": {}}}}}, {"name": "StatefulPartitionedCall/model/generate_waveform_layer/DEC/tf.split_3/split/split_dim", "op": "Const", "attr": {"value": {"tensor": {"dtype": "DT_INT32", "tensorShape": {}}}, "dtype": {"type": "DT_INT32"}}}, {"name": "StatefulPartitionedCall/model/generate_waveform_layer/DEC/conv2d_11/Conv2D/Cast", "op": "Const", "attr": {"dtype": {"type": "DT_HALF"}, "value": {"tensor": {"dtype": "DT_HALF", "tensorShape": {"dim": [{"size": "1"}, {"size": "1"}, {"size": "768"}, {"size": "513"}]}}}}}, {"name": "StatefulPartitionedCall/model/generate_waveform_layer/DEC/conv2d_11/BiasAdd/Cast", "op": "Const", "attr": {"dtype": {"type": "DT_HALF"}, "value": {"tensor": {"dtype": "DT_HALF", "tensorShape": {"dim": [{"size": "513"}]}}}}}, {"name": "StatefulPartitionedCall/model/generate_waveform_layer/DEC/tf.clip_by_value/clip_by_value/Minimum/y", "op": "Const", "attr": {"value": {"tensor": {"dtype": "DT_HALF", "tensorShape": {}}}, "dtype": {"type": "DT_HALF"}}}, {"name": "StatefulPartitionedCall/model/generate_waveform_layer/DEC/tf.clip_by_value/clip_by_value/y", "op": "Const", "attr": {"value": {"tensor": {"dtype": "DT_HALF", "tensorShape": {}}}, "dtype": {"type": "DT_HALF"}}}, {"name": "StatefulPartitionedCall/model/generate_waveform_layer/DEC/tf.concat_3/concat/axis", "op": "Const", "attr": {"dtype": {"type": "DT_INT32"}, "value": {"tensor": {"dtype": "DT_INT32", "tensorShape": {}}}}}, {"name": "StatefulPartitionedCall/model/generate_waveform_layer/DEC/tf.compat.v1.transpose_5/transpose/perm", "op": "Const", "attr": {"value": {"tensor": {"dtype": "DT_INT32", "tensorShape": {"dim": [{"size": "4"}]}}}, "dtype": {"type": "DT_INT32"}}}, {"name": "StatefulPartitionedCall/model/generate_waveform_layer/mul/y", "op": "Const", "attr": {"dtype": {"type": "DT_FLOAT"}, "value": {"tensor": {"dtype": "DT_FLOAT", "tensorShape": {}}}}}, {"name": "StatefulPartitionedCall/model/generate_waveform_layer/add/y", "op": "Const", "attr": {"dtype": {"type": "DT_FLOAT"}, "value": {"tensor": {"dtype": "DT_FLOAT", "tensorShape": {}}}}}, {"name": "StatefulPartitionedCall/model/generate_waveform_layer/add_1/y", "op": "Const", "attr": {"dtype": {"type": "DT_FLOAT"}, "value": {"tensor": {"dtype": "DT_FLOAT", "tensorShape": {}}}}}, {"name": "StatefulPartitionedCall/model/generate_waveform_layer/concat_9/axis", "op": "Const", "attr": {"dtype": {"type": "DT_INT32"}, "value": {"tensor": {"dtype": "DT_INT32", "tensorShape": {}}}}}, {"name": "StatefulPartitionedCall/model/generate_waveform_layer/split_6/split_dim", "op": "Const", "attr": {"value": {"tensor": {"dtype": "DT_INT32", "tensorShape": {}}}, "dtype": {"type": "DT_INT32"}}}, {"name": "StatefulPartitionedCall/model/generate_waveform_layer/DEC/tf.split_4/split/split_dim", "op": "Const", "attr": {"dtype": {"type": "DT_INT32"}, "value": {"tensor": {"dtype": "DT_INT32", "tensorShape": {}}}}}, {"name": "StatefulPartitionedCall/model/generate_waveform_layer/DEC/conv2d_transpose_5/stack", "op": "Const", "attr": {"value": {"tensor": {"dtype": "DT_INT32", "tensorShape": {"dim": [{"size": "4"}]}}}, "dtype": {"type": "DT_INT32"}}}, {"name": "StatefulPartitionedCall/model/generate_waveform_layer/DEC/conv2d_transpose_5/conv2d_transpose/Cast", "op": "Const", "attr": {"value": {"tensor": {"dtype": "DT_HALF", "tensorShape": {"dim": [{"size": "1"}, {"size": "4"}, {"size": "768"}, {"size": "768"}]}}}, "dtype": {"type": "DT_HALF"}}}, {"name": "StatefulPartitionedCall/model/generate_waveform_layer/DEC/conv2d_transpose_4/stack", "op": "Const", "attr": {"value": {"tensor": {"dtype": "DT_INT32", "tensorShape": {"dim": [{"size": "4"}]}}}, "dtype": {"type": "DT_INT32"}}}, {"name": "StatefulPartitionedCall/model/generate_waveform_layer/DEC/conv2d_transpose_4/conv2d_transpose/Cast", "op": "Const", "attr": {"dtype": {"type": "DT_HALF"}, "value": {"tensor": {"dtype": "DT_HALF", "tensorShape": {"dim": [{"size": "1"}, {"size": "4"}, {"size": "768"}, {"size": "512"}]}}}}}, {"name": "StatefulPartitionedCall/model/generate_waveform_layer/DEC/conv2d_transpose_4/BiasAdd/Cast", "op": "Const", "attr": {"value": {"tensor": {"dtype": "DT_HALF", "tensorShape": {"dim": [{"size": "768"}]}}}, "dtype": {"type": "DT_HALF"}}}, {"name": "StatefulPartitionedCall/model/generate_waveform_layer/DEC/add_noise_9/Cast", "op": "Const", "attr": {"value": {"tensor": {"dtype": "DT_HALF", "tensorShape": {"dim": [{"size": "1"}]}}}, "dtype": {"type": "DT_HALF"}}}, {"name": "StatefulPartitionedCall/model/generate_waveform_layer/DEC/add_noise_9/random_normal/shape", "op": "Const", "attr": {"dtype": {"type": "DT_INT32"}, "value": {"tensor": {"dtype": "DT_INT32", "tensorShape": {"dim": [{"size": "4"}]}}}}}, {"name": "StatefulPartitionedCall/model/generate_waveform_layer/DEC/conv2d_transpose_5/BiasAdd/Cast", "op": "Const", "attr": {"value": {"tensor": {"dtype": "DT_HALF", "tensorShape": {"dim": [{"size": "768"}]}}}, "dtype": {"type": "DT_HALF"}}}, {"name": "StatefulPartitionedCall/model/generate_waveform_layer/DEC/add_noise_10/Cast", "op": "Const", "attr": {"value": {"tensor": {"dtype": "DT_HALF", "tensorShape": {"dim": [{"size": "1"}]}}}, "dtype": {"type": "DT_HALF"}}}, {"name": "StatefulPartitionedCall/model/generate_waveform_layer/DEC/add_noise_10/random_normal/shape", "op": "Const", "attr": {"value": {"tensor": {"dtype": "DT_INT32", "tensorShape": {"dim": [{"size": "4"}]}}}, "dtype": {"type": "DT_INT32"}}}, {"name": "StatefulPartitionedCall/model/generate_waveform_layer/DEC/conv2d_transpose_3/stack", "op": "Const", "attr": {"dtype": {"type": "DT_INT32"}, "value": {"tensor": {"dtype": "DT_INT32", "tensorShape": {"dim": [{"size": "4"}]}}}}}, {"name": "StatefulPartitionedCall/model/generate_waveform_layer/DEC/conv2d_transpose_3/conv2d_transpose/Cast", "op": "Const", "attr": {"dtype": {"type": "DT_HALF"}, "value": {"tensor": {"dtype": "DT_HALF", "tensorShape": {"dim": [{"size": "1"}, {"size": "4"}, {"size": "768"}, {"size": "768"}]}}}}}, {"name": "StatefulPartitionedCall/model/generate_waveform_layer/DEC/conv2d_transpose_2/stack", "op": "Const", "attr": {"value": {"tensor": {"dtype": "DT_INT32", "tensorShape": {"dim": [{"size": "4"}]}}}, "dtype": {"type": "DT_INT32"}}}, {"name": "StatefulPartitionedCall/model/generate_waveform_layer/DEC/conv2d_transpose_2/conv2d_transpose/Cast", "op": "Const", "attr": {"value": {"tensor": {"dtype": "DT_HALF", "tensorShape": {"dim": [{"size": "1"}, {"size": "4"}, {"size": "768"}, {"size": "512"}]}}}, "dtype": {"type": "DT_HALF"}}}, {"name": "StatefulPartitionedCall/model/generate_waveform_layer/DEC/conv2d_transpose_1/stack", "op": "Const", "attr": {"dtype": {"type": "DT_INT32"}, "value": {"tensor": {"dtype": "DT_INT32", "tensorShape": {"dim": [{"size": "4"}]}}}}}, {"name": "StatefulPartitionedCall/model/generate_waveform_layer/DEC/conv2d_transpose_1/conv2d_transpose/Cast", "op": "Const", "attr": {"dtype": {"type": "DT_HALF"}, "value": {"tensor": {"dtype": "DT_HALF", "tensorShape": {"dim": [{"size": "1"}, {"size": "4"}, {"size": "512"}, {"size": "256"}]}}}}}, {"name": "StatefulPartitionedCall/model/generate_waveform_layer/DEC/conv2d_9/Conv2D/Cast", "op": "Const", "attr": {"value": {"tensor": {"dtype": "DT_HALF", "tensorShape": {"dim": [{"size": "1"}, {"size": "3"}, {"size": "512"}, {"size": "256"}]}}}, "dtype": {"type": "DT_HALF"}}}, {"name": "StatefulPartitionedCall/model/generate_waveform_layer/DEC/conv2d_9/BiasAdd/Cast", "op": "Const", "attr": {"dtype": {"type": "DT_HALF"}, "value": {"tensor": {"dtype": "DT_HALF", "tensorShape": {"dim": [{"size": "256"}]}}}}}, {"name": "StatefulPartitionedCall/model/generate_waveform_layer/DEC/add_noise_3/Cast", "op": "Const", "attr": {"value": {"tensor": {"dtype": "DT_HALF", "tensorShape": {"dim": [{"size": "1"}]}}}, "dtype": {"type": "DT_HALF"}}}, {"name": "StatefulPartitionedCall/model/generate_waveform_layer/DEC/add_noise_3/random_normal/shape", "op": "Const", "attr": {"value": {"tensor": {"dtype": "DT_INT32", "tensorShape": {"dim": [{"size": "4"}]}}}, "dtype": {"type": "DT_INT32"}}}, {"name": "StatefulPartitionedCall/model/generate_waveform_layer/DEC/conv2d_transpose_1/BiasAdd/Cast", "op": "Const", "attr": {"value": {"tensor": {"dtype": "DT_HALF", "tensorShape": {"dim": [{"size": "512"}]}}}, "dtype": {"type": "DT_HALF"}}}, {"name": "StatefulPartitionedCall/model/generate_waveform_layer/DEC/add_noise_6/Cast", "op": "Const", "attr": {"value": {"tensor": {"dtype": "DT_HALF", "tensorShape": {"dim": [{"size": "1"}]}}}, "dtype": {"type": "DT_HALF"}}}, {"name": "StatefulPartitionedCall/model/generate_waveform_layer/DEC/add_noise_6/random_normal/shape", "op": "Const", "attr": {"value": {"tensor": {"dtype": "DT_INT32", "tensorShape": {"dim": [{"size": "4"}]}}}, "dtype": {"type": "DT_INT32"}}}, {"name": "StatefulPartitionedCall/model/generate_waveform_layer/DEC/conv2d_8/Conv2D/Cast", "op": "Const", "attr": {"dtype": {"type": "DT_HALF"}, "value": {"tensor": {"dtype": "DT_HALF", "tensorShape": {"dim": [{"size": "1"}, {"size": "3"}, {"size": "768"}, {"size": "512"}]}}}}}, {"name": "StatefulPartitionedCall/model/generate_waveform_layer/DEC/conv2d_8/BiasAdd/Cast", "op": "Const", "attr": {"dtype": {"type": "DT_HALF"}, "value": {"tensor": {"dtype": "DT_HALF", "tensorShape": {"dim": [{"size": "512"}]}}}}}, {"name": "StatefulPartitionedCall/model/generate_waveform_layer/DEC/add_noise_2/Cast", "op": "Const", "attr": {"dtype": {"type": "DT_HALF"}, "value": {"tensor": {"dtype": "DT_HALF", "tensorShape": {"dim": [{"size": "1"}]}}}}}, {"name": "StatefulPartitionedCall/model/generate_waveform_layer/DEC/add_noise_2/random_normal/shape", "op": "Const", "attr": {"value": {"tensor": {"dtype": "DT_INT32", "tensorShape": {"dim": [{"size": "4"}]}}}, "dtype": {"type": "DT_INT32"}}}, {"name": "StatefulPartitionedCall/model/generate_waveform_layer/DEC/conv2d_transpose_2/BiasAdd/Cast", "op": "Const", "attr": {"value": {"tensor": {"dtype": "DT_HALF", "tensorShape": {"dim": [{"size": "768"}]}}}, "dtype": {"type": "DT_HALF"}}}, {"name": "StatefulPartitionedCall/model/generate_waveform_layer/DEC/add_noise_7/Cast", "op": "Const", "attr": {"dtype": {"type": "DT_HALF"}, "value": {"tensor": {"dtype": "DT_HALF", "tensorShape": {"dim": [{"size": "1"}]}}}}}, {"name": "StatefulPartitionedCall/model/generate_waveform_layer/DEC/add_noise_7/random_normal/shape", "op": "Const", "attr": {"dtype": {"type": "DT_INT32"}, "value": {"tensor": {"dtype": "DT_INT32", "tensorShape": {"dim": [{"size": "4"}]}}}}}, {"name": "StatefulPartitionedCall/model/generate_waveform_layer/split_4/split_dim", "op": "Const", "attr": {"value": {"tensor": {"dtype": "DT_INT32", "tensorShape": {}}}, "dtype": {"type": "DT_INT32"}}}, {"name": "StatefulPartitionedCall/model/generate_waveform_layer/DEC2/tf.split_8/split/split_dim", "op": "Const", "attr": {"dtype": {"type": "DT_INT32"}, "value": {"tensor": {"dtype": "DT_INT32", "tensorShape": {}}}}}, {"name": "StatefulPartitionedCall/model/generate_waveform_layer/DEC2/conv2d_transpose_9/stack", "op": "Const", "attr": {"dtype": {"type": "DT_INT32"}, "value": {"tensor": {"dtype": "DT_INT32", "tensorShape": {"dim": [{"size": "4"}]}}}}}, {"name": "StatefulPartitionedCall/model/generate_waveform_layer/DEC2/conv2d_transpose_9/conv2d_transpose/Cast", "op": "Const", "attr": {"dtype": {"type": "DT_HALF"}, "value": {"tensor": {"dtype": "DT_HALF", "tensorShape": {"dim": [{"size": "1"}, {"size": "4"}, {"size": "256"}, {"size": "384"}]}}}}}, {"name": "StatefulPartitionedCall/model/generate_waveform_layer/DEC2/conv2d_transpose_8/stack", "op": "Const", "attr": {"dtype": {"type": "DT_INT32"}, "value": {"tensor": {"dtype": "DT_INT32", "tensorShape": {"dim": [{"size": "4"}]}}}}}, {"name": "StatefulPartitionedCall/model/generate_waveform_layer/DEC2/conv2d_transpose_8/conv2d_transpose/Cast", "op": "Const", "attr": {"value": {"tensor": {"dtype": "DT_HALF", "tensorShape": {"dim": [{"size": "1"}, {"size": "4"}, {"size": "384"}, {"size": "512"}]}}}, "dtype": {"type": "DT_HALF"}}}, {"name": "StatefulPartitionedCall/model/generate_waveform_layer/DEC2/conv2d_transpose_7/stack", "op": "Const", "attr": {"dtype": {"type": "DT_INT32"}, "value": {"tensor": {"dtype": "DT_INT32", "tensorShape": {"dim": [{"size": "4"}]}}}}}, {"name": "StatefulPartitionedCall/model/generate_waveform_layer/DEC2/conv2d_transpose_7/conv2d_transpose/Cast", "op": "Const", "attr": {"dtype": {"type": "DT_HALF"}, "value": {"tensor": {"dtype": "DT_HALF", "tensorShape": {"dim": [{"size": "1"}, {"size": "4"}, {"size": "512"}, {"size": "640"}]}}}}}, {"name": "StatefulPartitionedCall/model/generate_waveform_layer/DEC2/conv2d_transpose_6/stack", "op": "Const", "attr": {"value": {"tensor": {"dtype": "DT_INT32", "tensorShape": {"dim": [{"size": "4"}]}}}, "dtype": {"type": "DT_INT32"}}}, {"name": "StatefulPartitionedCall/model/generate_waveform_layer/DEC2/conv2d_transpose_6/conv2d_transpose/Cast", "op": "Const", "attr": {"value": {"tensor": {"dtype": "DT_HALF", "tensorShape": {"dim": [{"size": "1"}, {"size": "4"}, {"size": "640"}, {"size": "768"}]}}}, "dtype": {"type": "DT_HALF"}}}, {"name": "StatefulPartitionedCall/model/generate_waveform_layer/split_2/split_dim", "op": "Const", "attr": {"value": {"tensor": {"dtype": "DT_INT32", "tensorShape": {}}}, "dtype": {"type": "DT_INT32"}}}, {"name": "StatefulPartitionedCall/model/generate_waveform_layer/strided_slice_1/stack", "op": "Const", "attr": {"dtype": {"type": "DT_INT32"}, "value": {"tensor": {"dtype": "DT_INT32", "tensorShape": {"dim": [{"size": "4"}]}}}}}, {"name": "StatefulPartitionedCall/model/generate_waveform_layer/strided_slice_1/stack_1", "op": "Const", "attr": {"dtype": {"type": "DT_INT32"}, "value": {"tensor": {"dtype": "DT_INT32", "tensorShape": {"dim": [{"size": "4"}]}}}}}, {"name": "StatefulPartitionedCall/model/generate_waveform_layer/strided_slice_1/stack_2", "op": "Const", "attr": {"value": {"tensor": {"dtype": "DT_INT32", "tensorShape": {"dim": [{"size": "4"}]}}}, "dtype": {"type": "DT_INT32"}}}, {"name": "StatefulPartitionedCall/model/generate_waveform_layer/strided_slice_2/stack", "op": "Const", "attr": {"value": {"tensor": {"dtype": "DT_INT32", "tensorShape": {"dim": [{"size": "1"}]}}}, "dtype": {"type": "DT_INT32"}}}, {"name": "StatefulPartitionedCall/model/generate_waveform_layer/strided_slice_2/stack_1", "op": "Const", "attr": {"dtype": {"type": "DT_INT32"}, "value": {"tensor": {"dtype": "DT_INT32", "tensorShape": {"dim": [{"size": "1"}]}}}}}, {"name": "StatefulPartitionedCall/model/generate_waveform_layer/strided_slice_2/stack_2", "op": "Const", "attr": {"dtype": {"type": "DT_INT32"}, "value": {"tensor": {"dtype": "DT_INT32", "tensorShape": {"dim": [{"size": "1"}]}}}}}, {"name": "StatefulPartitionedCall/model/generate_waveform_layer/concat_3/axis", "op": "Const", "attr": {"dtype": {"type": "DT_INT32"}, "value": {"tensor": {"dtype": "DT_INT32", "tensorShape": {}}}}}, {"name": "StatefulPartitionedCall/model/generate_waveform_layer/DEC2/conv2d_20/Conv2D/Cast", "op": "Const", "attr": {"value": {"tensor": {"dtype": "DT_HALF", "tensorShape": {"dim": [{"size": "1"}, {"size": "3"}, {"size": "64"}, {"size": "768"}]}}}, "dtype": {"type": "DT_HALF"}}}, {"name": "StatefulPartitionedCall/model/generate_waveform_layer/DEC2/conv2d_20/BiasAdd/Cast", "op": "Const", "attr": {"value": {"tensor": {"dtype": "DT_HALF", "tensorShape": {"dim": [{"size": "768"}]}}}, "dtype": {"type": "DT_HALF"}}}, {"name": "StatefulPartitionedCall/model/generate_waveform_layer/DEC2/add_noise_11/Cast", "op": "Const", "attr": {"value": {"tensor": {"dtype": "DT_HALF", "tensorShape": {"dim": [{"size": "1"}]}}}, "dtype": {"type": "DT_HALF"}}}, {"name": "StatefulPartitionedCall/model/generate_waveform_layer/DEC2/add_noise_11/random_normal/shape", "op": "Const", "attr": {"dtype": {"type": "DT_INT32"}, "value": {"tensor": {"dtype": "DT_INT32", "tensorShape": {"dim": [{"size": "4"}]}}}}}, {"name": "StatefulPartitionedCall/model/generate_waveform_layer/DEC2/conv2d_transpose_6/BiasAdd/Cast", "op": "Const", "attr": {"value": {"tensor": {"dtype": "DT_HALF", "tensorShape": {"dim": [{"size": "640"}]}}}, "dtype": {"type": "DT_HALF"}}}, {"name": "StatefulPartitionedCall/model/generate_waveform_layer/DEC2/add_noise_12/Cast", "op": "Const", "attr": {"dtype": {"type": "DT_HALF"}, "value": {"tensor": {"dtype": "DT_HALF", "tensorShape": {"dim": [{"size": "1"}]}}}}}, {"name": "StatefulPartitionedCall/model/generate_waveform_layer/DEC2/add_noise_12/random_normal/shape", "op": "Const", "attr": {"value": {"tensor": {"dtype": "DT_INT32", "tensorShape": {"dim": [{"size": "4"}]}}}, "dtype": {"type": "DT_INT32"}}}, {"name": "StatefulPartitionedCall/model/generate_waveform_layer/DEC2/conv2d_21/Conv2D/Cast", "op": "Const", "attr": {"dtype": {"type": "DT_HALF"}, "value": {"tensor": {"dtype": "DT_HALF", "tensorShape": {"dim": [{"size": "1"}, {"size": "3"}, {"size": "640"}, {"size": "640"}]}}}}}, {"name": "StatefulPartitionedCall/model/generate_waveform_layer/DEC2/conv2d_21/BiasAdd/Cast", "op": "Const", "attr": {"value": {"tensor": {"dtype": "DT_HALF", "tensorShape": {"dim": [{"size": "640"}]}}}, "dtype": {"type": "DT_HALF"}}}, {"name": "StatefulPartitionedCall/model/generate_waveform_layer/DEC2/add_noise_13/Cast", "op": "Const", "attr": {"value": {"tensor": {"dtype": "DT_HALF", "tensorShape": {"dim": [{"size": "1"}]}}}, "dtype": {"type": "DT_HALF"}}}, {"name": "StatefulPartitionedCall/model/generate_waveform_layer/DEC2/add_noise_13/random_normal/shape", "op": "Const", "attr": {"value": {"tensor": {"dtype": "DT_INT32", "tensorShape": {"dim": [{"size": "4"}]}}}, "dtype": {"type": "DT_INT32"}}}, {"name": "StatefulPartitionedCall/model/generate_waveform_layer/DEC2/conv2d_transpose_7/BiasAdd/Cast", "op": "Const", "attr": {"value": {"tensor": {"dtype": "DT_HALF", "tensorShape": {"dim": [{"size": "512"}]}}}, "dtype": {"type": "DT_HALF"}}}, {"name": "StatefulPartitionedCall/model/generate_waveform_layer/DEC2/add_noise_14/Cast", "op": "Const", "attr": {"value": {"tensor": {"dtype": "DT_HALF", "tensorShape": {"dim": [{"size": "1"}]}}}, "dtype": {"type": "DT_HALF"}}}, {"name": "StatefulPartitionedCall/model/generate_waveform_layer/DEC2/add_noise_14/random_normal/shape", "op": "Const", "attr": {"value": {"tensor": {"dtype": "DT_INT32", "tensorShape": {"dim": [{"size": "4"}]}}}, "dtype": {"type": "DT_INT32"}}}, {"name": "StatefulPartitionedCall/model/generate_waveform_layer/DEC2/conv2d_22/Conv2D/Cast", "op": "Const", "attr": {"dtype": {"type": "DT_HALF"}, "value": {"tensor": {"dtype": "DT_HALF", "tensorShape": {"dim": [{"size": "1"}, {"size": "3"}, {"size": "512"}, {"size": "512"}]}}}}}, {"name": "StatefulPartitionedCall/model/generate_waveform_layer/DEC2/conv2d_22/BiasAdd/Cast", "op": "Const", "attr": {"dtype": {"type": "DT_HALF"}, "value": {"tensor": {"dtype": "DT_HALF", "tensorShape": {"dim": [{"size": "512"}]}}}}}, {"name": "StatefulPartitionedCall/model/generate_waveform_layer/DEC2/add_noise_15/Cast", "op": "Const", "attr": {"dtype": {"type": "DT_HALF"}, "value": {"tensor": {"dtype": "DT_HALF", "tensorShape": {"dim": [{"size": "1"}]}}}}}, {"name": "StatefulPartitionedCall/model/generate_waveform_layer/DEC2/add_noise_15/random_normal/shape", "op": "Const", "attr": {"value": {"tensor": {"dtype": "DT_INT32", "tensorShape": {"dim": [{"size": "4"}]}}}, "dtype": {"type": "DT_INT32"}}}, {"name": "StatefulPartitionedCall/model/generate_waveform_layer/DEC2/conv2d_transpose_8/BiasAdd/Cast", "op": "Const", "attr": {"dtype": {"type": "DT_HALF"}, "value": {"tensor": {"dtype": "DT_HALF", "tensorShape": {"dim": [{"size": "384"}]}}}}}, {"name": "StatefulPartitionedCall/model/generate_waveform_layer/DEC2/add_noise_16/Cast", "op": "Const", "attr": {"value": {"tensor": {"dtype": "DT_HALF", "tensorShape": {"dim": [{"size": "1"}]}}}, "dtype": {"type": "DT_HALF"}}}, {"name": "StatefulPartitionedCall/model/generate_waveform_layer/DEC2/add_noise_16/random_normal/shape", "op": "Const", "attr": {"value": {"tensor": {"dtype": "DT_INT32", "tensorShape": {"dim": [{"size": "4"}]}}}, "dtype": {"type": "DT_INT32"}}}, {"name": "StatefulPartitionedCall/model/generate_waveform_layer/DEC2/conv2d_transpose_9/BiasAdd/Cast", "op": "Const", "attr": {"dtype": {"type": "DT_HALF"}, "value": {"tensor": {"dtype": "DT_HALF", "tensorShape": {"dim": [{"size": "256"}]}}}}}, {"name": "StatefulPartitionedCall/model/generate_waveform_layer/DEC2/add_noise_17/Cast", "op": "Const", "attr": {"dtype": {"type": "DT_HALF"}, "value": {"tensor": {"dtype": "DT_HALF", "tensorShape": {"dim": [{"size": "1"}]}}}}}, {"name": "StatefulPartitionedCall/model/generate_waveform_layer/DEC2/add_noise_17/random_normal/shape", "op": "Const", "attr": {"dtype": {"type": "DT_INT32"}, "value": {"tensor": {"dtype": "DT_INT32", "tensorShape": {"dim": [{"size": "4"}]}}}}}, {"name": "StatefulPartitionedCall/model/generate_waveform_layer/DEC2/cout/Conv2D/Cast", "op": "Const", "attr": {"value": {"tensor": {"dtype": "DT_HALF", "tensorShape": {"dim": [{"size": "1"}, {"size": "1"}, {"size": "256"}, {"size": "64"}]}}}, "dtype": {"type": "DT_HALF"}}}, {"name": "StatefulPartitionedCall/model/generate_waveform_layer/DEC2/cout/BiasAdd/Cast", "op": "Const", "attr": {"value": {"tensor": {"dtype": "DT_HALF", "tensorShape": {"dim": [{"size": "64"}]}}}, "dtype": {"type": "DT_HALF"}}}, {"name": "StatefulPartitionedCall/model/generate_waveform_layer/DEC2/tf.concat_8/concat/axis", "op": "Const", "attr": {"value": {"tensor": {"dtype": "DT_INT32", "tensorShape": {}}}, "dtype": {"type": "DT_INT32"}}}, {"name": "StatefulPartitionedCall/model/generate_waveform_layer/strided_slice_3/stack", "op": "Const", "attr": {"value": {"tensor": {"dtype": "DT_INT32", "tensorShape": {"dim": [{"size": "1"}]}}}, "dtype": {"type": "DT_INT32"}}}, {"name": "StatefulPartitionedCall/model/generate_waveform_layer/strided_slice_3/stack_1", "op": "Const", "attr": {"value": {"tensor": {"dtype": "DT_INT32", "tensorShape": {"dim": [{"size": "1"}]}}}, "dtype": {"type": "DT_INT32"}}}, {"name": "StatefulPartitionedCall/model/generate_waveform_layer/strided_slice_3/stack_2", "op": "Const", "attr": {"dtype": {"type": "DT_INT32"}, "value": {"tensor": {"dtype": "DT_INT32", "tensorShape": {"dim": [{"size": "1"}]}}}}}, {"name": "StatefulPartitionedCall/model/generate_waveform_layer/concat_6/axis", "op": "Const", "attr": {"value": {"tensor": {"dtype": "DT_INT32", "tensorShape": {}}}, "dtype": {"type": "DT_INT32"}}}, {"name": "StatefulPartitionedCall/model/generate_waveform_layer/DEC/conv2d_6/Conv2D/Cast", "op": "Const", "attr": {"value": {"tensor": {"dtype": "DT_HALF", "tensorShape": {"dim": [{"size": "1"}, {"size": "3"}, {"size": "64"}, {"size": "768"}]}}}, "dtype": {"type": "DT_HALF"}}}, {"name": "StatefulPartitionedCall/model/generate_waveform_layer/DEC/conv2d_6/BiasAdd/Cast", "op": "Const", "attr": {"value": {"tensor": {"dtype": "DT_HALF", "tensorShape": {"dim": [{"size": "768"}]}}}, "dtype": {"type": "DT_HALF"}}}, {"name": "StatefulPartitionedCall/model/generate_waveform_layer/DEC/add_noise/Cast", "op": "Const", "attr": {"value": {"tensor": {"dtype": "DT_HALF", "tensorShape": {"dim": [{"size": "1"}]}}}, "dtype": {"type": "DT_HALF"}}}, {"name": "StatefulPartitionedCall/model/generate_waveform_layer/DEC/add_noise/random_normal/shape", "op": "Const", "attr": {"dtype": {"type": "DT_INT32"}, "value": {"tensor": {"dtype": "DT_INT32", "tensorShape": {"dim": [{"size": "4"}]}}}}}, {"name": "StatefulPartitionedCall/model/generate_waveform_layer/DEC/conv2d_7/Conv2D/Cast", "op": "Const", "attr": {"dtype": {"type": "DT_HALF"}, "value": {"tensor": {"dtype": "DT_HALF", "tensorShape": {"dim": [{"size": "1"}, {"size": "3"}, {"size": "768"}, {"size": "768"}]}}}}}, {"name": "StatefulPartitionedCall/model/generate_waveform_layer/DEC/conv2d_7/BiasAdd/Cast", "op": "Const", "attr": {"dtype": {"type": "DT_HALF"}, "value": {"tensor": {"dtype": "DT_HALF", "tensorShape": {"dim": [{"size": "768"}]}}}}}, {"name": "StatefulPartitionedCall/model/generate_waveform_layer/DEC/add_noise_1/Cast", "op": "Const", "attr": {"value": {"tensor": {"dtype": "DT_HALF", "tensorShape": {"dim": [{"size": "1"}]}}}, "dtype": {"type": "DT_HALF"}}}, {"name": "StatefulPartitionedCall/model/generate_waveform_layer/DEC/add_noise_1/random_normal/shape", "op": "Const", "attr": {"value": {"tensor": {"dtype": "DT_INT32", "tensorShape": {"dim": [{"size": "4"}]}}}, "dtype": {"type": "DT_INT32"}}}, {"name": "StatefulPartitionedCall/model/generate_waveform_layer/DEC/conv2d_transpose_3/BiasAdd/Cast", "op": "Const", "attr": {"dtype": {"type": "DT_HALF"}, "value": {"tensor": {"dtype": "DT_HALF", "tensorShape": {"dim": [{"size": "768"}]}}}}}, {"name": "StatefulPartitionedCall/model/generate_waveform_layer/DEC/add_noise_8/Cast", "op": "Const", "attr": {"dtype": {"type": "DT_HALF"}, "value": {"tensor": {"dtype": "DT_HALF", "tensorShape": {"dim": [{"size": "1"}]}}}}}, {"name": "StatefulPartitionedCall/model/generate_waveform_layer/DEC/add_noise_8/random_normal/shape", "op": "Const", "attr": {"dtype": {"type": "DT_INT32"}, "value": {"tensor": {"dtype": "DT_INT32", "tensorShape": {"dim": [{"size": "4"}]}}}}}, {"name": "StatefulPartitionedCall/model/generate_waveform_layer/DEC/conv2d_12/Conv2D/Cast", "op": "Const", "attr": {"dtype": {"type": "DT_HALF"}, "value": {"tensor": {"dtype": "DT_HALF", "tensorShape": {"dim": [{"size": "1"}, {"size": "1"}, {"size": "768"}, {"size": "513"}]}}}}}, {"name": "StatefulPartitionedCall/model/generate_waveform_layer/DEC/conv2d_12/BiasAdd/Cast", "op": "Const", "attr": {"value": {"tensor": {"dtype": "DT_HALF", "tensorShape": {"dim": [{"size": "513"}]}}}, "dtype": {"type": "DT_HALF"}}}, {"name": "StatefulPartitionedCall/model/generate_waveform_layer/DEC/tf.clip_by_value_1/clip_by_value/Minimum/y", "op": "Const", "attr": {"dtype": {"type": "DT_HALF"}, "value": {"tensor": {"dtype": "DT_HALF", "tensorShape": {}}}}}, {"name": "StatefulPartitionedCall/model/generate_waveform_layer/DEC/tf.clip_by_value_1/clip_by_value/y", "op": "Const", "attr": {"value": {"tensor": {"dtype": "DT_HALF", "tensorShape": {}}}, "dtype": {"type": "DT_HALF"}}}, {"name": "StatefulPartitionedCall/model/generate_waveform_layer/DEC/tf.concat_4/concat/axis", "op": "Const", "attr": {"dtype": {"type": "DT_INT32"}, "value": {"tensor": {"dtype": "DT_INT32", "tensorShape": {}}}}}, {"name": "StatefulPartitionedCall/model/generate_waveform_layer/DEC/tf.compat.v1.transpose_6/transpose/perm", "op": "Const", "attr": {"value": {"tensor": {"dtype": "DT_INT32", "tensorShape": {"dim": [{"size": "4"}]}}}, "dtype": {"type": "DT_INT32"}}}, {"name": "StatefulPartitionedCall/model/generate_waveform_layer/mul_3/y", "op": "Const", "attr": {"value": {"tensor": {"dtype": "DT_FLOAT", "tensorShape": {}}}, "dtype": {"type": "DT_FLOAT"}}}, {"name": "StatefulPartitionedCall/model/generate_waveform_layer/concat_10/axis", "op": "Const", "attr": {"value": {"tensor": {"dtype": "DT_INT32", "tensorShape": {}}}, "dtype": {"type": "DT_INT32"}}}, {"name": "StatefulPartitionedCall/model/generate_waveform_layer/irfft/fft_length", "op": "Const", "attr": {"dtype": {"type": "DT_INT32"}, "value": {"tensor": {"dtype": "DT_INT32", "tensorShape": {"dim": [{"size": "1"}]}}}}}, {"name": "StatefulPartitionedCall/model/generate_waveform_layer/inverse_stft_window_fn/truediv", "op": "Const", "attr": {"value": {"tensor": {"dtype": "DT_FLOAT", "tensorShape": {"dim": [{"size": "1024"}]}}}, "dtype": {"type": "DT_FLOAT"}}}, {"name": "StatefulPartitionedCall/model/generate_waveform_layer/overlap_and_add/concat", "op": "Const", "attr": {"value": {"tensor": {"dtype": "DT_INT32", "tensorShape": {"dim": [{"size": "2"}, {"size": "2"}]}}}, "dtype": {"type": "DT_INT32"}}}, {"name": "StatefulPartitionedCall/model/generate_waveform_layer/overlap_and_add/concat_1", "op": "Const", "attr": {"dtype": {"type": "DT_INT32"}, "value": {"tensor": {"dtype": "DT_INT32", "tensorShape": {"dim": [{"size": "3"}]}}}}}, {"name": "StatefulPartitionedCall/model/generate_waveform_layer/overlap_and_add/transpose/perm", "op": "Const", "attr": {"dtype": {"type": "DT_INT32"}, "value": {"tensor": {"dtype": "DT_INT32", "tensorShape": {"dim": [{"size": "3"}]}}}}}, {"name": "StatefulPartitionedCall/model/generate_waveform_layer/overlap_and_add/concat_3", "op": "Const", "attr": {"dtype": {"type": "DT_INT32"}, "value": {"tensor": {"dtype": "DT_INT32", "tensorShape": {"dim": [{"size": "2"}]}}}}}, {"name": "StatefulPartitionedCall/model/generate_waveform_layer/overlap_and_add/strided_slice/stack", "op": "Const", "attr": {"value": {"tensor": {"dtype": "DT_INT32", "tensorShape": {"dim": [{"size": "3"}]}}}, "dtype": {"type": "DT_INT32"}}}, {"name": "StatefulPartitionedCall/model/generate_waveform_layer/overlap_and_add/strided_slice/stack_1", "op": "Const", "attr": {"dtype": {"type": "DT_INT32"}, "value": {"tensor": {"dtype": "DT_INT32", "tensorShape": {"dim": [{"size": "3"}]}}}}}, {"name": "StatefulPartitionedCall/model/generate_waveform_layer/overlap_and_add/strided_slice/stack_2", "op": "Const", "attr": {"value": {"tensor": {"dtype": "DT_INT32", "tensorShape": {"dim": [{"size": "3"}]}}}, "dtype": {"type": "DT_INT32"}}}, {"name": "StatefulPartitionedCall/model/generate_waveform_layer/overlap_and_add/concat_4", "op": "Const", "attr": {"dtype": {"type": "DT_INT32"}, "value": {"tensor": {"dtype": "DT_INT32", "tensorShape": {"dim": [{"size": "3"}]}}}}}, {"name": "StatefulPartitionedCall/model/generate_waveform_layer/overlap_and_add/Sum/reduction_indices", "op": "Const", "attr": {"value": {"tensor": {"dtype": "DT_INT32", "tensorShape": {}}}, "dtype": {"type": "DT_INT32"}}}, {"name": "StatefulPartitionedCall/model/generate_waveform_layer/overlap_and_add/concat_5", "op": "Const", "attr": {"dtype": {"type": "DT_INT32"}, "value": {"tensor": {"dtype": "DT_INT32", "tensorShape": {"dim": [{"size": "1"}]}}}}}, {"name": "StatefulPartitionedCall/model/generate_waveform_layer/overlap_and_add/strided_slice_1/stack", "op": "Const", "attr": {"value": {"tensor": {"dtype": "DT_INT32", "tensorShape": {"dim": [{"size": "2"}]}}}, "dtype": {"type": "DT_INT32"}}}, {"name": "StatefulPartitionedCall/model/generate_waveform_layer/overlap_and_add/strided_slice_1/stack_1", "op": "Const", "attr": {"dtype": {"type": "DT_INT32"}, "value": {"tensor": {"dtype": "DT_INT32", "tensorShape": {"dim": [{"size": "2"}]}}}}}, {"name": "StatefulPartitionedCall/model/generate_waveform_layer/overlap_and_add/strided_slice_1/stack_2", "op": "Const", "attr": {"dtype": {"type": "DT_INT32"}, "value": {"tensor": {"dtype": "DT_INT32", "tensorShape": {"dim": [{"size": "2"}]}}}}}, {"name": "StatefulPartitionedCall/model/generate_waveform_layer/split_10/split_dim", "op": "Const", "attr": {"dtype": {"type": "DT_INT32"}, "value": {"tensor": {"dtype": "DT_INT32", "tensorShape": {}}}}}, {"name": "StatefulPartitionedCall/model/generate_waveform_layer/Pow_1/x", "op": "Const", "attr": {"dtype": {"type": "DT_FLOAT"}, "value": {"tensor": {"dtype": "DT_FLOAT", "tensorShape": {}}}}}, {"name": "StatefulPartitionedCall/model/generate_waveform_layer/mul_8/x", "op": "Const", "attr": {"value": {"tensor": {"dtype": "DT_FLOAT", "tensorShape": {}}}, "dtype": {"type": "DT_FLOAT"}}}, {"name": "StatefulPartitionedCall/model/generate_waveform_layer/DEC/tf.split_3/split_1/split_dim", "op": "Const", "attr": {"dtype": {"type": "DT_INT32"}, "value": {"tensor": {"dtype": "DT_INT32", "tensorShape": {}}}}}, {"name": "StatefulPartitionedCall/model/generate_waveform_layer/DEC/conv2d_11/Conv2D_1/Cast", "op": "Const", "attr": {"value": {"tensor": {"dtype": "DT_HALF", "tensorShape": {"dim": [{"size": "1"}, {"size": "1"}, {"size": "768"}, {"size": "513"}]}}}, "dtype": {"type": "DT_HALF"}}}, {"name": "StatefulPartitionedCall/model/generate_waveform_layer/DEC/conv2d_11/BiasAdd_1/Cast", "op": "Const", "attr": {"value": {"tensor": {"dtype": "DT_HALF", "tensorShape": {"dim": [{"size": "513"}]}}}, "dtype": {"type": "DT_HALF"}}}, {"name": "StatefulPartitionedCall/model/generate_waveform_layer/DEC/tf.clip_by_value/clip_by_value_1/Minimum/y", "op": "Const", "attr": {"value": {"tensor": {"dtype": "DT_HALF", "tensorShape": {}}}, "dtype": {"type": "DT_HALF"}}}, {"name": "StatefulPartitionedCall/model/generate_waveform_layer/DEC/tf.clip_by_value/clip_by_value_1/y", "op": "Const", "attr": {"dtype": {"type": "DT_HALF"}, "value": {"tensor": {"dtype": "DT_HALF", "tensorShape": {}}}}}, {"name": "StatefulPartitionedCall/model/generate_waveform_layer/DEC/tf.concat_3/concat_1/axis", "op": "Const", "attr": {"dtype": {"type": "DT_INT32"}, "value": {"tensor": {"dtype": "DT_INT32", "tensorShape": {}}}}}, {"name": "StatefulPartitionedCall/model/generate_waveform_layer/DEC/tf.compat.v1.transpose_5/transpose_1/perm", "op": "Const", "attr": {"dtype": {"type": "DT_INT32"}, "value": {"tensor": {"dtype": "DT_INT32", "tensorShape": {"dim": [{"size": "4"}]}}}}}, {"name": "StatefulPartitionedCall/model/generate_waveform_layer/mul_7/y", "op": "Const", "attr": {"value": {"tensor": {"dtype": "DT_FLOAT", "tensorShape": {}}}, "dtype": {"type": "DT_FLOAT"}}}, {"name": "StatefulPartitionedCall/model/generate_waveform_layer/add_2/y", "op": "Const", "attr": {"value": {"tensor": {"dtype": "DT_FLOAT", "tensorShape": {}}}, "dtype": {"type": "DT_FLOAT"}}}, {"name": "StatefulPartitionedCall/model/generate_waveform_layer/add_3/y", "op": "Const", "attr": {"value": {"tensor": {"dtype": "DT_FLOAT", "tensorShape": {}}}, "dtype": {"type": "DT_FLOAT"}}}, {"name": "StatefulPartitionedCall/model/generate_waveform_layer/concat_17/axis", "op": "Const", "attr": {"value": {"tensor": {"dtype": "DT_INT32", "tensorShape": {}}}, "dtype": {"type": "DT_INT32"}}}, {"name": "StatefulPartitionedCall/model/generate_waveform_layer/split_11/split_dim", "op": "Const", "attr": {"value": {"tensor": {"dtype": "DT_INT32", "tensorShape": {}}}, "dtype": {"type": "DT_INT32"}}}, {"name": "StatefulPartitionedCall/model/generate_waveform_layer/DEC/tf.split_4/split_1/split_dim", "op": "Const", "attr": {"value": {"tensor": {"dtype": "DT_INT32", "tensorShape": {}}}, "dtype": {"type": "DT_INT32"}}}, {"name": "StatefulPartitionedCall/model/generate_waveform_layer/DEC/conv2d_transpose_5/stack_1", "op": "Const", "attr": {"value": {"tensor": {"dtype": "DT_INT32", "tensorShape": {"dim": [{"size": "4"}]}}}, "dtype": {"type": "DT_INT32"}}}, {"name": "StatefulPartitionedCall/model/generate_waveform_layer/DEC/conv2d_transpose_5/conv2d_transpose_1/Cast", "op": "Const", "attr": {"dtype": {"type": "DT_HALF"}, "value": {"tensor": {"dtype": "DT_HALF", "tensorShape": {"dim": [{"size": "1"}, {"size": "4"}, {"size": "768"}, {"size": "768"}]}}}}}, {"name": "StatefulPartitionedCall/model/generate_waveform_layer/DEC/conv2d_transpose_4/stack_1", "op": "Const", "attr": {"value": {"tensor": {"dtype": "DT_INT32", "tensorShape": {"dim": [{"size": "4"}]}}}, "dtype": {"type": "DT_INT32"}}}, {"name": "StatefulPartitionedCall/model/generate_waveform_layer/DEC/conv2d_transpose_4/conv2d_transpose_1/Cast", "op": "Const", "attr": {"dtype": {"type": "DT_HALF"}, "value": {"tensor": {"dtype": "DT_HALF", "tensorShape": {"dim": [{"size": "1"}, {"size": "4"}, {"size": "768"}, {"size": "512"}]}}}}}, {"name": "StatefulPartitionedCall/model/generate_waveform_layer/DEC/conv2d_transpose_4/BiasAdd_1/Cast", "op": "Const", "attr": {"value": {"tensor": {"dtype": "DT_HALF", "tensorShape": {"dim": [{"size": "768"}]}}}, "dtype": {"type": "DT_HALF"}}}, {"name": "StatefulPartitionedCall/model/generate_waveform_layer/DEC/add_noise_9/Cast_1", "op": "Const", "attr": {"dtype": {"type": "DT_HALF"}, "value": {"tensor": {"dtype": "DT_HALF", "tensorShape": {"dim": [{"size": "1"}]}}}}}, {"name": "StatefulPartitionedCall/model/generate_waveform_layer/DEC/add_noise_9/random_normal_1/shape", "op": "Const", "attr": {"dtype": {"type": "DT_INT32"}, "value": {"tensor": {"dtype": "DT_INT32", "tensorShape": {"dim": [{"size": "4"}]}}}}}, {"name": "StatefulPartitionedCall/model/generate_waveform_layer/DEC/conv2d_transpose_5/BiasAdd_1/Cast", "op": "Const", "attr": {"dtype": {"type": "DT_HALF"}, "value": {"tensor": {"dtype": "DT_HALF", "tensorShape": {"dim": [{"size": "768"}]}}}}}, {"name": "StatefulPartitionedCall/model/generate_waveform_layer/DEC/add_noise_10/Cast_1", "op": "Const", "attr": {"dtype": {"type": "DT_HALF"}, "value": {"tensor": {"dtype": "DT_HALF", "tensorShape": {"dim": [{"size": "1"}]}}}}}, {"name": "StatefulPartitionedCall/model/generate_waveform_layer/DEC/add_noise_10/random_normal_1/shape", "op": "Const", "attr": {"value": {"tensor": {"dtype": "DT_INT32", "tensorShape": {"dim": [{"size": "4"}]}}}, "dtype": {"type": "DT_INT32"}}}, {"name": "StatefulPartitionedCall/model/generate_waveform_layer/DEC/conv2d_transpose_3/stack_1", "op": "Const", "attr": {"value": {"tensor": {"dtype": "DT_INT32", "tensorShape": {"dim": [{"size": "4"}]}}}, "dtype": {"type": "DT_INT32"}}}, {"name": "StatefulPartitionedCall/model/generate_waveform_layer/DEC/conv2d_transpose_3/conv2d_transpose_1/Cast", "op": "Const", "attr": {"dtype": {"type": "DT_HALF"}, "value": {"tensor": {"dtype": "DT_HALF", "tensorShape": {"dim": [{"size": "1"}, {"size": "4"}, {"size": "768"}, {"size": "768"}]}}}}}, {"name": "StatefulPartitionedCall/model/generate_waveform_layer/DEC/conv2d_transpose_2/stack_1", "op": "Const", "attr": {"dtype": {"type": "DT_INT32"}, "value": {"tensor": {"dtype": "DT_INT32", "tensorShape": {"dim": [{"size": "4"}]}}}}}, {"name": "StatefulPartitionedCall/model/generate_waveform_layer/DEC/conv2d_transpose_2/conv2d_transpose_1/Cast", "op": "Const", "attr": {"value": {"tensor": {"dtype": "DT_HALF", "tensorShape": {"dim": [{"size": "1"}, {"size": "4"}, {"size": "768"}, {"size": "512"}]}}}, "dtype": {"type": "DT_HALF"}}}, {"name": "StatefulPartitionedCall/model/generate_waveform_layer/DEC/conv2d_transpose_1/stack_1", "op": "Const", "attr": {"value": {"tensor": {"dtype": "DT_INT32", "tensorShape": {"dim": [{"size": "4"}]}}}, "dtype": {"type": "DT_INT32"}}}, {"name": "StatefulPartitionedCall/model/generate_waveform_layer/DEC/conv2d_transpose_1/conv2d_transpose_1/Cast", "op": "Const", "attr": {"dtype": {"type": "DT_HALF"}, "value": {"tensor": {"dtype": "DT_HALF", "tensorShape": {"dim": [{"size": "1"}, {"size": "4"}, {"size": "512"}, {"size": "256"}]}}}}}, {"name": "StatefulPartitionedCall/model/generate_waveform_layer/DEC/conv2d_9/Conv2D_1/Cast", "op": "Const", "attr": {"dtype": {"type": "DT_HALF"}, "value": {"tensor": {"dtype": "DT_HALF", "tensorShape": {"dim": [{"size": "1"}, {"size": "3"}, {"size": "512"}, {"size": "256"}]}}}}}, {"name": "StatefulPartitionedCall/model/generate_waveform_layer/DEC/conv2d_9/BiasAdd_1/Cast", "op": "Const", "attr": {"value": {"tensor": {"dtype": "DT_HALF", "tensorShape": {"dim": [{"size": "256"}]}}}, "dtype": {"type": "DT_HALF"}}}, {"name": "StatefulPartitionedCall/model/generate_waveform_layer/DEC/add_noise_3/Cast_1", "op": "Const", "attr": {"value": {"tensor": {"dtype": "DT_HALF", "tensorShape": {"dim": [{"size": "1"}]}}}, "dtype": {"type": "DT_HALF"}}}, {"name": "StatefulPartitionedCall/model/generate_waveform_layer/DEC/add_noise_3/random_normal_1/shape", "op": "Const", "attr": {"dtype": {"type": "DT_INT32"}, "value": {"tensor": {"dtype": "DT_INT32", "tensorShape": {"dim": [{"size": "4"}]}}}}}, {"name": "StatefulPartitionedCall/model/generate_waveform_layer/DEC/conv2d_transpose_1/BiasAdd_1/Cast", "op": "Const", "attr": {"dtype": {"type": "DT_HALF"}, "value": {"tensor": {"dtype": "DT_HALF", "tensorShape": {"dim": [{"size": "512"}]}}}}}, {"name": "StatefulPartitionedCall/model/generate_waveform_layer/DEC/add_noise_6/Cast_1", "op": "Const", "attr": {"value": {"tensor": {"dtype": "DT_HALF", "tensorShape": {"dim": [{"size": "1"}]}}}, "dtype": {"type": "DT_HALF"}}}, {"name": "StatefulPartitionedCall/model/generate_waveform_layer/DEC/add_noise_6/random_normal_1/shape", "op": "Const", "attr": {"value": {"tensor": {"dtype": "DT_INT32", "tensorShape": {"dim": [{"size": "4"}]}}}, "dtype": {"type": "DT_INT32"}}}, {"name": "StatefulPartitionedCall/model/generate_waveform_layer/DEC/conv2d_8/Conv2D_1/Cast", "op": "Const", "attr": {"dtype": {"type": "DT_HALF"}, "value": {"tensor": {"dtype": "DT_HALF", "tensorShape": {"dim": [{"size": "1"}, {"size": "3"}, {"size": "768"}, {"size": "512"}]}}}}}, {"name": "StatefulPartitionedCall/model/generate_waveform_layer/DEC/conv2d_8/BiasAdd_1/Cast", "op": "Const", "attr": {"dtype": {"type": "DT_HALF"}, "value": {"tensor": {"dtype": "DT_HALF", "tensorShape": {"dim": [{"size": "512"}]}}}}}, {"name": "StatefulPartitionedCall/model/generate_waveform_layer/DEC/add_noise_2/Cast_1", "op": "Const", "attr": {"dtype": {"type": "DT_HALF"}, "value": {"tensor": {"dtype": "DT_HALF", "tensorShape": {"dim": [{"size": "1"}]}}}}}, {"name": "StatefulPartitionedCall/model/generate_waveform_layer/DEC/add_noise_2/random_normal_1/shape", "op": "Const", "attr": {"value": {"tensor": {"dtype": "DT_INT32", "tensorShape": {"dim": [{"size": "4"}]}}}, "dtype": {"type": "DT_INT32"}}}, {"name": "StatefulPartitionedCall/model/generate_waveform_layer/DEC/conv2d_transpose_2/BiasAdd_1/Cast", "op": "Const", "attr": {"value": {"tensor": {"dtype": "DT_HALF", "tensorShape": {"dim": [{"size": "768"}]}}}, "dtype": {"type": "DT_HALF"}}}, {"name": "StatefulPartitionedCall/model/generate_waveform_layer/DEC/add_noise_7/Cast_1", "op": "Const", "attr": {"dtype": {"type": "DT_HALF"}, "value": {"tensor": {"dtype": "DT_HALF", "tensorShape": {"dim": [{"size": "1"}]}}}}}, {"name": "StatefulPartitionedCall/model/generate_waveform_layer/DEC/add_noise_7/random_normal_1/shape", "op": "Const", "attr": {"value": {"tensor": {"dtype": "DT_INT32", "tensorShape": {"dim": [{"size": "4"}]}}}, "dtype": {"type": "DT_INT32"}}}, {"name": "StatefulPartitionedCall/model/generate_waveform_layer/split_9/split_dim", "op": "Const", "attr": {"value": {"tensor": {"dtype": "DT_INT32", "tensorShape": {}}}, "dtype": {"type": "DT_INT32"}}}, {"name": "StatefulPartitionedCall/model/generate_waveform_layer/DEC2/tf.split_8/split_1/split_dim", "op": "Const", "attr": {"value": {"tensor": {"dtype": "DT_INT32", "tensorShape": {}}}, "dtype": {"type": "DT_INT32"}}}, {"name": "StatefulPartitionedCall/model/generate_waveform_layer/DEC2/conv2d_transpose_9/stack_1", "op": "Const", "attr": {"value": {"tensor": {"dtype": "DT_INT32", "tensorShape": {"dim": [{"size": "4"}]}}}, "dtype": {"type": "DT_INT32"}}}, {"name": "StatefulPartitionedCall/model/generate_waveform_layer/DEC2/conv2d_transpose_9/conv2d_transpose_1/Cast", "op": "Const", "attr": {"dtype": {"type": "DT_HALF"}, "value": {"tensor": {"dtype": "DT_HALF", "tensorShape": {"dim": [{"size": "1"}, {"size": "4"}, {"size": "256"}, {"size": "384"}]}}}}}, {"name": "StatefulPartitionedCall/model/generate_waveform_layer/DEC2/conv2d_transpose_8/stack_1", "op": "Const", "attr": {"dtype": {"type": "DT_INT32"}, "value": {"tensor": {"dtype": "DT_INT32", "tensorShape": {"dim": [{"size": "4"}]}}}}}, {"name": "StatefulPartitionedCall/model/generate_waveform_layer/DEC2/conv2d_transpose_8/conv2d_transpose_1/Cast", "op": "Const", "attr": {"dtype": {"type": "DT_HALF"}, "value": {"tensor": {"dtype": "DT_HALF", "tensorShape": {"dim": [{"size": "1"}, {"size": "4"}, {"size": "384"}, {"size": "512"}]}}}}}, {"name": "StatefulPartitionedCall/model/generate_waveform_layer/DEC2/conv2d_transpose_7/stack_1", "op": "Const", "attr": {"value": {"tensor": {"dtype": "DT_INT32", "tensorShape": {"dim": [{"size": "4"}]}}}, "dtype": {"type": "DT_INT32"}}}, {"name": "StatefulPartitionedCall/model/generate_waveform_layer/DEC2/conv2d_transpose_7/conv2d_transpose_1/Cast", "op": "Const", "attr": {"value": {"tensor": {"dtype": "DT_HALF", "tensorShape": {"dim": [{"size": "1"}, {"size": "4"}, {"size": "512"}, {"size": "640"}]}}}, "dtype": {"type": "DT_HALF"}}}, {"name": "StatefulPartitionedCall/model/generate_waveform_layer/DEC2/conv2d_transpose_6/stack_1", "op": "Const", "attr": {"value": {"tensor": {"dtype": "DT_INT32", "tensorShape": {"dim": [{"size": "4"}]}}}, "dtype": {"type": "DT_INT32"}}}, {"name": "StatefulPartitionedCall/model/generate_waveform_layer/DEC2/conv2d_transpose_6/conv2d_transpose_1/Cast", "op": "Const", "attr": {"dtype": {"type": "DT_HALF"}, "value": {"tensor": {"dtype": "DT_HALF", "tensorShape": {"dim": [{"size": "1"}, {"size": "4"}, {"size": "640"}, {"size": "768"}]}}}}}, {"name": "StatefulPartitionedCall/model/generate_waveform_layer/split_7/split_dim", "op": "Const", "attr": {"value": {"tensor": {"dtype": "DT_INT32", "tensorShape": {}}}, "dtype": {"type": "DT_INT32"}}}, {"name": "StatefulPartitionedCall/model/generate_waveform_layer/split_1/split_dim", "op": "Const", "attr": {"value": {"tensor": {"dtype": "DT_INT32", "tensorShape": {}}}, "dtype": {"type": "DT_INT32"}}}, {"name": "StatefulPartitionedCall/model/generate_waveform_layer/GEN/tf.split_10/split/split_dim", "op": "Const", "attr": {"value": {"tensor": {"dtype": "DT_INT32", "tensorShape": {}}}, "dtype": {"type": "DT_INT32"}}}, {"name": "StatefulPartitionedCall/model/generate_waveform_layer/GEN/8c/stack", "op": "Const", "attr": {"dtype": {"type": "DT_INT32"}, "value": {"tensor": {"dtype": "DT_INT32", "tensorShape": {"dim": [{"size": "4"}]}}}}}, {"name": "StatefulPartitionedCall/model/generate_waveform_layer/GEN/8c/conv2d_transpose/Cast", "op": "Const", "attr": {"value": {"tensor": {"dtype": "DT_HALF", "tensorShape": {"dim": [{"size": "1"}, {"size": "4"}, {"size": "256"}, {"size": "384"}]}}}, "dtype": {"type": "DT_HALF"}}}, {"name": "unknown_57", "op": "Const", "attr": {"value": {"tensor": {"dtype": "DT_HALF", "tensorShape": {}}}, "dtype": {"type": "DT_HALF"}}}, {"name": "StatefulPartitionedCall/model/generate_waveform_layer/GEN/6c/stack", "op": "Const", "attr": {"value": {"tensor": {"dtype": "DT_INT32", "tensorShape": {"dim": [{"size": "4"}]}}}, "dtype": {"type": "DT_INT32"}}}, {"name": "StatefulPartitionedCall/model/generate_waveform_layer/GEN/6c/conv2d_transpose/Cast", "op": "Const", "attr": {"dtype": {"type": "DT_HALF"}, "value": {"tensor": {"dtype": "DT_HALF", "tensorShape": {"dim": [{"size": "1"}, {"size": "4"}, {"size": "384"}, {"size": "512"}]}}}}}, {"name": "StatefulPartitionedCall/model/generate_waveform_layer/GEN/6c/BiasAdd/Cast", "op": "Const", "attr": {"dtype": {"type": "DT_HALF"}, "value": {"tensor": {"dtype": "DT_HALF", "tensorShape": {"dim": [{"size": "384"}]}}}}}, {"name": "StatefulPartitionedCall/model/generate_waveform_layer/GEN/6r/Cast", "op": "Const", "attr": {"value": {"tensor": {"dtype": "DT_HALF", "tensorShape": {"dim": [{"size": "1"}]}}}, "dtype": {"type": "DT_HALF"}}}, {"name": "StatefulPartitionedCall/model/generate_waveform_layer/GEN/6r/random_normal/shape", "op": "Const", "attr": {"value": {"tensor": {"dtype": "DT_INT32", "tensorShape": {"dim": [{"size": "4"}]}}}, "dtype": {"type": "DT_INT32"}}}, {"name": "StatefulPartitionedCall/model/generate_waveform_layer/GEN/tf.math.reduce_std_17/reduce_std/reduce_variance/Mean/reduction_indices", "op": "Const", "attr": {"dtype": {"type": "DT_INT32"}, "value": {"tensor": {"dtype": "DT_INT32", "tensorShape": {}}}}}, {"name": "StatefulPartitionedCall/model/generate_waveform_layer/GEN/tf.math.reduce_std_17/reduce_std/reduce_variance/Mean_1/reduction_indices", "op": "Const", "attr": {"dtype": {"type": "DT_INT32"}, "value": {"tensor": {"dtype": "DT_INT32", "tensorShape": {}}}}}, {"name": "StatefulPartitionedCall/model/generate_waveform_layer/GEN/tf.__operators__.add_34/y", "op": "Const", "attr": {"dtype": {"type": "DT_HALF"}, "value": {"tensor": {"dtype": "DT_HALF", "tensorShape": {}}}}}, {"name": "StatefulPartitionedCall/model/generate_waveform_layer/GEN/6ai/Conv2D/Cast", "op": "Const", "attr": {"value": {"tensor": {"dtype": "DT_HALF", "tensorShape": {"dim": [{"size": "1"}, {"size": "1"}, {"size": "128"}, {"size": "384"}]}}}, "dtype": {"type": "DT_HALF"}}}, {"name": "StatefulPartitionedCall/model/generate_waveform_layer/GEN/6ai/BiasAdd/Cast", "op": "Const", "attr": {"dtype": {"type": "DT_HALF"}, "value": {"tensor": {"dtype": "DT_HALF", "tensorShape": {"dim": [{"size": "384"}]}}}}}, {"name": "StatefulPartitionedCall/model/generate_waveform_layer/GEN/7c/Conv2D/ArithmeticOptimizer/FoldMultiplyIntoConv_scaled_StatefulPartitionedCall/model/generate_waveform_layer/GEN/7c/Conv2D_Cast", "op": "Const", "attr": {"dtype": {"type": "DT_HALF"}, "value": {"tensor": {"dtype": "DT_HALF", "tensorShape": {"dim": [{"size": "1"}, {"size": "4"}, {"size": "384"}, {"size": "384"}]}}}}}, {"name": "StatefulPartitionedCall/model/generate_waveform_layer/GEN/7c/BiasAdd/Cast", "op": "Const", "attr": {"value": {"tensor": {"dtype": "DT_HALF", "tensorShape": {"dim": [{"size": "384"}]}}}, "dtype": {"type": "DT_HALF"}}}, {"name": "StatefulPartitionedCall/model/generate_waveform_layer/GEN/7r/Cast", "op": "Const", "attr": {"dtype": {"type": "DT_HALF"}, "value": {"tensor": {"dtype": "DT_HALF", "tensorShape": {"dim": [{"size": "1"}]}}}}}, {"name": "StatefulPartitionedCall/model/generate_waveform_layer/GEN/7r/random_normal/shape", "op": "Const", "attr": {"value": {"tensor": {"dtype": "DT_INT32", "tensorShape": {"dim": [{"size": "4"}]}}}, "dtype": {"type": "DT_INT32"}}}, {"name": "StatefulPartitionedCall/model/generate_waveform_layer/GEN/tf.math.reduce_std_18/reduce_std/reduce_variance/Mean/reduction_indices", "op": "Const", "attr": {"dtype": {"type": "DT_INT32"}, "value": {"tensor": {"dtype": "DT_INT32", "tensorShape": {}}}}}, {"name": "StatefulPartitionedCall/model/generate_waveform_layer/GEN/tf.math.reduce_std_18/reduce_std/reduce_variance/Mean_1/reduction_indices", "op": "Const", "attr": {"value": {"tensor": {"dtype": "DT_INT32", "tensorShape": {}}}, "dtype": {"type": "DT_INT32"}}}, {"name": "StatefulPartitionedCall/model/generate_waveform_layer/GEN/tf.__operators__.add_35/y", "op": "Const", "attr": {"dtype": {"type": "DT_HALF"}, "value": {"tensor": {"dtype": "DT_HALF", "tensorShape": {}}}}}, {"name": "StatefulPartitionedCall/model/generate_waveform_layer/GEN/7ai/Conv2D/Cast", "op": "Const", "attr": {"value": {"tensor": {"dtype": "DT_HALF", "tensorShape": {"dim": [{"size": "1"}, {"size": "1"}, {"size": "128"}, {"size": "384"}]}}}, "dtype": {"type": "DT_HALF"}}}, {"name": "StatefulPartitionedCall/model/generate_waveform_layer/GEN/7ai/BiasAdd/Cast", "op": "Const", "attr": {"dtype": {"type": "DT_HALF"}, "value": {"tensor": {"dtype": "DT_HALF", "tensorShape": {"dim": [{"size": "384"}]}}}}}, {"name": "unknown_43", "op": "Const", "attr": {"dtype": {"type": "DT_HALF"}, "value": {"tensor": {"dtype": "DT_HALF", "tensorShape": {}}}}}, {"name": "StatefulPartitionedCall/model/generate_waveform_layer/GEN/4c/stack", "op": "Const", "attr": {"value": {"tensor": {"dtype": "DT_INT32", "tensorShape": {"dim": [{"size": "4"}]}}}, "dtype": {"type": "DT_INT32"}}}, {"name": "StatefulPartitionedCall/model/generate_waveform_layer/GEN/4c/conv2d_transpose/Cast", "op": "Const", "attr": {"dtype": {"type": "DT_HALF"}, "value": {"tensor": {"dtype": "DT_HALF", "tensorShape": {"dim": [{"size": "1"}, {"size": "4"}, {"size": "512"}, {"size": "640"}]}}}}}, {"name": "StatefulPartitionedCall/model/generate_waveform_layer/GEN/4c/BiasAdd/Cast", "op": "Const", "attr": {"value": {"tensor": {"dtype": "DT_HALF", "tensorShape": {"dim": [{"size": "512"}]}}}, "dtype": {"type": "DT_HALF"}}}, {"name": "StatefulPartitionedCall/model/generate_waveform_layer/GEN/4r/Cast", "op": "Const", "attr": {"value": {"tensor": {"dtype": "DT_HALF", "tensorShape": {"dim": [{"size": "1"}]}}}, "dtype": {"type": "DT_HALF"}}}, {"name": "StatefulPartitionedCall/model/generate_waveform_layer/GEN/4r/random_normal/shape", "op": "Const", "attr": {"value": {"tensor": {"dtype": "DT_INT32", "tensorShape": {"dim": [{"size": "4"}]}}}, "dtype": {"type": "DT_INT32"}}}, {"name": "StatefulPartitionedCall/model/generate_waveform_layer/GEN/tf.math.reduce_std_15/reduce_std/reduce_variance/Mean/reduction_indices", "op": "Const", "attr": {"value": {"tensor": {"dtype": "DT_INT32", "tensorShape": {}}}, "dtype": {"type": "DT_INT32"}}}, {"name": "StatefulPartitionedCall/model/generate_waveform_layer/GEN/tf.math.reduce_std_15/reduce_std/reduce_variance/Mean_1/reduction_indices", "op": "Const", "attr": {"value": {"tensor": {"dtype": "DT_INT32", "tensorShape": {}}}, "dtype": {"type": "DT_INT32"}}}, {"name": "StatefulPartitionedCall/model/generate_waveform_layer/GEN/tf.__operators__.add_31/y", "op": "Const", "attr": {"dtype": {"type": "DT_HALF"}, "value": {"tensor": {"dtype": "DT_HALF", "tensorShape": {}}}}}, {"name": "StatefulPartitionedCall/model/generate_waveform_layer/GEN/4ai/Conv2D/Cast", "op": "Const", "attr": {"value": {"tensor": {"dtype": "DT_HALF", "tensorShape": {"dim": [{"size": "1"}, {"size": "1"}, {"size": "128"}, {"size": "512"}]}}}, "dtype": {"type": "DT_HALF"}}}, {"name": "StatefulPartitionedCall/model/generate_waveform_layer/GEN/4ai/BiasAdd/Cast", "op": "Const", "attr": {"value": {"tensor": {"dtype": "DT_HALF", "tensorShape": {"dim": [{"size": "512"}]}}}, "dtype": {"type": "DT_HALF"}}}, {"name": "StatefulPartitionedCall/model/generate_waveform_layer/GEN/5c/Conv2D/ArithmeticOptimizer/FoldMultiplyIntoConv_scaled_StatefulPartitionedCall/model/generate_waveform_layer/GEN/5c/Conv2D_Cast", "op": "Const", "attr": {"value": {"tensor": {"dtype": "DT_HALF", "tensorShape": {"dim": [{"size": "1"}, {"size": "4"}, {"size": "512"}, {"size": "512"}]}}}, "dtype": {"type": "DT_HALF"}}}, {"name": "StatefulPartitionedCall/model/generate_waveform_layer/GEN/5c/BiasAdd/Cast", "op": "Const", "attr": {"value": {"tensor": {"dtype": "DT_HALF", "tensorShape": {"dim": [{"size": "512"}]}}}, "dtype": {"type": "DT_HALF"}}}, {"name": "StatefulPartitionedCall/model/generate_waveform_layer/GEN/5r/Cast", "op": "Const", "attr": {"value": {"tensor": {"dtype": "DT_HALF", "tensorShape": {"dim": [{"size": "1"}]}}}, "dtype": {"type": "DT_HALF"}}}, {"name": "StatefulPartitionedCall/model/generate_waveform_layer/GEN/5r/random_normal/shape", "op": "Const", "attr": {"value": {"tensor": {"dtype": "DT_INT32", "tensorShape": {"dim": [{"size": "4"}]}}}, "dtype": {"type": "DT_INT32"}}}, {"name": "StatefulPartitionedCall/model/generate_waveform_layer/GEN/tf.math.reduce_std_16/reduce_std/reduce_variance/Mean/reduction_indices", "op": "Const", "attr": {"dtype": {"type": "DT_INT32"}, "value": {"tensor": {"dtype": "DT_INT32", "tensorShape": {}}}}}, {"name": "StatefulPartitionedCall/model/generate_waveform_layer/GEN/tf.math.reduce_std_16/reduce_std/reduce_variance/Mean_1/reduction_indices", "op": "Const", "attr": {"value": {"tensor": {"dtype": "DT_INT32", "tensorShape": {}}}, "dtype": {"type": "DT_INT32"}}}, {"name": "StatefulPartitionedCall/model/generate_waveform_layer/GEN/tf.__operators__.add_32/y", "op": "Const", "attr": {"value": {"tensor": {"dtype": "DT_HALF", "tensorShape": {}}}, "dtype": {"type": "DT_HALF"}}}, {"name": "StatefulPartitionedCall/model/generate_waveform_layer/GEN/5ai/Conv2D/Cast", "op": "Const", "attr": {"dtype": {"type": "DT_HALF"}, "value": {"tensor": {"dtype": "DT_HALF", "tensorShape": {"dim": [{"size": "1"}, {"size": "1"}, {"size": "128"}, {"size": "512"}]}}}}}, {"name": "StatefulPartitionedCall/model/generate_waveform_layer/GEN/5ai/BiasAdd/Cast", "op": "Const", "attr": {"dtype": {"type": "DT_HALF"}, "value": {"tensor": {"dtype": "DT_HALF", "tensorShape": {"dim": [{"size": "512"}]}}}}}, {"name": "unknown_29", "op": "Const", "attr": {"dtype": {"type": "DT_HALF"}, "value": {"tensor": {"dtype": "DT_HALF", "tensorShape": {}}}}}, {"name": "StatefulPartitionedCall/model/generate_waveform_layer/GEN/2c/stack", "op": "Const", "attr": {"value": {"tensor": {"dtype": "DT_INT32", "tensorShape": {"dim": [{"size": "4"}]}}}, "dtype": {"type": "DT_INT32"}}}, {"name": "StatefulPartitionedCall/model/generate_waveform_layer/GEN/2c/conv2d_transpose/Cast", "op": "Const", "attr": {"value": {"tensor": {"dtype": "DT_HALF", "tensorShape": {"dim": [{"size": "1"}, {"size": "4"}, {"size": "640"}, {"size": "768"}]}}}, "dtype": {"type": "DT_HALF"}}}, {"name": "StatefulPartitionedCall/model/generate_waveform_layer/GEN/2c/BiasAdd/Cast", "op": "Const", "attr": {"dtype": {"type": "DT_HALF"}, "value": {"tensor": {"dtype": "DT_HALF", "tensorShape": {"dim": [{"size": "640"}]}}}}}, {"name": "StatefulPartitionedCall/model/generate_waveform_layer/GEN/2r/Cast", "op": "Const", "attr": {"value": {"tensor": {"dtype": "DT_HALF", "tensorShape": {"dim": [{"size": "1"}]}}}, "dtype": {"type": "DT_HALF"}}}, {"name": "StatefulPartitionedCall/model/generate_waveform_layer/GEN/2r/random_normal/shape", "op": "Const", "attr": {"value": {"tensor": {"dtype": "DT_INT32", "tensorShape": {"dim": [{"size": "4"}]}}}, "dtype": {"type": "DT_INT32"}}}, {"name": "StatefulPartitionedCall/model/generate_waveform_layer/GEN/tf.math.reduce_std_13/reduce_std/reduce_variance/Mean/reduction_indices", "op": "Const", "attr": {"dtype": {"type": "DT_INT32"}, "value": {"tensor": {"dtype": "DT_INT32", "tensorShape": {}}}}}, {"name": "StatefulPartitionedCall/model/generate_waveform_layer/GEN/tf.math.reduce_std_13/reduce_std/reduce_variance/Mean_1/reduction_indices", "op": "Const", "attr": {"dtype": {"type": "DT_INT32"}, "value": {"tensor": {"dtype": "DT_INT32", "tensorShape": {}}}}}, {"name": "StatefulPartitionedCall/model/generate_waveform_layer/GEN/tf.__operators__.add_28/y", "op": "Const", "attr": {"dtype": {"type": "DT_HALF"}, "value": {"tensor": {"dtype": "DT_HALF", "tensorShape": {}}}}}, {"name": "StatefulPartitionedCall/model/generate_waveform_layer/GEN/2ai/Conv2D/Cast", "op": "Const", "attr": {"value": {"tensor": {"dtype": "DT_HALF", "tensorShape": {"dim": [{"size": "1"}, {"size": "1"}, {"size": "128"}, {"size": "640"}]}}}, "dtype": {"type": "DT_HALF"}}}, {"name": "StatefulPartitionedCall/model/generate_waveform_layer/GEN/2ai/BiasAdd/Cast", "op": "Const", "attr": {"value": {"tensor": {"dtype": "DT_HALF", "tensorShape": {"dim": [{"size": "640"}]}}}, "dtype": {"type": "DT_HALF"}}}, {"name": "StatefulPartitionedCall/model/generate_waveform_layer/GEN/3c/Conv2D/ArithmeticOptimizer/FoldMultiplyIntoConv_scaled_StatefulPartitionedCall/model/generate_waveform_layer/GEN/3c/Conv2D_Cast", "op": "Const", "attr": {"value": {"tensor": {"dtype": "DT_HALF", "tensorShape": {"dim": [{"size": "1"}, {"size": "4"}, {"size": "640"}, {"size": "640"}]}}}, "dtype": {"type": "DT_HALF"}}}, {"name": "StatefulPartitionedCall/model/generate_waveform_layer/GEN/3c/BiasAdd/Cast", "op": "Const", "attr": {"value": {"tensor": {"dtype": "DT_HALF", "tensorShape": {"dim": [{"size": "640"}]}}}, "dtype": {"type": "DT_HALF"}}}, {"name": "StatefulPartitionedCall/model/generate_waveform_layer/GEN/3r/Cast", "op": "Const", "attr": {"dtype": {"type": "DT_HALF"}, "value": {"tensor": {"dtype": "DT_HALF", "tensorShape": {"dim": [{"size": "1"}]}}}}}, {"name": "StatefulPartitionedCall/model/generate_waveform_layer/GEN/3r/random_normal/shape", "op": "Const", "attr": {"dtype": {"type": "DT_INT32"}, "value": {"tensor": {"dtype": "DT_INT32", "tensorShape": {"dim": [{"size": "4"}]}}}}}, {"name": "StatefulPartitionedCall/model/generate_waveform_layer/GEN/tf.math.reduce_std_14/reduce_std/reduce_variance/Mean/reduction_indices", "op": "Const", "attr": {"dtype": {"type": "DT_INT32"}, "value": {"tensor": {"dtype": "DT_INT32", "tensorShape": {}}}}}, {"name": "StatefulPartitionedCall/model/generate_waveform_layer/GEN/tf.math.reduce_std_14/reduce_std/reduce_variance/Mean_1/reduction_indices", "op": "Const", "attr": {"value": {"tensor": {"dtype": "DT_INT32", "tensorShape": {}}}, "dtype": {"type": "DT_INT32"}}}, {"name": "StatefulPartitionedCall/model/generate_waveform_layer/GEN/tf.__operators__.add_29/y", "op": "Const", "attr": {"value": {"tensor": {"dtype": "DT_HALF", "tensorShape": {}}}, "dtype": {"type": "DT_HALF"}}}, {"name": "StatefulPartitionedCall/model/generate_waveform_layer/GEN/3ai/Conv2D/Cast", "op": "Const", "attr": {"value": {"tensor": {"dtype": "DT_HALF", "tensorShape": {"dim": [{"size": "1"}, {"size": "1"}, {"size": "128"}, {"size": "640"}]}}}, "dtype": {"type": "DT_HALF"}}}, {"name": "StatefulPartitionedCall/model/generate_waveform_layer/GEN/3ai/BiasAdd/Cast", "op": "Const", "attr": {"dtype": {"type": "DT_HALF"}, "value": {"tensor": {"dtype": "DT_HALF", "tensorShape": {"dim": [{"size": "640"}]}}}}}, {"name": "unknown_15", "op": "Const", "attr": {"dtype": {"type": "DT_HALF"}, "value": {"tensor": {"dtype": "DT_HALF", "tensorShape": {}}}}}, {"name": "StatefulPartitionedCall/model/generate_waveform_layer/GEN/0c/stack", "op": "Const", "attr": {"value": {"tensor": {"dtype": "DT_INT32", "tensorShape": {"dim": [{"size": "4"}]}}}, "dtype": {"type": "DT_INT32"}}}, {"name": "StatefulPartitionedCall/model/generate_waveform_layer/GEN/0c/conv2d_transpose/Cast", "op": "Const", "attr": {"dtype": {"type": "DT_HALF"}, "value": {"tensor": {"dtype": "DT_HALF", "tensorShape": {"dim": [{"size": "1"}, {"size": "4"}, {"size": "768"}, {"size": "896"}]}}}}}, {"name": "StatefulPartitionedCall/model/generate_waveform_layer/GEN/0c/BiasAdd/Cast", "op": "Const", "attr": {"dtype": {"type": "DT_HALF"}, "value": {"tensor": {"dtype": "DT_HALF", "tensorShape": {"dim": [{"size": "768"}]}}}}}, {"name": "StatefulPartitionedCall/model/generate_waveform_layer/GEN/0r/Cast", "op": "Const", "attr": {"value": {"tensor": {"dtype": "DT_HALF", "tensorShape": {"dim": [{"size": "1"}]}}}, "dtype": {"type": "DT_HALF"}}}, {"name": "StatefulPartitionedCall/model/generate_waveform_layer/GEN/0r/random_normal/shape", "op": "Const", "attr": {"dtype": {"type": "DT_INT32"}, "value": {"tensor": {"dtype": "DT_INT32", "tensorShape": {"dim": [{"size": "4"}]}}}}}, {"name": "StatefulPartitionedCall/model/generate_waveform_layer/GEN/tf.math.reduce_std_11/reduce_std/reduce_variance/Mean/reduction_indices", "op": "Const", "attr": {"value": {"tensor": {"dtype": "DT_INT32", "tensorShape": {}}}, "dtype": {"type": "DT_INT32"}}}, {"name": "StatefulPartitionedCall/model/generate_waveform_layer/GEN/tf.math.reduce_std_11/reduce_std/reduce_variance/Mean_1/reduction_indices", "op": "Const", "attr": {"value": {"tensor": {"dtype": "DT_INT32", "tensorShape": {}}}, "dtype": {"type": "DT_INT32"}}}, {"name": "StatefulPartitionedCall/model/generate_waveform_layer/GEN/tf.__operators__.add_25/y", "op": "Const", "attr": {"value": {"tensor": {"dtype": "DT_HALF", "tensorShape": {}}}, "dtype": {"type": "DT_HALF"}}}, {"name": "StatefulPartitionedCall/model/generate_waveform_layer/GEN/0ai/Conv2D/Cast", "op": "Const", "attr": {"dtype": {"type": "DT_HALF"}, "value": {"tensor": {"dtype": "DT_HALF", "tensorShape": {"dim": [{"size": "1"}, {"size": "1"}, {"size": "128"}, {"size": "768"}]}}}}}, {"name": "StatefulPartitionedCall/model/generate_waveform_layer/GEN/0ai/BiasAdd/Cast", "op": "Const", "attr": {"dtype": {"type": "DT_HALF"}, "value": {"tensor": {"dtype": "DT_HALF", "tensorShape": {"dim": [{"size": "768"}]}}}}}, {"name": "StatefulPartitionedCall/model/generate_waveform_layer/GEN/1c/Conv2D/ArithmeticOptimizer/FoldMultiplyIntoConv_scaled_StatefulPartitionedCall/model/generate_waveform_layer/GEN/1c/Conv2D_Cast", "op": "Const", "attr": {"value": {"tensor": {"dtype": "DT_HALF", "tensorShape": {"dim": [{"size": "1"}, {"size": "4"}, {"size": "768"}, {"size": "768"}]}}}, "dtype": {"type": "DT_HALF"}}}, {"name": "StatefulPartitionedCall/model/generate_waveform_layer/GEN/1c/BiasAdd/Cast", "op": "Const", "attr": {"dtype": {"type": "DT_HALF"}, "value": {"tensor": {"dtype": "DT_HALF", "tensorShape": {"dim": [{"size": "768"}]}}}}}, {"name": "StatefulPartitionedCall/model/generate_waveform_layer/GEN/1r/Cast", "op": "Const", "attr": {"value": {"tensor": {"dtype": "DT_HALF", "tensorShape": {"dim": [{"size": "1"}]}}}, "dtype": {"type": "DT_HALF"}}}, {"name": "StatefulPartitionedCall/model/generate_waveform_layer/GEN/1r/random_normal/shape", "op": "Const", "attr": {"value": {"tensor": {"dtype": "DT_INT32", "tensorShape": {"dim": [{"size": "4"}]}}}, "dtype": {"type": "DT_INT32"}}}, {"name": "StatefulPartitionedCall/model/generate_waveform_layer/GEN/tf.math.reduce_std_12/reduce_std/reduce_variance/Mean/reduction_indices", "op": "Const", "attr": {"value": {"tensor": {"dtype": "DT_INT32", "tensorShape": {}}}, "dtype": {"type": "DT_INT32"}}}, {"name": "StatefulPartitionedCall/model/generate_waveform_layer/GEN/tf.math.reduce_std_12/reduce_std/reduce_variance/Mean_1/reduction_indices", "op": "Const", "attr": {"dtype": {"type": "DT_INT32"}, "value": {"tensor": {"dtype": "DT_INT32", "tensorShape": {}}}}}, {"name": "StatefulPartitionedCall/model/generate_waveform_layer/GEN/tf.__operators__.add_26/y", "op": "Const", "attr": {"value": {"tensor": {"dtype": "DT_HALF", "tensorShape": {}}}, "dtype": {"type": "DT_HALF"}}}, {"name": "StatefulPartitionedCall/model/generate_waveform_layer/GEN/1ai/Conv2D/Cast", "op": "Const", "attr": {"value": {"tensor": {"dtype": "DT_HALF", "tensorShape": {"dim": [{"size": "1"}, {"size": "1"}, {"size": "128"}, {"size": "768"}]}}}, "dtype": {"type": "DT_HALF"}}}, {"name": "StatefulPartitionedCall/model/generate_waveform_layer/GEN/1ai/BiasAdd/Cast", "op": "Const", "attr": {"value": {"tensor": {"dtype": "DT_HALF", "tensorShape": {"dim": [{"size": "768"}]}}}, "dtype": {"type": "DT_HALF"}}}, {"name": "StatefulPartitionedCall/model/generate_waveform_layer/GEN/flatten_2/Const", "op": "Const", "attr": {"dtype": {"type": "DT_INT32"}, "value": {"tensor": {"dtype": "DT_INT32", "tensorShape": {"dim": [{"size": "2"}]}}}}}, {"name": "StatefulPartitionedCall/model/generate_waveform_layer/GEN/00d/MatMul/Cast", "op": "Const", "attr": {"value": {"tensor": {"dtype": "DT_HALF", "tensorShape": {"dim": [{"size": "256"}, {"size": "3584"}]}}}, "dtype": {"type": "DT_HALF"}}}, {"name": "StatefulPartitionedCall/model/generate_waveform_layer/GEN/00d/BiasAdd/Cast", "op": "Const", "attr": {"value": {"tensor": {"dtype": "DT_HALF", "tensorShape": {"dim": [{"size": "3584"}]}}}, "dtype": {"type": "DT_HALF"}}}, {"name": "StatefulPartitionedCall/model/generate_waveform_layer/GEN/reshape_1/Reshape/shape", "op": "Const", "attr": {"value": {"tensor": {"dtype": "DT_INT32", "tensorShape": {"dim": [{"size": "4"}]}}}, "dtype": {"type": "DT_INT32"}}}, {"name": "StatefulPartitionedCall/model/generate_waveform_layer/GEN/00n/Cast", "op": "Const", "attr": {"dtype": {"type": "DT_HALF"}, "value": {"tensor": {"dtype": "DT_HALF", "tensorShape": {"dim": [{"size": "1"}]}}}}}, {"name": "StatefulPartitionedCall/model/generate_waveform_layer/GEN/00n/random_normal/shape", "op": "Const", "attr": {"value": {"tensor": {"dtype": "DT_INT32", "tensorShape": {"dim": [{"size": "4"}]}}}, "dtype": {"type": "DT_INT32"}}}, {"name": "StatefulPartitionedCall/model/generate_waveform_layer/GEN/tf.math.reduce_std_10/reduce_std/reduce_variance/Mean/reduction_indices", "op": "Const", "attr": {"dtype": {"type": "DT_INT32"}, "value": {"tensor": {"dtype": "DT_INT32", "tensorShape": {}}}}}, {"name": "StatefulPartitionedCall/model/generate_waveform_layer/GEN/tf.math.reduce_std_10/reduce_std/reduce_variance/Mean_1/reduction_indices", "op": "Const", "attr": {"value": {"tensor": {"dtype": "DT_INT32", "tensorShape": {}}}, "dtype": {"type": "DT_INT32"}}}, {"name": "StatefulPartitionedCall/model/generate_waveform_layer/GEN/tf.__operators__.add_24/y", "op": "Const", "attr": {"value": {"tensor": {"dtype": "DT_HALF", "tensorShape": {}}}, "dtype": {"type": "DT_HALF"}}}, {"name": "StatefulPartitionedCall/model/generate_waveform_layer/GEN/tf.expand_dims_2/ExpandDims/dim", "op": "Const", "attr": {"value": {"tensor": {"dtype": "DT_INT32", "tensorShape": {}}}, "dtype": {"type": "DT_INT32"}}}, {"name": "StatefulPartitionedCall/model/generate_waveform_layer/GEN/00ai/Conv2D/Cast", "op": "Const", "attr": {"dtype": {"type": "DT_HALF"}, "value": {"tensor": {"dtype": "DT_HALF", "tensorShape": {"dim": [{"size": "1"}, {"size": "1"}, {"size": "128"}, {"size": "896"}]}}}}}, {"name": "StatefulPartitionedCall/model/generate_waveform_layer/GEN/00ai/BiasAdd/Cast", "op": "Const", "attr": {"dtype": {"type": "DT_HALF"}, "value": {"tensor": {"dtype": "DT_HALF", "tensorShape": {"dim": [{"size": "896"}]}}}}}, {"name": "StatefulPartitionedCall/model/generate_waveform_layer/GEN/tf.reshape_8/Reshape/shape", "op": "Const", "attr": {"dtype": {"type": "DT_INT32"}, "value": {"tensor": {"dtype": "DT_INT32", "tensorShape": {"dim": [{"size": "5"}]}}}}}, {"name": "StatefulPartitionedCall/model/generate_waveform_layer/GEN/tf.compat.v1.transpose_7/transpose/perm", "op": "Const", "attr": {"dtype": {"type": "DT_INT32"}, "value": {"tensor": {"dtype": "DT_INT32", "tensorShape": {"dim": [{"size": "5"}]}}}}}, {"name": "StatefulPartitionedCall/model/generate_waveform_layer/GEN/tf.reshape_9/Reshape/shape", "op": "Const", "attr": {"dtype": {"type": "DT_INT32"}, "value": {"tensor": {"dtype": "DT_INT32", "tensorShape": {"dim": [{"size": "4"}]}}}}}, {"name": "StatefulPartitionedCall/model/generate_waveform_layer/GEN/res1c/Conv2D/Cast", "op": "Const", "attr": {"value": {"tensor": {"dtype": "DT_HALF", "tensorShape": {"dim": [{"size": "1"}, {"size": "1"}, {"size": "448"}, {"size": "768"}]}}}, "dtype": {"type": "DT_HALF"}}}, {"name": "StatefulPartitionedCall/model/generate_waveform_layer/GEN/res1c/BiasAdd/Cast", "op": "Const", "attr": {"value": {"tensor": {"dtype": "DT_HALF", "tensorShape": {"dim": [{"size": "768"}]}}}, "dtype": {"type": "DT_HALF"}}}, {"name": "StatefulPartitionedCall/model/generate_waveform_layer/GEN/tf.reshape_10/Reshape/shape", "op": "Const", "attr": {"value": {"tensor": {"dtype": "DT_INT32", "tensorShape": {"dim": [{"size": "5"}]}}}, "dtype": {"type": "DT_INT32"}}}, {"name": "StatefulPartitionedCall/model/generate_waveform_layer/GEN/tf.compat.v1.transpose_8/transpose/perm", "op": "Const", "attr": {"dtype": {"type": "DT_INT32"}, "value": {"tensor": {"dtype": "DT_INT32", "tensorShape": {"dim": [{"size": "5"}]}}}}}, {"name": "StatefulPartitionedCall/model/generate_waveform_layer/GEN/tf.reshape_11/Reshape/shape", "op": "Const", "attr": {"dtype": {"type": "DT_INT32"}, "value": {"tensor": {"dtype": "DT_INT32", "tensorShape": {"dim": [{"size": "4"}]}}}}}, {"name": "StatefulPartitionedCall/model/generate_waveform_layer/GEN/res2c/Conv2D/Cast", "op": "Const", "attr": {"dtype": {"type": "DT_HALF"}, "value": {"tensor": {"dtype": "DT_HALF", "tensorShape": {"dim": [{"size": "1"}, {"size": "1"}, {"size": "384"}, {"size": "640"}]}}}}}, {"name": "StatefulPartitionedCall/model/generate_waveform_layer/GEN/res2c/BiasAdd/Cast", "op": "Const", "attr": {"value": {"tensor": {"dtype": "DT_HALF", "tensorShape": {"dim": [{"size": "640"}]}}}, "dtype": {"type": "DT_HALF"}}}, {"name": "StatefulPartitionedCall/model/generate_waveform_layer/GEN/tf.reshape_12/Reshape/shape", "op": "Const", "attr": {"value": {"tensor": {"dtype": "DT_INT32", "tensorShape": {"dim": [{"size": "5"}]}}}, "dtype": {"type": "DT_INT32"}}}, {"name": "StatefulPartitionedCall/model/generate_waveform_layer/GEN/tf.compat.v1.transpose_9/transpose/perm", "op": "Const", "attr": {"dtype": {"type": "DT_INT32"}, "value": {"tensor": {"dtype": "DT_INT32", "tensorShape": {"dim": [{"size": "5"}]}}}}}, {"name": "StatefulPartitionedCall/model/generate_waveform_layer/GEN/tf.reshape_13/Reshape/shape", "op": "Const", "attr": {"dtype": {"type": "DT_INT32"}, "value": {"tensor": {"dtype": "DT_INT32", "tensorShape": {"dim": [{"size": "4"}]}}}}}, {"name": "StatefulPartitionedCall/model/generate_waveform_layer/GEN/res3c/Conv2D/Cast", "op": "Const", "attr": {"value": {"tensor": {"dtype": "DT_HALF", "tensorShape": {"dim": [{"size": "1"}, {"size": "1"}, {"size": "320"}, {"size": "512"}]}}}, "dtype": {"type": "DT_HALF"}}}, {"name": "StatefulPartitionedCall/model/generate_waveform_layer/GEN/res3c/BiasAdd/Cast", "op": "Const", "attr": {"value": {"tensor": {"dtype": "DT_HALF", "tensorShape": {"dim": [{"size": "512"}]}}}, "dtype": {"type": "DT_HALF"}}}, {"name": "StatefulPartitionedCall/model/generate_waveform_layer/GEN/tf.reshape_14/Reshape/shape", "op": "Const", "attr": {"dtype": {"type": "DT_INT32"}, "value": {"tensor": {"dtype": "DT_INT32", "tensorShape": {"dim": [{"size": "5"}]}}}}}, {"name": "StatefulPartitionedCall/model/generate_waveform_layer/GEN/tf.compat.v1.transpose_10/transpose/perm", "op": "Const", "attr": {"dtype": {"type": "DT_INT32"}, "value": {"tensor": {"dtype": "DT_INT32", "tensorShape": {"dim": [{"size": "5"}]}}}}}, {"name": "StatefulPartitionedCall/model/generate_waveform_layer/GEN/tf.reshape_15/Reshape/shape", "op": "Const", "attr": {"value": {"tensor": {"dtype": "DT_INT32", "tensorShape": {"dim": [{"size": "4"}]}}}, "dtype": {"type": "DT_INT32"}}}, {"name": "StatefulPartitionedCall/model/generate_waveform_layer/GEN/res4c/Conv2D/Cast", "op": "Const", "attr": {"dtype": {"type": "DT_HALF"}, "value": {"tensor": {"dtype": "DT_HALF", "tensorShape": {"dim": [{"size": "1"}, {"size": "1"}, {"size": "256"}, {"size": "384"}]}}}}}, {"name": "StatefulPartitionedCall/model/generate_waveform_layer/GEN/res4c/BiasAdd/Cast", "op": "Const", "attr": {"value": {"tensor": {"dtype": "DT_HALF", "tensorShape": {"dim": [{"size": "384"}]}}}, "dtype": {"type": "DT_HALF"}}}, {"name": "StatefulPartitionedCall/model/generate_waveform_layer/GEN/8c/BiasAdd/Cast", "op": "Const", "attr": {"dtype": {"type": "DT_HALF"}, "value": {"tensor": {"dtype": "DT_HALF", "tensorShape": {"dim": [{"size": "256"}]}}}}}, {"name": "StatefulPartitionedCall/model/generate_waveform_layer/GEN/8r/Cast", "op": "Const", "attr": {"value": {"tensor": {"dtype": "DT_HALF", "tensorShape": {"dim": [{"size": "1"}]}}}, "dtype": {"type": "DT_HALF"}}}, {"name": "StatefulPartitionedCall/model/generate_waveform_layer/GEN/8r/random_normal/shape", "op": "Const", "attr": {"value": {"tensor": {"dtype": "DT_INT32", "tensorShape": {"dim": [{"size": "4"}]}}}, "dtype": {"type": "DT_INT32"}}}, {"name": "StatefulPartitionedCall/model/generate_waveform_layer/GEN/tf.math.reduce_std_19/reduce_std/reduce_variance/Mean/reduction_indices", "op": "Const", "attr": {"value": {"tensor": {"dtype": "DT_INT32", "tensorShape": {}}}, "dtype": {"type": "DT_INT32"}}}, {"name": "StatefulPartitionedCall/model/generate_waveform_layer/GEN/tf.math.reduce_std_19/reduce_std/reduce_variance/Mean_1/reduction_indices", "op": "Const", "attr": {"dtype": {"type": "DT_INT32"}, "value": {"tensor": {"dtype": "DT_INT32", "tensorShape": {}}}}}, {"name": "StatefulPartitionedCall/model/generate_waveform_layer/GEN/tf.__operators__.add_37/y", "op": "Const", "attr": {"value": {"tensor": {"dtype": "DT_HALF", "tensorShape": {}}}, "dtype": {"type": "DT_HALF"}}}, {"name": "StatefulPartitionedCall/model/generate_waveform_layer/GEN/tf.split_9/split/split_dim", "op": "Const", "attr": {"value": {"tensor": {"dtype": "DT_INT32", "tensorShape": {}}}, "dtype": {"type": "DT_INT32"}}}, {"name": "StatefulPartitionedCall/model/generate_waveform_layer/strided_slice/stack", "op": "Const", "attr": {"value": {"tensor": {"dtype": "DT_INT32", "tensorShape": {"dim": [{"size": "1"}]}}}, "dtype": {"type": "DT_INT32"}}}, {"name": "StatefulPartitionedCall/model/generate_waveform_layer/strided_slice/stack_1", "op": "Const", "attr": {"dtype": {"type": "DT_INT32"}, "value": {"tensor": {"dtype": "DT_INT32", "tensorShape": {"dim": [{"size": "1"}]}}}}}, {"name": "StatefulPartitionedCall/model/generate_waveform_layer/strided_slice/stack_2", "op": "Const", "attr": {"dtype": {"type": "DT_INT32"}, "value": {"tensor": {"dtype": "DT_INT32", "tensorShape": {"dim": [{"size": "1"}]}}}}}, {"name": "StatefulPartitionedCall/model/generate_waveform_layer/GEN/tf.concat_9/concat/axis", "op": "Const", "attr": {"dtype": {"type": "DT_INT32"}, "value": {"tensor": {"dtype": "DT_INT32", "tensorShape": {}}}}}, {"name": "StatefulPartitionedCall/model/generate_waveform_layer/GEN/tf.expand_dims_3/ExpandDims/dim", "op": "Const", "attr": {"value": {"tensor": {"dtype": "DT_INT32", "tensorShape": {}}}, "dtype": {"type": "DT_INT32"}}}, {"name": "StatefulPartitionedCall/model/generate_waveform_layer/GEN/8ai/Conv2D/Cast", "op": "Const", "attr": {"dtype": {"type": "DT_HALF"}, "value": {"tensor": {"dtype": "DT_HALF", "tensorShape": {"dim": [{"size": "1"}, {"size": "1"}, {"size": "128"}, {"size": "256"}]}}}}}, {"name": "StatefulPartitionedCall/model/generate_waveform_layer/GEN/8ai/BiasAdd/Cast", "op": "Const", "attr": {"value": {"tensor": {"dtype": "DT_HALF", "tensorShape": {"dim": [{"size": "256"}]}}}, "dtype": {"type": "DT_HALF"}}}, {"name": "StatefulPartitionedCall/model/generate_waveform_layer/GEN/9c/Conv2D/Cast", "op": "Const", "attr": {"dtype": {"type": "DT_HALF"}, "value": {"tensor": {"dtype": "DT_HALF", "tensorShape": {"dim": [{"size": "1"}, {"size": "4"}, {"size": "256"}, {"size": "128"}]}}}}}, {"name": "StatefulPartitionedCall/model/generate_waveform_layer/GEN/9c/BiasAdd/Cast", "op": "Const", "attr": {"dtype": {"type": "DT_HALF"}, "value": {"tensor": {"dtype": "DT_HALF", "tensorShape": {"dim": [{"size": "128"}]}}}}}, {"name": "StatefulPartitionedCall/model/generate_waveform_layer/GEN/tf.concat_10/concat/axis", "op": "Const", "attr": {"dtype": {"type": "DT_INT32"}, "value": {"tensor": {"dtype": "DT_INT32", "tensorShape": {}}}}}, {"name": "StatefulPartitionedCall/model/generate_waveform_layer/concat_2/axis", "op": "Const", "attr": {"dtype": {"type": "DT_INT32"}, "value": {"tensor": {"dtype": "DT_INT32", "tensorShape": {}}}}}, {"name": "StatefulPartitionedCall/model/generate_waveform_layer/strided_slice_4/stack", "op": "Const", "attr": {"dtype": {"type": "DT_INT32"}, "value": {"tensor": {"dtype": "DT_INT32", "tensorShape": {"dim": [{"size": "4"}]}}}}}, {"name": "StatefulPartitionedCall/model/generate_waveform_layer/strided_slice_4/stack_1", "op": "Const", "attr": {"dtype": {"type": "DT_INT32"}, "value": {"tensor": {"dtype": "DT_INT32", "tensorShape": {"dim": [{"size": "4"}]}}}}}, {"name": "StatefulPartitionedCall/model/generate_waveform_layer/strided_slice_4/stack_2", "op": "Const", "attr": {"value": {"tensor": {"dtype": "DT_INT32", "tensorShape": {"dim": [{"size": "4"}]}}}, "dtype": {"type": "DT_INT32"}}}, {"name": "StatefulPartitionedCall/model/generate_waveform_layer/strided_slice_5/stack", "op": "Const", "attr": {"dtype": {"type": "DT_INT32"}, "value": {"tensor": {"dtype": "DT_INT32", "tensorShape": {"dim": [{"size": "1"}]}}}}}, {"name": "StatefulPartitionedCall/model/generate_waveform_layer/strided_slice_5/stack_1", "op": "Const", "attr": {"value": {"tensor": {"dtype": "DT_INT32", "tensorShape": {"dim": [{"size": "1"}]}}}, "dtype": {"type": "DT_INT32"}}}, {"name": "StatefulPartitionedCall/model/generate_waveform_layer/strided_slice_5/stack_2", "op": "Const", "attr": {"value": {"tensor": {"dtype": "DT_INT32", "tensorShape": {"dim": [{"size": "1"}]}}}, "dtype": {"type": "DT_INT32"}}}, {"name": "StatefulPartitionedCall/model/generate_waveform_layer/concat_11/axis", "op": "Const", "attr": {"value": {"tensor": {"dtype": "DT_INT32", "tensorShape": {}}}, "dtype": {"type": "DT_INT32"}}}, {"name": "StatefulPartitionedCall/model/generate_waveform_layer/DEC2/conv2d_20/Conv2D_1/Cast", "op": "Const", "attr": {"dtype": {"type": "DT_HALF"}, "value": {"tensor": {"dtype": "DT_HALF", "tensorShape": {"dim": [{"size": "1"}, {"size": "3"}, {"size": "64"}, {"size": "768"}]}}}}}, {"name": "StatefulPartitionedCall/model/generate_waveform_layer/DEC2/conv2d_20/BiasAdd_1/Cast", "op": "Const", "attr": {"dtype": {"type": "DT_HALF"}, "value": {"tensor": {"dtype": "DT_HALF", "tensorShape": {"dim": [{"size": "768"}]}}}}}, {"name": "StatefulPartitionedCall/model/generate_waveform_layer/DEC2/add_noise_11/Cast_1", "op": "Const", "attr": {"dtype": {"type": "DT_HALF"}, "value": {"tensor": {"dtype": "DT_HALF", "tensorShape": {"dim": [{"size": "1"}]}}}}}, {"name": "StatefulPartitionedCall/model/generate_waveform_layer/DEC2/add_noise_11/random_normal_1/shape", "op": "Const", "attr": {"dtype": {"type": "DT_INT32"}, "value": {"tensor": {"dtype": "DT_INT32", "tensorShape": {"dim": [{"size": "4"}]}}}}}, {"name": "StatefulPartitionedCall/model/generate_waveform_layer/DEC2/conv2d_transpose_6/BiasAdd_1/Cast", "op": "Const", "attr": {"dtype": {"type": "DT_HALF"}, "value": {"tensor": {"dtype": "DT_HALF", "tensorShape": {"dim": [{"size": "640"}]}}}}}, {"name": "StatefulPartitionedCall/model/generate_waveform_layer/DEC2/add_noise_12/Cast_1", "op": "Const", "attr": {"value": {"tensor": {"dtype": "DT_HALF", "tensorShape": {"dim": [{"size": "1"}]}}}, "dtype": {"type": "DT_HALF"}}}, {"name": "StatefulPartitionedCall/model/generate_waveform_layer/DEC2/add_noise_12/random_normal_1/shape", "op": "Const", "attr": {"value": {"tensor": {"dtype": "DT_INT32", "tensorShape": {"dim": [{"size": "4"}]}}}, "dtype": {"type": "DT_INT32"}}}, {"name": "StatefulPartitionedCall/model/generate_waveform_layer/DEC2/conv2d_21/Conv2D_1/Cast", "op": "Const", "attr": {"dtype": {"type": "DT_HALF"}, "value": {"tensor": {"dtype": "DT_HALF", "tensorShape": {"dim": [{"size": "1"}, {"size": "3"}, {"size": "640"}, {"size": "640"}]}}}}}, {"name": "StatefulPartitionedCall/model/generate_waveform_layer/DEC2/conv2d_21/BiasAdd_1/Cast", "op": "Const", "attr": {"dtype": {"type": "DT_HALF"}, "value": {"tensor": {"dtype": "DT_HALF", "tensorShape": {"dim": [{"size": "640"}]}}}}}, {"name": "StatefulPartitionedCall/model/generate_waveform_layer/DEC2/add_noise_13/Cast_1", "op": "Const", "attr": {"value": {"tensor": {"dtype": "DT_HALF", "tensorShape": {"dim": [{"size": "1"}]}}}, "dtype": {"type": "DT_HALF"}}}, {"name": "StatefulPartitionedCall/model/generate_waveform_layer/DEC2/add_noise_13/random_normal_1/shape", "op": "Const", "attr": {"value": {"tensor": {"dtype": "DT_INT32", "tensorShape": {"dim": [{"size": "4"}]}}}, "dtype": {"type": "DT_INT32"}}}, {"name": "StatefulPartitionedCall/model/generate_waveform_layer/DEC2/conv2d_transpose_7/BiasAdd_1/Cast", "op": "Const", "attr": {"value": {"tensor": {"dtype": "DT_HALF", "tensorShape": {"dim": [{"size": "512"}]}}}, "dtype": {"type": "DT_HALF"}}}, {"name": "StatefulPartitionedCall/model/generate_waveform_layer/DEC2/add_noise_14/Cast_1", "op": "Const", "attr": {"value": {"tensor": {"dtype": "DT_HALF", "tensorShape": {"dim": [{"size": "1"}]}}}, "dtype": {"type": "DT_HALF"}}}, {"name": "StatefulPartitionedCall/model/generate_waveform_layer/DEC2/add_noise_14/random_normal_1/shape", "op": "Const", "attr": {"dtype": {"type": "DT_INT32"}, "value": {"tensor": {"dtype": "DT_INT32", "tensorShape": {"dim": [{"size": "4"}]}}}}}, {"name": "StatefulPartitionedCall/model/generate_waveform_layer/DEC2/conv2d_22/Conv2D_1/Cast", "op": "Const", "attr": {"dtype": {"type": "DT_HALF"}, "value": {"tensor": {"dtype": "DT_HALF", "tensorShape": {"dim": [{"size": "1"}, {"size": "3"}, {"size": "512"}, {"size": "512"}]}}}}}, {"name": "StatefulPartitionedCall/model/generate_waveform_layer/DEC2/conv2d_22/BiasAdd_1/Cast", "op": "Const", "attr": {"dtype": {"type": "DT_HALF"}, "value": {"tensor": {"dtype": "DT_HALF", "tensorShape": {"dim": [{"size": "512"}]}}}}}, {"name": "StatefulPartitionedCall/model/generate_waveform_layer/DEC2/add_noise_15/Cast_1", "op": "Const", "attr": {"dtype": {"type": "DT_HALF"}, "value": {"tensor": {"dtype": "DT_HALF", "tensorShape": {"dim": [{"size": "1"}]}}}}}, {"name": "StatefulPartitionedCall/model/generate_waveform_layer/DEC2/add_noise_15/random_normal_1/shape", "op": "Const", "attr": {"dtype": {"type": "DT_INT32"}, "value": {"tensor": {"dtype": "DT_INT32", "tensorShape": {"dim": [{"size": "4"}]}}}}}, {"name": "StatefulPartitionedCall/model/generate_waveform_layer/DEC2/conv2d_transpose_8/BiasAdd_1/Cast", "op": "Const", "attr": {"dtype": {"type": "DT_HALF"}, "value": {"tensor": {"dtype": "DT_HALF", "tensorShape": {"dim": [{"size": "384"}]}}}}}, {"name": "StatefulPartitionedCall/model/generate_waveform_layer/DEC2/add_noise_16/Cast_1", "op": "Const", "attr": {"value": {"tensor": {"dtype": "DT_HALF", "tensorShape": {"dim": [{"size": "1"}]}}}, "dtype": {"type": "DT_HALF"}}}, {"name": "StatefulPartitionedCall/model/generate_waveform_layer/DEC2/add_noise_16/random_normal_1/shape", "op": "Const", "attr": {"dtype": {"type": "DT_INT32"}, "value": {"tensor": {"dtype": "DT_INT32", "tensorShape": {"dim": [{"size": "4"}]}}}}}, {"name": "StatefulPartitionedCall/model/generate_waveform_layer/DEC2/conv2d_transpose_9/BiasAdd_1/Cast", "op": "Const", "attr": {"dtype": {"type": "DT_HALF"}, "value": {"tensor": {"dtype": "DT_HALF", "tensorShape": {"dim": [{"size": "256"}]}}}}}, {"name": "StatefulPartitionedCall/model/generate_waveform_layer/DEC2/add_noise_17/Cast_1", "op": "Const", "attr": {"value": {"tensor": {"dtype": "DT_HALF", "tensorShape": {"dim": [{"size": "1"}]}}}, "dtype": {"type": "DT_HALF"}}}, {"name": "StatefulPartitionedCall/model/generate_waveform_layer/DEC2/add_noise_17/random_normal_1/shape", "op": "Const", "attr": {"dtype": {"type": "DT_INT32"}, "value": {"tensor": {"dtype": "DT_INT32", "tensorShape": {"dim": [{"size": "4"}]}}}}}, {"name": "StatefulPartitionedCall/model/generate_waveform_layer/DEC2/cout/Conv2D_1/Cast", "op": "Const", "attr": {"dtype": {"type": "DT_HALF"}, "value": {"tensor": {"dtype": "DT_HALF", "tensorShape": {"dim": [{"size": "1"}, {"size": "1"}, {"size": "256"}, {"size": "64"}]}}}}}, {"name": "StatefulPartitionedCall/model/generate_waveform_layer/DEC2/cout/BiasAdd_1/Cast", "op": "Const", "attr": {"value": {"tensor": {"dtype": "DT_HALF", "tensorShape": {"dim": [{"size": "64"}]}}}, "dtype": {"type": "DT_HALF"}}}, {"name": "StatefulPartitionedCall/model/generate_waveform_layer/DEC2/tf.concat_8/concat_1/axis", "op": "Const", "attr": {"value": {"tensor": {"dtype": "DT_INT32", "tensorShape": {}}}, "dtype": {"type": "DT_INT32"}}}, {"name": "StatefulPartitionedCall/model/generate_waveform_layer/strided_slice_6/stack", "op": "Const", "attr": {"value": {"tensor": {"dtype": "DT_INT32", "tensorShape": {"dim": [{"size": "1"}]}}}, "dtype": {"type": "DT_INT32"}}}, {"name": "StatefulPartitionedCall/model/generate_waveform_layer/strided_slice_6/stack_1", "op": "Const", "attr": {"dtype": {"type": "DT_INT32"}, "value": {"tensor": {"dtype": "DT_INT32", "tensorShape": {"dim": [{"size": "1"}]}}}}}, {"name": "StatefulPartitionedCall/model/generate_waveform_layer/strided_slice_6/stack_2", "op": "Const", "attr": {"dtype": {"type": "DT_INT32"}, "value": {"tensor": {"dtype": "DT_INT32", "tensorShape": {"dim": [{"size": "1"}]}}}}}, {"name": "StatefulPartitionedCall/model/generate_waveform_layer/concat_14/axis", "op": "Const", "attr": {"value": {"tensor": {"dtype": "DT_INT32", "tensorShape": {}}}, "dtype": {"type": "DT_INT32"}}}, {"name": "StatefulPartitionedCall/model/generate_waveform_layer/DEC/conv2d_6/Conv2D_1/Cast", "op": "Const", "attr": {"dtype": {"type": "DT_HALF"}, "value": {"tensor": {"dtype": "DT_HALF", "tensorShape": {"dim": [{"size": "1"}, {"size": "3"}, {"size": "64"}, {"size": "768"}]}}}}}, {"name": "StatefulPartitionedCall/model/generate_waveform_layer/DEC/conv2d_6/BiasAdd_1/Cast", "op": "Const", "attr": {"dtype": {"type": "DT_HALF"}, "value": {"tensor": {"dtype": "DT_HALF", "tensorShape": {"dim": [{"size": "768"}]}}}}}, {"name": "StatefulPartitionedCall/model/generate_waveform_layer/DEC/add_noise/Cast_1", "op": "Const", "attr": {"dtype": {"type": "DT_HALF"}, "value": {"tensor": {"dtype": "DT_HALF", "tensorShape": {"dim": [{"size": "1"}]}}}}}, {"name": "StatefulPartitionedCall/model/generate_waveform_layer/DEC/add_noise/random_normal_1/shape", "op": "Const", "attr": {"dtype": {"type": "DT_INT32"}, "value": {"tensor": {"dtype": "DT_INT32", "tensorShape": {"dim": [{"size": "4"}]}}}}}, {"name": "StatefulPartitionedCall/model/generate_waveform_layer/DEC/conv2d_7/Conv2D_1/Cast", "op": "Const", "attr": {"value": {"tensor": {"dtype": "DT_HALF", "tensorShape": {"dim": [{"size": "1"}, {"size": "3"}, {"size": "768"}, {"size": "768"}]}}}, "dtype": {"type": "DT_HALF"}}}, {"name": "StatefulPartitionedCall/model/generate_waveform_layer/DEC/conv2d_7/BiasAdd_1/Cast", "op": "Const", "attr": {"dtype": {"type": "DT_HALF"}, "value": {"tensor": {"dtype": "DT_HALF", "tensorShape": {"dim": [{"size": "768"}]}}}}}, {"name": "StatefulPartitionedCall/model/generate_waveform_layer/DEC/add_noise_1/Cast_1", "op": "Const", "attr": {"dtype": {"type": "DT_HALF"}, "value": {"tensor": {"dtype": "DT_HALF", "tensorShape": {"dim": [{"size": "1"}]}}}}}, {"name": "StatefulPartitionedCall/model/generate_waveform_layer/DEC/add_noise_1/random_normal_1/shape", "op": "Const", "attr": {"value": {"tensor": {"dtype": "DT_INT32", "tensorShape": {"dim": [{"size": "4"}]}}}, "dtype": {"type": "DT_INT32"}}}, {"name": "StatefulPartitionedCall/model/generate_waveform_layer/DEC/conv2d_transpose_3/BiasAdd_1/Cast", "op": "Const", "attr": {"value": {"tensor": {"dtype": "DT_HALF", "tensorShape": {"dim": [{"size": "768"}]}}}, "dtype": {"type": "DT_HALF"}}}, {"name": "StatefulPartitionedCall/model/generate_waveform_layer/DEC/add_noise_8/Cast_1", "op": "Const", "attr": {"dtype": {"type": "DT_HALF"}, "value": {"tensor": {"dtype": "DT_HALF", "tensorShape": {"dim": [{"size": "1"}]}}}}}, {"name": "StatefulPartitionedCall/model/generate_waveform_layer/DEC/add_noise_8/random_normal_1/shape", "op": "Const", "attr": {"value": {"tensor": {"dtype": "DT_INT32", "tensorShape": {"dim": [{"size": "4"}]}}}, "dtype": {"type": "DT_INT32"}}}, {"name": "StatefulPartitionedCall/model/generate_waveform_layer/DEC/conv2d_12/Conv2D_1/Cast", "op": "Const", "attr": {"dtype": {"type": "DT_HALF"}, "value": {"tensor": {"dtype": "DT_HALF", "tensorShape": {"dim": [{"size": "1"}, {"size": "1"}, {"size": "768"}, {"size": "513"}]}}}}}, {"name": "StatefulPartitionedCall/model/generate_waveform_layer/DEC/conv2d_12/BiasAdd_1/Cast", "op": "Const", "attr": {"value": {"tensor": {"dtype": "DT_HALF", "tensorShape": {"dim": [{"size": "513"}]}}}, "dtype": {"type": "DT_HALF"}}}, {"name": "StatefulPartitionedCall/model/generate_waveform_layer/DEC/tf.clip_by_value_1/clip_by_value_1/Minimum/y", "op": "Const", "attr": {"dtype": {"type": "DT_HALF"}, "value": {"tensor": {"dtype": "DT_HALF", "tensorShape": {}}}}}, {"name": "StatefulPartitionedCall/model/generate_waveform_layer/DEC/tf.clip_by_value_1/clip_by_value_1/y", "op": "Const", "attr": {"dtype": {"type": "DT_HALF"}, "value": {"tensor": {"dtype": "DT_HALF", "tensorShape": {}}}}}, {"name": "StatefulPartitionedCall/model/generate_waveform_layer/DEC/tf.concat_4/concat_1/axis", "op": "Const", "attr": {"dtype": {"type": "DT_INT32"}, "value": {"tensor": {"dtype": "DT_INT32", "tensorShape": {}}}}}, {"name": "StatefulPartitionedCall/model/generate_waveform_layer/DEC/tf.compat.v1.transpose_6/transpose_1/perm", "op": "Const", "attr": {"value": {"tensor": {"dtype": "DT_INT32", "tensorShape": {"dim": [{"size": "4"}]}}}, "dtype": {"type": "DT_INT32"}}}, {"name": "StatefulPartitionedCall/model/generate_waveform_layer/mul_10/y", "op": "Const", "attr": {"dtype": {"type": "DT_FLOAT"}, "value": {"tensor": {"dtype": "DT_FLOAT", "tensorShape": {}}}}}, {"name": "StatefulPartitionedCall/model/generate_waveform_layer/concat_18/axis", "op": "Const", "attr": {"value": {"tensor": {"dtype": "DT_INT32", "tensorShape": {}}}, "dtype": {"type": "DT_INT32"}}}, {"name": "StatefulPartitionedCall/model/generate_waveform_layer/irfft_1/fft_length", "op": "Const", "attr": {"dtype": {"type": "DT_INT32"}, "value": {"tensor": {"dtype": "DT_INT32", "tensorShape": {"dim": [{"size": "1"}]}}}}}, {"name": "StatefulPartitionedCall/model/generate_waveform_layer/inverse_stft_window_fn_1/truediv", "op": "Const", "attr": {"dtype": {"type": "DT_FLOAT"}, "value": {"tensor": {"dtype": "DT_FLOAT", "tensorShape": {"dim": [{"size": "1024"}]}}}}}, {"name": "StatefulPartitionedCall/model/generate_waveform_layer/overlap_and_add_1/concat", "op": "Const", "attr": {"dtype": {"type": "DT_INT32"}, "value": {"tensor": {"dtype": "DT_INT32", "tensorShape": {"dim": [{"size": "2"}, {"size": "2"}]}}}}}, {"name": "StatefulPartitionedCall/model/generate_waveform_layer/overlap_and_add_1/concat_1", "op": "Const", "attr": {"dtype": {"type": "DT_INT32"}, "value": {"tensor": {"dtype": "DT_INT32", "tensorShape": {"dim": [{"size": "3"}]}}}}}, {"name": "StatefulPartitionedCall/model/generate_waveform_layer/overlap_and_add_1/transpose/perm", "op": "Const", "attr": {"dtype": {"type": "DT_INT32"}, "value": {"tensor": {"dtype": "DT_INT32", "tensorShape": {"dim": [{"size": "3"}]}}}}}, {"name": "StatefulPartitionedCall/model/generate_waveform_layer/overlap_and_add_1/concat_3", "op": "Const", "attr": {"dtype": {"type": "DT_INT32"}, "value": {"tensor": {"dtype": "DT_INT32", "tensorShape": {"dim": [{"size": "2"}]}}}}}, {"name": "StatefulPartitionedCall/model/generate_waveform_layer/overlap_and_add_1/strided_slice/stack", "op": "Const", "attr": {"value": {"tensor": {"dtype": "DT_INT32", "tensorShape": {"dim": [{"size": "3"}]}}}, "dtype": {"type": "DT_INT32"}}}, {"name": "StatefulPartitionedCall/model/generate_waveform_layer/overlap_and_add_1/strided_slice/stack_1", "op": "Const", "attr": {"value": {"tensor": {"dtype": "DT_INT32", "tensorShape": {"dim": [{"size": "3"}]}}}, "dtype": {"type": "DT_INT32"}}}, {"name": "StatefulPartitionedCall/model/generate_waveform_layer/overlap_and_add_1/strided_slice/stack_2", "op": "Const", "attr": {"dtype": {"type": "DT_INT32"}, "value": {"tensor": {"dtype": "DT_INT32", "tensorShape": {"dim": [{"size": "3"}]}}}}}, {"name": "StatefulPartitionedCall/model/generate_waveform_layer/overlap_and_add_1/concat_4", "op": "Const", "attr": {"dtype": {"type": "DT_INT32"}, "value": {"tensor": {"dtype": "DT_INT32", "tensorShape": {"dim": [{"size": "3"}]}}}}}, {"name": "StatefulPartitionedCall/model/generate_waveform_layer/overlap_and_add_1/Sum/reduction_indices", "op": "Const", "attr": {"dtype": {"type": "DT_INT32"}, "value": {"tensor": {"dtype": "DT_INT32", "tensorShape": {}}}}}, {"name": "StatefulPartitionedCall/model/generate_waveform_layer/overlap_and_add_1/concat_5", "op": "Const", "attr": {"value": {"tensor": {"dtype": "DT_INT32", "tensorShape": {"dim": [{"size": "1"}]}}}, "dtype": {"type": "DT_INT32"}}}, {"name": "StatefulPartitionedCall/model/generate_waveform_layer/overlap_and_add_1/strided_slice_1/stack", "op": "Const", "attr": {"dtype": {"type": "DT_INT32"}, "value": {"tensor": {"dtype": "DT_INT32", "tensorShape": {"dim": [{"size": "2"}]}}}}}, {"name": "StatefulPartitionedCall/model/generate_waveform_layer/overlap_and_add_1/strided_slice_1/stack_1", "op": "Const", "attr": {"value": {"tensor": {"dtype": "DT_INT32", "tensorShape": {"dim": [{"size": "2"}]}}}, "dtype": {"type": "DT_INT32"}}}, {"name": "StatefulPartitionedCall/model/generate_waveform_layer/overlap_and_add_1/strided_slice_1/stack_2", "op": "Const", "attr": {"dtype": {"type": "DT_INT32"}, "value": {"tensor": {"dtype": "DT_INT32", "tensorShape": {"dim": [{"size": "2"}]}}}}}, {"name": "StatefulPartitionedCall/model/generate_waveform_layer/clip_by_value/Minimum/y", "op": "Const", "attr": {"dtype": {"type": "DT_FLOAT"}, "value": {"tensor": {"dtype": "DT_FLOAT", "tensorShape": {}}}}}, {"name": "StatefulPartitionedCall/model/generate_waveform_layer/clip_by_value/y", "op": "Const", "attr": {"value": {"tensor": {"dtype": "DT_FLOAT", "tensorShape": {}}}, "dtype": {"type": "DT_FLOAT"}}}, {"name": "input_8", "op": "Placeholder", "attr": {"shape": {"shape": {"dim": [{"size": "1"}, {"size": "256"}, {"size": "128"}]}}, "dtype": {"type": "DT_FLOAT"}}}, {"name": "StatefulPartitionedCall/model/generate_waveform_layer/DEC/add_noise_9/random_normal/RandomStandardNormal", "op": "RandomStandardNormal", "input": ["StatefulPartitionedCall/model/generate_waveform_layer/DEC/add_noise_9/random_normal/shape"], "attr": {"T": {"type": "DT_INT32"}, "dtype": {"type": "DT_HALF"}, "seed": {"i": "0"}, "seed2": {"i": "0"}}}, {"name": "StatefulPartitionedCall/model/generate_waveform_layer/DEC/add_noise_10/random_normal/RandomStandardNormal", "op": "RandomStandardNormal", "input": ["StatefulPartitionedCall/model/generate_waveform_layer/DEC/add_noise_10/random_normal/shape"], "attr": {"T": {"type": "DT_INT32"}, "seed2": {"i": "0"}, "seed": {"i": "0"}, "dtype": {"type": "DT_HALF"}}}, {"name": "StatefulPartitionedCall/model/generate_waveform_layer/DEC/add_noise_3/random_normal/RandomStandardNormal", "op": "RandomStandardNormal", "input": ["StatefulPartitionedCall/model/generate_waveform_layer/DEC/add_noise_3/random_normal/shape"], "attr": {"seed": {"i": "0"}, "seed2": {"i": "0"}, "dtype": {"type": "DT_HALF"}, "T": {"type": "DT_INT32"}}}, {"name": "StatefulPartitionedCall/model/generate_waveform_layer/DEC/add_noise_6/random_normal/RandomStandardNormal", "op": "RandomStandardNormal", "input": ["StatefulPartitionedCall/model/generate_waveform_layer/DEC/add_noise_6/random_normal/shape"], "attr": {"seed": {"i": "0"}, "seed2": {"i": "0"}, "T": {"type": "DT_INT32"}, "dtype": {"type": "DT_HALF"}}}, {"name": "StatefulPartitionedCall/model/generate_waveform_layer/DEC/add_noise_2/random_normal/RandomStandardNormal", "op": "RandomStandardNormal", "input": ["StatefulPartitionedCall/model/generate_waveform_layer/DEC/add_noise_2/random_normal/shape"], "attr": {"seed2": {"i": "0"}, "seed": {"i": "0"}, "T": {"type": "DT_INT32"}, "dtype": {"type": "DT_HALF"}}}, {"name": "StatefulPartitionedCall/model/generate_waveform_layer/DEC/add_noise_7/random_normal/RandomStandardNormal", "op": "RandomStandardNormal", "input": ["StatefulPartitionedCall/model/generate_waveform_layer/DEC/add_noise_7/random_normal/shape"], "attr": {"T": {"type": "DT_INT32"}, "dtype": {"type": "DT_HALF"}, "seed": {"i": "0"}, "seed2": {"i": "0"}}}, {"name": "StatefulPartitionedCall/model/generate_waveform_layer/DEC2/add_noise_11/random_normal/RandomStandardNormal", "op": "RandomStandardNormal", "input": ["StatefulPartitionedCall/model/generate_waveform_layer/DEC2/add_noise_11/random_normal/shape"], "attr": {"seed2": {"i": "0"}, "dtype": {"type": "DT_HALF"}, "seed": {"i": "0"}, "T": {"type": "DT_INT32"}}}, {"name": "StatefulPartitionedCall/model/generate_waveform_layer/DEC2/add_noise_12/random_normal/RandomStandardNormal", "op": "RandomStandardNormal", "input": ["StatefulPartitionedCall/model/generate_waveform_layer/DEC2/add_noise_12/random_normal/shape"], "attr": {"seed": {"i": "0"}, "seed2": {"i": "0"}, "dtype": {"type": "DT_HALF"}, "T": {"type": "DT_INT32"}}}, {"name": "StatefulPartitionedCall/model/generate_waveform_layer/DEC2/add_noise_13/random_normal/RandomStandardNormal", "op": "RandomStandardNormal", "input": ["StatefulPartitionedCall/model/generate_waveform_layer/DEC2/add_noise_13/random_normal/shape"], "attr": {"seed2": {"i": "0"}, "dtype": {"type": "DT_HALF"}, "seed": {"i": "0"}, "T": {"type": "DT_INT32"}}}, {"name": "StatefulPartitionedCall/model/generate_waveform_layer/DEC2/add_noise_14/random_normal/RandomStandardNormal", "op": "RandomStandardNormal", "input": ["StatefulPartitionedCall/model/generate_waveform_layer/DEC2/add_noise_14/random_normal/shape"], "attr": {"T": {"type": "DT_INT32"}, "seed2": {"i": "0"}, "seed": {"i": "0"}, "dtype": {"type": "DT_HALF"}}}, {"name": "StatefulPartitionedCall/model/generate_waveform_layer/DEC2/add_noise_15/random_normal/RandomStandardNormal", "op": "RandomStandardNormal", "input": ["StatefulPartitionedCall/model/generate_waveform_layer/DEC2/add_noise_15/random_normal/shape"], "attr": {"seed2": {"i": "0"}, "T": {"type": "DT_INT32"}, "seed": {"i": "0"}, "dtype": {"type": "DT_HALF"}}}, {"name": "StatefulPartitionedCall/model/generate_waveform_layer/DEC2/add_noise_16/random_normal/RandomStandardNormal", "op": "RandomStandardNormal", "input": ["StatefulPartitionedCall/model/generate_waveform_layer/DEC2/add_noise_16/random_normal/shape"], "attr": {"seed": {"i": "0"}, "seed2": {"i": "0"}, "T": {"type": "DT_INT32"}, "dtype": {"type": "DT_HALF"}}}, {"name": "StatefulPartitionedCall/model/generate_waveform_layer/DEC2/add_noise_17/random_normal/RandomStandardNormal", "op": "RandomStandardNormal", "input": ["StatefulPartitionedCall/model/generate_waveform_layer/DEC2/add_noise_17/random_normal/shape"], "attr": {"seed2": {"i": "0"}, "seed": {"i": "0"}, "T": {"type": "DT_INT32"}, "dtype": {"type": "DT_HALF"}}}, {"name": "StatefulPartitionedCall/model/generate_waveform_layer/DEC/add_noise/random_normal/RandomStandardNormal", "op": "RandomStandardNormal", "input": ["StatefulPartitionedCall/model/generate_waveform_layer/DEC/add_noise/random_normal/shape"], "attr": {"seed2": {"i": "0"}, "dtype": {"type": "DT_HALF"}, "seed": {"i": "0"}, "T": {"type": "DT_INT32"}}}, {"name": "StatefulPartitionedCall/model/generate_waveform_layer/DEC/add_noise_1/random_normal/RandomStandardNormal", "op": "RandomStandardNormal", "input": ["StatefulPartitionedCall/model/generate_waveform_layer/DEC/add_noise_1/random_normal/shape"], "attr": {"seed2": {"i": "0"}, "seed": {"i": "0"}, "T": {"type": "DT_INT32"}, "dtype": {"type": "DT_HALF"}}}, {"name": "StatefulPartitionedCall/model/generate_waveform_layer/DEC/add_noise_8/random_normal/RandomStandardNormal", "op": "RandomStandardNormal", "input": ["StatefulPartitionedCall/model/generate_waveform_layer/DEC/add_noise_8/random_normal/shape"], "attr": {"T": {"type": "DT_INT32"}, "seed2": {"i": "0"}, "seed": {"i": "0"}, "dtype": {"type": "DT_HALF"}}}, {"name": "StatefulPartitionedCall/model/generate_waveform_layer/DEC/add_noise_9/random_normal_1/RandomStandardNormal", "op": "RandomStandardNormal", "input": ["StatefulPartitionedCall/model/generate_waveform_layer/DEC/add_noise_9/random_normal_1/shape"], "attr": {"seed": {"i": "0"}, "dtype": {"type": "DT_HALF"}, "seed2": {"i": "0"}, "T": {"type": "DT_INT32"}}}, {"name": "StatefulPartitionedCall/model/generate_waveform_layer/DEC/add_noise_10/random_normal_1/RandomStandardNormal", "op": "RandomStandardNormal", "input": ["StatefulPartitionedCall/model/generate_waveform_layer/DEC/add_noise_10/random_normal_1/shape"], "attr": {"dtype": {"type": "DT_HALF"}, "seed2": {"i": "0"}, "seed": {"i": "0"}, "T": {"type": "DT_INT32"}}}, {"name": "StatefulPartitionedCall/model/generate_waveform_layer/DEC/add_noise_3/random_normal_1/RandomStandardNormal", "op": "RandomStandardNormal", "input": ["StatefulPartitionedCall/model/generate_waveform_layer/DEC/add_noise_3/random_normal_1/shape"], "attr": {"seed2": {"i": "0"}, "seed": {"i": "0"}, "T": {"type": "DT_INT32"}, "dtype": {"type": "DT_HALF"}}}, {"name": "StatefulPartitionedCall/model/generate_waveform_layer/DEC/add_noise_6/random_normal_1/RandomStandardNormal", "op": "RandomStandardNormal", "input": ["StatefulPartitionedCall/model/generate_waveform_layer/DEC/add_noise_6/random_normal_1/shape"], "attr": {"dtype": {"type": "DT_HALF"}, "T": {"type": "DT_INT32"}, "seed": {"i": "0"}, "seed2": {"i": "0"}}}, {"name": "StatefulPartitionedCall/model/generate_waveform_layer/DEC/add_noise_2/random_normal_1/RandomStandardNormal", "op": "RandomStandardNormal", "input": ["StatefulPartitionedCall/model/generate_waveform_layer/DEC/add_noise_2/random_normal_1/shape"], "attr": {"T": {"type": "DT_INT32"}, "seed": {"i": "0"}, "seed2": {"i": "0"}, "dtype": {"type": "DT_HALF"}}}, {"name": "StatefulPartitionedCall/model/generate_waveform_layer/DEC/add_noise_7/random_normal_1/RandomStandardNormal", "op": "RandomStandardNormal", "input": ["StatefulPartitionedCall/model/generate_waveform_layer/DEC/add_noise_7/random_normal_1/shape"], "attr": {"seed": {"i": "0"}, "T": {"type": "DT_INT32"}, "dtype": {"type": "DT_HALF"}, "seed2": {"i": "0"}}}, {"name": "StatefulPartitionedCall/model/generate_waveform_layer/GEN/6r/random_normal/RandomStandardNormal", "op": "RandomStandardNormal", "input": ["StatefulPartitionedCall/model/generate_waveform_layer/GEN/6r/random_normal/shape"], "attr": {"seed2": {"i": "0"}, "T": {"type": "DT_INT32"}, "seed": {"i": "0"}, "dtype": {"type": "DT_HALF"}}}, {"name": "StatefulPartitionedCall/model/generate_waveform_layer/GEN/7r/random_normal/RandomStandardNormal", "op": "RandomStandardNormal", "input": ["StatefulPartitionedCall/model/generate_waveform_layer/GEN/7r/random_normal/shape"], "attr": {"T": {"type": "DT_INT32"}, "seed2": {"i": "0"}, "dtype": {"type": "DT_HALF"}, "seed": {"i": "0"}}}, {"name": "StatefulPartitionedCall/model/generate_waveform_layer/GEN/4r/random_normal/RandomStandardNormal", "op": "RandomStandardNormal", "input": ["StatefulPartitionedCall/model/generate_waveform_layer/GEN/4r/random_normal/shape"], "attr": {"seed": {"i": "0"}, "seed2": {"i": "0"}, "T": {"type": "DT_INT32"}, "dtype": {"type": "DT_HALF"}}}, {"name": "StatefulPartitionedCall/model/generate_waveform_layer/GEN/5r/random_normal/RandomStandardNormal", "op": "RandomStandardNormal", "input": ["StatefulPartitionedCall/model/generate_waveform_layer/GEN/5r/random_normal/shape"], "attr": {"dtype": {"type": "DT_HALF"}, "T": {"type": "DT_INT32"}, "seed": {"i": "0"}, "seed2": {"i": "0"}}}, {"name": "StatefulPartitionedCall/model/generate_waveform_layer/GEN/2r/random_normal/RandomStandardNormal", "op": "RandomStandardNormal", "input": ["StatefulPartitionedCall/model/generate_waveform_layer/GEN/2r/random_normal/shape"], "attr": {"seed": {"i": "0"}, "seed2": {"i": "0"}, "T": {"type": "DT_INT32"}, "dtype": {"type": "DT_HALF"}}}, {"name": "StatefulPartitionedCall/model/generate_waveform_layer/GEN/3r/random_normal/RandomStandardNormal", "op": "RandomStandardNormal", "input": ["StatefulPartitionedCall/model/generate_waveform_layer/GEN/3r/random_normal/shape"], "attr": {"dtype": {"type": "DT_HALF"}, "seed2": {"i": "0"}, "T": {"type": "DT_INT32"}, "seed": {"i": "0"}}}, {"name": "StatefulPartitionedCall/model/generate_waveform_layer/GEN/0r/random_normal/RandomStandardNormal", "op": "RandomStandardNormal", "input": ["StatefulPartitionedCall/model/generate_waveform_layer/GEN/0r/random_normal/shape"], "attr": {"seed": {"i": "0"}, "seed2": {"i": "0"}, "T": {"type": "DT_INT32"}, "dtype": {"type": "DT_HALF"}}}, {"name": "StatefulPartitionedCall/model/generate_waveform_layer/GEN/1r/random_normal/RandomStandardNormal", "op": "RandomStandardNormal", "input": ["StatefulPartitionedCall/model/generate_waveform_layer/GEN/1r/random_normal/shape"], "attr": {"seed2": {"i": "0"}, "dtype": {"type": "DT_HALF"}, "T": {"type": "DT_INT32"}, "seed": {"i": "0"}}}, {"name": "StatefulPartitionedCall/model/generate_waveform_layer/GEN/00n/random_normal/RandomStandardNormal", "op": "RandomStandardNormal", "input": ["StatefulPartitionedCall/model/generate_waveform_layer/GEN/00n/random_normal/shape"], "attr": {"dtype": {"type": "DT_HALF"}, "seed": {"i": "0"}, "T": {"type": "DT_INT32"}, "seed2": {"i": "0"}}}, {"name": "StatefulPartitionedCall/model/generate_waveform_layer/GEN/8r/random_normal/RandomStandardNormal", "op": "RandomStandardNormal", "input": ["StatefulPartitionedCall/model/generate_waveform_layer/GEN/8r/random_normal/shape"], "attr": {"seed": {"i": "0"}, "seed2": {"i": "0"}, "T": {"type": "DT_INT32"}, "dtype": {"type": "DT_HALF"}}}, {"name": "StatefulPartitionedCall/model/generate_waveform_layer/DEC2/add_noise_11/random_normal_1/RandomStandardNormal", "op": "RandomStandardNormal", "input": ["StatefulPartitionedCall/model/generate_waveform_layer/DEC2/add_noise_11/random_normal_1/shape"], "attr": {"seed": {"i": "0"}, "dtype": {"type": "DT_HALF"}, "T": {"type": "DT_INT32"}, "seed2": {"i": "0"}}}, {"name": "StatefulPartitionedCall/model/generate_waveform_layer/DEC2/add_noise_12/random_normal_1/RandomStandardNormal", "op": "RandomStandardNormal", "input": ["StatefulPartitionedCall/model/generate_waveform_layer/DEC2/add_noise_12/random_normal_1/shape"], "attr": {"seed": {"i": "0"}, "seed2": {"i": "0"}, "T": {"type": "DT_INT32"}, "dtype": {"type": "DT_HALF"}}}, {"name": "StatefulPartitionedCall/model/generate_waveform_layer/DEC2/add_noise_13/random_normal_1/RandomStandardNormal", "op": "RandomStandardNormal", "input": ["StatefulPartitionedCall/model/generate_waveform_layer/DEC2/add_noise_13/random_normal_1/shape"], "attr": {"seed": {"i": "0"}, "T": {"type": "DT_INT32"}, "dtype": {"type": "DT_HALF"}, "seed2": {"i": "0"}}}, {"name": "StatefulPartitionedCall/model/generate_waveform_layer/DEC2/add_noise_14/random_normal_1/RandomStandardNormal", "op": "RandomStandardNormal", "input": ["StatefulPartitionedCall/model/generate_waveform_layer/DEC2/add_noise_14/random_normal_1/shape"], "attr": {"dtype": {"type": "DT_HALF"}, "seed": {"i": "0"}, "seed2": {"i": "0"}, "T": {"type": "DT_INT32"}}}, {"name": "StatefulPartitionedCall/model/generate_waveform_layer/DEC2/add_noise_15/random_normal_1/RandomStandardNormal", "op": "RandomStandardNormal", "input": ["StatefulPartitionedCall/model/generate_waveform_layer/DEC2/add_noise_15/random_normal_1/shape"], "attr": {"seed": {"i": "0"}, "dtype": {"type": "DT_HALF"}, "T": {"type": "DT_INT32"}, "seed2": {"i": "0"}}}, {"name": "StatefulPartitionedCall/model/generate_waveform_layer/DEC2/add_noise_16/random_normal_1/RandomStandardNormal", "op": "RandomStandardNormal", "input": ["StatefulPartitionedCall/model/generate_waveform_layer/DEC2/add_noise_16/random_normal_1/shape"], "attr": {"T": {"type": "DT_INT32"}, "dtype": {"type": "DT_HALF"}, "seed": {"i": "0"}, "seed2": {"i": "0"}}}, {"name": "StatefulPartitionedCall/model/generate_waveform_layer/DEC2/add_noise_17/random_normal_1/RandomStandardNormal", "op": "RandomStandardNormal", "input": ["StatefulPartitionedCall/model/generate_waveform_layer/DEC2/add_noise_17/random_normal_1/shape"], "attr": {"seed2": {"i": "0"}, "seed": {"i": "0"}, "T": {"type": "DT_INT32"}, "dtype": {"type": "DT_HALF"}}}, {"name": "StatefulPartitionedCall/model/generate_waveform_layer/DEC/add_noise/random_normal_1/RandomStandardNormal", "op": "RandomStandardNormal", "input": ["StatefulPartitionedCall/model/generate_waveform_layer/DEC/add_noise/random_normal_1/shape"], "attr": {"seed": {"i": "0"}, "dtype": {"type": "DT_HALF"}, "T": {"type": "DT_INT32"}, "seed2": {"i": "0"}}}, {"name": "StatefulPartitionedCall/model/generate_waveform_layer/DEC/add_noise_1/random_normal_1/RandomStandardNormal", "op": "RandomStandardNormal", "input": ["StatefulPartitionedCall/model/generate_waveform_layer/DEC/add_noise_1/random_normal_1/shape"], "attr": {"seed": {"i": "0"}, "seed2": {"i": "0"}, "T": {"type": "DT_INT32"}, "dtype": {"type": "DT_HALF"}}}, {"name": "StatefulPartitionedCall/model/generate_waveform_layer/DEC/add_noise_8/random_normal_1/RandomStandardNormal", "op": "RandomStandardNormal", "input": ["StatefulPartitionedCall/model/generate_waveform_layer/DEC/add_noise_8/random_normal_1/shape"], "attr": {"seed": {"i": "0"}, "T": {"type": "DT_INT32"}, "seed2": {"i": "0"}, "dtype": {"type": "DT_HALF"}}}, {"name": "StatefulPartitionedCall/model/generate_waveform_layer/Cast", "op": "Cast", "input": ["input_8"], "attr": {"SrcT": {"type": "DT_FLOAT"}, "DstT": {"type": "DT_HALF"}, "Truncate": {"b": false}}}, {"name": "StatefulPartitionedCall/model/generate_waveform_layer/DEC/add_noise_9/mul", "op": "Mul", "input": ["StatefulPartitionedCall/model/generate_waveform_layer/DEC/add_noise_9/Cast", "StatefulPartitionedCall/model/generate_waveform_layer/DEC/add_noise_9/random_normal/RandomStandardNormal"], "attr": {"T": {"type": "DT_HALF"}}}, {"name": "StatefulPartitionedCall/model/generate_waveform_layer/DEC/add_noise_10/mul", "op": "Mul", "input": ["StatefulPartitionedCall/model/generate_waveform_layer/DEC/add_noise_10/Cast", "StatefulPartitionedCall/model/generate_waveform_layer/DEC/add_noise_10/random_normal/RandomStandardNormal"], "attr": {"T": {"type": "DT_HALF"}}}, {"name": "StatefulPartitionedCall/model/generate_waveform_layer/DEC/add_noise_3/mul", "op": "Mul", "input": ["StatefulPartitionedCall/model/generate_waveform_layer/DEC/add_noise_3/Cast", "StatefulPartitionedCall/model/generate_waveform_layer/DEC/add_noise_3/random_normal/RandomStandardNormal"], "attr": {"T": {"type": "DT_HALF"}}}, {"name": "StatefulPartitionedCall/model/generate_waveform_layer/DEC/add_noise_6/mul", "op": "Mul", "input": ["StatefulPartitionedCall/model/generate_waveform_layer/DEC/add_noise_6/Cast", "StatefulPartitionedCall/model/generate_waveform_layer/DEC/add_noise_6/random_normal/RandomStandardNormal"], "attr": {"T": {"type": "DT_HALF"}}}, {"name": "StatefulPartitionedCall/model/generate_waveform_layer/DEC/add_noise_2/mul", "op": "Mul", "input": ["StatefulPartitionedCall/model/generate_waveform_layer/DEC/add_noise_2/Cast", "StatefulPartitionedCall/model/generate_waveform_layer/DEC/add_noise_2/random_normal/RandomStandardNormal"], "attr": {"T": {"type": "DT_HALF"}}}, {"name": "StatefulPartitionedCall/model/generate_waveform_layer/DEC/add_noise_7/mul", "op": "Mul", "input": ["StatefulPartitionedCall/model/generate_waveform_layer/DEC/add_noise_7/Cast", "StatefulPartitionedCall/model/generate_waveform_layer/DEC/add_noise_7/random_normal/RandomStandardNormal"], "attr": {"T": {"type": "DT_HALF"}}}, {"name": "StatefulPartitionedCall/model/generate_waveform_layer/DEC2/add_noise_11/mul", "op": "Mul", "input": ["StatefulPartitionedCall/model/generate_waveform_layer/DEC2/add_noise_11/Cast", "StatefulPartitionedCall/model/generate_waveform_layer/DEC2/add_noise_11/random_normal/RandomStandardNormal"], "attr": {"T": {"type": "DT_HALF"}}}, {"name": "StatefulPartitionedCall/model/generate_waveform_layer/DEC2/add_noise_12/mul", "op": "Mul", "input": ["StatefulPartitionedCall/model/generate_waveform_layer/DEC2/add_noise_12/Cast", "StatefulPartitionedCall/model/generate_waveform_layer/DEC2/add_noise_12/random_normal/RandomStandardNormal"], "attr": {"T": {"type": "DT_HALF"}}}, {"name": "StatefulPartitionedCall/model/generate_waveform_layer/DEC2/add_noise_13/mul", "op": "Mul", "input": ["StatefulPartitionedCall/model/generate_waveform_layer/DEC2/add_noise_13/Cast", "StatefulPartitionedCall/model/generate_waveform_layer/DEC2/add_noise_13/random_normal/RandomStandardNormal"], "attr": {"T": {"type": "DT_HALF"}}}, {"name": "StatefulPartitionedCall/model/generate_waveform_layer/DEC2/add_noise_14/mul", "op": "Mul", "input": ["StatefulPartitionedCall/model/generate_waveform_layer/DEC2/add_noise_14/Cast", "StatefulPartitionedCall/model/generate_waveform_layer/DEC2/add_noise_14/random_normal/RandomStandardNormal"], "attr": {"T": {"type": "DT_HALF"}}}, {"name": "StatefulPartitionedCall/model/generate_waveform_layer/DEC2/add_noise_15/mul", "op": "Mul", "input": ["StatefulPartitionedCall/model/generate_waveform_layer/DEC2/add_noise_15/Cast", "StatefulPartitionedCall/model/generate_waveform_layer/DEC2/add_noise_15/random_normal/RandomStandardNormal"], "attr": {"T": {"type": "DT_HALF"}}}, {"name": "StatefulPartitionedCall/model/generate_waveform_layer/DEC2/add_noise_16/mul", "op": "Mul", "input": ["StatefulPartitionedCall/model/generate_waveform_layer/DEC2/add_noise_16/Cast", "StatefulPartitionedCall/model/generate_waveform_layer/DEC2/add_noise_16/random_normal/RandomStandardNormal"], "attr": {"T": {"type": "DT_HALF"}}}, {"name": "StatefulPartitionedCall/model/generate_waveform_layer/DEC2/add_noise_17/mul", "op": "Mul", "input": ["StatefulPartitionedCall/model/generate_waveform_layer/DEC2/add_noise_17/Cast", "StatefulPartitionedCall/model/generate_waveform_layer/DEC2/add_noise_17/random_normal/RandomStandardNormal"], "attr": {"T": {"type": "DT_HALF"}}}, {"name": "StatefulPartitionedCall/model/generate_waveform_layer/DEC/add_noise/mul", "op": "Mul", "input": ["StatefulPartitionedCall/model/generate_waveform_layer/DEC/add_noise/Cast", "StatefulPartitionedCall/model/generate_waveform_layer/DEC/add_noise/random_normal/RandomStandardNormal"], "attr": {"T": {"type": "DT_HALF"}}}, {"name": "StatefulPartitionedCall/model/generate_waveform_layer/DEC/add_noise_1/mul", "op": "Mul", "input": ["StatefulPartitionedCall/model/generate_waveform_layer/DEC/add_noise_1/Cast", "StatefulPartitionedCall/model/generate_waveform_layer/DEC/add_noise_1/random_normal/RandomStandardNormal"], "attr": {"T": {"type": "DT_HALF"}}}, {"name": "StatefulPartitionedCall/model/generate_waveform_layer/DEC/add_noise_8/mul", "op": "Mul", "input": ["StatefulPartitionedCall/model/generate_waveform_layer/DEC/add_noise_8/Cast", "StatefulPartitionedCall/model/generate_waveform_layer/DEC/add_noise_8/random_normal/RandomStandardNormal"], "attr": {"T": {"type": "DT_HALF"}}}, {"name": "StatefulPartitionedCall/model/generate_waveform_layer/DEC/add_noise_9/mul_1", "op": "Mul", "input": ["StatefulPartitionedCall/model/generate_waveform_layer/DEC/add_noise_9/Cast_1", "StatefulPartitionedCall/model/generate_waveform_layer/DEC/add_noise_9/random_normal_1/RandomStandardNormal"], "attr": {"T": {"type": "DT_HALF"}}}, {"name": "StatefulPartitionedCall/model/generate_waveform_layer/DEC/add_noise_10/mul_1", "op": "Mul", "input": ["StatefulPartitionedCall/model/generate_waveform_layer/DEC/add_noise_10/Cast_1", "StatefulPartitionedCall/model/generate_waveform_layer/DEC/add_noise_10/random_normal_1/RandomStandardNormal"], "attr": {"T": {"type": "DT_HALF"}}}, {"name": "StatefulPartitionedCall/model/generate_waveform_layer/DEC/add_noise_3/mul_1", "op": "Mul", "input": ["StatefulPartitionedCall/model/generate_waveform_layer/DEC/add_noise_3/Cast_1", "StatefulPartitionedCall/model/generate_waveform_layer/DEC/add_noise_3/random_normal_1/RandomStandardNormal"], "attr": {"T": {"type": "DT_HALF"}}}, {"name": "StatefulPartitionedCall/model/generate_waveform_layer/DEC/add_noise_6/mul_1", "op": "Mul", "input": ["StatefulPartitionedCall/model/generate_waveform_layer/DEC/add_noise_6/Cast_1", "StatefulPartitionedCall/model/generate_waveform_layer/DEC/add_noise_6/random_normal_1/RandomStandardNormal"], "attr": {"T": {"type": "DT_HALF"}}}, {"name": "StatefulPartitionedCall/model/generate_waveform_layer/DEC/add_noise_2/mul_1", "op": "Mul", "input": ["StatefulPartitionedCall/model/generate_waveform_layer/DEC/add_noise_2/Cast_1", "StatefulPartitionedCall/model/generate_waveform_layer/DEC/add_noise_2/random_normal_1/RandomStandardNormal"], "attr": {"T": {"type": "DT_HALF"}}}, {"name": "StatefulPartitionedCall/model/generate_waveform_layer/DEC/add_noise_7/mul_1", "op": "Mul", "input": ["StatefulPartitionedCall/model/generate_waveform_layer/DEC/add_noise_7/Cast_1", "StatefulPartitionedCall/model/generate_waveform_layer/DEC/add_noise_7/random_normal_1/RandomStandardNormal"], "attr": {"T": {"type": "DT_HALF"}}}, {"name": "StatefulPartitionedCall/model/generate_waveform_layer/GEN/6r/mul", "op": "Mul", "input": ["StatefulPartitionedCall/model/generate_waveform_layer/GEN/6r/Cast", "StatefulPartitionedCall/model/generate_waveform_layer/GEN/6r/random_normal/RandomStandardNormal"], "attr": {"T": {"type": "DT_HALF"}}}, {"name": "StatefulPartitionedCall/model/generate_waveform_layer/GEN/7r/mul", "op": "Mul", "input": ["StatefulPartitionedCall/model/generate_waveform_layer/GEN/7r/Cast", "StatefulPartitionedCall/model/generate_waveform_layer/GEN/7r/random_normal/RandomStandardNormal"], "attr": {"T": {"type": "DT_HALF"}}}, {"name": "StatefulPartitionedCall/model/generate_waveform_layer/GEN/4r/mul", "op": "Mul", "input": ["StatefulPartitionedCall/model/generate_waveform_layer/GEN/4r/Cast", "StatefulPartitionedCall/model/generate_waveform_layer/GEN/4r/random_normal/RandomStandardNormal"], "attr": {"T": {"type": "DT_HALF"}}}, {"name": "StatefulPartitionedCall/model/generate_waveform_layer/GEN/5r/mul", "op": "Mul", "input": ["StatefulPartitionedCall/model/generate_waveform_layer/GEN/5r/Cast", "StatefulPartitionedCall/model/generate_waveform_layer/GEN/5r/random_normal/RandomStandardNormal"], "attr": {"T": {"type": "DT_HALF"}}}, {"name": "StatefulPartitionedCall/model/generate_waveform_layer/GEN/2r/mul", "op": "Mul", "input": ["StatefulPartitionedCall/model/generate_waveform_layer/GEN/2r/Cast", "StatefulPartitionedCall/model/generate_waveform_layer/GEN/2r/random_normal/RandomStandardNormal"], "attr": {"T": {"type": "DT_HALF"}}}, {"name": "StatefulPartitionedCall/model/generate_waveform_layer/GEN/3r/mul", "op": "Mul", "input": ["StatefulPartitionedCall/model/generate_waveform_layer/GEN/3r/Cast", "StatefulPartitionedCall/model/generate_waveform_layer/GEN/3r/random_normal/RandomStandardNormal"], "attr": {"T": {"type": "DT_HALF"}}}, {"name": "StatefulPartitionedCall/model/generate_waveform_layer/GEN/0r/mul", "op": "Mul", "input": ["StatefulPartitionedCall/model/generate_waveform_layer/GEN/0r/Cast", "StatefulPartitionedCall/model/generate_waveform_layer/GEN/0r/random_normal/RandomStandardNormal"], "attr": {"T": {"type": "DT_HALF"}}}, {"name": "StatefulPartitionedCall/model/generate_waveform_layer/GEN/1r/mul", "op": "Mul", "input": ["StatefulPartitionedCall/model/generate_waveform_layer/GEN/1r/Cast", "StatefulPartitionedCall/model/generate_waveform_layer/GEN/1r/random_normal/RandomStandardNormal"], "attr": {"T": {"type": "DT_HALF"}}}, {"name": "StatefulPartitionedCall/model/generate_waveform_layer/GEN/00n/mul", "op": "Mul", "input": ["StatefulPartitionedCall/model/generate_waveform_layer/GEN/00n/Cast", "StatefulPartitionedCall/model/generate_waveform_layer/GEN/00n/random_normal/RandomStandardNormal"], "attr": {"T": {"type": "DT_HALF"}}}, {"name": "StatefulPartitionedCall/model/generate_waveform_layer/GEN/8r/mul", "op": "Mul", "input": ["StatefulPartitionedCall/model/generate_waveform_layer/GEN/8r/Cast", "StatefulPartitionedCall/model/generate_waveform_layer/GEN/8r/random_normal/RandomStandardNormal"], "attr": {"T": {"type": "DT_HALF"}}}, {"name": "StatefulPartitionedCall/model/generate_waveform_layer/DEC2/add_noise_11/mul_1", "op": "Mul", "input": ["StatefulPartitionedCall/model/generate_waveform_layer/DEC2/add_noise_11/Cast_1", "StatefulPartitionedCall/model/generate_waveform_layer/DEC2/add_noise_11/random_normal_1/RandomStandardNormal"], "attr": {"T": {"type": "DT_HALF"}}}, {"name": "StatefulPartitionedCall/model/generate_waveform_layer/DEC2/add_noise_12/mul_1", "op": "Mul", "input": ["StatefulPartitionedCall/model/generate_waveform_layer/DEC2/add_noise_12/Cast_1", "StatefulPartitionedCall/model/generate_waveform_layer/DEC2/add_noise_12/random_normal_1/RandomStandardNormal"], "attr": {"T": {"type": "DT_HALF"}}}, {"name": "StatefulPartitionedCall/model/generate_waveform_layer/DEC2/add_noise_13/mul_1", "op": "Mul", "input": ["StatefulPartitionedCall/model/generate_waveform_layer/DEC2/add_noise_13/Cast_1", "StatefulPartitionedCall/model/generate_waveform_layer/DEC2/add_noise_13/random_normal_1/RandomStandardNormal"], "attr": {"T": {"type": "DT_HALF"}}}, {"name": "StatefulPartitionedCall/model/generate_waveform_layer/DEC2/add_noise_14/mul_1", "op": "Mul", "input": ["StatefulPartitionedCall/model/generate_waveform_layer/DEC2/add_noise_14/Cast_1", "StatefulPartitionedCall/model/generate_waveform_layer/DEC2/add_noise_14/random_normal_1/RandomStandardNormal"], "attr": {"T": {"type": "DT_HALF"}}}, {"name": "StatefulPartitionedCall/model/generate_waveform_layer/DEC2/add_noise_15/mul_1", "op": "Mul", "input": ["StatefulPartitionedCall/model/generate_waveform_layer/DEC2/add_noise_15/Cast_1", "StatefulPartitionedCall/model/generate_waveform_layer/DEC2/add_noise_15/random_normal_1/RandomStandardNormal"], "attr": {"T": {"type": "DT_HALF"}}}, {"name": "StatefulPartitionedCall/model/generate_waveform_layer/DEC2/add_noise_16/mul_1", "op": "Mul", "input": ["StatefulPartitionedCall/model/generate_waveform_layer/DEC2/add_noise_16/Cast_1", "StatefulPartitionedCall/model/generate_waveform_layer/DEC2/add_noise_16/random_normal_1/RandomStandardNormal"], "attr": {"T": {"type": "DT_HALF"}}}, {"name": "StatefulPartitionedCall/model/generate_waveform_layer/DEC2/add_noise_17/mul_1", "op": "Mul", "input": ["StatefulPartitionedCall/model/generate_waveform_layer/DEC2/add_noise_17/Cast_1", "StatefulPartitionedCall/model/generate_waveform_layer/DEC2/add_noise_17/random_normal_1/RandomStandardNormal"], "attr": {"T": {"type": "DT_HALF"}}}, {"name": "StatefulPartitionedCall/model/generate_waveform_layer/DEC/add_noise/mul_1", "op": "Mul", "input": ["StatefulPartitionedCall/model/generate_waveform_layer/DEC/add_noise/Cast_1", "StatefulPartitionedCall/model/generate_waveform_layer/DEC/add_noise/random_normal_1/RandomStandardNormal"], "attr": {"T": {"type": "DT_HALF"}}}, {"name": "StatefulPartitionedCall/model/generate_waveform_layer/DEC/add_noise_1/mul_1", "op": "Mul", "input": ["StatefulPartitionedCall/model/generate_waveform_layer/DEC/add_noise_1/Cast_1", "StatefulPartitionedCall/model/generate_waveform_layer/DEC/add_noise_1/random_normal_1/RandomStandardNormal"], "attr": {"T": {"type": "DT_HALF"}}}, {"name": "StatefulPartitionedCall/model/generate_waveform_layer/DEC/add_noise_8/mul_1", "op": "Mul", "input": ["StatefulPartitionedCall/model/generate_waveform_layer/DEC/add_noise_8/Cast_1", "StatefulPartitionedCall/model/generate_waveform_layer/DEC/add_noise_8/random_normal_1/RandomStandardNormal"], "attr": {"T": {"type": "DT_HALF"}}}, {"name": "StatefulPartitionedCall/model/generate_waveform_layer/strided_slice", "op": "StridedSlice", "input": ["StatefulPartitionedCall/model/generate_waveform_layer/Cast", "StatefulPartitionedCall/model/generate_waveform_layer/strided_slice/stack", "StatefulPartitionedCall/model/generate_waveform_layer/strided_slice/stack_1", "StatefulPartitionedCall/model/generate_waveform_layer/strided_slice/stack_2"], "attr": {"Index": {"type": "DT_INT32"}, "T": {"type": "DT_HALF"}, "begin_mask": {"i": "0"}, "ellipsis_mask": {"i": "0"}, "end_mask": {"i": "0"}, "shrink_axis_mask": {"i": "0"}, "new_axis_mask": {"i": "0"}}}, {"name": "StatefulPartitionedCall/model/generate_waveform_layer/GEN/Cast", "op": "Cast", "input": ["StatefulPartitionedCall/model/generate_waveform_layer/strided_slice"], "attr": {"DstT": {"type": "DT_FLOAT"}, "Truncate": {"b": false}, "SrcT": {"type": "DT_HALF"}}}, {"name": "StatefulPartitionedCall/model/generate_waveform_layer/GEN/tf.split_9/split", "op": "Split", "input": ["StatefulPartitionedCall/model/generate_waveform_layer/GEN/tf.split_9/split/split_dim", "StatefulPartitionedCall/model/generate_waveform_layer/GEN/Cast"], "attr": {"T": {"type": "DT_FLOAT"}, "num_split": {"i": "2"}}}, {"name": "StatefulPartitionedCall/model/generate_waveform_layer/GEN/tf.concat_9/concat", "op": "ConcatV2", "input": ["StatefulPartitionedCall/model/generate_waveform_layer/GEN/tf.split_9/split", "StatefulPartitionedCall/model/generate_waveform_layer/GEN/tf.split_9/split:1", "StatefulPartitionedCall/model/generate_waveform_layer/GEN/tf.concat_9/concat/axis"], "attr": {"N": {"i": "2"}, "T": {"type": "DT_FLOAT"}, "Tidx": {"type": "DT_INT32"}}}, {"name": "StatefulPartitionedCall/model/generate_waveform_layer/GEN/tf.expand_dims_2/ExpandDims", "op": "ExpandDims", "input": ["StatefulPartitionedCall/model/generate_waveform_layer/GEN/tf.concat_9/concat", "StatefulPartitionedCall/model/generate_waveform_layer/GEN/tf.expand_dims_2/ExpandDims/dim"], "attr": {"T": {"type": "DT_FLOAT"}, "Tdim": {"type": "DT_INT32"}}}, {"name": "StatefulPartitionedCall/model/generate_waveform_layer/GEN/tf.cast_8/Cast", "op": "Cast", "input": ["StatefulPartitionedCall/model/generate_waveform_layer/GEN/tf.concat_9/concat"], "attr": {"Truncate": {"b": false}, "SrcT": {"type": "DT_FLOAT"}, "DstT": {"type": "DT_HALF"}}}, {"name": "StatefulPartitionedCall/model/generate_waveform_layer/GEN/average_pooling2d_11/Cast", "op": "Cast", "input": ["StatefulPartitionedCall/model/generate_waveform_layer/GEN/tf.expand_dims_2/ExpandDims"], "attr": {"SrcT": {"type": "DT_FLOAT"}, "Truncate": {"b": false}, "DstT": {"type": "DT_HALF"}}}, {"name": "StatefulPartitionedCall/model/generate_waveform_layer/GEN/tf.expand_dims_3/ExpandDims", "op": "ExpandDims", "input": ["StatefulPartitionedCall/model/generate_waveform_layer/GEN/tf.cast_8/Cast", "StatefulPartitionedCall/model/generate_waveform_layer/GEN/tf.expand_dims_3/ExpandDims/dim"], "attr": {"Tdim": {"type": "DT_INT32"}, "T": {"type": "DT_HALF"}}}, {"name": "StatefulPartitionedCall/model/generate_waveform_layer/GEN/average_pooling2d_11/AvgPool", "op": "AvgPool", "input": ["StatefulPartitionedCall/model/generate_waveform_layer/GEN/average_pooling2d_11/Cast"], "attr": {"padding": {"s": "VkFMSUQ="}, "T": {"type": "DT_HALF"}, "strides": {"list": {"i": ["1", "1", "2", "1"]}}, "data_format": {"s": "TkhXQw=="}, "ksize": {"list": {"i": ["1", "1", "2", "1"]}}}}, {"name": "StatefulPartitionedCall/model/generate_waveform_layer/GEN/8ai/Conv2D", "op": "Conv2D", "input": ["StatefulPartitionedCall/model/generate_waveform_layer/GEN/tf.expand_dims_3/ExpandDims", "StatefulPartitionedCall/model/generate_waveform_layer/GEN/8ai/Conv2D/Cast"], "device": "/device:CPU:0", "attr": {"use_cudnn_on_gpu": {"b": true}, "explicit_paddings": {"list": {}}, "padding": {"s": "U0FNRQ=="}, "strides": {"list": {"i": ["1", "1", "1", "1"]}}, "T": {"type": "DT_HALF"}, "data_format": {"s": "TkhXQw=="}, "dilations": {"list": {"i": ["1", "1", "1", "1"]}}, "_input_shapes": {"list": {"shape": [{"dim": [{"size": "-22"}, {"size": "-7"}, {"size": "-23"}, {"size": "-24"}]}, {"dim": [{"size": "1"}, {"size": "1"}, {"size": "128"}, {"size": "256"}]}]}}}}, {"name": "StatefulPartitionedCall/model/generate_waveform_layer/GEN/6ai/Conv2D", "op": "Conv2D", "input": ["StatefulPartitionedCall/model/generate_waveform_layer/GEN/average_pooling2d_11/AvgPool", "StatefulPartitionedCall/model/generate_waveform_layer/GEN/6ai/Conv2D/Cast"], "device": "/device:CPU:0", "attr": {"strides": {"list": {"i": ["1", "1", "1", "1"]}}, "padding": {"s": "U0FNRQ=="}, "explicit_paddings": {"list": {}}, "_input_shapes": {"list": {"shape": [{"dim": [{"size": "-10"}, {"size": "-14"}, {"size": "-15"}, {"size": "-13"}]}, {"dim": [{"size": "1"}, {"size": "1"}, {"size": "128"}, {"size": "384"}]}]}}, "T": {"type": "DT_HALF"}, "use_cudnn_on_gpu": {"b": true}, "data_format": {"s": "TkhXQw=="}, "dilations": {"list": {"i": ["1", "1", "1", "1"]}}}}, {"name": "StatefulPartitionedCall/model/generate_waveform_layer/GEN/7ai/Conv2D", "op": "Conv2D", "input": ["StatefulPartitionedCall/model/generate_waveform_layer/GEN/average_pooling2d_11/AvgPool", "StatefulPartitionedCall/model/generate_waveform_layer/GEN/7ai/Conv2D/Cast"], "device": "/device:CPU:0", "attr": {"dilations": {"list": {"i": ["1", "1", "1", "1"]}}, "T": {"type": "DT_HALF"}, "data_format": {"s": "TkhXQw=="}, "use_cudnn_on_gpu": {"b": true}, "explicit_paddings": {"list": {}}, "_input_shapes": {"list": {"shape": [{"dim": [{"size": "-10"}, {"size": "-14"}, {"size": "-15"}, {"size": "-13"}]}, {"dim": [{"size": "1"}, {"size": "1"}, {"size": "128"}, {"size": "384"}]}]}}, "strides": {"list": {"i": ["1", "1", "1", "1"]}}, "padding": {"s": "U0FNRQ=="}}}, {"name": "StatefulPartitionedCall/model/generate_waveform_layer/GEN/average_pooling2d_12/AvgPool", "op": "AvgPool", "input": ["StatefulPartitionedCall/model/generate_waveform_layer/GEN/average_pooling2d_11/AvgPool"], "attr": {"data_format": {"s": "TkhXQw=="}, "padding": {"s": "VkFMSUQ="}, "T": {"type": "DT_HALF"}, "strides": {"list": {"i": ["1", "1", "2", "1"]}}, "ksize": {"list": {"i": ["1", "1", "2", "1"]}}}}, {"name": "StatefulPartitionedCall/model/generate_waveform_layer/GEN/8ai/BiasAdd", "op": "BiasAdd", "input": ["StatefulPartitionedCall/model/generate_waveform_layer/GEN/8ai/Conv2D", "StatefulPartitionedCall/model/generate_waveform_layer/GEN/8ai/BiasAdd/Cast"], "attr": {"_input_shapes": {"list": {"shape": [{"dim": [{"size": "-22"}, {"size": "-7"}, {"size": "-23"}, {"size": "256"}]}, {"dim": [{"size": "256"}]}]}}, "data_format": {"s": "TkhXQw=="}, "T": {"type": "DT_HALF"}}}, {"name": "StatefulPartitionedCall/model/generate_waveform_layer/GEN/6ai/BiasAdd", "op": "BiasAdd", "input": ["StatefulPartitionedCall/model/generate_waveform_layer/GEN/6ai/Conv2D", "StatefulPartitionedCall/model/generate_waveform_layer/GEN/6ai/BiasAdd/Cast"], "attr": {"_input_shapes": {"list": {"shape": [{"dim": [{"size": "-10"}, {"size": "-14"}, {"size": "-15"}, {"size": "384"}]}, {"dim": [{"size": "384"}]}]}}, "T": {"type": "DT_HALF"}, "data_format": {"s": "TkhXQw=="}}}, {"name": "StatefulPartitionedCall/model/generate_waveform_layer/GEN/7ai/BiasAdd", "op": "BiasAdd", "input": ["StatefulPartitionedCall/model/generate_waveform_layer/GEN/7ai/Conv2D", "StatefulPartitionedCall/model/generate_waveform_layer/GEN/7ai/BiasAdd/Cast"], "attr": {"data_format": {"s": "TkhXQw=="}, "T": {"type": "DT_HALF"}, "_input_shapes": {"list": {"shape": [{"dim": [{"size": "-10"}, {"size": "-14"}, {"size": "-15"}, {"size": "384"}]}, {"dim": [{"size": "384"}]}]}}}}, {"name": "StatefulPartitionedCall/model/generate_waveform_layer/GEN/4ai/Conv2D", "op": "Conv2D", "input": ["StatefulPartitionedCall/model/generate_waveform_layer/GEN/average_pooling2d_12/AvgPool", "StatefulPartitionedCall/model/generate_waveform_layer/GEN/4ai/Conv2D/Cast"], "device": "/device:CPU:0", "attr": {"data_format": {"s": "TkhXQw=="}, "dilations": {"list": {"i": ["1", "1", "1", "1"]}}, "explicit_paddings": {"list": {}}, "_input_shapes": {"list": {"shape": [{"dim": [{"size": "-10"}, {"size": "1"}, {"size": "-16"}, {"size": "-13"}]}, {"dim": [{"size": "1"}, {"size": "1"}, {"size": "128"}, {"size": "512"}]}]}}, "use_cudnn_on_gpu": {"b": true}, "T": {"type": "DT_HALF"}, "padding": {"s": "U0FNRQ=="}, "strides": {"list": {"i": ["1", "1", "1", "1"]}}}}, {"name": "StatefulPartitionedCall/model/generate_waveform_layer/GEN/5ai/Conv2D", "op": "Conv2D", "input": ["StatefulPartitionedCall/model/generate_waveform_layer/GEN/average_pooling2d_12/AvgPool", "StatefulPartitionedCall/model/generate_waveform_layer/GEN/5ai/Conv2D/Cast"], "device": "/device:CPU:0", "attr": {"dilations": {"list": {"i": ["1", "1", "1", "1"]}}, "strides": {"list": {"i": ["1", "1", "1", "1"]}}, "use_cudnn_on_gpu": {"b": true}, "explicit_paddings": {"list": {}}, "data_format": {"s": "TkhXQw=="}, "padding": {"s": "U0FNRQ=="}, "T": {"type": "DT_HALF"}, "_input_shapes": {"list": {"shape": [{"dim": [{"size": "-10"}, {"size": "1"}, {"size": "-16"}, {"size": "-13"}]}, {"dim": [{"size": "1"}, {"size": "1"}, {"size": "128"}, {"size": "512"}]}]}}}}, {"name": "StatefulPartitionedCall/model/generate_waveform_layer/GEN/average_pooling2d_13/AvgPool", "op": "AvgPool", "input": ["StatefulPartitionedCall/model/generate_waveform_layer/GEN/average_pooling2d_12/AvgPool"], "attr": {"ksize": {"list": {"i": ["1", "1", "2", "1"]}}, "T": {"type": "DT_HALF"}, "padding": {"s": "VkFMSUQ="}, "data_format": {"s": "TkhXQw=="}, "strides": {"list": {"i": ["1", "1", "2", "1"]}}}}, {"name": "StatefulPartitionedCall/model/generate_waveform_layer/GEN/4ai/BiasAdd", "op": "BiasAdd", "input": ["StatefulPartitionedCall/model/generate_waveform_layer/GEN/4ai/Conv2D", "StatefulPartitionedCall/model/generate_waveform_layer/GEN/4ai/BiasAdd/Cast"], "attr": {"_input_shapes": {"list": {"shape": [{"dim": [{"size": "-10"}, {"size": "1"}, {"size": "-16"}, {"size": "512"}]}, {"dim": [{"size": "512"}]}]}}, "data_format": {"s": "TkhXQw=="}, "T": {"type": "DT_HALF"}}}, {"name": "StatefulPartitionedCall/model/generate_waveform_layer/GEN/5ai/BiasAdd", "op": "BiasAdd", "input": ["StatefulPartitionedCall/model/generate_waveform_layer/GEN/5ai/Conv2D", "StatefulPartitionedCall/model/generate_waveform_layer/GEN/5ai/BiasAdd/Cast"], "attr": {"data_format": {"s": "TkhXQw=="}, "_input_shapes": {"list": {"shape": [{"dim": [{"size": "-10"}, {"size": "1"}, {"size": "-16"}, {"size": "512"}]}, {"dim": [{"size": "512"}]}]}}, "T": {"type": "DT_HALF"}}}, {"name": "StatefulPartitionedCall/model/generate_waveform_layer/GEN/2ai/Conv2D", "op": "Conv2D", "input": ["StatefulPartitionedCall/model/generate_waveform_layer/GEN/average_pooling2d_13/AvgPool", "StatefulPartitionedCall/model/generate_waveform_layer/GEN/2ai/Conv2D/Cast"], "device": "/device:CPU:0", "attr": {"data_format": {"s": "TkhXQw=="}, "strides": {"list": {"i": ["1", "1", "1", "1"]}}, "explicit_paddings": {"list": {}}, "_input_shapes": {"list": {"shape": [{"dim": [{"size": "-10"}, {"size": "1"}, {"size": "-17"}, {"size": "-13"}]}, {"dim": [{"size": "1"}, {"size": "1"}, {"size": "128"}, {"size": "640"}]}]}}, "use_cudnn_on_gpu": {"b": true}, "dilations": {"list": {"i": ["1", "1", "1", "1"]}}, "T": {"type": "DT_HALF"}, "padding": {"s": "U0FNRQ=="}}}, {"name": "StatefulPartitionedCall/model/generate_waveform_layer/GEN/3ai/Conv2D", "op": "Conv2D", "input": ["StatefulPartitionedCall/model/generate_waveform_layer/GEN/average_pooling2d_13/AvgPool", "StatefulPartitionedCall/model/generate_waveform_layer/GEN/3ai/Conv2D/Cast"], "device": "/device:CPU:0", "attr": {"strides": {"list": {"i": ["1", "1", "1", "1"]}}, "T": {"type": "DT_HALF"}, "data_format": {"s": "TkhXQw=="}, "_input_shapes": {"list": {"shape": [{"dim": [{"size": "-10"}, {"size": "1"}, {"size": "-17"}, {"size": "-13"}]}, {"dim": [{"size": "1"}, {"size": "1"}, {"size": "128"}, {"size": "640"}]}]}}, "dilations": {"list": {"i": ["1", "1", "1", "1"]}}, "use_cudnn_on_gpu": {"b": true}, "padding": {"s": "U0FNRQ=="}, "explicit_paddings": {"list": {}}}}, {"name": "StatefulPartitionedCall/model/generate_waveform_layer/GEN/average_pooling2d_14/AvgPool", "op": "AvgPool", "input": ["StatefulPartitionedCall/model/generate_waveform_layer/GEN/average_pooling2d_13/AvgPool"], "attr": {"ksize": {"list": {"i": ["1", "1", "2", "1"]}}, "padding": {"s": "VkFMSUQ="}, "T": {"type": "DT_HALF"}, "strides": {"list": {"i": ["1", "1", "2", "1"]}}, "data_format": {"s": "TkhXQw=="}}}, {"name": "StatefulPartitionedCall/model/generate_waveform_layer/GEN/2ai/BiasAdd", "op": "BiasAdd", "input": ["StatefulPartitionedCall/model/generate_waveform_layer/GEN/2ai/Conv2D", "StatefulPartitionedCall/model/generate_waveform_layer/GEN/2ai/BiasAdd/Cast"], "attr": {"data_format": {"s": "TkhXQw=="}, "T": {"type": "DT_HALF"}, "_input_shapes": {"list": {"shape": [{"dim": [{"size": "-10"}, {"size": "1"}, {"size": "-17"}, {"size": "640"}]}, {"dim": [{"size": "640"}]}]}}}}, {"name": "StatefulPartitionedCall/model/generate_waveform_layer/GEN/3ai/BiasAdd", "op": "BiasAdd", "input": ["StatefulPartitionedCall/model/generate_waveform_layer/GEN/3ai/Conv2D", "StatefulPartitionedCall/model/generate_waveform_layer/GEN/3ai/BiasAdd/Cast"], "attr": {"_input_shapes": {"list": {"shape": [{"dim": [{"size": "-10"}, {"size": "1"}, {"size": "-17"}, {"size": "640"}]}, {"dim": [{"size": "640"}]}]}}, "data_format": {"s": "TkhXQw=="}, "T": {"type": "DT_HALF"}}}, {"name": "StatefulPartitionedCall/model/generate_waveform_layer/GEN/0ai/Conv2D", "op": "Conv2D", "input": ["StatefulPartitionedCall/model/generate_waveform_layer/GEN/average_pooling2d_14/AvgPool", "StatefulPartitionedCall/model/generate_waveform_layer/GEN/0ai/Conv2D/Cast"], "device": "/device:CPU:0", "attr": {"dilations": {"list": {"i": ["1", "1", "1", "1"]}}, "data_format": {"s": "TkhXQw=="}, "explicit_paddings": {"list": {}}, "use_cudnn_on_gpu": {"b": true}, "T": {"type": "DT_HALF"}, "padding": {"s": "U0FNRQ=="}, "_input_shapes": {"list": {"shape": [{"dim": [{"size": "-10"}, {"size": "1"}, {"size": "-18"}, {"size": "-13"}]}, {"dim": [{"size": "1"}, {"size": "1"}, {"size": "128"}, {"size": "768"}]}]}}, "strides": {"list": {"i": ["1", "1", "1", "1"]}}}}, {"name": "StatefulPartitionedCall/model/generate_waveform_layer/GEN/1ai/Conv2D", "op": "Conv2D", "input": ["StatefulPartitionedCall/model/generate_waveform_layer/GEN/average_pooling2d_14/AvgPool", "StatefulPartitionedCall/model/generate_waveform_layer/GEN/1ai/Conv2D/Cast"], "device": "/device:CPU:0", "attr": {"padding": {"s": "U0FNRQ=="}, "_input_shapes": {"list": {"shape": [{"dim": [{"size": "-10"}, {"size": "1"}, {"size": "-18"}, {"size": "-13"}]}, {"dim": [{"size": "1"}, {"size": "1"}, {"size": "128"}, {"size": "768"}]}]}}, "use_cudnn_on_gpu": {"b": true}, "data_format": {"s": "TkhXQw=="}, "strides": {"list": {"i": ["1", "1", "1", "1"]}}, "dilations": {"list": {"i": ["1", "1", "1", "1"]}}, "explicit_paddings": {"list": {}}, "T": {"type": "DT_HALF"}}}, {"name": "StatefulPartitionedCall/model/generate_waveform_layer/GEN/average_pooling2d_15/AvgPool", "op": "AvgPool", "input": ["StatefulPartitionedCall/model/generate_waveform_layer/GEN/average_pooling2d_14/AvgPool"], "attr": {"padding": {"s": "VkFMSUQ="}, "T": {"type": "DT_HALF"}, "ksize": {"list": {"i": ["1", "1", "2", "1"]}}, "data_format": {"s": "TkhXQw=="}, "strides": {"list": {"i": ["1", "1", "2", "1"]}}}}, {"name": "StatefulPartitionedCall/model/generate_waveform_layer/GEN/0ai/BiasAdd", "op": "BiasAdd", "input": ["StatefulPartitionedCall/model/generate_waveform_layer/GEN/0ai/Conv2D", "StatefulPartitionedCall/model/generate_waveform_layer/GEN/0ai/BiasAdd/Cast"], "attr": {"T": {"type": "DT_HALF"}, "_input_shapes": {"list": {"shape": [{"dim": [{"size": "-10"}, {"size": "1"}, {"size": "-18"}, {"size": "768"}]}, {"dim": [{"size": "768"}]}]}}, "data_format": {"s": "TkhXQw=="}}}, {"name": "StatefulPartitionedCall/model/generate_waveform_layer/GEN/1ai/BiasAdd", "op": "BiasAdd", "input": ["StatefulPartitionedCall/model/generate_waveform_layer/GEN/1ai/Conv2D", "StatefulPartitionedCall/model/generate_waveform_layer/GEN/1ai/BiasAdd/Cast"], "attr": {"_input_shapes": {"list": {"shape": [{"dim": [{"size": "-10"}, {"size": "1"}, {"size": "-18"}, {"size": "768"}]}, {"dim": [{"size": "768"}]}]}}, "T": {"type": "DT_HALF"}, "data_format": {"s": "TkhXQw=="}}}, {"name": "StatefulPartitionedCall/model/generate_waveform_layer/GEN/average_pooling2d_16/AvgPool", "op": "AvgPool", "input": ["StatefulPartitionedCall/model/generate_waveform_layer/GEN/average_pooling2d_15/AvgPool"], "attr": {"strides": {"list": {"i": ["1", "1", "2", "1"]}}, "ksize": {"list": {"i": ["1", "1", "2", "1"]}}, "data_format": {"s": "TkhXQw=="}, "T": {"type": "DT_HALF"}, "padding": {"s": "VkFMSUQ="}}}, {"name": "StatefulPartitionedCall/model/generate_waveform_layer/GEN/00ai/Conv2D", "op": "Conv2D", "input": ["StatefulPartitionedCall/model/generate_waveform_layer/GEN/average_pooling2d_15/AvgPool", "StatefulPartitionedCall/model/generate_waveform_layer/GEN/00ai/Conv2D/Cast"], "device": "/device:CPU:0", "attr": {"use_cudnn_on_gpu": {"b": true}, "padding": {"s": "U0FNRQ=="}, "data_format": {"s": "TkhXQw=="}, "dilations": {"list": {"i": ["1", "1", "1", "1"]}}, "strides": {"list": {"i": ["1", "1", "1", "1"]}}, "T": {"type": "DT_HALF"}, "_input_shapes": {"list": {"shape": [{"dim": [{"size": "-10"}, {"size": "1"}, {"size": "-19"}, {"size": "-13"}]}, {"dim": [{"size": "1"}, {"size": "1"}, {"size": "128"}, {"size": "896"}]}]}}, "explicit_paddings": {"list": {}}}}, {"name": "StatefulPartitionedCall/model/generate_waveform_layer/GEN/flatten_2/Reshape", "op": "Reshape", "input": ["StatefulPartitionedCall/model/generate_waveform_layer/GEN/average_pooling2d_16/AvgPool", "StatefulPartitionedCall/model/generate_waveform_layer/GEN/flatten_2/Const"], "attr": {"T": {"type": "DT_HALF"}, "Tshape": {"type": "DT_INT32"}}}, {"name": "StatefulPartitionedCall/model/generate_waveform_layer/GEN/00ai/BiasAdd", "op": "BiasAdd", "input": ["StatefulPartitionedCall/model/generate_waveform_layer/GEN/00ai/Conv2D", "StatefulPartitionedCall/model/generate_waveform_layer/GEN/00ai/BiasAdd/Cast"], "attr": {"_input_shapes": {"list": {"shape": [{"dim": [{"size": "-10"}, {"size": "1"}, {"size": "-19"}, {"size": "896"}]}, {"dim": [{"size": "896"}]}]}}, "data_format": {"s": "TkhXQw=="}, "T": {"type": "DT_HALF"}}}, {"name": "StatefulPartitionedCall/model/generate_waveform_layer/GEN/00d/MatMul", "op": "MatMul", "input": ["StatefulPartitionedCall/model/generate_waveform_layer/GEN/flatten_2/Reshape", "StatefulPartitionedCall/model/generate_waveform_layer/GEN/00d/MatMul/Cast"], "device": "/device:CPU:0", "attr": {"_input_shapes": {"list": {"shape": [{"dim": [{"size": "2"}, {"size": "256"}]}, {"dim": [{"size": "256"}, {"size": "3584"}]}]}}, "transpose_b": {"b": false}, "transpose_a": {"b": false}, "grad_b": {"b": false}, "T": {"type": "DT_HALF"}, "grad_a": {"b": false}}}, {"name": "StatefulPartitionedCall/model/generate_waveform_layer/GEN/00d/BiasAdd", "op": "BiasAdd", "input": ["StatefulPartitionedCall/model/generate_waveform_layer/GEN/00d/MatMul", "StatefulPartitionedCall/model/generate_waveform_layer/GEN/00d/BiasAdd/Cast"], "attr": {"T": {"type": "DT_HALF"}, "_input_shapes": {"list": {"shape": [{"dim": [{"size": "2"}, {"size": "3584"}]}, {"dim": [{"size": "3584"}]}]}}, "data_format": {"s": "TkhXQw=="}}}, {"name": "StatefulPartitionedCall/model/generate_waveform_layer/GEN/reshape_1/Reshape", "op": "Reshape", "input": ["StatefulPartitionedCall/model/generate_waveform_layer/GEN/00d/BiasAdd", "StatefulPartitionedCall/model/generate_waveform_layer/GEN/reshape_1/Reshape/shape"], "attr": {"Tshape": {"type": "DT_INT32"}, "T": {"type": "DT_HALF"}}}, {"name": "StatefulPartitionedCall/model/generate_waveform_layer/GEN/00n/add", "op": "AddV2", "input": ["StatefulPartitionedCall/model/generate_waveform_layer/GEN/reshape_1/Reshape", "StatefulPartitionedCall/model/generate_waveform_layer/GEN/00n/mul"], "attr": {"T": {"type": "DT_HALF"}}}, {"name": "StatefulPartitionedCall/model/generate_waveform_layer/GEN/tf.math.reduce_std_10/reduce_std/reduce_variance/Mean", "op": "Mean", "input": ["StatefulPartitionedCall/model/generate_waveform_layer/GEN/00n/add", "StatefulPartitionedCall/model/generate_waveform_layer/GEN/tf.math.reduce_std_10/reduce_std/reduce_variance/Mean/reduction_indices"], "attr": {"T": {"type": "DT_HALF"}, "Tidx": {"type": "DT_INT32"}, "keep_dims": {"b": true}}}, {"name": "StatefulPartitionedCall/model/generate_waveform_layer/GEN/tf.math.reduce_std_10/reduce_std/reduce_variance/sub", "op": "SquaredDifference", "input": ["StatefulPartitionedCall/model/generate_waveform_layer/GEN/00n/add", "StatefulPartitionedCall/model/generate_waveform_layer/GEN/tf.math.reduce_std_10/reduce_std/reduce_variance/Mean"], "attr": {"T": {"type": "DT_HALF"}}}, {"name": "StatefulPartitionedCall/model/generate_waveform_layer/GEN/tf.math.reduce_std_10/reduce_std/reduce_variance/Mean_1", "op": "Mean", "input": ["StatefulPartitionedCall/model/generate_waveform_layer/GEN/tf.math.reduce_std_10/reduce_std/reduce_variance/sub", "StatefulPartitionedCall/model/generate_waveform_layer/GEN/tf.math.reduce_std_10/reduce_std/reduce_variance/Mean_1/reduction_indices"], "attr": {"Tidx": {"type": "DT_INT32"}, "keep_dims": {"b": true}, "T": {"type": "DT_HALF"}}}, {"name": "StatefulPartitionedCall/model/generate_waveform_layer/GEN/tf.math.reduce_std_10/reduce_std/Sqrt", "op": "Sqrt", "input": ["StatefulPartitionedCall/model/generate_waveform_layer/GEN/tf.math.reduce_std_10/reduce_std/reduce_variance/Mean_1"], "attr": {"T": {"type": "DT_HALF"}}}, {"name": "StatefulPartitionedCall/model/generate_waveform_layer/GEN/tf.__operators__.add_24/AddV2", "op": "AddV2", "input": ["StatefulPartitionedCall/model/generate_waveform_layer/GEN/tf.math.reduce_std_10/reduce_std/Sqrt", "StatefulPartitionedCall/model/generate_waveform_layer/GEN/tf.__operators__.add_24/y"], "attr": {"T": {"type": "DT_HALF"}}}, {"name": "StatefulPartitionedCall/model/generate_waveform_layer/GEN/tf.math.truediv_10/truediv", "op": "RealDiv", "input": ["StatefulPartitionedCall/model/generate_waveform_layer/GEN/00n/add", "StatefulPartitionedCall/model/generate_waveform_layer/GEN/tf.__operators__.add_24/AddV2"], "attr": {"T": {"type": "DT_HALF"}}}, {"name": "StatefulPartitionedCall/model/generate_waveform_layer/GEN/tf.math.multiply_28/Mul", "op": "Mul", "input": ["StatefulPartitionedCall/model/generate_waveform_layer/GEN/tf.math.truediv_10/truediv", "StatefulPartitionedCall/model/generate_waveform_layer/GEN/00ai/BiasAdd"], "attr": {"T": {"type": "DT_HALF"}}}, {"name": "StatefulPartitionedCall/model/generate_waveform_layer/GEN/tf.nn.silu_40/Sigmoid", "op": "Sigmoid", "input": ["StatefulPartitionedCall/model/generate_waveform_layer/GEN/tf.math.multiply_28/Mul"], "attr": {"T": {"type": "DT_HALF"}, "_input_shapes": {"list": {"shape": [{"dim": [{"size": "2"}, {"size": "1"}, {"size": "4"}, {"size": "896"}]}]}}}}, {"name": "StatefulPartitionedCall/model/generate_waveform_layer/GEN/tf.nn.silu_40/mul_1", "op": "Mul", "input": ["StatefulPartitionedCall/model/generate_waveform_layer/GEN/tf.math.multiply_28/Mul", "StatefulPartitionedCall/model/generate_waveform_layer/GEN/tf.nn.silu_40/Sigmoid"], "attr": {"T": {"type": "DT_HALF"}}}, {"name": "StatefulPartitionedCall/model/generate_waveform_layer/GEN/0c/conv2d_transpose", "op": "Conv2DBackpropInput", "input": ["StatefulPartitionedCall/model/generate_waveform_layer/GEN/0c/stack", "StatefulPartitionedCall/model/generate_waveform_layer/GEN/0c/conv2d_transpose/Cast", "StatefulPartitionedCall/model/generate_waveform_layer/GEN/tf.nn.silu_40/mul_1"], "attr": {"strides": {"list": {"i": ["1", "1", "2", "1"]}}, "T": {"type": "DT_HALF"}, "explicit_paddings": {"list": {}}, "data_format": {"s": "TkhXQw=="}, "padding": {"s": "U0FNRQ=="}, "use_cudnn_on_gpu": {"b": true}, "dilations": {"list": {"i": ["1", "1", "1", "1"]}}}}, {"name": "StatefulPartitionedCall/model/generate_waveform_layer/GEN/tf.reshape_8/Reshape", "op": "Reshape", "input": ["StatefulPartitionedCall/model/generate_waveform_layer/GEN/tf.nn.silu_40/mul_1", "StatefulPartitionedCall/model/generate_waveform_layer/GEN/tf.reshape_8/Reshape/shape"], "attr": {"Tshape": {"type": "DT_INT32"}, "T": {"type": "DT_HALF"}}}, {"name": "StatefulPartitionedCall/model/generate_waveform_layer/GEN/0c/BiasAdd", "op": "BiasAdd", "input": ["StatefulPartitionedCall/model/generate_waveform_layer/GEN/0c/conv2d_transpose", "StatefulPartitionedCall/model/generate_waveform_layer/GEN/0c/BiasAdd/Cast"], "attr": {"_input_shapes": {"list": {"shape": [{"dim": [{"size": "2"}, {"size": "1"}, {"size": "8"}, {"size": "768"}]}, {"dim": [{"size": "768"}]}]}}, "T": {"type": "DT_HALF"}, "data_format": {"s": "TkhXQw=="}}}, {"name": "StatefulPartitionedCall/model/generate_waveform_layer/GEN/tf.compat.v1.transpose_7/transpose", "op": "Transpose", "input": ["StatefulPartitionedCall/model/generate_waveform_layer/GEN/tf.reshape_8/Reshape", "StatefulPartitionedCall/model/generate_waveform_layer/GEN/tf.compat.v1.transpose_7/transpose/perm"], "attr": {"Tperm": {"type": "DT_INT32"}, "T": {"type": "DT_HALF"}, "_input_shapes": {"list": {"shape": [{"dim": [{"size": "2"}, {"size": "1"}, {"size": "4"}, {"size": "448"}, {"size": "2"}]}, {"dim": [{"size": "5"}]}]}}}}, {"name": "StatefulPartitionedCall/model/generate_waveform_layer/GEN/0r/add", "op": "AddV2", "input": ["StatefulPartitionedCall/model/generate_waveform_layer/GEN/0c/BiasAdd…
_4/conv2d_transpose/Cast", "shape": [1, 4, 768, 512], "dtype": "float32"}, {"name": "StatefulPartitionedCall/model/generate_waveform_layer/DEC/conv2d_transpose_4/BiasAdd/Cast", "shape": [768], "dtype": "float32"}, {"name": "StatefulPartitionedCall/model/generate_waveform_layer/DEC/add_noise_9/Cast", "shape": [1], "dtype": "float32"}, {"name": "StatefulPartitionedCall/model/generate_waveform_layer/DEC/add_noise_9/random_normal/shape", "shape": [4], "dtype": "int32"}, {"name": "StatefulPartitionedCall/model/generate_waveform_layer/DEC/conv2d_transpose_5/BiasAdd/Cast", "shape": [768], "dtype": "float32"}, {"name": "StatefulPartitionedCall/model/generate_waveform_layer/DEC/add_noise_10/Cast", "shape": [1], "dtype": "float32"}, {"name": "StatefulPartitionedCall/model/generate_waveform_layer/DEC/add_noise_10/random_normal/shape", "shape": [4], "dtype": "int32"}, {"name": "StatefulPartitionedCall/model/generate_waveform_layer/DEC/conv2d_transpose_3/stack", "shape": [4], "dtype": "int32"}, {"name": "StatefulPartitionedCall/model/generate_waveform_layer/DEC/conv2d_transpose_3/conv2d_transpose/Cast", "shape": [1, 4, 768, 768], "dtype": "float32"}, {"name": "StatefulPartitionedCall/model/generate_waveform_layer/DEC/conv2d_transpose_2/stack", "shape": [4], "dtype": "int32"}, {"name": "StatefulPartitionedCall/model/generate_waveform_layer/DEC/conv2d_transpose_2/conv2d_transpose/Cast", "shape": [1, 4, 768, 512], "dtype": "float32"}, {"name": "StatefulPartitionedCall/model/generate_waveform_layer/DEC/conv2d_transpose_1/stack", "shape": [4], "dtype": "int32"}, {"name": "StatefulPartitionedCall/model/generate_waveform_layer/DEC/conv2d_transpose_1/conv2d_transpose/Cast", "shape": [1, 4, 512, 256], "dtype": "float32"}, {"name": "StatefulPartitionedCall/model/generate_waveform_layer/DEC/conv2d_9/Conv2D/Cast", "shape": [1, 3, 512, 256], "dtype": "float32"}, {"name": "StatefulPartitionedCall/model/generate_waveform_layer/DEC/conv2d_9/BiasAdd/Cast", "shape": [256], "dtype": "float32"}, {"name": "StatefulPartitionedCall/model/generate_waveform_layer/DEC/add_noise_3/Cast", "shape": [1], "dtype": "float32"}, {"name": "StatefulPartitionedCall/model/generate_waveform_layer/DEC/add_noise_3/random_normal/shape", "shape": [4], "dtype": "int32"}, {"name": "StatefulPartitionedCall/model/generate_waveform_layer/DEC/conv2d_transpose_1/BiasAdd/Cast", "shape": [512], "dtype": "float32"}, {"name": "StatefulPartitionedCall/model/generate_waveform_layer/DEC/add_noise_6/Cast", "shape": [1], "dtype": "float32"}, {"name": "StatefulPartitionedCall/model/generate_waveform_layer/DEC/add_noise_6/random_normal/shape", "shape": [4], "dtype": "int32"}, {"name": "StatefulPartitionedCall/model/generate_waveform_layer/DEC/conv2d_8/Conv2D/Cast", "shape": [1, 3, 768, 512], "dtype": "float32"}, {"name": "StatefulPartitionedCall/model/generate_waveform_layer/DEC/conv2d_8/BiasAdd/Cast", "shape": [512], "dtype": "float32"}, {"name": "StatefulPartitionedCall/model/generate_waveform_layer/DEC/add_noise_2/Cast", "shape": [1], "dtype": "float32"}, {"name": "StatefulPartitionedCall/model/generate_waveform_layer/DEC/add_noise_2/random_normal/shape", "shape": [4], "dtype": "int32"}, {"name": "StatefulPartitionedCall/model/generate_waveform_layer/DEC/conv2d_transpose_2/BiasAdd/Cast", "shape": [768], "dtype": "float32"}, {"name": "StatefulPartitionedCall/model/generate_waveform_layer/DEC/add_noise_7/Cast", "shape": [1], "dtype": "float32"}, {"name": "StatefulPartitionedCall/model/generate_waveform_layer/DEC/add_noise_7/random_normal/shape", "shape": [4], "dtype": "int32"}, {"name": "StatefulPartitionedCall/model/generate_waveform_layer/split_4/split_dim", "shape": [], "dtype": "int32"}, {"name": "StatefulPartitionedCall/model/generate_waveform_layer/DEC2/tf.split_8/split/split_dim", "shape": [], "dtype": "int32"}, {"name": "StatefulPartitionedCall/model/generate_waveform_layer/DEC2/conv2d_transpose_9/stack", "shape": [4], "dtype": "int32"}, {"name": "StatefulPartitionedCall/model/generate_waveform_layer/DEC2/conv2d_transpose_9/conv2d_transpose/Cast", "shape": [1, 4, 256, 384], "dtype": "float32"}, {"name": "StatefulPartitionedCall/model/generate_waveform_layer/DEC2/conv2d_transpose_8/stack", "shape": [4], "dtype": "int32"}, {"name": "StatefulPartitionedCall/model/generate_waveform_layer/DEC2/conv2d_transpose_8/conv2d_transpose/Cast", "shape": [1, 4, 384, 512], "dtype": "float32"}, {"name": "StatefulPartitionedCall/model/generate_waveform_layer/DEC2/conv2d_transpose_7/stack", "shape": [4], "dtype": "int32"}, {"name": "StatefulPartitionedCall/model/generate_waveform_layer/DEC2/conv2d_transpose_7/conv2d_transpose/Cast", "shape": [1, 4, 512, 640], "dtype": "float32"}, {"name": "StatefulPartitionedCall/model/generate_waveform_layer/DEC2/conv2d_transpose_6/stack", "shape": [4], "dtype": "int32"}, {"name": "StatefulPartitionedCall/model/generate_waveform_layer/DEC2/conv2d_transpose_6/conv2d_transpose/Cast", "shape": [1, 4, 640, 768], "dtype": "float32"}, {"name": "StatefulPartitionedCall/model/generate_waveform_layer/split_2/split_dim", "shape": [], "dtype": "int32"}, {"name": "StatefulPartitionedCall/model/generate_waveform_layer/strided_slice_1/stack", "shape": [4], "dtype": "int32"}, {"name": "StatefulPartitionedCall/model/generate_waveform_layer/strided_slice_1/stack_1", "shape": [4], "dtype": "int32"}, {"name": "StatefulPartitionedCall/model/generate_waveform_layer/strided_slice_1/stack_2", "shape": [4], "dtype": "int32"}, {"name": "StatefulPartitionedCall/model/generate_waveform_layer/strided_slice_2/stack", "shape": [1], "dtype": "int32"}, {"name": "StatefulPartitionedCall/model/generate_waveform_layer/strided_slice_2/stack_1", "shape": [1], "dtype": "int32"}, {"name": "StatefulPartitionedCall/model/generate_waveform_layer/strided_slice_2/stack_2", "shape": [1], "dtype": "int32"}, {"name": "StatefulPartitionedCall/model/generate_waveform_layer/concat_3/axis", "shape": [], "dtype": "int32"}, {"name": "StatefulPartitionedCall/model/generate_waveform_layer/DEC2/conv2d_20/Conv2D/Cast", "shape": [1, 3, 64, 768], "dtype": "float32"}, {"name": "StatefulPartitionedCall/model/generate_waveform_layer/DEC2/conv2d_20/BiasAdd/Cast", "shape": [768], "dtype": "float32"}, {"name": "StatefulPartitionedCall/model/generate_waveform_layer/DEC2/add_noise_11/Cast", "shape": [1], "dtype": "float32"}, {"name": "StatefulPartitionedCall/model/generate_waveform_layer/DEC2/add_noise_11/random_normal/shape", "shape": [4], "dtype": "int32"}, {"name": "StatefulPartitionedCall/model/generate_waveform_layer/DEC2/conv2d_transpose_6/BiasAdd/Cast", "shape": [640], "dtype": "float32"}, {"name": "StatefulPartitionedCall/model/generate_waveform_layer/DEC2/add_noise_12/Cast", "shape": [1], "dtype": "float32"}, {"name": "StatefulPartitionedCall/model/generate_waveform_layer/DEC2/add_noise_12/random_normal/shape", "shape": [4], "dtype": "int32"}, {"name": "StatefulPartitionedCall/model/generate_waveform_layer/DEC2/conv2d_21/Conv2D/Cast", "shape": [1, 3, 640, 640], "dtype": "float32"}, {"name": "StatefulPartitionedCall/model/generate_waveform_layer/DEC2/conv2d_21/BiasAdd/Cast", "shape": [640], "dtype": "float32"}, {"name": "StatefulPartitionedCall/model/generate_waveform_layer/DEC2/add_noise_13/Cast", "shape": [1], "dtype": "float32"}, {"name": "StatefulPartitionedCall/model/generate_waveform_layer/DEC2/add_noise_13/random_normal/shape", "shape": [4], "dtype": "int32"}, {"name": "StatefulPartitionedCall/model/generate_waveform_layer/DEC2/conv2d_transpose_7/BiasAdd/Cast", "shape": [512], "dtype": "float32"}, {"name": "StatefulPartitionedCall/model/generate_waveform_layer/DEC2/add_noise_14/Cast", "shape": [1], "dtype": "float32"}, {"name": "StatefulPartitionedCall/model/generate_waveform_layer/DEC2/add_noise_14/random_normal/shape", "shape": [4], "dtype": "int32"}, {"name": "StatefulPartitionedCall/model/generate_waveform_layer/DEC2/conv2d_22/Conv2D/Cast", "shape": [1, 3, 512, 512], "dtype": "float32"}, {"name": "StatefulPartitionedCall/model/generate_waveform_layer/DEC2/conv2d_22/BiasAdd/Cast", "shape": [512], "dtype": "float32"}, {"name": "StatefulPartitionedCall/model/generate_waveform_layer/DEC2/add_noise_15/Cast", "shape": [1], "dtype": "float32"}, {"name": "StatefulPartitionedCall/model/generate_waveform_layer/DEC2/add_noise_15/random_normal/shape", "shape": [4], "dtype": "int32"}, {"name": "StatefulPartitionedCall/model/generate_waveform_layer/DEC2/conv2d_transpose_8/BiasAdd/Cast", "shape": [384], "dtype": "float32"}, {"name": "StatefulPartitionedCall/model/generate_waveform_layer/DEC2/add_noise_16/Cast", "shape": [1], "dtype": "float32"}, {"name": "StatefulPartitionedCall/model/generate_waveform_layer/DEC2/add_noise_16/random_normal/shape", "shape": [4], "dtype": "int32"}, {"name": "StatefulPartitionedCall/model/generate_waveform_layer/DEC2/conv2d_transpose_9/BiasAdd/Cast", "shape": [256], "dtype": "float32"}, {"name": "StatefulPartitionedCall/model/generate_waveform_layer/DEC2/add_noise_17/Cast", "shape": [1], "dtype": "float32"}, {"name": "StatefulPartitionedCall/model/generate_waveform_layer/DEC2/add_noise_17/random_normal/shape", "shape": [4], "dtype": "int32"}, {"name": "StatefulPartitionedCall/model/generate_waveform_layer/DEC2/cout/Conv2D/Cast", "shape": [1, 1, 256, 64], "dtype": "float32"}, {"name": "StatefulPartitionedCall/model/generate_waveform_layer/DEC2/cout/BiasAdd/Cast", "shape": [64], "dtype": "float32"}, {"name": "StatefulPartitionedCall/model/generate_waveform_layer/DEC2/tf.concat_8/concat/axis", "shape": [], "dtype": "int32"}, {"name": "StatefulPartitionedCall/model/generate_waveform_layer/strided_slice_3/stack", "shape": [1], "dtype": "int32"}, {"name": "StatefulPartitionedCall/model/generate_waveform_layer/strided_slice_3/stack_1", "shape": [1], "dtype": "int32"}, {"name": "StatefulPartitionedCall/model/generate_waveform_layer/strided_slice_3/stack_2", "shape": [1], "dtype": "int32"}, {"name": "StatefulPartitionedCall/model/generate_waveform_layer/concat_6/axis", "shape": [], "dtype": "int32"}, {"name": "StatefulPartitionedCall/model/generate_waveform_layer/DEC/conv2d_6/Conv2D/Cast", "shape": [1, 3, 64, 768], "dtype": "float32"}, {"name": "StatefulPartitionedCall/model/generate_waveform_layer/DEC/conv2d_6/BiasAdd/Cast", "shape": [768], "dtype": "float32"}, {"name": "StatefulPartitionedCall/model/generate_waveform_layer/DEC/add_noise/Cast", "shape": [1], "dtype": "float32"}, {"name": "StatefulPartitionedCall/model/generate_waveform_layer/DEC/add_noise/random_normal/shape", "shape": [4], "dtype": "int32"}, {"name": "StatefulPartitionedCall/model/generate_waveform_layer/DEC/conv2d_7/Conv2D/Cast", "shape": [1, 3, 768, 768], "dtype": "float32"}, {"name": "StatefulPartitionedCall/model/generate_waveform_layer/DEC/conv2d_7/BiasAdd/Cast", "shape": [768], "dtype": "float32"}, {"name": "StatefulPartitionedCall/model/generate_waveform_layer/DEC/add_noise_1/Cast", "shape": [1], "dtype": "float32"}, {"name": "StatefulPartitionedCall/model/generate_waveform_layer/DEC/add_noise_1/random_normal/shape", "shape": [4], "dtype": "int32"}, {"name": "StatefulPartitionedCall/model/generate_waveform_layer/DEC/conv2d_transpose_3/BiasAdd/Cast", "shape": [768], "dtype": "float32"}, {"name": "StatefulPartitionedCall/model/generate_waveform_layer/DEC/add_noise_8/Cast", "shape": [1], "dtype": "float32"}, {"name": "StatefulPartitionedCall/model/generate_waveform_layer/DEC/add_noise_8/random_normal/shape", "shape": [4], "dtype": "int32"}, {"name": "StatefulPartitionedCall/model/generate_waveform_layer/DEC/conv2d_12/Conv2D/Cast", "shape": [1, 1, 768, 513], "dtype": "float32"}, {"name": "StatefulPartitionedCall/model/generate_waveform_layer/DEC/conv2d_12/BiasAdd/Cast", "shape": [513], "dtype": "float32"}, {"name": "StatefulPartitionedCall/model/generate_waveform_layer/DEC/tf.clip_by_value_1/clip_by_value/Minimum/y", "shape": [], "dtype": "float32"}, {"name": "StatefulPartitionedCall/model/generate_waveform_layer/DEC/tf.clip_by_value_1/clip_by_value/y", "shape": [], "dtype": "float32"}, {"name": "StatefulPartitionedCall/model/generate_waveform_layer/DEC/tf.concat_4/concat/axis", "shape": [], "dtype": "int32"}, {"name": "StatefulPartitionedCall/model/generate_waveform_layer/DEC/tf.compat.v1.transpose_6/transpose/perm", "shape": [4], "dtype": "int32"}, {"name": "StatefulPartitionedCall/model/generate_waveform_layer/mul_3/y", "shape": [], "dtype": "float32"}, {"name": "StatefulPartitionedCall/model/generate_waveform_layer/concat_10/axis", "shape": [], "dtype": "int32"}, {"name": "StatefulPartitionedCall/model/generate_waveform_layer/irfft/fft_length", "shape": [1], "dtype": "int32"}, {"name": "StatefulPartitionedCall/model/generate_waveform_layer/inverse_stft_window_fn/truediv", "shape": [1024], "dtype": "float32"}, {"name": "StatefulPartitionedCall/model/generate_waveform_layer/overlap_and_add/concat", "shape": [2, 2], "dtype": "int32"}, {"name": "StatefulPartitionedCall/model/generate_waveform_layer/overlap_and_add/concat_1", "shape": [3], "dtype": "int32"}, {"name": "StatefulPartitionedCall/model/generate_waveform_layer/overlap_and_add/transpose/perm", "shape": [3], "dtype": "int32"}, {"name": "StatefulPartitionedCall/model/generate_waveform_layer/overlap_and_add/concat_3", "shape": [2], "dtype": "int32"}, {"name": "StatefulPartitionedCall/model/generate_waveform_layer/overlap_and_add/strided_slice/stack", "shape": [3], "dtype": "int32"}, {"name": "StatefulPartitionedCall/model/generate_waveform_layer/overlap_and_add/strided_slice/stack_1", "shape": [3], "dtype": "int32"}, {"name": "StatefulPartitionedCall/model/generate_waveform_layer/overlap_and_add/strided_slice/stack_2", "shape": [3], "dtype": "int32"}, {"name": "StatefulPartitionedCall/model/generate_waveform_layer/overlap_and_add/concat_4", "shape": [3], "dtype": "int32"}, {"name": "StatefulPartitionedCall/model/generate_waveform_layer/overlap_and_add/Sum/reduction_indices", "shape": [], "dtype": "int32"}, {"name": "StatefulPartitionedCall/model/generate_waveform_layer/overlap_and_add/concat_5", "shape": [1], "dtype": "int32"}, {"name": "StatefulPartitionedCall/model/generate_waveform_layer/overlap_and_add/strided_slice_1/stack", "shape": [2], "dtype": "int32"}, {"name": "StatefulPartitionedCall/model/generate_waveform_layer/overlap_and_add/strided_slice_1/stack_1", "shape": [2], "dtype": "int32"}, {"name": "StatefulPartitionedCall/model/generate_waveform_layer/overlap_and_add/strided_slice_1/stack_2", "shape": [2], "dtype": "int32"}, {"name": "StatefulPartitionedCall/model/generate_waveform_layer/split_10/split_dim", "shape": [], "dtype": "int32"}, {"name": "StatefulPartitionedCall/model/generate_waveform_layer/Pow_1/x", "shape": [], "dtype": "float32"}, {"name": "StatefulPartitionedCall/model/generate_waveform_layer/mul_8/x", "shape": [], "dtype": "float32"}, {"name": "StatefulPartitionedCall/model/generate_waveform_layer/DEC/tf.split_3/split_1/split_dim", "shape": [], "dtype": "int32"}, {"name": "StatefulPartitionedCall/model/generate_waveform_layer/DEC/conv2d_11/Conv2D_1/Cast", "shape": [1, 1, 768, 513], "dtype": "float32"}, {"name": "StatefulPartitionedCall/model/generate_waveform_layer/DEC/conv2d_11/BiasAdd_1/Cast", "shape": [513], "dtype": "float32"}, {"name": "StatefulPartitionedCall/model/generate_waveform_layer/DEC/tf.clip_by_value/clip_by_value_1/Minimum/y", "shape": [], "dtype": "float32"}, {"name": "StatefulPartitionedCall/model/generate_waveform_layer/DEC/tf.clip_by_value/clip_by_value_1/y", "shape": [], "dtype": "float32"}, {"name": "StatefulPartitionedCall/model/generate_waveform_layer/DEC/tf.concat_3/concat_1/axis", "shape": [], "dtype": "int32"}, {"name": "StatefulPartitionedCall/model/generate_waveform_layer/DEC/tf.compat.v1.transpose_5/transpose_1/perm", "shape": [4], "dtype": "int32"}, {"name": "StatefulPartitionedCall/model/generate_waveform_layer/mul_7/y", "shape": [], "dtype": "float32"}, {"name": "StatefulPartitionedCall/model/generate_waveform_layer/add_2/y", "shape": [], "dtype": "float32"}, {"name": "StatefulPartitionedCall/model/generate_waveform_layer/add_3/y", "shape": [], "dtype": "float32"}, {"name": "StatefulPartitionedCall/model/generate_waveform_layer/concat_17/axis", "shape": [], "dtype": "int32"}, {"name": "StatefulPartitionedCall/model/generate_waveform_layer/split_11/split_dim", "shape": [], "dtype": "int32"}, {"name": "StatefulPartitionedCall/model/generate_waveform_layer/DEC/tf.split_4/split_1/split_dim", "shape": [], "dtype": "int32"}, {"name": "StatefulPartitionedCall/model/generate_waveform_layer/DEC/conv2d_transpose_5/stack_1", "shape": [4], "dtype": "int32"}, {"name": "StatefulPartitionedCall/model/generate_waveform_layer/DEC/conv2d_transpose_5/conv2d_transpose_1/Cast", "shape": [1, 4, 768, 768], "dtype": "float32"}, {"name": "StatefulPartitionedCall/model/generate_waveform_layer/DEC/conv2d_transpose_4/stack_1", "shape": [4], "dtype": "int32"}, {"name": "StatefulPartitionedCall/model/generate_waveform_layer/DEC/conv2d_transpose_4/conv2d_transpose_1/Cast", "shape": [1, 4, 768, 512], "dtype": "float32"}, {"name": "StatefulPartitionedCall/model/generate_waveform_layer/DEC/conv2d_transpose_4/BiasAdd_1/Cast", "shape": [768], "dtype": "float32"}, {"name": "StatefulPartitionedCall/model/generate_waveform_layer/DEC/add_noise_9/Cast_1", "shape": [1], "dtype": "float32"}, {"name": "StatefulPartitionedCall/model/generate_waveform_layer/DEC/add_noise_9/random_normal_1/shape", "shape": [4], "dtype": "int32"}, {"name": "StatefulPartitionedCall/model/generate_waveform_layer/DEC/conv2d_transpose_5/BiasAdd_1/Cast", "shape": [768], "dtype": "float32"}, {"name": "StatefulPartitionedCall/model/generate_waveform_layer/DEC/add_noise_10/Cast_1", "shape": [1], "dtype": "float32"}, {"name": "StatefulPartitionedCall/model/generate_waveform_layer/DEC/add_noise_10/random_normal_1/shape", "shape": [4], "dtype": "int32"}, {"name": "StatefulPartitionedCall/model/generate_waveform_layer/DEC/conv2d_transpose_3/stack_1", "shape": [4], "dtype": "int32"}, {"name": "StatefulPartitionedCall/model/generate_waveform_layer/DEC/conv2d_transpose_3/conv2d_transpose_1/Cast", "shape": [1, 4, 768, 768], "dtype": "float32"}, {"name": "StatefulPartitionedCall/model/generate_waveform_layer/DEC/conv2d_transpose_2/stack_1", "shape": [4], "dtype": "int32"}, {"name": "StatefulPartitionedCall/model/generate_waveform_layer/DEC/conv2d_transpose_2/conv2d_transpose_1/Cast", "shape": [1, 4, 768, 512], "dtype": "float32"}, {"name": "StatefulPartitionedCall/model/generate_waveform_layer/DEC/conv2d_transpose_1/stack_1", "shape": [4], "dtype": "int32"}, {"name": "StatefulPartitionedCall/model/generate_waveform_layer/DEC/conv2d_transpose_1/conv2d_transpose_1/Cast", "shape": [1, 4, 512, 256], "dtype": "float32"}, {"name": "StatefulPartitionedCall/model/generate_waveform_layer/DEC/conv2d_9/Conv2D_1/Cast", "shape": [1, 3, 512, 256], "dtype": "float32"}, {"name": "StatefulPartitionedCall/model/generate_waveform_layer/DEC/conv2d_9/BiasAdd_1/Cast", "shape": [256], "dtype": "float32"}, {"name": "StatefulPartitionedCall/model/generate_waveform_layer/DEC/add_noise_3/Cast_1", "shape": [1], "dtype": "float32"}, {"name": "StatefulPartitionedCall/model/generate_waveform_layer/DEC/add_noise_3/random_normal_1/shape", "shape": [4], "dtype": "int32"}, {"name": "StatefulPartitionedCall/model/generate_waveform_layer/DEC/conv2d_transpose_1/BiasAdd_1/Cast", "shape": [512], "dtype": "float32"}, {"name": "StatefulPartitionedCall/model/generate_waveform_layer/DEC/add_noise_6/Cast_1", "shape": [1], "dtype": "float32"}, {"name": "StatefulPartitionedCall/model/generate_waveform_layer/DEC/add_noise_6/random_normal_1/shape", "shape": [4], "dtype": "int32"}, {"name": "StatefulPartitionedCall/model/generate_waveform_layer/DEC/conv2d_8/Conv2D_1/Cast", "shape": [1, 3, 768, 512], "dtype": "float32"}, {"name": "StatefulPartitionedCall/model/generate_waveform_layer/DEC/conv2d_8/BiasAdd_1/Cast", "shape": [512], "dtype": "float32"}, {"name": "StatefulPartitionedCall/model/generate_waveform_layer/DEC/add_noise_2/Cast_1", "shape": [1], "dtype": "float32"}, {"name": "StatefulPartitionedCall/model/generate_waveform_layer/DEC/add_noise_2/random_normal_1/shape", "shape": [4], "dtype": "int32"}, {"name": "StatefulPartitionedCall/model/generate_waveform_layer/DEC/conv2d_transpose_2/BiasAdd_1/Cast", "shape": [768], "dtype": "float32"}, {"name": "StatefulPartitionedCall/model/generate_waveform_layer/DEC/add_noise_7/Cast_1", "shape": [1], "dtype": "float32"}, {"name": "StatefulPartitionedCall/model/generate_waveform_layer/DEC/add_noise_7/random_normal_1/shape", "shape": [4], "dtype": "int32"}, {"name": "StatefulPartitionedCall/model/generate_waveform_layer/split_9/split_dim", "shape": [], "dtype": "int32"}, {"name": "StatefulPartitionedCall/model/generate_waveform_layer/DEC2/tf.split_8/split_1/split_dim", "shape": [], "dtype": "int32"}, {"name": "StatefulPartitionedCall/model/generate_waveform_layer/DEC2/conv2d_transpose_9/stack_1", "shape": [4], "dtype": "int32"}, {"name": "StatefulPartitionedCall/model/generate_waveform_layer/DEC2/conv2d_transpose_9/conv2d_transpose_1/Cast", "shape": [1, 4, 256, 384], "dtype": "float32"}, {"name": "StatefulPartitionedCall/model/generate_waveform_layer/DEC2/conv2d_transpose_8/stack_1", "shape": [4], "dtype": "int32"}, {"name": "StatefulPartitionedCall/model/generate_waveform_layer/DEC2/conv2d_transpose_8/conv2d_transpose_1/Cast", "shape": [1, 4, 384, 512], "dtype": "float32"}, {"name": "StatefulPartitionedCall/model/generate_waveform_layer/DEC2/conv2d_transpose_7/stack_1", "shape": [4], "dtype": "int32"}, {"name": "StatefulPartitionedCall/model/generate_waveform_layer/DEC2/conv2d_transpose_7/conv2d_transpose_1/Cast", "shape": [1, 4, 512, 640], "dtype": "float32"}, {"name": "StatefulPartitionedCall/model/generate_waveform_layer/DEC2/conv2d_transpose_6/stack_1", "shape": [4], "dtype": "int32"}, {"name": "StatefulPartitionedCall/model/generate_waveform_layer/DEC2/conv2d_transpose_6/conv2d_transpose_1/Cast", "shape": [1, 4, 640, 768], "dtype": "float32"}, {"name": "StatefulPartitionedCall/model/generate_waveform_layer/split_7/split_dim", "shape": [], "dtype": "int32"}, {"name": "StatefulPartitionedCall/model/generate_waveform_layer/split_1/split_dim", "shape": [], "dtype": "int32"}, {"name": "StatefulPartitionedCall/model/generate_waveform_layer/GEN/tf.split_10/split/split_dim", "shape": [], "dtype": "int32"}, {"name": "StatefulPartitionedCall/model/generate_waveform_layer/GEN/8c/stack", "shape": [4], "dtype": "int32"}, {"name": "StatefulPartitionedCall/model/generate_waveform_layer/GEN/8c/conv2d_transpose/Cast", "shape": [1, 4, 256, 384], "dtype": "float32"}, {"name": "unknown_57", "shape": [], "dtype": "float32"}, {"name": "StatefulPartitionedCall/model/generate_waveform_layer/GEN/6c/stack", "shape": [4], "dtype": "int32"}, {"name": "StatefulPartitionedCall/model/generate_waveform_layer/GEN/6c/conv2d_transpose/Cast", "shape": [1, 4, 384, 512], "dtype": "float32"}, {"name": "StatefulPartitionedCall/model/generate_waveform_layer/GEN/6c/BiasAdd/Cast", "shape": [384], "dtype": "float32"}, {"name": "StatefulPartitionedCall/model/generate_waveform_layer/GEN/6r/Cast", "shape": [1], "dtype": "float32"}, {"name": "StatefulPartitionedCall/model/generate_waveform_layer/GEN/6r/random_normal/shape", "shape": [4], "dtype": "int32"}, {"name": "StatefulPartitionedCall/model/generate_waveform_layer/GEN/tf.math.reduce_std_17/reduce_std/reduce_variance/Mean/reduction_indices", "shape": [], "dtype": "int32"}, {"name": "StatefulPartitionedCall/model/generate_waveform_layer/GEN/tf.math.reduce_std_17/reduce_std/reduce_variance/Mean_1/reduction_indices", "shape": [], "dtype": "int32"}, {"name": "StatefulPartitionedCall/model/generate_waveform_layer/GEN/tf.__operators__.add_34/y", "shape": [], "dtype": "float32"}, {"name": "StatefulPartitionedCall/model/generate_waveform_layer/GEN/6ai/Conv2D/Cast", "shape": [1, 1, 128, 384], "dtype": "float32"}, {"name": "StatefulPartitionedCall/model/generate_waveform_layer/GEN/6ai/BiasAdd/Cast", "shape": [384], "dtype": "float32"}, {"name": "StatefulPartitionedCall/model/generate_waveform_layer/GEN/7c/Conv2D/ArithmeticOptimizer/FoldMultiplyIntoConv_scaled_StatefulPartitionedCall/model/generate_waveform_layer/GEN/7c/Conv2D_Cast", "shape": [1, 4, 384, 384], "dtype": "float32"}, {"name": "StatefulPartitionedCall/model/generate_waveform_layer/GEN/7c/BiasAdd/Cast", "shape": [384], "dtype": "float32"}, {"name": "StatefulPartitionedCall/model/generate_waveform_layer/GEN/7r/Cast", "shape": [1], "dtype": "float32"}, {"name": "StatefulPartitionedCall/model/generate_waveform_layer/GEN/7r/random_normal/shape", "shape": [4], "dtype": "int32"}, {"name": "StatefulPartitionedCall/model/generate_waveform_layer/GEN/tf.math.reduce_std_18/reduce_std/reduce_variance/Mean/reduction_indices", "shape": [], "dtype": "int32"}, {"name": "StatefulPartitionedCall/model/generate_waveform_layer/GEN/tf.math.reduce_std_18/reduce_std/reduce_variance/Mean_1/reduction_indices", "shape": [], "dtype": "int32"}, {"name": "StatefulPartitionedCall/model/generate_waveform_layer/GEN/tf.__operators__.add_35/y", "shape": [], "dtype": "float32"}, {"name": "StatefulPartitionedCall/model/generate_waveform_layer/GEN/7ai/Conv2D/Cast", "shape": [1, 1, 128, 384], "dtype": "float32"}, {"name": "StatefulPartitionedCall/model/generate_waveform_layer/GEN/7ai/BiasAdd/Cast", "shape": [384], "dtype": "float32"}, {"name": "unknown_43", "shape": [], "dtype": "float32"}, {"name": "StatefulPartitionedCall/model/generate_waveform_layer/GEN/4c/stack", "shape": [4], "dtype": "int32"}, {"name": "StatefulPartitionedCall/model/generate_waveform_layer/GEN/4c/conv2d_transpose/Cast", "shape": [1, 4, 512, 640], "dtype": "float32"}, {"name": "StatefulPartitionedCall/model/generate_waveform_layer/GEN/4c/BiasAdd/Cast", "shape": [512], "dtype": "float32"}, {"name": "StatefulPartitionedCall/model/generate_waveform_layer/GEN/4r/Cast", "shape": [1], "dtype": "float32"}, {"name": "StatefulPartitionedCall/model/generate_waveform_layer/GEN/4r/random_normal/shape", "shape": [4], "dtype": "int32"}, {"name": "StatefulPartitionedCall/model/generate_waveform_layer/GEN/tf.math.reduce_std_15/reduce_std/reduce_variance/Mean/reduction_indices", "shape": [], "dtype": "int32"}, {"name": "StatefulPartitionedCall/model/generate_waveform_layer/GEN/tf.math.reduce_std_15/reduce_std/reduce_variance/Mean_1/reduction_indices", "shape": [], "dtype": "int32"}, {"name": "StatefulPartitionedCall/model/generate_waveform_layer/GEN/tf.__operators__.add_31/y", "shape": [], "dtype": "float32"}, {"name": "StatefulPartitionedCall/model/generate_waveform_layer/GEN/4ai/Conv2D/Cast", "shape": [1, 1, 128, 512], "dtype": "float32"}, {"name": "StatefulPartitionedCall/model/generate_waveform_layer/GEN/4ai/BiasAdd/Cast", "shape": [512], "dtype": "float32"}, {"name": "StatefulPartitionedCall/model/generate_waveform_layer/GEN/5c/Conv2D/ArithmeticOptimizer/FoldMultiplyIntoConv_scaled_StatefulPartitionedCall/model/generate_waveform_layer/GEN/5c/Conv2D_Cast", "shape": [1, 4, 512, 512], "dtype": "float32"}, {"name": "StatefulPartitionedCall/model/generate_waveform_layer/GEN/5c/BiasAdd/Cast", "shape": [512], "dtype": "float32"}, {"name": "StatefulPartitionedCall/model/generate_waveform_layer/GEN/5r/Cast", "shape": [1], "dtype": "float32"}, {"name": "StatefulPartitionedCall/model/generate_waveform_layer/GEN/5r/random_normal/shape", "shape": [4], "dtype": "int32"}, {"name": "StatefulPartitionedCall/model/generate_waveform_layer/GEN/tf.math.reduce_std_16/reduce_std/reduce_variance/Mean/reduction_indices", "shape": [], "dtype": "int32"}, {"name": "StatefulPartitionedCall/model/generate_waveform_layer/GEN/tf.math.reduce_std_16/reduce_std/reduce_variance/Mean_1/reduction_indices", "shape": [], "dtype": "int32"}, {"name": "StatefulPartitionedCall/model/generate_waveform_layer/GEN/tf.__operators__.add_32/y", "shape": [], "dtype": "float32"}, {"name": "StatefulPartitionedCall/model/generate_waveform_layer/GEN/5ai/Conv2D/Cast", "shape": [1, 1, 128, 512], "dtype": "float32"}, {"name": "StatefulPartitionedCall/model/generate_waveform_layer/GEN/5ai/BiasAdd/Cast", "shape": [512], "dtype": "float32"}, {"name": "unknown_29", "shape": [], "dtype": "float32"}, {"name": "StatefulPartitionedCall/model/generate_waveform_layer/GEN/2c/stack", "shape": [4], "dtype": "int32"}, {"name": "StatefulPartitionedCall/model/generate_waveform_layer/GEN/2c/conv2d_transpose/Cast", "shape": [1, 4, 640, 768], "dtype": "float32"}, {"name": "StatefulPartitionedCall/model/generate_waveform_layer/GEN/2c/BiasAdd/Cast", "shape": [640], "dtype": "float32"}, {"name": "StatefulPartitionedCall/model/generate_waveform_layer/GEN/2r/Cast", "shape": [1], "dtype": "float32"}, {"name": "StatefulPartitionedCall/model/generate_waveform_layer/GEN/2r/random_normal/shape", "shape": [4], "dtype": "int32"}, {"name": "StatefulPartitionedCall/model/generate_waveform_layer/GEN/tf.math.reduce_std_13/reduce_std/reduce_variance/Mean/reduction_indices", "shape": [], "dtype": "int32"}, {"name": "StatefulPartitionedCall/model/generate_waveform_layer/GEN/tf.math.reduce_std_13/reduce_std/reduce_variance/Mean_1/reduction_indices", "shape": [], "dtype": "int32"}, {"name": "StatefulPartitionedCall/model/generate_waveform_layer/GEN/tf.__operators__.add_28/y", "shape": [], "dtype": "float32"}, {"name": "StatefulPartitionedCall/model/generate_waveform_layer/GEN/2ai/Conv2D/Cast", "shape": [1, 1, 128, 640], "dtype": "float32"}, {"name": "StatefulPartitionedCall/model/generate_waveform_layer/GEN/2ai/BiasAdd/Cast", "shape": [640], "dtype": "float32"}, {"name": "StatefulPartitionedCall/model/generate_waveform_layer/GEN/3c/Conv2D/ArithmeticOptimizer/FoldMultiplyIntoConv_scaled_StatefulPartitionedCall/model/generate_waveform_layer/GEN/3c/Conv2D_Cast", "shape": [1, 4, 640, 640], "dtype": "float32"}, {"name": "StatefulPartitionedCall/model/generate_waveform_layer/GEN/3c/BiasAdd/Cast", "shape": [640], "dtype": "float32"}, {"name": "StatefulPartitionedCall/model/generate_waveform_layer/GEN/3r/Cast", "shape": [1], "dtype": "float32"}, {"name": "StatefulPartitionedCall/model/generate_waveform_layer/GEN/3r/random_normal/shape", "shape": [4], "dtype": "int32"}, {"name": "StatefulPartitionedCall/model/generate_waveform_layer/GEN/tf.math.reduce_std_14/reduce_std/reduce_variance/Mean/reduction_indices", "shape": [], "dtype": "int32"}, {"name": "StatefulPartitionedCall/model/generate_waveform_layer/GEN/tf.math.reduce_std_14/reduce_std/reduce_variance/Mean_1/reduction_indices", "shape": [], "dtype": "int32"}, {"name": "StatefulPartitionedCall/model/generate_waveform_layer/GEN/tf.__operators__.add_29/y", "shape": [], "dtype": "float32"}, {"name": "StatefulPartitionedCall/model/generate_waveform_layer/GEN/3ai/Conv2D/Cast", "shape": [1, 1, 128, 640], "dtype": "float32"}, {"name": "StatefulPartitionedCall/model/generate_waveform_layer/GEN/3ai/BiasAdd/Cast", "shape": [640], "dtype": "float32"}, {"name": "unknown_15", "shape": [], "dtype": "float32"}, {"name": "StatefulPartitionedCall/model/generate_waveform_layer/GEN/0c/stack", "shape": [4], "dtype": "int32"}, {"name": "StatefulPartitionedCall/model/generate_waveform_layer/GEN/0c/conv2d_transpose/Cast", "shape": [1, 4, 768, 896], "dtype": "float32"}, {"name": "StatefulPartitionedCall/model/generate_waveform_layer/GEN/0c/BiasAdd/Cast", "shape": [768], "dtype": "float32"}, {"name": "StatefulPartitionedCall/model/generate_waveform_layer/GEN/0r/Cast", "shape": [1], "dtype": "float32"}, {"name": "StatefulPartitionedCall/model/generate_waveform_layer/GEN/0r/random_normal/shape", "shape": [4], "dtype": "int32"}, {"name": "StatefulPartitionedCall/model/generate_waveform_layer/GEN/tf.math.reduce_std_11/reduce_std/reduce_variance/Mean/reduction_indices", "shape": [], "dtype": "int32"}, {"name": "StatefulPartitionedCall/model/generate_waveform_layer/GEN/tf.math.reduce_std_11/reduce_std/reduce_variance/Mean_1/reduction_indices", "shape": [], "dtype": "int32"}, {"name": "StatefulPartitionedCall/model/generate_waveform_layer/GEN/tf.__operators__.add_25/y", "shape": [], "dtype": "float32"}, {"name": "StatefulPartitionedCall/model/generate_waveform_layer/GEN/0ai/Conv2D/Cast", "shape": [1, 1, 128, 768], "dtype": "float32"}, {"name": "StatefulPartitionedCall/model/generate_waveform_layer/GEN/0ai/BiasAdd/Cast", "shape": [768], "dtype": "float32"}, {"name": "StatefulPartitionedCall/model/generate_waveform_layer/GEN/1c/Conv2D/ArithmeticOptimizer/FoldMultiplyIntoConv_scaled_StatefulPartitionedCall/model/generate_waveform_layer/GEN/1c/Conv2D_Cast", "shape": [1, 4, 768, 768], "dtype": "float32"}, {"name": "StatefulPartitionedCall/model/generate_waveform_layer/GEN/1c/BiasAdd/Cast", "shape": [768], "dtype": "float32"}, {"name": "StatefulPartitionedCall/model/generate_waveform_layer/GEN/1r/Cast", "shape": [1], "dtype": "float32"}, {"name": "StatefulPartitionedCall/model/generate_waveform_layer/GEN/1r/random_normal/shape", "shape": [4], "dtype": "int32"}, {"name": "StatefulPartitionedCall/model/generate_waveform_layer/GEN/tf.math.reduce_std_12/reduce_std/reduce_variance/Mean/reduction_indices", "shape": [], "dtype": "int32"}, {"name": "StatefulPartitionedCall/model/generate_waveform_layer/GEN/tf.math.reduce_std_12/reduce_std/reduce_variance/Mean_1/reduction_indices", "shape": [], "dtype": "int32"}, {"name": "StatefulPartitionedCall/model/generate_waveform_layer/GEN/tf.__operators__.add_26/y", "shape": [], "dtype": "float32"}, {"name": "StatefulPartitionedCall/model/generate_waveform_layer/GEN/1ai/Conv2D/Cast", "shape": [1, 1, 128, 768], "dtype": "float32"}, {"name": "StatefulPartitionedCall/model/generate_waveform_layer/GEN/1ai/BiasAdd/Cast", "shape": [768], "dtype": "float32"}, {"name": "StatefulPartitionedCall/model/generate_waveform_layer/GEN/flatten_2/Const", "shape": [2], "dtype": "int32"}, {"name": "StatefulPartitionedCall/model/generate_waveform_layer/GEN/00d/MatMul/Cast", "shape": [256, 3584], "dtype": "float32"}, {"name": "StatefulPartitionedCall/model/generate_waveform_layer/GEN/00d/BiasAdd/Cast", "shape": [3584], "dtype": "float32"}, {"name": "StatefulPartitionedCall/model/generate_waveform_layer/GEN/reshape_1/Reshape/shape", "shape": [4], "dtype": "int32"}, {"name": "StatefulPartitionedCall/model/generate_waveform_layer/GEN/00n/Cast", "shape": [1], "dtype": "float32"}, {"name": "StatefulPartitionedCall/model/generate_waveform_layer/GEN/00n/random_normal/shape", "shape": [4], "dtype": "int32"}, {"name": "StatefulPartitionedCall/model/generate_waveform_layer/GEN/tf.math.reduce_std_10/reduce_std/reduce_variance/Mean/reduction_indices", "shape": [], "dtype": "int32"}, {"name": "StatefulPartitionedCall/model/generate_waveform_layer/GEN/tf.math.reduce_std_10/reduce_std/reduce_variance/Mean_1/reduction_indices", "shape": [], "dtype": "int32"}, {"name": "StatefulPartitionedCall/model/generate_waveform_layer/GEN/tf.__operators__.add_24/y", "shape": [], "dtype": "float32"}, {"name": "StatefulPartitionedCall/model/generate_waveform_layer/GEN/tf.expand_dims_2/ExpandDims/dim", "shape": [], "dtype": "int32"}, {"name": "StatefulPartitionedCall/model/generate_waveform_layer/GEN/00ai/Conv2D/Cast", "shape": [1, 1, 128, 896], "dtype": "float32"}, {"name": "StatefulPartitionedCall/model/generate_waveform_layer/GEN/00ai/BiasAdd/Cast", "shape": [896], "dtype": "float32"}, {"name": "StatefulPartitionedCall/model/generate_waveform_layer/GEN/tf.reshape_8/Reshape/shape", "shape": [5], "dtype": "int32"}, {"name": "StatefulPartitionedCall/model/generate_waveform_layer/GEN/tf.compat.v1.transpose_7/transpose/perm", "shape": [5], "dtype": "int32"}, {"name": "StatefulPartitionedCall/model/generate_waveform_layer/GEN/tf.reshape_9/Reshape/shape", "shape": [4], "dtype": "int32"}, {"name": "StatefulPartitionedCall/model/generate_waveform_layer/GEN/res1c/Conv2D/Cast", "shape": [1, 1, 448, 768], "dtype": "float32"}, {"name": "StatefulPartitionedCall/model/generate_waveform_layer/GEN/res1c/BiasAdd/Cast", "shape": [768], "dtype": "float32"}, {"name": "StatefulPartitionedCall/model/generate_waveform_layer/GEN/tf.reshape_10/Reshape/shape", "shape": [5], "dtype": "int32"}, {"name": "StatefulPartitionedCall/model/generate_waveform_layer/GEN/tf.compat.v1.transpose_8/transpose/perm", "shape": [5], "dtype": "int32"}, {"name": "StatefulPartitionedCall/model/generate_waveform_layer/GEN/tf.reshape_11/Reshape/shape", "shape": [4], "dtype": "int32"}, {"name": "StatefulPartitionedCall/model/generate_waveform_layer/GEN/res2c/Conv2D/Cast", "shape": [1, 1, 384, 640], "dtype": "float32"}, {"name": "StatefulPartitionedCall/model/generate_waveform_layer/GEN/res2c/BiasAdd/Cast", "shape": [640], "dtype": "float32"}, {"name": "StatefulPartitionedCall/model/generate_waveform_layer/GEN/tf.reshape_12/Reshape/shape", "shape": [5], "dtype": "int32"}, {"name": "StatefulPartitionedCall/model/generate_waveform_layer/GEN/tf.compat.v1.transpose_9/transpose/perm", "shape": [5], "dtype": "int32"}, {"name": "StatefulPartitionedCall/model/generate_waveform_layer/GEN/tf.reshape_13/Reshape/shape", "shape": [4], "dtype": "int32"}, {"name": "StatefulPartitionedCall/model/generate_waveform_layer/GEN/res3c/Conv2D/Cast", "shape": [1, 1, 320, 512], "dtype": "float32"}, {"name": "StatefulPartitionedCall/model/generate_waveform_layer/GEN/res3c/BiasAdd/Cast", "shape": [512], "dtype": "float32"}, {"name": "StatefulPartitionedCall/model/generate_waveform_layer/GEN/tf.reshape_14/Reshape/shape", "shape": [5], "dtype": "int32"}, {"name": "StatefulPartitionedCall/model/generate_waveform_layer/GEN/tf.compat.v1.transpose_10/transpose/perm", "shape": [5], "dtype": "int32"}, {"name": "StatefulPartitionedCall/model/generate_waveform_layer/GEN/tf.reshape_15/Reshape/shape", "shape": [4], "dtype": "int32"}, {"name": "StatefulPartitionedCall/model/generate_waveform_layer/GEN/res4c/Conv2D/Cast", "shape": [1, 1, 256, 384], "dtype": "float32"}, {"name": "StatefulPartitionedCall/model/generate_waveform_layer/GEN/res4c/BiasAdd/Cast", "shape": [384], "dtype": "float32"}, {"name": "StatefulPartitionedCall/model/generate_waveform_layer/GEN/8c/BiasAdd/Cast", "shape": [256], "dtype": "float32"}, {"name": "StatefulPartitionedCall/model/generate_waveform_layer/GEN/8r/Cast", "shape": [1], "dtype": "float32"}, {"name": "StatefulPartitionedCall/model/generate_waveform_layer/GEN/8r/random_normal/shape", "shape": [4], "dtype": "int32"}, {"name": "StatefulPartitionedCall/model/generate_waveform_layer/GEN/tf.math.reduce_std_19/reduce_std/reduce_variance/Mean/reduction_indices", "shape": [], "dtype": "int32"}, {"name": "StatefulPartitionedCall/model/generate_waveform_layer/GEN/tf.math.reduce_std_19/reduce_std/reduce_variance/Mean_1/reduction_indices", "shape": [], "dtype": "int32"}, {"name": "StatefulPartitionedCall/model/generate_waveform_layer/GEN/tf.__operators__.add_37/y", "shape": [], "dtype": "float32"}, {"name": "StatefulPartitionedCall/model/generate_waveform_layer/GEN/tf.split_9/split/split_dim", "shape": [], "dtype": "int32"}, {"name": "StatefulPartitionedCall/model/generate_waveform_layer/strided_slice/stack", "shape": [1], "dtype": "int32"}, {"name": "StatefulPartitionedCall/model/generate_waveform_layer/strided_slice/stack_1", "shape": [1], "dtype": "int32"}, {"name": "StatefulPartitionedCall/model/generate_waveform_layer/strided_slice/stack_2", "shape": [1], "dtype": "int32"}, {"name": "StatefulPartitionedCall/model/generate_waveform_layer/GEN/tf.concat_9/concat/axis", "shape": [], "dtype": "int32"}, {"name": "StatefulPartitionedCall/model/generate_waveform_layer/GEN/tf.expand_dims_3/ExpandDims/dim", "shape": [], "dtype": "int32"}, {"name": "StatefulPartitionedCall/model/generate_waveform_layer/GEN/8ai/Conv2D/Cast", "shape": [1, 1, 128, 256], "dtype": "float32"}, {"name": "StatefulPartitionedCall/model/generate_waveform_layer/GEN/8ai/BiasAdd/Cast", "shape": [256], "dtype": "float32"}, {"name": "StatefulPartitionedCall/model/generate_waveform_layer/GEN/9c/Conv2D/Cast", "shape": [1, 4, 256, 128], "dtype": "float32"}, {"name": "StatefulPartitionedCall/model/generate_waveform_layer/GEN/9c/BiasAdd/Cast", "shape": [128], "dtype": "float32"}, {"name": "StatefulPartitionedCall/model/generate_waveform_layer/GEN/tf.concat_10/concat/axis", "shape": [], "dtype": "int32"}, {"name": "StatefulPartitionedCall/model/generate_waveform_layer/concat_2/axis", "shape": [], "dtype": "int32"}, {"name": "StatefulPartitionedCall/model/generate_waveform_layer/strided_slice_4/stack", "shape": [4], "dtype": "int32"}, {"name": "StatefulPartitionedCall/model/generate_waveform_layer/strided_slice_4/stack_1", "shape": [4], "dtype": "int32"}, {"name": "StatefulPartitionedCall/model/generate_waveform_layer/strided_slice_4/stack_2", "shape": [4], "dtype": "int32"}, {"name": "StatefulPartitionedCall/model/generate_waveform_layer/strided_slice_5/stack", "shape": [1], "dtype": "int32"}, {"name": "StatefulPartitionedCall/model/generate_waveform_layer/strided_slice_5/stack_1", "shape": [1], "dtype": "int32"}, {"name": "StatefulPartitionedCall/model/generate_waveform_layer/strided_slice_5/stack_2", "shape": [1], "dtype": "int32"}, {"name": "StatefulPartitionedCall/model/generate_waveform_layer/concat_11/axis", "shape": [], "dtype": "int32"}, {"name": "StatefulPartitionedCall/model/generate_waveform_layer/DEC2/conv2d_20/Conv2D_1/Cast", "shape": [1, 3, 64, 768], "dtype": "float32"}, {"name": "StatefulPartitionedCall/model/generate_waveform_layer/DEC2/conv2d_20/BiasAdd_1/Cast", "shape": [768], "dtype": "float32"}, {"name": "StatefulPartitionedCall/model/generate_waveform_layer/DEC2/add_noise_11/Cast_1", "shape": [1], "dtype": "float32"}, {"name": "StatefulPartitionedCall/model/generate_waveform_layer/DEC2/add_noise_11/random_normal_1/shape", "shape": [4], "dtype": "int32"}, {"name": "StatefulPartitionedCall/model/generate_waveform_layer/DEC2/conv2d_transpose_6/BiasAdd_1/Cast", "shape": [640], "dtype": "float32"}, {"name": "StatefulPartitionedCall/model/generate_waveform_layer/DEC2/add_noise_12/Cast_1", "shape": [1], "dtype": "float32"}, {"name": "StatefulPartitionedCall/model/generate_waveform_layer/DEC2/add_noise_12/random_normal_1/shape", "shape": [4], "dtype": "int32"}, {"name": "StatefulPartitionedCall/model/generate_waveform_layer/DEC2/conv2d_21/Conv2D_1/Cast", "shape": [1, 3, 640, 640], "dtype": "float32"}, {"name": "StatefulPartitionedCall/model/generate_waveform_layer/DEC2/conv2d_21/BiasAdd_1/Cast", "shape": [640], "dtype": "float32"}, {"name": "StatefulPartitionedCall/model/generate_waveform_layer/DEC2/add_noise_13/Cast_1", "shape": [1], "dtype": "float32"}, {"name": "StatefulPartitionedCall/model/generate_waveform_layer/DEC2/add_noise_13/random_normal_1/shape", "shape": [4], "dtype": "int32"}, {"name": "StatefulPartitionedCall/model/generate_waveform_layer/DEC2/conv2d_transpose_7/BiasAdd_1/Cast", "shape": [512], "dtype": "float32"}, {"name": "StatefulPartitionedCall/model/generate_waveform_layer/DEC2/add_noise_14/Cast_1", "shape": [1], "dtype": "float32"}, {"name": "StatefulPartitionedCall/model/generate_waveform_layer/DEC2/add_noise_14/random_normal_1/shape", "shape": [4], "dtype": "int32"}, {"name": "StatefulPartitionedCall/model/generate_waveform_layer/DEC2/conv2d_22/Conv2D_1/Cast", "shape": [1, 3, 512, 512], "dtype": "float32"}, {"name": "StatefulPartitionedCall/model/generate_waveform_layer/DEC2/conv2d_22/BiasAdd_1/Cast", "shape": [512], "dtype": "float32"}, {"name": "StatefulPartitionedCall/model/generate_waveform_layer/DEC2/add_noise_15/Cast_1", "shape": [1], "dtype": "float32"}, {"name": "StatefulPartitionedCall/model/generate_waveform_layer/DEC2/add_noise_15/random_normal_1/shape", "shape": [4], "dtype": "int32"}, {"name": "StatefulPartitionedCall/model/generate_waveform_layer/DEC2/conv2d_transpose_8/BiasAdd_1/Cast", "shape": [384], "dtype": "float32"}, {"name": "StatefulPartitionedCall/model/generate_waveform_layer/DEC2/add_noise_16/Cast_1", "shape": [1], "dtype": "float32"}, {"name": "StatefulPartitionedCall/model/generate_waveform_layer/DEC2/add_noise_16/random_normal_1/shape", "shape": [4], "dtype": "int32"}, {"name": "StatefulPartitionedCall/model/generate_waveform_layer/DEC2/conv2d_transpose_9/BiasAdd_1/Cast", "shape": [256], "dtype": "float32"}, {"name": "StatefulPartitionedCall/model/generate_waveform_layer/DEC2/add_noise_17/Cast_1", "shape": [1], "dtype": "float32"}, {"name": "StatefulPartitionedCall/model/generate_waveform_layer/DEC2/add_noise_17/random_normal_1/shape", "shape": [4], "dtype": "int32"}, {"name": "StatefulPartitionedCall/model/generate_waveform_layer/DEC2/cout/Conv2D_1/Cast", "shape": [1, 1, 256, 64], "dtype": "float32"}, {"name": "StatefulPartitionedCall/model/generate_waveform_layer/DEC2/cout/BiasAdd_1/Cast", "shape": [64], "dtype": "float32"}, {"name": "StatefulPartitionedCall/model/generate_waveform_layer/DEC2/tf.concat_8/concat_1/axis", "shape": [], "dtype": "int32"}, {"name": "StatefulPartitionedCall/model/generate_waveform_layer/strided_slice_6/stack", "shape": [1], "dtype": "int32"}, {"name": "StatefulPartitionedCall/model/generate_waveform_layer/strided_slice_6/stack_1", "shape": [1], "dtype": "int32"}, {"name": "StatefulPartitionedCall/model/generate_waveform_layer/strided_slice_6/stack_2", "shape": [1], "dtype": "int32"}, {"name": "StatefulPartitionedCall/model/generate_waveform_layer/concat_14/axis", "shape": [], "dtype": "int32"}, {"name": "StatefulPartitionedCall/model/generate_waveform_layer/DEC/conv2d_6/Conv2D_1/Cast", "shape": [1, 3, 64, 768], "dtype": "float32"}, {"name": "StatefulPartitionedCall/model/generate_waveform_layer/DEC/conv2d_6/BiasAdd_1/Cast", "shape": [768], "dtype": "float32"}, {"name": "StatefulPartitionedCall/model/generate_waveform_layer/DEC/add_noise/Cast_1", "shape": [1], "dtype": "float32"}, {"name": "StatefulPartitionedCall/model/generate_waveform_layer/DEC/add_noise/random_normal_1/shape", "shape": [4], "dtype": "int32"}, {"name": "StatefulPartitionedCall/model/generate_waveform_layer/DEC/conv2d_7/Conv2D_1/Cast", "shape": [1, 3, 768, 768], "dtype": "float32"}, {"name": "StatefulPartitionedCall/model/generate_waveform_layer/DEC/conv2d_7/BiasAdd_1/Cast", "shape": [768], "dtype": "float32"}, {"name": "StatefulPartitionedCall/model/generate_waveform_layer/DEC/add_noise_1/Cast_1", "shape": [1], "dtype": "float32"}, {"name": "StatefulPartitionedCall/model/generate_waveform_layer/DEC/add_noise_1/random_normal_1/shape", "shape": [4], "dtype": "int32"}, {"name": "StatefulPartitionedCall/model/generate_waveform_layer/DEC/conv2d_transpose_3/BiasAdd_1/Cast", "shape": [768], "dtype": "float32"}, {"name": "StatefulPartitionedCall/model/generate_waveform_layer/DEC/add_noise_8/Cast_1", "shape": [1], "dtype": "float32"}, {"name": "StatefulPartitionedCall/model/generate_waveform_layer/DEC/add_noise_8/random_normal_1/shape", "shape": [4], "dtype": "int32"}, {"name": "StatefulPartitionedCall/model/generate_waveform_layer/DEC/conv2d_12/Conv2D_1/Cast", "shape": [1, 1, 768, 513], "dtype": "float32"}, {"name": "StatefulPartitionedCall/model/generate_waveform_layer/DEC/conv2d_12/BiasAdd_1/Cast", "shape": [513], "dtype": "float32"}, {"name": "StatefulPartitionedCall/model/generate_waveform_layer/DEC/tf.clip_by_value_1/clip_by_value_1/Minimum/y", "shape": [], "dtype": "float32"}, {"name": "StatefulPartitionedCall/model/generate_waveform_layer/DEC/tf.clip_by_value_1/clip_by_value_1/y", "shape": [], "dtype": "float32"}, {"name": "StatefulPartitionedCall/model/generate_waveform_layer/DEC/tf.concat_4/concat_1/axis", "shape": [], "dtype": "int32"}, {"name": "StatefulPartitionedCall/model/generate_waveform_layer/DEC/tf.compat.v1.transpose_6/transpose_1/perm", "shape": [4], "dtype": "int32"}, {"name": "StatefulPartitionedCall/model/generate_waveform_layer/mul_10/y", "shape": [], "dtype": "float32"}, {"name": "StatefulPartitionedCall/model/generate_waveform_layer/concat_18/axis", "shape": [], "dtype": "int32"}, {"name": "StatefulPartitionedCall/model/generate_waveform_layer/irfft_1/fft_length", "shape": [1], "dtype": "int32"}, {"name": "StatefulPartitionedCall/model/generate_waveform_layer/inverse_stft_window_fn_1/truediv", "shape": [1024], "dtype": "float32"}, {"name": "StatefulPartitionedCall/model/generate_waveform_layer/overlap_and_add_1/concat", "shape": [2, 2], "dtype": "int32"}, {"name": "StatefulPartitionedCall/model/generate_waveform_layer/overlap_and_add_1/concat_1", "shape": [3], "dtype": "int32"}, {"name": "StatefulPartitionedCall/model/generate_waveform_layer/overlap_and_add_1/transpose/perm", "shape": [3], "dtype": "int32"}, {"name": "StatefulPartitionedCall/model/generate_waveform_layer/overlap_and_add_1/concat_3", "shape": [2], "dtype": "int32"}, {"name": "StatefulPartitionedCall/model/generate_waveform_layer/overlap_and_add_1/strided_slice/stack", "shape": [3], "dtype": "int32"}, {"name": "StatefulPartitionedCall/model/generate_waveform_layer/overlap_and_add_1/strided_slice/stack_1", "shape": [3], "dtype": "int32"}, {"name": "StatefulPartitionedCall/model/generate_waveform_layer/overlap_and_add_1/strided_slice/stack_2", "shape": [3], "dtype": "int32"}, {"name": "StatefulPartitionedCall/model/generate_waveform_layer/overlap_and_add_1/concat_4", "shape": [3], "dtype": "int32"}, {"name": "StatefulPartitionedCall/model/generate_waveform_layer/overlap_and_add_1/Sum/reduction_indices", "shape": [], "dtype": "int32"}, {"name": "StatefulPartitionedCall/model/generate_waveform_layer/overlap_and_add_1/concat_5", "shape": [1], "dtype": "int32"}, {"name": "StatefulPartitionedCall/model/generate_waveform_layer/overlap_and_add_1/strided_slice_1/stack", "shape": [2], "dtype": "int32"}, {"name": "StatefulPartitionedCall/model/generate_waveform_layer/overlap_and_add_1/strided_slice_1/stack_1", "shape": [2], "dtype": "int32"}, {"name": "StatefulPartitionedCall/model/generate_waveform_layer/overlap_and_add_1/strided_slice_1/stack_2", "shape": [2], "dtype": "int32"}, {"name": "StatefulPartitionedCall/model/generate_waveform_layer/clip_by_value/Minimum/y", "shape": [], "dtype": "float32"}, {"name": "StatefulPartitionedCall/model/generate_waveform_layer/clip_by_value/y", "shape": [], "dtype": "float32"}]}]}