{"format": "graph-model", "generatedBy": "2.15.0", "convertedBy": "TensorFlow.js Converter v4.20.0", "signature": {"inputs": {"input_7": {"name": "input_7:0", "dtype": "DT_FLOAT", "tensorShape": {"dim": [{"size": "-1"}, {"size": "256"}, {"size": "128"}]}}}, "outputs": {"tf.cast_9": {"name": "Identity:0", "dtype": "DT_FLOAT", "tensorShape": {"dim": [{"size": "-1"}, {"size": "1"}, {"size": "256"}, {"size": "128"}]}}}}, "modelTopology": {"node": [{"name": "StatefulPartitionedCall/GEN/tf.split_10/split/split_dim", "op": "Const", "attr": {"dtype": {"type": "DT_INT32"}, "value": {"tensor": {"dtype": "DT_INT32", "tensorShape": {}}}}}, {"name": "StatefulPartitionedCall/GEN/8r/Cast", "op": "Const", "attr": {"dtype": {"type": "DT_HALF"}, "value": {"tensor": {"dtype": "DT_HALF", "tensorShape": {"dim": [{"size": "1"}]}}}}}, {"name": "StatefulPartitionedCall/GEN/8c/strided_slice/stack", "op": "Const", "attr": {"dtype": {"type": "DT_INT32"}, "value": {"tensor": {"dtype": "DT_INT32", "tensorShape": {"dim": [{"size": "1"}]}}}}}, {"name": "StatefulPartitionedCall/GEN/8c/strided_slice/stack_1", "op": "Const", "attr": {"dtype": {"type": "DT_INT32"}, "value": {"tensor": {"dtype": "DT_INT32", "tensorShape": {"dim": [{"size": "1"}]}}}}}, {"name": "StatefulPartitionedCall/GEN/8c/strided_slice/stack_2", "op": "Const", "attr": {"value": {"tensor": {"dtype": "DT_INT32", "tensorShape": {"dim": [{"size": "1"}]}}}, "dtype": {"type": "DT_INT32"}}}, {"name": "StatefulPartitionedCall/GEN/8c/stack/1", "op": "Const", "attr": {"dtype": {"type": "DT_INT32"}, "value": {"tensor": {"dtype": "DT_INT32", "tensorShape": {}}}}}, {"name": "StatefulPartitionedCall/GEN/8c/stack/2", "op": "Const", "attr": {"value": {"tensor": {"dtype": "DT_INT32", "tensorShape": {}}}, "dtype": {"type": "DT_INT32"}}}, {"name": "StatefulPartitionedCall/GEN/8c/stack/3", "op": "Const", "attr": {"dtype": {"type": "DT_INT32"}, "value": {"tensor": {"dtype": "DT_INT32", "tensorShape": {}}}}}, {"name": "StatefulPartitionedCall/GEN/8c/conv2d_transpose/Cast", "op": "Const", "attr": {"value": {"tensor": {"dtype": "DT_HALF", "tensorShape": {"dim": [{"size": "1"}, {"size": "4"}, {"size": "256"}, {"size": "384"}]}}}, "dtype": {"type": "DT_HALF"}}}, {"name": "unknown_57", "op": "Const", "attr": {"dtype": {"type": "DT_HALF"}, "value": {"tensor": {"dtype": "DT_HALF", "tensorShape": {}}}}}, {"name": "StatefulPartitionedCall/GEN/7r/Cast", "op": "Const", "attr": {"value": {"tensor": {"dtype": "DT_HALF", "tensorShape": {"dim": [{"size": "1"}]}}}, "dtype": {"type": "DT_HALF"}}}, {"name": "StatefulPartitionedCall/GEN/6r/Cast", "op": "Const", "attr": {"dtype": {"type": "DT_HALF"}, "value": {"tensor": {"dtype": "DT_HALF", "tensorShape": {"dim": [{"size": "1"}]}}}}}, {"name": "StatefulPartitionedCall/GEN/6c/strided_slice/stack", "op": "Const", "attr": {"dtype": {"type": "DT_INT32"}, "value": {"tensor": {"dtype": "DT_INT32", "tensorShape": {"dim": [{"size": "1"}]}}}}}, {"name": "StatefulPartitionedCall/GEN/6c/strided_slice/stack_1", "op": "Const", "attr": {"dtype": {"type": "DT_INT32"}, "value": {"tensor": {"dtype": "DT_INT32", "tensorShape": {"dim": [{"size": "1"}]}}}}}, {"name": "StatefulPartitionedCall/GEN/6c/strided_slice/stack_2", "op": "Const", "attr": {"value": {"tensor": {"dtype": "DT_INT32", "tensorShape": {"dim": [{"size": "1"}]}}}, "dtype": {"type": "DT_INT32"}}}, {"name": "StatefulPartitionedCall/GEN/6c/stack/1", "op": "Const", "attr": {"dtype": {"type": "DT_INT32"}, "value": {"tensor": {"dtype": "DT_INT32", "tensorShape": {}}}}}, {"name": "StatefulPartitionedCall/GEN/6c/stack/2", "op": "Const", "attr": {"dtype": {"type": "DT_INT32"}, "value": {"tensor": {"dtype": "DT_INT32", "tensorShape": {}}}}}, {"name": "StatefulPartitionedCall/GEN/6c/stack/3", "op": "Const", "attr": {"dtype": {"type": "DT_INT32"}, "value": {"tensor": {"dtype": "DT_INT32", "tensorShape": {}}}}}, {"name": "StatefulPartitionedCall/GEN/6c/conv2d_transpose/Cast", "op": "Const", "attr": {"value": {"tensor": {"dtype": "DT_HALF", "tensorShape": {"dim": [{"size": "1"}, {"size": "4"}, {"size": "384"}, {"size": "512"}]}}}, "dtype": {"type": "DT_HALF"}}}, {"name": "StatefulPartitionedCall/GEN/6c/BiasAdd/Cast", "op": "Const", "attr": {"dtype": {"type": "DT_HALF"}, "value": {"tensor": {"dtype": "DT_HALF", "tensorShape": {"dim": [{"size": "384"}]}}}}}, {"name": "StatefulPartitionedCall/GEN/6r/strided_slice/stack", "op": "Const", "attr": {"value": {"tensor": {"dtype": "DT_INT32", "tensorShape": {"dim": [{"size": "1"}]}}}, "dtype": {"type": "DT_INT32"}}}, {"name": "StatefulPartitionedCall/GEN/6r/strided_slice/stack_1", "op": "Const", "attr": {"dtype": {"type": "DT_INT32"}, "value": {"tensor": {"dtype": "DT_INT32", "tensorShape": {"dim": [{"size": "1"}]}}}}}, {"name": "StatefulPartitionedCall/GEN/6r/strided_slice/stack_2", "op": "Const", "attr": {"dtype": {"type": "DT_INT32"}, "value": {"tensor": {"dtype": "DT_INT32", "tensorShape": {"dim": [{"size": "1"}]}}}}}, {"name": "StatefulPartitionedCall/GEN/6r/random_normal/shape/1", "op": "Const", "attr": {"dtype": {"type": "DT_INT32"}, "value": {"tensor": {"dtype": "DT_INT32", "tensorShape": {}}}}}, {"name": "StatefulPartitionedCall/GEN/6r/random_normal/shape/2", "op": "Const", "attr": {"value": {"tensor": {"dtype": "DT_INT32", "tensorShape": {}}}, "dtype": {"type": "DT_INT32"}}}, {"name": "StatefulPartitionedCall/GEN/6r/random_normal/shape/3", "op": "Const", "attr": {"value": {"tensor": {"dtype": "DT_INT32", "tensorShape": {}}}, "dtype": {"type": "DT_INT32"}}}, {"name": "StatefulPartitionedCall/GEN/tf.math.reduce_std_17/reduce_std/reduce_variance/Mean/reduction_indices", "op": "Const", "attr": {"dtype": {"type": "DT_INT32"}, "value": {"tensor": {"dtype": "DT_INT32", "tensorShape": {}}}}}, {"name": "StatefulPartitionedCall/GEN/tf.math.reduce_std_17/reduce_std/reduce_variance/Mean_1/reduction_indices", "op": "Const", "attr": {"value": {"tensor": {"dtype": "DT_INT32", "tensorShape": {}}}, "dtype": {"type": "DT_INT32"}}}, {"name": "StatefulPartitionedCall/GEN/tf.__operators__.add_34/y", "op": "Const", "attr": {"dtype": {"type": "DT_HALF"}, "value": {"tensor": {"dtype": "DT_HALF", "tensorShape": {}}}}}, {"name": "StatefulPartitionedCall/GEN/6ai/Conv2D/Cast", "op": "Const", "attr": {"dtype": {"type": "DT_HALF"}, "value": {"tensor": {"dtype": "DT_HALF", "tensorShape": {"dim": [{"size": "1"}, {"size": "1"}, {"size": "128"}, {"size": "384"}]}}}}}, {"name": "StatefulPartitionedCall/GEN/6ai/BiasAdd/Cast", "op": "Const", "attr": {"value": {"tensor": {"dtype": "DT_HALF", "tensorShape": {"dim": [{"size": "384"}]}}}, "dtype": {"type": "DT_HALF"}}}, {"name": "StatefulPartitionedCall/GEN/7c/Conv2D/ArithmeticOptimizer/FoldMultiplyIntoConv_scaled_StatefulPartitionedCall/GEN/7c/Conv2D_Cast", "op": "Const", "attr": {"value": {"tensor": {"dtype": "DT_HALF", "tensorShape": {"dim": [{"size": "1"}, {"size": "4"}, {"size": "384"}, {"size": "384"}]}}}, "dtype": {"type": "DT_HALF"}}}, {"name": "StatefulPartitionedCall/GEN/7c/BiasAdd/Cast", "op": "Const", "attr": {"dtype": {"type": "DT_HALF"}, "value": {"tensor": {"dtype": "DT_HALF", "tensorShape": {"dim": [{"size": "384"}]}}}}}, {"name": "StatefulPartitionedCall/GEN/7r/strided_slice/stack", "op": "Const", "attr": {"value": {"tensor": {"dtype": "DT_INT32", "tensorShape": {"dim": [{"size": "1"}]}}}, "dtype": {"type": "DT_INT32"}}}, {"name": "StatefulPartitionedCall/GEN/7r/strided_slice/stack_1", "op": "Const", "attr": {"value": {"tensor": {"dtype": "DT_INT32", "tensorShape": {"dim": [{"size": "1"}]}}}, "dtype": {"type": "DT_INT32"}}}, {"name": "StatefulPartitionedCall/GEN/7r/strided_slice/stack_2", "op": "Const", "attr": {"dtype": {"type": "DT_INT32"}, "value": {"tensor": {"dtype": "DT_INT32", "tensorShape": {"dim": [{"size": "1"}]}}}}}, {"name": "StatefulPartitionedCall/GEN/7r/random_normal/shape/1", "op": "Const", "attr": {"dtype": {"type": "DT_INT32"}, "value": {"tensor": {"dtype": "DT_INT32", "tensorShape": {}}}}}, {"name": "StatefulPartitionedCall/GEN/7r/random_normal/shape/2", "op": "Const", "attr": {"value": {"tensor": {"dtype": "DT_INT32", "tensorShape": {}}}, "dtype": {"type": "DT_INT32"}}}, {"name": "StatefulPartitionedCall/GEN/7r/random_normal/shape/3", "op": "Const", "attr": {"value": {"tensor": {"dtype": "DT_INT32", "tensorShape": {}}}, "dtype": {"type": "DT_INT32"}}}, {"name": "StatefulPartitionedCall/GEN/tf.math.reduce_std_18/reduce_std/reduce_variance/Mean/reduction_indices", "op": "Const", "attr": {"value": {"tensor": {"dtype": "DT_INT32", "tensorShape": {}}}, "dtype": {"type": "DT_INT32"}}}, {"name": "StatefulPartitionedCall/GEN/tf.math.reduce_std_18/reduce_std/reduce_variance/Mean_1/reduction_indices", "op": "Const", "attr": {"value": {"tensor": {"dtype": "DT_INT32", "tensorShape": {}}}, "dtype": {"type": "DT_INT32"}}}, {"name": "StatefulPartitionedCall/GEN/tf.__operators__.add_35/y", "op": "Const", "attr": {"value": {"tensor": {"dtype": "DT_HALF", "tensorShape": {}}}, "dtype": {"type": "DT_HALF"}}}, {"name": "StatefulPartitionedCall/GEN/7ai/Conv2D/Cast", "op": "Const", "attr": {"dtype": {"type": "DT_HALF"}, "value": {"tensor": {"dtype": "DT_HALF", "tensorShape": {"dim": [{"size": "1"}, {"size": "1"}, {"size": "128"}, {"size": "384"}]}}}}}, {"name": "StatefulPartitionedCall/GEN/7ai/BiasAdd/Cast", "op": "Const", "attr": {"value": {"tensor": {"dtype": "DT_HALF", "tensorShape": {"dim": [{"size": "384"}]}}}, "dtype": {"type": "DT_HALF"}}}, {"name": "StatefulPartitionedCall/GEN/tf.reshape_14/Reshape/shape/1", "op": "Const", "attr": {"value": {"tensor": {"dtype": "DT_INT32", "tensorShape": {}}}, "dtype": {"type": "DT_INT32"}}}, {"name": "StatefulPartitionedCall/GEN/tf.reshape_14/Reshape/shape/2", "op": "Const", "attr": {"dtype": {"type": "DT_INT32"}, "value": {"tensor": {"dtype": "DT_INT32", "tensorShape": {}}}}}, {"name": "StatefulPartitionedCall/GEN/tf.reshape_14/Reshape/shape/3", "op": "Const", "attr": {"value": {"tensor": {"dtype": "DT_INT32", "tensorShape": {}}}, "dtype": {"type": "DT_INT32"}}}, {"name": "StatefulPartitionedCall/GEN/tf.reshape_14/Reshape/shape/4", "op": "Const", "attr": {"value": {"tensor": {"dtype": "DT_INT32", "tensorShape": {}}}, "dtype": {"type": "DT_INT32"}}}, {"name": "StatefulPartitionedCall/GEN/tf.compat.v1.transpose_10/transpose/perm", "op": "Const", "attr": {"value": {"tensor": {"dtype": "DT_INT32", "tensorShape": {"dim": [{"size": "5"}]}}}, "dtype": {"type": "DT_INT32"}}}, {"name": "unknown_43", "op": "Const", "attr": {"dtype": {"type": "DT_HALF"}, "value": {"tensor": {"dtype": "DT_HALF", "tensorShape": {}}}}}, {"name": "StatefulPartitionedCall/GEN/5r/Cast", "op": "Const", "attr": {"dtype": {"type": "DT_HALF"}, "value": {"tensor": {"dtype": "DT_HALF", "tensorShape": {"dim": [{"size": "1"}]}}}}}, {"name": "StatefulPartitionedCall/GEN/4r/Cast", "op": "Const", "attr": {"value": {"tensor": {"dtype": "DT_HALF", "tensorShape": {"dim": [{"size": "1"}]}}}, "dtype": {"type": "DT_HALF"}}}, {"name": "StatefulPartitionedCall/GEN/4c/strided_slice/stack", "op": "Const", "attr": {"value": {"tensor": {"dtype": "DT_INT32", "tensorShape": {"dim": [{"size": "1"}]}}}, "dtype": {"type": "DT_INT32"}}}, {"name": "StatefulPartitionedCall/GEN/4c/strided_slice/stack_1", "op": "Const", "attr": {"dtype": {"type": "DT_INT32"}, "value": {"tensor": {"dtype": "DT_INT32", "tensorShape": {"dim": [{"size": "1"}]}}}}}, {"name": "StatefulPartitionedCall/GEN/4c/strided_slice/stack_2", "op": "Const", "attr": {"dtype": {"type": "DT_INT32"}, "value": {"tensor": {"dtype": "DT_INT32", "tensorShape": {"dim": [{"size": "1"}]}}}}}, {"name": "StatefulPartitionedCall/GEN/4c/stack/1", "op": "Const", "attr": {"value": {"tensor": {"dtype": "DT_INT32", "tensorShape": {}}}, "dtype": {"type": "DT_INT32"}}}, {"name": "StatefulPartitionedCall/GEN/4c/stack/2", "op": "Const", "attr": {"value": {"tensor": {"dtype": "DT_INT32", "tensorShape": {}}}, "dtype": {"type": "DT_INT32"}}}, {"name": "StatefulPartitionedCall/GEN/4c/stack/3", "op": "Const", "attr": {"value": {"tensor": {"dtype": "DT_INT32", "tensorShape": {}}}, "dtype": {"type": "DT_INT32"}}}, {"name": "StatefulPartitionedCall/GEN/4c/conv2d_transpose/Cast", "op": "Const", "attr": {"dtype": {"type": "DT_HALF"}, "value": {"tensor": {"dtype": "DT_HALF", "tensorShape": {"dim": [{"size": "1"}, {"size": "4"}, {"size": "512"}, {"size": "640"}]}}}}}, {"name": "StatefulPartitionedCall/GEN/4c/BiasAdd/Cast", "op": "Const", "attr": {"dtype": {"type": "DT_HALF"}, "value": {"tensor": {"dtype": "DT_HALF", "tensorShape": {"dim": [{"size": "512"}]}}}}}, {"name": "StatefulPartitionedCall/GEN/4r/strided_slice/stack", "op": "Const", "attr": {"value": {"tensor": {"dtype": "DT_INT32", "tensorShape": {"dim": [{"size": "1"}]}}}, "dtype": {"type": "DT_INT32"}}}, {"name": "StatefulPartitionedCall/GEN/4r/strided_slice/stack_1", "op": "Const", "attr": {"dtype": {"type": "DT_INT32"}, "value": {"tensor": {"dtype": "DT_INT32", "tensorShape": {"dim": [{"size": "1"}]}}}}}, {"name": "StatefulPartitionedCall/GEN/4r/strided_slice/stack_2", "op": "Const", "attr": {"value": {"tensor": {"dtype": "DT_INT32", "tensorShape": {"dim": [{"size": "1"}]}}}, "dtype": {"type": "DT_INT32"}}}, {"name": "StatefulPartitionedCall/GEN/4r/random_normal/shape/1", "op": "Const", "attr": {"dtype": {"type": "DT_INT32"}, "value": {"tensor": {"dtype": "DT_INT32", "tensorShape": {}}}}}, {"name": "StatefulPartitionedCall/GEN/4r/random_normal/shape/2", "op": "Const", "attr": {"value": {"tensor": {"dtype": "DT_INT32", "tensorShape": {}}}, "dtype": {"type": "DT_INT32"}}}, {"name": "StatefulPartitionedCall/GEN/4r/random_normal/shape/3", "op": "Const", "attr": {"value": {"tensor": {"dtype": "DT_INT32", "tensorShape": {}}}, "dtype": {"type": "DT_INT32"}}}, {"name": "StatefulPartitionedCall/GEN/tf.math.reduce_std_15/reduce_std/reduce_variance/Mean/reduction_indices", "op": "Const", "attr": {"value": {"tensor": {"dtype": "DT_INT32", "tensorShape": {}}}, "dtype": {"type": "DT_INT32"}}}, {"name": "StatefulPartitionedCall/GEN/tf.math.reduce_std_15/reduce_std/reduce_variance/Mean_1/reduction_indices", "op": "Const", "attr": {"value": {"tensor": {"dtype": "DT_INT32", "tensorShape": {}}}, "dtype": {"type": "DT_INT32"}}}, {"name": "StatefulPartitionedCall/GEN/tf.__operators__.add_31/y", "op": "Const", "attr": {"dtype": {"type": "DT_HALF"}, "value": {"tensor": {"dtype": "DT_HALF", "tensorShape": {}}}}}, {"name": "StatefulPartitionedCall/GEN/4ai/Conv2D/Cast", "op": "Const", "attr": {"dtype": {"type": "DT_HALF"}, "value": {"tensor": {"dtype": "DT_HALF", "tensorShape": {"dim": [{"size": "1"}, {"size": "1"}, {"size": "128"}, {"size": "512"}]}}}}}, {"name": "StatefulPartitionedCall/GEN/4ai/BiasAdd/Cast", "op": "Const", "attr": {"dtype": {"type": "DT_HALF"}, "value": {"tensor": {"dtype": "DT_HALF", "tensorShape": {"dim": [{"size": "512"}]}}}}}, {"name": "StatefulPartitionedCall/GEN/5c/Conv2D/ArithmeticOptimizer/FoldMultiplyIntoConv_scaled_StatefulPartitionedCall/GEN/5c/Conv2D_Cast", "op": "Const", "attr": {"dtype": {"type": "DT_HALF"}, "value": {"tensor": {"dtype": "DT_HALF", "tensorShape": {"dim": [{"size": "1"}, {"size": "4"}, {"size": "512"}, {"size": "512"}]}}}}}, {"name": "StatefulPartitionedCall/GEN/5c/BiasAdd/Cast", "op": "Const", "attr": {"value": {"tensor": {"dtype": "DT_HALF", "tensorShape": {"dim": [{"size": "512"}]}}}, "dtype": {"type": "DT_HALF"}}}, {"name": "StatefulPartitionedCall/GEN/5r/strided_slice/stack", "op": "Const", "attr": {"value": {"tensor": {"dtype": "DT_INT32", "tensorShape": {"dim": [{"size": "1"}]}}}, "dtype": {"type": "DT_INT32"}}}, {"name": "StatefulPartitionedCall/GEN/5r/strided_slice/stack_1", "op": "Const", "attr": {"dtype": {"type": "DT_INT32"}, "value": {"tensor": {"dtype": "DT_INT32", "tensorShape": {"dim": [{"size": "1"}]}}}}}, {"name": "StatefulPartitionedCall/GEN/5r/strided_slice/stack_2", "op": "Const", "attr": {"value": {"tensor": {"dtype": "DT_INT32", "tensorShape": {"dim": [{"size": "1"}]}}}, "dtype": {"type": "DT_INT32"}}}, {"name": "StatefulPartitionedCall/GEN/5r/random_normal/shape/1", "op": "Const", "attr": {"dtype": {"type": "DT_INT32"}, "value": {"tensor": {"dtype": "DT_INT32", "tensorShape": {}}}}}, {"name": "StatefulPartitionedCall/GEN/5r/random_normal/shape/2", "op": "Const", "attr": {"dtype": {"type": "DT_INT32"}, "value": {"tensor": {"dtype": "DT_INT32", "tensorShape": {}}}}}, {"name": "StatefulPartitionedCall/GEN/5r/random_normal/shape/3", "op": "Const", "attr": {"value": {"tensor": {"dtype": "DT_INT32", "tensorShape": {}}}, "dtype": {"type": "DT_INT32"}}}, {"name": "StatefulPartitionedCall/GEN/tf.math.reduce_std_16/reduce_std/reduce_variance/Mean/reduction_indices", "op": "Const", "attr": {"value": {"tensor": {"dtype": "DT_INT32", "tensorShape": {}}}, "dtype": {"type": "DT_INT32"}}}, {"name": "StatefulPartitionedCall/GEN/tf.math.reduce_std_16/reduce_std/reduce_variance/Mean_1/reduction_indices", "op": "Const", "attr": {"dtype": {"type": "DT_INT32"}, "value": {"tensor": {"dtype": "DT_INT32", "tensorShape": {}}}}}, {"name": "StatefulPartitionedCall/GEN/tf.__operators__.add_32/y", "op": "Const", "attr": {"dtype": {"type": "DT_HALF"}, "value": {"tensor": {"dtype": "DT_HALF", "tensorShape": {}}}}}, {"name": "StatefulPartitionedCall/GEN/5ai/Conv2D/Cast", "op": "Const", "attr": {"dtype": {"type": "DT_HALF"}, "value": {"tensor": {"dtype": "DT_HALF", "tensorShape": {"dim": [{"size": "1"}, {"size": "1"}, {"size": "128"}, {"size": "512"}]}}}}}, {"name": "StatefulPartitionedCall/GEN/5ai/BiasAdd/Cast", "op": "Const", "attr": {"dtype": {"type": "DT_HALF"}, "value": {"tensor": {"dtype": "DT_HALF", "tensorShape": {"dim": [{"size": "512"}]}}}}}, {"name": "StatefulPartitionedCall/GEN/tf.reshape_12/Reshape/shape/1", "op": "Const", "attr": {"dtype": {"type": "DT_INT32"}, "value": {"tensor": {"dtype": "DT_INT32", "tensorShape": {}}}}}, {"name": "StatefulPartitionedCall/GEN/tf.reshape_12/Reshape/shape/2", "op": "Const", "attr": {"value": {"tensor": {"dtype": "DT_INT32", "tensorShape": {}}}, "dtype": {"type": "DT_INT32"}}}, {"name": "StatefulPartitionedCall/GEN/tf.reshape_12/Reshape/shape/3", "op": "Const", "attr": {"value": {"tensor": {"dtype": "DT_INT32", "tensorShape": {}}}, "dtype": {"type": "DT_INT32"}}}, {"name": "StatefulPartitionedCall/GEN/tf.reshape_12/Reshape/shape/4", "op": "Const", "attr": {"dtype": {"type": "DT_INT32"}, "value": {"tensor": {"dtype": "DT_INT32", "tensorShape": {}}}}}, {"name": "StatefulPartitionedCall/GEN/tf.compat.v1.transpose_9/transpose/perm", "op": "Const", "attr": {"value": {"tensor": {"dtype": "DT_INT32", "tensorShape": {"dim": [{"size": "5"}]}}}, "dtype": {"type": "DT_INT32"}}}, {"name": "unknown_29", "op": "Const", "attr": {"value": {"tensor": {"dtype": "DT_HALF", "tensorShape": {}}}, "dtype": {"type": "DT_HALF"}}}, {"name": "StatefulPartitionedCall/GEN/3r/Cast", "op": "Const", "attr": {"dtype": {"type": "DT_HALF"}, "value": {"tensor": {"dtype": "DT_HALF", "tensorShape": {"dim": [{"size": "1"}]}}}}}, {"name": "StatefulPartitionedCall/GEN/2r/Cast", "op": "Const", "attr": {"dtype": {"type": "DT_HALF"}, "value": {"tensor": {"dtype": "DT_HALF", "tensorShape": {"dim": [{"size": "1"}]}}}}}, {"name": "StatefulPartitionedCall/GEN/2c/strided_slice/stack", "op": "Const", "attr": {"value": {"tensor": {"dtype": "DT_INT32", "tensorShape": {"dim": [{"size": "1"}]}}}, "dtype": {"type": "DT_INT32"}}}, {"name": "StatefulPartitionedCall/GEN/2c/strided_slice/stack_1", "op": "Const", "attr": {"dtype": {"type": "DT_INT32"}, "value": {"tensor": {"dtype": "DT_INT32", "tensorShape": {"dim": [{"size": "1"}]}}}}}, {"name": "StatefulPartitionedCall/GEN/2c/strided_slice/stack_2", "op": "Const", "attr": {"value": {"tensor": {"dtype": "DT_INT32", "tensorShape": {"dim": [{"size": "1"}]}}}, "dtype": {"type": "DT_INT32"}}}, {"name": "StatefulPartitionedCall/GEN/2c/stack/1", "op": "Const", "attr": {"dtype": {"type": "DT_INT32"}, "value": {"tensor": {"dtype": "DT_INT32", "tensorShape": {}}}}}, {"name": "StatefulPartitionedCall/GEN/2c/stack/2", "op": "Const", "attr": {"value": {"tensor": {"dtype": "DT_INT32", "tensorShape": {}}}, "dtype": {"type": "DT_INT32"}}}, {"name": "StatefulPartitionedCall/GEN/2c/stack/3", "op": "Const", "attr": {"dtype": {"type": "DT_INT32"}, "value": {"tensor": {"dtype": "DT_INT32", "tensorShape": {}}}}}, {"name": "StatefulPartitionedCall/GEN/2c/conv2d_transpose/Cast", "op": "Const", "attr": {"dtype": {"type": "DT_HALF"}, "value": {"tensor": {"dtype": "DT_HALF", "tensorShape": {"dim": [{"size": "1"}, {"size": "4"}, {"size": "640"}, {"size": "768"}]}}}}}, {"name": "StatefulPartitionedCall/GEN/2c/BiasAdd/Cast", "op": "Const", "attr": {"value": {"tensor": {"dtype": "DT_HALF", "tensorShape": {"dim": [{"size": "640"}]}}}, "dtype": {"type": "DT_HALF"}}}, {"name": "StatefulPartitionedCall/GEN/2r/strided_slice/stack", "op": "Const", "attr": {"value": {"tensor": {"dtype": "DT_INT32", "tensorShape": {"dim": [{"size": "1"}]}}}, "dtype": {"type": "DT_INT32"}}}, {"name": "StatefulPartitionedCall/GEN/2r/strided_slice/stack_1", "op": "Const", "attr": {"dtype": {"type": "DT_INT32"}, "value": {"tensor": {"dtype": "DT_INT32", "tensorShape": {"dim": [{"size": "1"}]}}}}}, {"name": "StatefulPartitionedCall/GEN/2r/strided_slice/stack_2", "op": "Const", "attr": {"value": {"tensor": {"dtype": "DT_INT32", "tensorShape": {"dim": [{"size": "1"}]}}}, "dtype": {"type": "DT_INT32"}}}, {"name": "StatefulPartitionedCall/GEN/2r/random_normal/shape/1", "op": "Const", "attr": {"value": {"tensor": {"dtype": "DT_INT32", "tensorShape": {}}}, "dtype": {"type": "DT_INT32"}}}, {"name": "StatefulPartitionedCall/GEN/2r/random_normal/shape/2", "op": "Const", "attr": {"dtype": {"type": "DT_INT32"}, "value": {"tensor": {"dtype": "DT_INT32", "tensorShape": {}}}}}, {"name": "StatefulPartitionedCall/GEN/2r/random_normal/shape/3", "op": "Const", "attr": {"dtype": {"type": "DT_INT32"}, "value": {"tensor": {"dtype": "DT_INT32", "tensorShape": {}}}}}, {"name": "StatefulPartitionedCall/GEN/tf.math.reduce_std_13/reduce_std/reduce_variance/Mean/reduction_indices", "op": "Const", "attr": {"dtype": {"type": "DT_INT32"}, "value": {"tensor": {"dtype": "DT_INT32", "tensorShape": {}}}}}, {"name": "StatefulPartitionedCall/GEN/tf.math.reduce_std_13/reduce_std/reduce_variance/Mean_1/reduction_indices", "op": "Const", "attr": {"value": {"tensor": {"dtype": "DT_INT32", "tensorShape": {}}}, "dtype": {"type": "DT_INT32"}}}, {"name": "StatefulPartitionedCall/GEN/tf.__operators__.add_28/y", "op": "Const", "attr": {"dtype": {"type": "DT_HALF"}, "value": {"tensor": {"dtype": "DT_HALF", "tensorShape": {}}}}}, {"name": "StatefulPartitionedCall/GEN/2ai/Conv2D/Cast", "op": "Const", "attr": {"value": {"tensor": {"dtype": "DT_HALF", "tensorShape": {"dim": [{"size": "1"}, {"size": "1"}, {"size": "128"}, {"size": "640"}]}}}, "dtype": {"type": "DT_HALF"}}}, {"name": "StatefulPartitionedCall/GEN/2ai/BiasAdd/Cast", "op": "Const", "attr": {"value": {"tensor": {"dtype": "DT_HALF", "tensorShape": {"dim": [{"size": "640"}]}}}, "dtype": {"type": "DT_HALF"}}}, {"name": "StatefulPartitionedCall/GEN/3c/Conv2D/ArithmeticOptimizer/FoldMultiplyIntoConv_scaled_StatefulPartitionedCall/GEN/3c/Conv2D_Cast", "op": "Const", "attr": {"value": {"tensor": {"dtype": "DT_HALF", "tensorShape": {"dim": [{"size": "1"}, {"size": "4"}, {"size": "640"}, {"size": "640"}]}}}, "dtype": {"type": "DT_HALF"}}}, {"name": "StatefulPartitionedCall/GEN/3c/BiasAdd/Cast", "op": "Const", "attr": {"value": {"tensor": {"dtype": "DT_HALF", "tensorShape": {"dim": [{"size": "640"}]}}}, "dtype": {"type": "DT_HALF"}}}, {"name": "StatefulPartitionedCall/GEN/3r/strided_slice/stack", "op": "Const", "attr": {"dtype": {"type": "DT_INT32"}, "value": {"tensor": {"dtype": "DT_INT32", "tensorShape": {"dim": [{"size": "1"}]}}}}}, {"name": "StatefulPartitionedCall/GEN/3r/strided_slice/stack_1", "op": "Const", "attr": {"dtype": {"type": "DT_INT32"}, "value": {"tensor": {"dtype": "DT_INT32", "tensorShape": {"dim": [{"size": "1"}]}}}}}, {"name": "StatefulPartitionedCall/GEN/3r/strided_slice/stack_2", "op": "Const", "attr": {"value": {"tensor": {"dtype": "DT_INT32", "tensorShape": {"dim": [{"size": "1"}]}}}, "dtype": {"type": "DT_INT32"}}}, {"name": "StatefulPartitionedCall/GEN/3r/random_normal/shape/1", "op": "Const", "attr": {"value": {"tensor": {"dtype": "DT_INT32", "tensorShape": {}}}, "dtype": {"type": "DT_INT32"}}}, {"name": "StatefulPartitionedCall/GEN/3r/random_normal/shape/2", "op": "Const", "attr": {"dtype": {"type": "DT_INT32"}, "value": {"tensor": {"dtype": "DT_INT32", "tensorShape": {}}}}}, {"name": "StatefulPartitionedCall/GEN/3r/random_normal/shape/3", "op": "Const", "attr": {"dtype": {"type": "DT_INT32"}, "value": {"tensor": {"dtype": "DT_INT32", "tensorShape": {}}}}}, {"name": "StatefulPartitionedCall/GEN/tf.math.reduce_std_14/reduce_std/reduce_variance/Mean/reduction_indices", "op": "Const", "attr": {"dtype": {"type": "DT_INT32"}, "value": {"tensor": {"dtype": "DT_INT32", "tensorShape": {}}}}}, {"name": "StatefulPartitionedCall/GEN/tf.math.reduce_std_14/reduce_std/reduce_variance/Mean_1/reduction_indices", "op": "Const", "attr": {"value": {"tensor": {"dtype": "DT_INT32", "tensorShape": {}}}, "dtype": {"type": "DT_INT32"}}}, {"name": "StatefulPartitionedCall/GEN/tf.__operators__.add_29/y", "op": "Const", "attr": {"value": {"tensor": {"dtype": "DT_HALF", "tensorShape": {}}}, "dtype": {"type": "DT_HALF"}}}, {"name": "StatefulPartitionedCall/GEN/3ai/Conv2D/Cast", "op": "Const", "attr": {"value": {"tensor": {"dtype": "DT_HALF", "tensorShape": {"dim": [{"size": "1"}, {"size": "1"}, {"size": "128"}, {"size": "640"}]}}}, "dtype": {"type": "DT_HALF"}}}, {"name": "StatefulPartitionedCall/GEN/3ai/BiasAdd/Cast", "op": "Const", "attr": {"dtype": {"type": "DT_HALF"}, "value": {"tensor": {"dtype": "DT_HALF", "tensorShape": {"dim": [{"size": "640"}]}}}}}, {"name": "StatefulPartitionedCall/GEN/tf.reshape_10/Reshape/shape/1", "op": "Const", "attr": {"value": {"tensor": {"dtype": "DT_INT32", "tensorShape": {}}}, "dtype": {"type": "DT_INT32"}}}, {"name": "StatefulPartitionedCall/GEN/tf.reshape_10/Reshape/shape/2", "op": "Const", "attr": {"value": {"tensor": {"dtype": "DT_INT32", "tensorShape": {}}}, "dtype": {"type": "DT_INT32"}}}, {"name": "StatefulPartitionedCall/GEN/tf.reshape_10/Reshape/shape/3", "op": "Const", "attr": {"value": {"tensor": {"dtype": "DT_INT32", "tensorShape": {}}}, "dtype": {"type": "DT_INT32"}}}, {"name": "StatefulPartitionedCall/GEN/tf.reshape_10/Reshape/shape/4", "op": "Const", "attr": {"dtype": {"type": "DT_INT32"}, "value": {"tensor": {"dtype": "DT_INT32", "tensorShape": {}}}}}, {"name": "StatefulPartitionedCall/GEN/tf.compat.v1.transpose_8/transpose/perm", "op": "Const", "attr": {"value": {"tensor": {"dtype": "DT_INT32", "tensorShape": {"dim": [{"size": "5"}]}}}, "dtype": {"type": "DT_INT32"}}}, {"name": "unknown_15", "op": "Const", "attr": {"dtype": {"type": "DT_HALF"}, "value": {"tensor": {"dtype": "DT_HALF", "tensorShape": {}}}}}, {"name": "StatefulPartitionedCall/GEN/1r/Cast", "op": "Const", "attr": {"value": {"tensor": {"dtype": "DT_HALF", "tensorShape": {"dim": [{"size": "1"}]}}}, "dtype": {"type": "DT_HALF"}}}, {"name": "StatefulPartitionedCall/GEN/0r/Cast", "op": "Const", "attr": {"dtype": {"type": "DT_HALF"}, "value": {"tensor": {"dtype": "DT_HALF", "tensorShape": {"dim": [{"size": "1"}]}}}}}, {"name": "StatefulPartitionedCall/GEN/0c/strided_slice/stack", "op": "Const", "attr": {"dtype": {"type": "DT_INT32"}, "value": {"tensor": {"dtype": "DT_INT32", "tensorShape": {"dim": [{"size": "1"}]}}}}}, {"name": "StatefulPartitionedCall/GEN/0c/strided_slice/stack_1", "op": "Const", "attr": {"dtype": {"type": "DT_INT32"}, "value": {"tensor": {"dtype": "DT_INT32", "tensorShape": {"dim": [{"size": "1"}]}}}}}, {"name": "StatefulPartitionedCall/GEN/0c/strided_slice/stack_2", "op": "Const", "attr": {"value": {"tensor": {"dtype": "DT_INT32", "tensorShape": {"dim": [{"size": "1"}]}}}, "dtype": {"type": "DT_INT32"}}}, {"name": "StatefulPartitionedCall/GEN/0c/stack/1", "op": "Const", "attr": {"dtype": {"type": "DT_INT32"}, "value": {"tensor": {"dtype": "DT_INT32", "tensorShape": {}}}}}, {"name": "StatefulPartitionedCall/GEN/0c/stack/2", "op": "Const", "attr": {"dtype": {"type": "DT_INT32"}, "value": {"tensor": {"dtype": "DT_INT32", "tensorShape": {}}}}}, {"name": "StatefulPartitionedCall/GEN/0c/stack/3", "op": "Const", "attr": {"value": {"tensor": {"dtype": "DT_INT32", "tensorShape": {}}}, "dtype": {"type": "DT_INT32"}}}, {"name": "StatefulPartitionedCall/GEN/0c/conv2d_transpose/Cast", "op": "Const", "attr": {"value": {"tensor": {"dtype": "DT_HALF", "tensorShape": {"dim": [{"size": "1"}, {"size": "4"}, {"size": "768"}, {"size": "896"}]}}}, "dtype": {"type": "DT_HALF"}}}, {"name": "StatefulPartitionedCall/GEN/0c/BiasAdd/Cast", "op": "Const", "attr": {"value": {"tensor": {"dtype": "DT_HALF", "tensorShape": {"dim": [{"size": "768"}]}}}, "dtype": {"type": "DT_HALF"}}}, {"name": "StatefulPartitionedCall/GEN/0r/strided_slice/stack", "op": "Const", "attr": {"value": {"tensor": {"dtype": "DT_INT32", "tensorShape": {"dim": [{"size": "1"}]}}}, "dtype": {"type": "DT_INT32"}}}, {"name": "StatefulPartitionedCall/GEN/0r/strided_slice/stack_1", "op": "Const", "attr": {"value": {"tensor": {"dtype": "DT_INT32", "tensorShape": {"dim": [{"size": "1"}]}}}, "dtype": {"type": "DT_INT32"}}}, {"name": "StatefulPartitionedCall/GEN/0r/strided_slice/stack_2", "op": "Const", "attr": {"value": {"tensor": {"dtype": "DT_INT32", "tensorShape": {"dim": [{"size": "1"}]}}}, "dtype": {"type": "DT_INT32"}}}, {"name": "StatefulPartitionedCall/GEN/0r/random_normal/shape/1", "op": "Const", "attr": {"dtype": {"type": "DT_INT32"}, "value": {"tensor": {"dtype": "DT_INT32", "tensorShape": {}}}}}, {"name": "StatefulPartitionedCall/GEN/0r/random_normal/shape/2", "op": "Const", "attr": {"value": {"tensor": {"dtype": "DT_INT32", "tensorShape": {}}}, "dtype": {"type": "DT_INT32"}}}, {"name": "StatefulPartitionedCall/GEN/0r/random_normal/shape/3", "op": "Const", "attr": {"value": {"tensor": {"dtype": "DT_INT32", "tensorShape": {}}}, "dtype": {"type": "DT_INT32"}}}, {"name": "StatefulPartitionedCall/GEN/tf.math.reduce_std_11/reduce_std/reduce_variance/Mean/reduction_indices", "op": "Const", "attr": {"value": {"tensor": {"dtype": "DT_INT32", "tensorShape": {}}}, "dtype": {"type": "DT_INT32"}}}, {"name": "StatefulPartitionedCall/GEN/tf.math.reduce_std_11/reduce_std/reduce_variance/Mean_1/reduction_indices", "op": "Const", "attr": {"dtype": {"type": "DT_INT32"}, "value": {"tensor": {"dtype": "DT_INT32", "tensorShape": {}}}}}, {"name": "StatefulPartitionedCall/GEN/tf.__operators__.add_25/y", "op": "Const", "attr": {"dtype": {"type": "DT_HALF"}, "value": {"tensor": {"dtype": "DT_HALF", "tensorShape": {}}}}}, {"name": "StatefulPartitionedCall/GEN/0ai/Conv2D/Cast", "op": "Const", "attr": {"value": {"tensor": {"dtype": "DT_HALF", "tensorShape": {"dim": [{"size": "1"}, {"size": "1"}, {"size": "128"}, {"size": "768"}]}}}, "dtype": {"type": "DT_HALF"}}}, {"name": "StatefulPartitionedCall/GEN/0ai/BiasAdd/Cast", "op": "Const", "attr": {"value": {"tensor": {"dtype": "DT_HALF", "tensorShape": {"dim": [{"size": "768"}]}}}, "dtype": {"type": "DT_HALF"}}}, {"name": "StatefulPartitionedCall/GEN/1c/Conv2D/ArithmeticOptimizer/FoldMultiplyIntoConv_scaled_StatefulPartitionedCall/GEN/1c/Conv2D_Cast", "op": "Const", "attr": {"dtype": {"type": "DT_HALF"}, "value": {"tensor": {"dtype": "DT_HALF", "tensorShape": {"dim": [{"size": "1"}, {"size": "4"}, {"size": "768"}, {"size": "768"}]}}}}}, {"name": "StatefulPartitionedCall/GEN/1c/BiasAdd/Cast", "op": "Const", "attr": {"value": {"tensor": {"dtype": "DT_HALF", "tensorShape": {"dim": [{"size": "768"}]}}}, "dtype": {"type": "DT_HALF"}}}, {"name": "StatefulPartitionedCall/GEN/1r/strided_slice/stack", "op": "Const", "attr": {"value": {"tensor": {"dtype": "DT_INT32", "tensorShape": {"dim": [{"size": "1"}]}}}, "dtype": {"type": "DT_INT32"}}}, {"name": "StatefulPartitionedCall/GEN/1r/strided_slice/stack_1", "op": "Const", "attr": {"value": {"tensor": {"dtype": "DT_INT32", "tensorShape": {"dim": [{"size": "1"}]}}}, "dtype": {"type": "DT_INT32"}}}, {"name": "StatefulPartitionedCall/GEN/1r/strided_slice/stack_2", "op": "Const", "attr": {"dtype": {"type": "DT_INT32"}, "value": {"tensor": {"dtype": "DT_INT32", "tensorShape": {"dim": [{"size": "1"}]}}}}}, {"name": "StatefulPartitionedCall/GEN/1r/random_normal/shape/1", "op": "Const", "attr": {"dtype": {"type": "DT_INT32"}, "value": {"tensor": {"dtype": "DT_INT32", "tensorShape": {}}}}}, {"name": "StatefulPartitionedCall/GEN/1r/random_normal/shape/2", "op": "Const", "attr": {"dtype": {"type": "DT_INT32"}, "value": {"tensor": {"dtype": "DT_INT32", "tensorShape": {}}}}}, {"name": "StatefulPartitionedCall/GEN/1r/random_normal/shape/3", "op": "Const", "attr": {"dtype": {"type": "DT_INT32"}, "value": {"tensor": {"dtype": "DT_INT32", "tensorShape": {}}}}}, {"name": "StatefulPartitionedCall/GEN/tf.math.reduce_std_12/reduce_std/reduce_variance/Mean/reduction_indices", "op": "Const", "attr": {"value": {"tensor": {"dtype": "DT_INT32", "tensorShape": {}}}, "dtype": {"type": "DT_INT32"}}}, {"name": "StatefulPartitionedCall/GEN/tf.math.reduce_std_12/reduce_std/reduce_variance/Mean_1/reduction_indices", "op": "Const", "attr": {"dtype": {"type": "DT_INT32"}, "value": {"tensor": {"dtype": "DT_INT32", "tensorShape": {}}}}}, {"name": "StatefulPartitionedCall/GEN/tf.__operators__.add_26/y", "op": "Const", "attr": {"value": {"tensor": {"dtype": "DT_HALF", "tensorShape": {}}}, "dtype": {"type": "DT_HALF"}}}, {"name": "StatefulPartitionedCall/GEN/1ai/Conv2D/Cast", "op": "Const", "attr": {"dtype": {"type": "DT_HALF"}, "value": {"tensor": {"dtype": "DT_HALF", "tensorShape": {"dim": [{"size": "1"}, {"size": "1"}, {"size": "128"}, {"size": "768"}]}}}}}, {"name": "StatefulPartitionedCall/GEN/1ai/BiasAdd/Cast", "op": "Const", "attr": {"dtype": {"type": "DT_HALF"}, "value": {"tensor": {"dtype": "DT_HALF", "tensorShape": {"dim": [{"size": "768"}]}}}}}, {"name": "StatefulPartitionedCall/GEN/tf.reshape_8/Reshape/shape/1", "op": "Const", "attr": {"value": {"tensor": {"dtype": "DT_INT32", "tensorShape": {}}}, "dtype": {"type": "DT_INT32"}}}, {"name": "StatefulPartitionedCall/GEN/tf.reshape_8/Reshape/shape/2", "op": "Const", "attr": {"value": {"tensor": {"dtype": "DT_INT32", "tensorShape": {}}}, "dtype": {"type": "DT_INT32"}}}, {"name": "StatefulPartitionedCall/GEN/tf.reshape_8/Reshape/shape/3", "op": "Const", "attr": {"dtype": {"type": "DT_INT32"}, "value": {"tensor": {"dtype": "DT_INT32", "tensorShape": {}}}}}, {"name": "StatefulPartitionedCall/GEN/tf.reshape_8/Reshape/shape/4", "op": "Const", "attr": {"dtype": {"type": "DT_INT32"}, "value": {"tensor": {"dtype": "DT_INT32", "tensorShape": {}}}}}, {"name": "StatefulPartitionedCall/GEN/tf.compat.v1.transpose_7/transpose/perm", "op": "Const", "attr": {"dtype": {"type": "DT_INT32"}, "value": {"tensor": {"dtype": "DT_INT32", "tensorShape": {"dim": [{"size": "5"}]}}}}}, {"name": "StatefulPartitionedCall/GEN/00n/Cast", "op": "Const", "attr": {"value": {"tensor": {"dtype": "DT_HALF", "tensorShape": {"dim": [{"size": "1"}]}}}, "dtype": {"type": "DT_HALF"}}}, {"name": "StatefulPartitionedCall/GEN/flatten_2/Const", "op": "Const", "attr": {"dtype": {"type": "DT_INT32"}, "value": {"tensor": {"dtype": "DT_INT32", "tensorShape": {"dim": [{"size": "2"}]}}}}}, {"name": "StatefulPartitionedCall/GEN/00d/MatMul/Cast", "op": "Const", "attr": {"value": {"tensor": {"dtype": "DT_HALF", "tensorShape": {"dim": [{"size": "256"}, {"size": "3584"}]}}}, "dtype": {"type": "DT_HALF"}}}, {"name": "StatefulPartitionedCall/GEN/00d/BiasAdd/Cast", "op": "Const", "attr": {"dtype": {"type": "DT_HALF"}, "value": {"tensor": {"dtype": "DT_HALF", "tensorShape": {"dim": [{"size": "3584"}]}}}}}, {"name": "StatefulPartitionedCall/GEN/reshape_1/strided_slice/stack", "op": "Const", "attr": {"dtype": {"type": "DT_INT32"}, "value": {"tensor": {"dtype": "DT_INT32", "tensorShape": {"dim": [{"size": "1"}]}}}}}, {"name": "StatefulPartitionedCall/GEN/reshape_1/strided_slice/stack_1", "op": "Const", "attr": {"dtype": {"type": "DT_INT32"}, "value": {"tensor": {"dtype": "DT_INT32", "tensorShape": {"dim": [{"size": "1"}]}}}}}, {"name": "StatefulPartitionedCall/GEN/reshape_1/strided_slice/stack_2", "op": "Const", "attr": {"value": {"tensor": {"dtype": "DT_INT32", "tensorShape": {"dim": [{"size": "1"}]}}}, "dtype": {"type": "DT_INT32"}}}, {"name": "StatefulPartitionedCall/GEN/reshape_1/Reshape/shape/1", "op": "Const", "attr": {"dtype": {"type": "DT_INT32"}, "value": {"tensor": {"dtype": "DT_INT32", "tensorShape": {}}}}}, {"name": "StatefulPartitionedCall/GEN/reshape_1/Reshape/shape/2", "op": "Const", "attr": {"dtype": {"type": "DT_INT32"}, "value": {"tensor": {"dtype": "DT_INT32", "tensorShape": {}}}}}, {"name": "StatefulPartitionedCall/GEN/reshape_1/Reshape/shape/3", "op": "Const", "attr": {"dtype": {"type": "DT_INT32"}, "value": {"tensor": {"dtype": "DT_INT32", "tensorShape": {}}}}}, {"name": "StatefulPartitionedCall/GEN/00n/strided_slice/stack", "op": "Const", "attr": {"value": {"tensor": {"dtype": "DT_INT32", "tensorShape": {"dim": [{"size": "1"}]}}}, "dtype": {"type": "DT_INT32"}}}, {"name": "StatefulPartitionedCall/GEN/00n/strided_slice/stack_1", "op": "Const", "attr": {"value": {"tensor": {"dtype": "DT_INT32", "tensorShape": {"dim": [{"size": "1"}]}}}, "dtype": {"type": "DT_INT32"}}}, {"name": "StatefulPartitionedCall/GEN/00n/strided_slice/stack_2", "op": "Const", "attr": {"value": {"tensor": {"dtype": "DT_INT32", "tensorShape": {"dim": [{"size": "1"}]}}}, "dtype": {"type": "DT_INT32"}}}, {"name": "StatefulPartitionedCall/GEN/00n/random_normal/shape/1", "op": "Const", "attr": {"dtype": {"type": "DT_INT32"}, "value": {"tensor": {"dtype": "DT_INT32", "tensorShape": {}}}}}, {"name": "StatefulPartitionedCall/GEN/00n/random_normal/shape/2", "op": "Const", "attr": {"value": {"tensor": {"dtype": "DT_INT32", "tensorShape": {}}}, "dtype": {"type": "DT_INT32"}}}, {"name": "StatefulPartitionedCall/GEN/00n/random_normal/shape/3", "op": "Const", "attr": {"value": {"tensor": {"dtype": "DT_INT32", "tensorShape": {}}}, "dtype": {"type": "DT_INT32"}}}, {"name": "StatefulPartitionedCall/GEN/tf.math.reduce_std_10/reduce_std/reduce_variance/Mean/reduction_indices", "op": "Const", "attr": {"value": {"tensor": {"dtype": "DT_INT32", "tensorShape": {}}}, "dtype": {"type": "DT_INT32"}}}, {"name": "StatefulPartitionedCall/GEN/tf.math.reduce_std_10/reduce_std/reduce_variance/Mean_1/reduction_indices", "op": "Const", "attr": {"value": {"tensor": {"dtype": "DT_INT32", "tensorShape": {}}}, "dtype": {"type": "DT_INT32"}}}, {"name": "StatefulPartitionedCall/GEN/tf.__operators__.add_24/y", "op": "Const", "attr": {"value": {"tensor": {"dtype": "DT_HALF", "tensorShape": {}}}, "dtype": {"type": "DT_HALF"}}}, {"name": "StatefulPartitionedCall/GEN/tf.expand_dims_2/ExpandDims/dim", "op": "Const", "attr": {"dtype": {"type": "DT_INT32"}, "value": {"tensor": {"dtype": "DT_INT32", "tensorShape": {}}}}}, {"name": "StatefulPartitionedCall/GEN/00ai/Conv2D/Cast", "op": "Const", "attr": {"dtype": {"type": "DT_HALF"}, "value": {"tensor": {"dtype": "DT_HALF", "tensorShape": {"dim": [{"size": "1"}, {"size": "1"}, {"size": "128"}, {"size": "896"}]}}}}}, {"name": "StatefulPartitionedCall/GEN/00ai/BiasAdd/Cast", "op": "Const", "attr": {"value": {"tensor": {"dtype": "DT_HALF", "tensorShape": {"dim": [{"size": "896"}]}}}, "dtype": {"type": "DT_HALF"}}}, {"name": "StatefulPartitionedCall/GEN/tf.__operators__.getitem_4/strided_slice/stack", "op": "Const", "attr": {"value": {"tensor": {"dtype": "DT_INT32", "tensorShape": {"dim": [{"size": "1"}]}}}, "dtype": {"type": "DT_INT32"}}}, {"name": "StatefulPartitionedCall/GEN/tf.__operators__.getitem_4/strided_slice/stack_1", "op": "Const", "attr": {"dtype": {"type": "DT_INT32"}, "value": {"tensor": {"dtype": "DT_INT32", "tensorShape": {"dim": [{"size": "1"}]}}}}}, {"name": "StatefulPartitionedCall/GEN/tf.__operators__.getitem_4/strided_slice/stack_2", "op": "Const", "attr": {"value": {"tensor": {"dtype": "DT_INT32", "tensorShape": {"dim": [{"size": "1"}]}}}, "dtype": {"type": "DT_INT32"}}}, {"name": "StatefulPartitionedCall/GEN/tf.reshape_9/Reshape/shape/1", "op": "Const", "attr": {"value": {"tensor": {"dtype": "DT_INT32", "tensorShape": {}}}, "dtype": {"type": "DT_INT32"}}}, {"name": "StatefulPartitionedCall/GEN/tf.reshape_9/Reshape/shape/2", "op": "Const", "attr": {"value": {"tensor": {"dtype": "DT_INT32", "tensorShape": {}}}, "dtype": {"type": "DT_INT32"}}}, {"name": "StatefulPartitionedCall/GEN/tf.reshape_9/Reshape/shape/3", "op": "Const", "attr": {"value": {"tensor": {"dtype": "DT_INT32", "tensorShape": {}}}, "dtype": {"type": "DT_INT32"}}}, {"name": "StatefulPartitionedCall/GEN/res1c/Conv2D/Cast", "op": "Const", "attr": {"value": {"tensor": {"dtype": "DT_HALF", "tensorShape": {"dim": [{"size": "1"}, {"size": "1"}, {"size": "448"}, {"size": "768"}]}}}, "dtype": {"type": "DT_HALF"}}}, {"name": "StatefulPartitionedCall/GEN/res1c/BiasAdd/Cast", "op": "Const", "attr": {"dtype": {"type": "DT_HALF"}, "value": {"tensor": {"dtype": "DT_HALF", "tensorShape": {"dim": [{"size": "768"}]}}}}}, {"name": "StatefulPartitionedCall/GEN/tf.__operators__.getitem_5/strided_slice/stack", "op": "Const", "attr": {"dtype": {"type": "DT_INT32"}, "value": {"tensor": {"dtype": "DT_INT32", "tensorShape": {"dim": [{"size": "1"}]}}}}}, {"name": "StatefulPartitionedCall/GEN/tf.__operators__.getitem_5/strided_slice/stack_1", "op": "Const", "attr": {"value": {"tensor": {"dtype": "DT_INT32", "tensorShape": {"dim": [{"size": "1"}]}}}, "dtype": {"type": "DT_INT32"}}}, {"name": "StatefulPartitionedCall/GEN/tf.__operators__.getitem_5/strided_slice/stack_2", "op": "Const", "attr": {"dtype": {"type": "DT_INT32"}, "value": {"tensor": {"dtype": "DT_INT32", "tensorShape": {"dim": [{"size": "1"}]}}}}}, {"name": "StatefulPartitionedCall/GEN/tf.reshape_11/Reshape/shape/1", "op": "Const", "attr": {"dtype": {"type": "DT_INT32"}, "value": {"tensor": {"dtype": "DT_INT32", "tensorShape": {}}}}}, {"name": "StatefulPartitionedCall/GEN/tf.reshape_11/Reshape/shape/2", "op": "Const", "attr": {"value": {"tensor": {"dtype": "DT_INT32", "tensorShape": {}}}, "dtype": {"type": "DT_INT32"}}}, {"name": "StatefulPartitionedCall/GEN/tf.reshape_11/Reshape/shape/3", "op": "Const", "attr": {"value": {"tensor": {"dtype": "DT_INT32", "tensorShape": {}}}, "dtype": {"type": "DT_INT32"}}}, {"name": "StatefulPartitionedCall/GEN/res2c/Conv2D/Cast", "op": "Const", "attr": {"value": {"tensor": {"dtype": "DT_HALF", "tensorShape": {"dim": [{"size": "1"}, {"size": "1"}, {"size": "384"}, {"size": "640"}]}}}, "dtype": {"type": "DT_HALF"}}}, {"name": "StatefulPartitionedCall/GEN/res2c/BiasAdd/Cast", "op": "Const", "attr": {"dtype": {"type": "DT_HALF"}, "value": {"tensor": {"dtype": "DT_HALF", "tensorShape": {"dim": [{"size": "640"}]}}}}}, {"name": "StatefulPartitionedCall/GEN/tf.__operators__.getitem_6/strided_slice/stack", "op": "Const", "attr": {"value": {"tensor": {"dtype": "DT_INT32", "tensorShape": {"dim": [{"size": "1"}]}}}, "dtype": {"type": "DT_INT32"}}}, {"name": "StatefulPartitionedCall/GEN/tf.__operators__.getitem_6/strided_slice/stack_1", "op": "Const", "attr": {"dtype": {"type": "DT_INT32"}, "value": {"tensor": {"dtype": "DT_INT32", "tensorShape": {"dim": [{"size": "1"}]}}}}}, {"name": "StatefulPartitionedCall/GEN/tf.__operators__.getitem_6/strided_slice/stack_2", "op": "Const", "attr": {"dtype": {"type": "DT_INT32"}, "value": {"tensor": {"dtype": "DT_INT32", "tensorShape": {"dim": [{"size": "1"}]}}}}}, {"name": "StatefulPartitionedCall/GEN/tf.reshape_13/Reshape/shape/1", "op": "Const", "attr": {"value": {"tensor": {"dtype": "DT_INT32", "tensorShape": {}}}, "dtype": {"type": "DT_INT32"}}}, {"name": "StatefulPartitionedCall/GEN/tf.reshape_13/Reshape/shape/2", "op": "Const", "attr": {"value": {"tensor": {"dtype": "DT_INT32", "tensorShape": {}}}, "dtype": {"type": "DT_INT32"}}}, {"name": "StatefulPartitionedCall/GEN/tf.reshape_13/Reshape/shape/3", "op": "Const", "attr": {"value": {"tensor": {"dtype": "DT_INT32", "tensorShape": {}}}, "dtype": {"type": "DT_INT32"}}}, {"name": "StatefulPartitionedCall/GEN/res3c/Conv2D/Cast", "op": "Const", "attr": {"value": {"tensor": {"dtype": "DT_HALF", "tensorShape": {"dim": [{"size": "1"}, {"size": "1"}, {"size": "320"}, {"size": "512"}]}}}, "dtype": {"type": "DT_HALF"}}}, {"name": "StatefulPartitionedCall/GEN/res3c/BiasAdd/Cast", "op": "Const", "attr": {"value": {"tensor": {"dtype": "DT_HALF", "tensorShape": {"dim": [{"size": "512"}]}}}, "dtype": {"type": "DT_HALF"}}}, {"name": "StatefulPartitionedCall/GEN/tf.__operators__.getitem_7/strided_slice/stack", "op": "Const", "attr": {"value": {"tensor": {"dtype": "DT_INT32", "tensorShape": {"dim": [{"size": "1"}]}}}, "dtype": {"type": "DT_INT32"}}}, {"name": "StatefulPartitionedCall/GEN/tf.__operators__.getitem_7/strided_slice/stack_1", "op": "Const", "attr": {"dtype": {"type": "DT_INT32"}, "value": {"tensor": {"dtype": "DT_INT32", "tensorShape": {"dim": [{"size": "1"}]}}}}}, {"name": "StatefulPartitionedCall/GEN/tf.__operators__.getitem_7/strided_slice/stack_2", "op": "Const", "attr": {"value": {"tensor": {"dtype": "DT_INT32", "tensorShape": {"dim": [{"size": "1"}]}}}, "dtype": {"type": "DT_INT32"}}}, {"name": "StatefulPartitionedCall/GEN/tf.reshape_15/Reshape/shape/1", "op": "Const", "attr": {"dtype": {"type": "DT_INT32"}, "value": {"tensor": {"dtype": "DT_INT32", "tensorShape": {}}}}}, {"name": "StatefulPartitionedCall/GEN/tf.reshape_15/Reshape/shape/2", "op": "Const", "attr": {"value": {"tensor": {"dtype": "DT_INT32", "tensorShape": {}}}, "dtype": {"type": "DT_INT32"}}}, {"name": "StatefulPartitionedCall/GEN/tf.reshape_15/Reshape/shape/3", "op": "Const", "attr": {"value": {"tensor": {"dtype": "DT_INT32", "tensorShape": {}}}, "dtype": {"type": "DT_INT32"}}}, {"name": "StatefulPartitionedCall/GEN/res4c/Conv2D/Cast", "op": "Const", "attr": {"value": {"tensor": {"dtype": "DT_HALF", "tensorShape": {"dim": [{"size": "1"}, {"size": "1"}, {"size": "256"}, {"size": "384"}]}}}, "dtype": {"type": "DT_HALF"}}}, {"name": "StatefulPartitionedCall/GEN/res4c/BiasAdd/Cast", "op": "Const", "attr": {"value": {"tensor": {"dtype": "DT_HALF", "tensorShape": {"dim": [{"size": "384"}]}}}, "dtype": {"type": "DT_HALF"}}}, {"name": "StatefulPartitionedCall/GEN/8c/BiasAdd/Cast", "op": "Const", "attr": {"value": {"tensor": {"dtype": "DT_HALF", "tensorShape": {"dim": [{"size": "256"}]}}}, "dtype": {"type": "DT_HALF"}}}, {"name": "StatefulPartitionedCall/GEN/8r/strided_slice/stack", "op": "Const", "attr": {"value": {"tensor": {"dtype": "DT_INT32", "tensorShape": {"dim": [{"size": "1"}]}}}, "dtype": {"type": "DT_INT32"}}}, {"name": "StatefulPartitionedCall/GEN/8r/strided_slice/stack_1", "op": "Const", "attr": {"value": {"tensor": {"dtype": "DT_INT32", "tensorShape": {"dim": [{"size": "1"}]}}}, "dtype": {"type": "DT_INT32"}}}, {"name": "StatefulPartitionedCall/GEN/8r/strided_slice/stack_2", "op": "Const", "attr": {"value": {"tensor": {"dtype": "DT_INT32", "tensorShape": {"dim": [{"size": "1"}]}}}, "dtype": {"type": "DT_INT32"}}}, {"name": "StatefulPartitionedCall/GEN/8r/random_normal/shape/1", "op": "Const", "attr": {"dtype": {"type": "DT_INT32"}, "value": {"tensor": {"dtype": "DT_INT32", "tensorShape": {}}}}}, {"name": "StatefulPartitionedCall/GEN/8r/random_normal/shape/2", "op": "Const", "attr": {"dtype": {"type": "DT_INT32"}, "value": {"tensor": {"dtype": "DT_INT32", "tensorShape": {}}}}}, {"name": "StatefulPartitionedCall/GEN/8r/random_normal/shape/3", "op": "Const", "attr": {"dtype": {"type": "DT_INT32"}, "value": {"tensor": {"dtype": "DT_INT32", "tensorShape": {}}}}}, {"name": "StatefulPartitionedCall/GEN/tf.math.reduce_std_19/reduce_std/reduce_variance/Mean/reduction_indices", "op": "Const", "attr": {"dtype": {"type": "DT_INT32"}, "value": {"tensor": {"dtype": "DT_INT32", "tensorShape": {}}}}}, {"name": "StatefulPartitionedCall/GEN/tf.math.reduce_std_19/reduce_std/reduce_variance/Mean_1/reduction_indices", "op": "Const", "attr": {"value": {"tensor": {"dtype": "DT_INT32", "tensorShape": {}}}, "dtype": {"type": "DT_INT32"}}}, {"name": "StatefulPartitionedCall/GEN/tf.__operators__.add_37/y", "op": "Const", "attr": {"dtype": {"type": "DT_HALF"}, "value": {"tensor": {"dtype": "DT_HALF", "tensorShape": {}}}}}, {"name": "StatefulPartitionedCall/GEN/tf.split_9/split/split_dim", "op": "Const", "attr": {"value": {"tensor": {"dtype": "DT_INT32", "tensorShape": {}}}, "dtype": {"type": "DT_INT32"}}}, {"name": "StatefulPartitionedCall/GEN/tf.concat_9/concat/axis", "op": "Const", "attr": {"dtype": {"type": "DT_INT32"}, "value": {"tensor": {"dtype": "DT_INT32", "tensorShape": {}}}}}, {"name": "StatefulPartitionedCall/GEN/tf.expand_dims_3/ExpandDims/dim", "op": "Const", "attr": {"dtype": {"type": "DT_INT32"}, "value": {"tensor": {"dtype": "DT_INT32", "tensorShape": {}}}}}, {"name": "StatefulPartitionedCall/GEN/8ai/Conv2D/Cast", "op": "Const", "attr": {"value": {"tensor": {"dtype": "DT_HALF", "tensorShape": {"dim": [{"size": "1"}, {"size": "1"}, {"size": "128"}, {"size": "256"}]}}}, "dtype": {"type": "DT_HALF"}}}, {"name": "StatefulPartitionedCall/GEN/8ai/BiasAdd/Cast", "op": "Const", "attr": {"value": {"tensor": {"dtype": "DT_HALF", "tensorShape": {"dim": [{"size": "256"}]}}}, "dtype": {"type": "DT_HALF"}}}, {"name": "StatefulPartitionedCall/GEN/9c/Conv2D/Cast", "op": "Const", "attr": {"dtype": {"type": "DT_HALF"}, "value": {"tensor": {"dtype": "DT_HALF", "tensorShape": {"dim": [{"size": "1"}, {"size": "4"}, {"size": "256"}, {"size": "128"}]}}}}}, {"name": "StatefulPartitionedCall/GEN/9c/BiasAdd/Cast", "op": "Const", "attr": {"dtype": {"type": "DT_HALF"}, "value": {"tensor": {"dtype": "DT_HALF", "tensorShape": {"dim": [{"size": "128"}]}}}}}, {"name": "StatefulPartitionedCall/GEN/tf.concat_10/concat/axis", "op": "Const", "attr": {"dtype": {"type": "DT_INT32"}, "value": {"tensor": {"dtype": "DT_INT32", "tensorShape": {}}}}}, {"name": "input_7", "op": "Placeholder", "attr": {"dtype": {"type": "DT_FLOAT"}, "shape": {"shape": {"dim": [{"size": "-1"}, {"size": "256"}, {"size": "128"}]}}}}, {"name": "StatefulPartitionedCall/GEN/tf.split_9/split", "op": "Split", "input": ["StatefulPartitionedCall/GEN/tf.split_9/split/split_dim", "input_7"], "attr": {"num_split": {"i": "2"}, "T": {"type": "DT_FLOAT"}}}, {"name": "StatefulPartitionedCall/GEN/tf.concat_9/concat", "op": "ConcatV2", "input": ["StatefulPartitionedCall/GEN/tf.split_9/split", "StatefulPartitionedCall/GEN/tf.split_9/split:1", "StatefulPartitionedCall/GEN/tf.concat_9/concat/axis"], "attr": {"T": {"type": "DT_FLOAT"}, "Tidx": {"type": "DT_INT32"}, "N": {"i": "2"}}}, {"name": "StatefulPartitionedCall/GEN/tf.expand_dims_2/ExpandDims", "op": "ExpandDims", "input": ["StatefulPartitionedCall/GEN/tf.concat_9/concat", "StatefulPartitionedCall/GEN/tf.expand_dims_2/ExpandDims/dim"], "attr": {"Tdim": {"type": "DT_INT32"}, "T": {"type": "DT_FLOAT"}}}, {"name": "StatefulPartitionedCall/GEN/tf.cast_8/Cast", "op": "Cast", "input": ["StatefulPartitionedCall/GEN/tf.concat_9/concat"], "attr": {"Truncate": {"b": false}, "SrcT": {"type": "DT_FLOAT"}, "DstT": {"type": "DT_HALF"}}}, {"name": "StatefulPartitionedCall/GEN/average_pooling2d_11/Cast", "op": "Cast", "input": ["StatefulPartitionedCall/GEN/tf.expand_dims_2/ExpandDims"], "attr": {"SrcT": {"type": "DT_FLOAT"}, "DstT": {"type": "DT_HALF"}, "Truncate": {"b": false}}}, {"name": "StatefulPartitionedCall/GEN/tf.expand_dims_3/ExpandDims", "op": "ExpandDims", "input": ["StatefulPartitionedCall/GEN/tf.cast_8/Cast", "StatefulPartitionedCall/GEN/tf.expand_dims_3/ExpandDims/dim"], "attr": {"T": {"type": "DT_HALF"}, "Tdim": {"type": "DT_INT32"}}}, {"name": "StatefulPartitionedCall/GEN/average_pooling2d_11/AvgPool", "op": "AvgPool", "input": ["StatefulPartitionedCall/GEN/average_pooling2d_11/Cast"], "attr": {"ksize": {"list": {"i": ["1", "1", "2", "1"]}}, "data_format": {"s": "TkhXQw=="}, "T": {"type": "DT_HALF"}, "strides": {"list": {"i": ["1", "1", "2", "1"]}}, "padding": {"s": "VkFMSUQ="}}}, {"name": "StatefulPartitionedCall/GEN/8ai/Conv2D", "op": "Conv2D", "input": ["StatefulPartitionedCall/GEN/tf.expand_dims_3/ExpandDims", "StatefulPartitionedCall/GEN/8ai/Conv2D/Cast"], "device": "/device:CPU:0", "attr": {"T": {"type": "DT_HALF"}, "data_format": {"s": "TkhXQw=="}, "dilations": {"list": {"i": ["1", "1", "1", "1"]}}, "use_cudnn_on_gpu": {"b": true}, "explicit_paddings": {"list": {}}, "_input_shapes": {"list": {"shape": [{"dim": [{"size": "-63"}, {"size": "-13"}, {"size": "-64"}, {"size": "-65"}]}, {"dim": [{"size": "1"}, {"size": "1"}, {"size": "128"}, {"size": "256"}]}]}}, "padding": {"s": "U0FNRQ=="}, "strides": {"list": {"i": ["1", "1", "1", "1"]}}}}, {"name": "StatefulPartitionedCall/GEN/6ai/Conv2D", "op": "Conv2D", "input": ["StatefulPartitionedCall/GEN/average_pooling2d_11/AvgPool", "StatefulPartitionedCall/GEN/6ai/Conv2D/Cast"], "device": "/device:CPU:0", "attr": {"strides": {"list": {"i": ["1", "1", "1", "1"]}}, "padding": {"s": "U0FNRQ=="}, "use_cudnn_on_gpu": {"b": true}, "T": {"type": "DT_HALF"}, "_input_shapes": {"list": {"shape": [{"dim": [{"size": "-14"}, {"size": "-18"}, {"size": "-19"}, {"size": "-17"}]}, {"dim": [{"size": "1"}, {"size": "1"}, {"size": "128"}, {"size": "384"}]}]}}, "dilations": {"list": {"i": ["1", "1", "1", "1"]}}, "explicit_paddings": {"list": {}}, "data_format": {"s": "TkhXQw=="}}}, {"name": "StatefulPartitionedCall/GEN/7ai/Conv2D", "op": "Conv2D", "input": ["StatefulPartitionedCall/GEN/average_pooling2d_11/AvgPool", "StatefulPartitionedCall/GEN/7ai/Conv2D/Cast"], "device": "/device:CPU:0", "attr": {"padding": {"s": "U0FNRQ=="}, "dilations": {"list": {"i": ["1", "1", "1", "1"]}}, "strides": {"list": {"i": ["1", "1", "1", "1"]}}, "data_format": {"s": "TkhXQw=="}, "T": {"type": "DT_HALF"}, "explicit_paddings": {"list": {}}, "use_cudnn_on_gpu": {"b": true}, "_input_shapes": {"list": {"shape": [{"dim": [{"size": "-14"}, {"size": "-18"}, {"size": "-19"}, {"size": "-17"}]}, {"dim": [{"size": "1"}, {"size": "1"}, {"size": "128"}, {"size": "384"}]}]}}}}, {"name": "StatefulPartitionedCall/GEN/average_pooling2d_12/AvgPool", "op": "AvgPool", "input": ["StatefulPartitionedCall/GEN/average_pooling2d_11/AvgPool"], "attr": {"T": {"type": "DT_HALF"}, "ksize": {"list": {"i": ["1", "1", "2", "1"]}}, "padding": {"s": "VkFMSUQ="}, "strides": {"list": {"i": ["1", "1", "2", "1"]}}, "data_format": {"s": "TkhXQw=="}}}, {"name": "StatefulPartitionedCall/GEN/8ai/BiasAdd", "op": "BiasAdd", "input": ["StatefulPartitionedCall/GEN/8ai/Conv2D", "StatefulPartitionedCall/GEN/8ai/BiasAdd/Cast"], "attr": {"T": {"type": "DT_HALF"}, "data_format": {"s": "TkhXQw=="}, "_input_shapes": {"list": {"shape": [{"dim": [{"size": "-63"}, {"size": "-13"}, {"size": "-64"}, {"size": "256"}]}, {"dim": [{"size": "256"}]}]}}}}, {"name": "StatefulPartitionedCall/GEN/6ai/BiasAdd", "op": "BiasAdd", "input": ["StatefulPartitionedCall/GEN/6ai/Conv2D", "StatefulPartitionedCall/GEN/6ai/BiasAdd/Cast"], "attr": {"T": {"type": "DT_HALF"}, "data_format": {"s": "TkhXQw=="}, "_input_shapes": {"list": {"shape": [{"dim": [{"size": "-14"}, {"size": "-18"}, {"size": "-19"}, {"size": "384"}]}, {"dim": [{"size": "384"}]}]}}}}, {"name": "StatefulPartitionedCall/GEN/7ai/BiasAdd", "op": "BiasAdd", "input": ["StatefulPartitionedCall/GEN/7ai/Conv2D", "StatefulPartitionedCall/GEN/7ai/BiasAdd/Cast"], "attr": {"_input_shapes": {"list": {"shape": [{"dim": [{"size": "-14"}, {"size": "-18"}, {"size": "-19"}, {"size": "384"}]}, {"dim": [{"size": "384"}]}]}}, "data_format": {"s": "TkhXQw=="}, "T": {"type": "DT_HALF"}}}, {"name": "StatefulPartitionedCall/GEN/4ai/Conv2D", "op": "Conv2D", "input": ["StatefulPartitionedCall/GEN/average_pooling2d_12/AvgPool", "StatefulPartitionedCall/GEN/4ai/Conv2D/Cast"], "device": "/device:CPU:0", "attr": {"use_cudnn_on_gpu": {"b": true}, "_input_shapes": {"list": {"shape": [{"dim": [{"size": "-14"}, {"size": "-20"}, {"size": "-21"}, {"size": "-17"}]}, {"dim": [{"size": "1"}, {"size": "1"}, {"size": "128"}, {"size": "512"}]}]}}, "strides": {"list": {"i": ["1", "1", "1", "1"]}}, "data_format": {"s": "TkhXQw=="}, "padding": {"s": "U0FNRQ=="}, "T": {"type": "DT_HALF"}, "dilations": {"list": {"i": ["1", "1", "1", "1"]}}, "explicit_paddings": {"list": {}}}}, {"name": "StatefulPartitionedCall/GEN/5ai/Conv2D", "op": "Conv2D", "input": ["StatefulPartitionedCall/GEN/average_pooling2d_12/AvgPool", "StatefulPartitionedCall/GEN/5ai/Conv2D/Cast"], "device": "/device:CPU:0", "attr": {"explicit_paddings": {"list": {}}, "padding": {"s": "U0FNRQ=="}, "T": {"type": "DT_HALF"}, "data_format": {"s": "TkhXQw=="}, "dilations": {"list": {"i": ["1", "1", "1", "1"]}}, "strides": {"list": {"i": ["1", "1", "1", "1"]}}, "_input_shapes": {"list": {"shape": [{"dim": [{"size": "-14"}, {"size": "-20"}, {"size": "-21"}, {"size": "-17"}]}, {"dim": [{"size": "1"}, {"size": "1"}, {"size": "128"}, {"size": "512"}]}]}}, "use_cudnn_on_gpu": {"b": true}}}, {"name": "StatefulPartitionedCall/GEN/average_pooling2d_13/AvgPool", "op": "AvgPool", "input": ["StatefulPartitionedCall/GEN/average_pooling2d_12/AvgPool"], "attr": {"data_format": {"s": "TkhXQw=="}, "T": {"type": "DT_HALF"}, "padding": {"s": "VkFMSUQ="}, "ksize": {"list": {"i": ["1", "1", "2", "1"]}}, "strides": {"list": {"i": ["1", "1", "2", "1"]}}}}, {"name": "StatefulPartitionedCall/GEN/4ai/BiasAdd", "op": "BiasAdd", "input": ["StatefulPartitionedCall/GEN/4ai/Conv2D", "StatefulPartitionedCall/GEN/4ai/BiasAdd/Cast"], "attr": {"T": {"type": "DT_HALF"}, "data_format": {"s": "TkhXQw=="}, "_input_shapes": {"list": {"shape": [{"dim": [{"size": "-14"}, {"size": "-20"}, {"size": "-21"}, {"size": "512"}]}, {"dim": [{"size": "512"}]}]}}}}, {"name": "StatefulPartitionedCall/GEN/5ai/BiasAdd", "op": "BiasAdd", "input": ["StatefulPartitionedCall/GEN/5ai/Conv2D", "StatefulPartitionedCall/GEN/5ai/BiasAdd/Cast"], "attr": {"T": {"type": "DT_HALF"}, "data_format": {"s": "TkhXQw=="}, "_input_shapes": {"list": {"shape": [{"dim": [{"size": "-14"}, {"size": "-20"}, {"size": "-21"}, {"size": "512"}]}, {"dim": [{"size": "512"}]}]}}}}, {"name": "StatefulPartitionedCall/GEN/2ai/Conv2D", "op": "Conv2D", "input": ["StatefulPartitionedCall/GEN/average_pooling2d_13/AvgPool", "StatefulPartitionedCall/GEN/2ai/Conv2D/Cast"], "device": "/device:CPU:0", "attr": {"data_format": {"s": "TkhXQw=="}, "T": {"type": "DT_HALF"}, "_input_shapes": {"list": {"shape": [{"dim": [{"size": "-14"}, {"size": "-22"}, {"size": "-23"}, {"size": "-17"}]}, {"dim": [{"size": "1"}, {"size": "1"}, {"size": "128"}, {"size": "640"}]}]}}, "dilations": {"list": {"i": ["1", "1", "1", "1"]}}, "explicit_paddings": {"list": {}}, "use_cudnn_on_gpu": {"b": true}, "padding": {"s": "U0FNRQ=="}, "strides": {"list": {"i": ["1", "1", "1", "1"]}}}}, {"name": "StatefulPartitionedCall/GEN/3ai/Conv2D", "op": "Conv2D", "input": ["StatefulPartitionedCall/GEN/average_pooling2d_13/AvgPool", "StatefulPartitionedCall/GEN/3ai/Conv2D/Cast"], "device": "/device:CPU:0", "attr": {"explicit_paddings": {"list": {}}, "padding": {"s": "U0FNRQ=="}, "data_format": {"s": "TkhXQw=="}, "_input_shapes": {"list": {"shape": [{"dim": [{"size": "-14"}, {"size": "-22"}, {"size": "-23"}, {"size": "-17"}]}, {"dim": [{"size": "1"}, {"size": "1"}, {"size": "128"}, {"size": "640"}]}]}}, "strides": {"list": {"i": ["1", "1", "1", "1"]}}, "dilations": {"list": {"i": ["1", "1", "1", "1"]}}, "T": {"type": "DT_HALF"}, "use_cudnn_on_gpu": {"b": true}}}, {"name": "StatefulPartitionedCall/GEN/average_pooling2d_14/AvgPool", "op": "AvgPool", "input": ["StatefulPartitionedCall/GEN/average_pooling2d_13/AvgPool"], "attr": {"ksize": {"list": {"i": ["1", "1", "2", "1"]}}, "strides": {"list": {"i": ["1", "1", "2", "1"]}}, "data_format": {"s": "TkhXQw=="}, "T": {"type": "DT_HALF"}, "padding": {"s": "VkFMSUQ="}}}, {"name": "StatefulPartitionedCall/GEN/2ai/BiasAdd", "op": "BiasAdd", "input": ["StatefulPartitionedCall/GEN/2ai/Conv2D", "StatefulPartitionedCall/GEN/2ai/BiasAdd/Cast"], "attr": {"T": {"type": "DT_HALF"}, "data_format": {"s": "TkhXQw=="}, "_input_shapes": {"list": {"shape": [{"dim": [{"size": "-14"}, {"size": "-22"}, {"size": "-23"}, {"size": "640"}]}, {"dim": [{"size": "640"}]}]}}}}, {"name": "StatefulPartitionedCall/GEN/3ai/BiasAdd", "op": "BiasAdd", "input": ["StatefulPartitionedCall/GEN/3ai/Conv2D", "StatefulPartitionedCall/GEN/3ai/BiasAdd/Cast"], "attr": {"T": {"type": "DT_HALF"}, "_input_shapes": {"list": {"shape": [{"dim": [{"size": "-14"}, {"size": "-22"}, {"size": "-23"}, {"size": "640"}]}, {"dim": [{"size": "640"}]}]}}, "data_format": {"s": "TkhXQw=="}}}, {"name": "StatefulPartitionedCall/GEN/0ai/Conv2D", "op": "Conv2D", "input": ["StatefulPartitionedCall/GEN/average_pooling2d_14/AvgPool", "StatefulPartitionedCall/GEN/0ai/Conv2D/Cast"], "device": "/device:CPU:0", "attr": {"data_format": {"s": "TkhXQw=="}, "explicit_paddings": {"list": {}}, "strides": {"list": {"i": ["1", "1", "1", "1"]}}, "T": {"type": "DT_HALF"}, "dilations": {"list": {"i": ["1", "1", "1", "1"]}}, "padding": {"s": "U0FNRQ=="}, "_input_shapes": {"list": {"shape": [{"dim": [{"size": "-14"}, {"size": "-24"}, {"size": "-25"}, {"size": "-17"}]}, {"dim": [{"size": "1"}, {"size": "1"}, {"size": "128"}, {"size": "768"}]}]}}, "use_cudnn_on_gpu": {"b": true}}}, {"name": "StatefulPartitionedCall/GEN/1ai/Conv2D", "op": "Conv2D", "input": ["StatefulPartitionedCall/GEN/average_pooling2d_14/AvgPool", "StatefulPartitionedCall/GEN/1ai/Conv2D/Cast"], "device": "/device:CPU:0", "attr": {"use_cudnn_on_gpu": {"b": true}, "data_format": {"s": "TkhXQw=="}, "padding": {"s": "U0FNRQ=="}, "_input_shapes": {"list": {"shape": [{"dim": [{"size": "-14"}, {"size": "-24"}, {"size": "-25"}, {"size": "-17"}]}, {"dim": [{"size": "1"}, {"size": "1"}, {"size": "128"}, {"size": "768"}]}]}}, "strides": {"list": {"i": ["1", "1", "1", "1"]}}, "T": {"type": "DT_HALF"}, "explicit_paddings": {"list": {}}, "dilations": {"list": {"i": ["1", "1", "1", "1"]}}}}, {"name": "StatefulPartitionedCall/GEN/average_pooling2d_15/AvgPool", "op": "AvgPool", "input": ["StatefulPartitionedCall/GEN/average_pooling2d_14/AvgPool"], "attr": {"padding": {"s": "VkFMSUQ="}, "T": {"type": "DT_HALF"}, "data_format": {"s": "TkhXQw=="}, "ksize": {"list": {"i": ["1", "1", "2", "1"]}}, "strides": {"list": {"i": ["1", "1", "2", "1"]}}}}, {"name": "StatefulPartitionedCall/GEN/0ai/BiasAdd", "op": "BiasAdd", "input": ["StatefulPartitionedCall/GEN/0ai/Conv2D", "StatefulPartitionedCall/GEN/0ai/BiasAdd/Cast"], "attr": {"T": {"type": "DT_HALF"}, "data_format": {"s": "TkhXQw=="}, "_input_shapes": {"list": {"shape": [{"dim": [{"size": "-14"}, {"size": "-24"}, {"size": "-25"}, {"size": "768"}]}, {"dim": [{"size": "768"}]}]}}}}, {"name": "StatefulPartitionedCall/GEN/1ai/BiasAdd", "op": "BiasAdd", "input": ["StatefulPartitionedCall/GEN/1ai/Conv2D", "StatefulPartitionedCall/GEN/1ai/BiasAdd/Cast"], "attr": {"_input_shapes": {"list": {"shape": [{"dim": [{"size": "-14"}, {"size": "-24"}, {"size": "-25"}, {"size": "768"}]}, {"dim": [{"size": "768"}]}]}}, "T": {"type": "DT_HALF"}, "data_format": {"s": "TkhXQw=="}}}, {"name": "StatefulPartitionedCall/GEN/average_pooling2d_16/AvgPool", "op": "AvgPool", "input": ["StatefulPartitionedCall/GEN/average_pooling2d_15/AvgPool"], "attr": {"T": {"type": "DT_HALF"}, "data_format": {"s": "TkhXQw=="}, "padding": {"s": "VkFMSUQ="}, "strides": {"list": {"i": ["1", "1", "2", "1"]}}, "ksize": {"list": {"i": ["1", "1", "2", "1"]}}}}, {"name": "StatefulPartitionedCall/GEN/00ai/Conv2D", "op": "Conv2D", "input": ["StatefulPartitionedCall/GEN/average_pooling2d_15/AvgPool", "StatefulPartitionedCall/GEN/00ai/Conv2D/Cast"], "device": "/device:CPU:0", "attr": {"explicit_paddings": {"list": {}}, "data_format": {"s": "TkhXQw=="}, "dilations": {"list": {"i": ["1", "1", "1", "1"]}}, "use_cudnn_on_gpu": {"b": true}, "padding": {"s": "U0FNRQ=="}, "_input_shapes": {"list": {"shape": [{"dim": [{"size": "-14"}, {"size": "-26"}, {"size": "-27"}, {"size": "-17"}]}, {"dim": [{"size": "1"}, {"size": "1"}, {"size": "128"}, {"size": "896"}]}]}}, "T": {"type": "DT_HALF"}, "strides": {"list": {"i": ["1", "1", "1", "1"]}}}}, {"name": "StatefulPartitionedCall/GEN/flatten_2/Reshape", "op": "Reshape", "input": ["StatefulPartitionedCall/GEN/average_pooling2d_16/AvgPool", "StatefulPartitionedCall/GEN/flatten_2/Const"], "attr": {"Tshape": {"type": "DT_INT32"}, "T": {"type": "DT_HALF"}}}, {"name": "StatefulPartitionedCall/GEN/00ai/BiasAdd", "op": "BiasAdd", "input": ["StatefulPartitionedCall/GEN/00ai/Conv2D", "StatefulPartitionedCall/GEN/00ai/BiasAdd/Cast"], "attr": {"data_format": {"s": "TkhXQw=="}, "_input_shapes": {"list": {"shape": [{"dim": [{"size": "-14"}, {"size": "-26"}, {"size": "-27"}, {"size": "896"}]}, {"dim": [{"size": "896"}]}]}}, "T": {"type": "DT_HALF"}}}, {"name": "StatefulPartitionedCall/GEN/00d/MatMul", "op": "MatMul", "input": ["StatefulPartitionedCall/GEN/flatten_2/Reshape", "StatefulPartitionedCall/GEN/00d/MatMul/Cast"], "device": "/device:CPU:0", "attr": {"T": {"type": "DT_HALF"}, "grad_a": {"b": false}, "grad_b": {"b": false}, "transpose_a": {"b": false}, "transpose_b": {"b": false}, "_input_shapes": {"list": {"shape": [{"dim": [{"size": "-30"}, {"size": "256"}]}, {"dim": [{"size": "256"}, {"size": "3584"}]}]}}}}, {"name": "StatefulPartitionedCall/GEN/00d/BiasAdd", "op": "BiasAdd", "input": ["StatefulPartitionedCall/GEN/00d/MatMul", "StatefulPartitionedCall/GEN/00d/BiasAdd/Cast"], "attr": {"_input_shapes": {"list": {"shape": [{"dim": [{"size": "-30"}, {"size": "3584"}]}, {"dim": [{"size": "3584"}]}]}}, "data_format": {"s": "TkhXQw=="}, "T": {"type": "DT_HALF"}}}, {"name": "StatefulPartitionedCall/GEN/reshape_1/Shape", "op": "Shape", "input": ["StatefulPartitionedCall/GEN/00d/BiasAdd"], "attr": {"T": {"type": "DT_HALF"}, "out_type": {"type": "DT_INT32"}}, "experimentalType": {"typeId": "TFT_PRODUCT", "args": [{"typeId": "TFT_SHAPE_TENSOR", "args": [{"typeId": "TFT_INT32"}]}]}}, {"name": "StatefulPartitionedCall/GEN/reshape_1/strided_slice", "op": "StridedSlice", "input": ["StatefulPartitionedCall/GEN/reshape_1/Shape", "StatefulPartitionedCall/GEN/reshape_1/strided_slice/stack", "StatefulPartitionedCall/GEN/reshape_1/strided_slice/stack_1", "StatefulPartitionedCall/GEN/reshape_1/strided_slice/stack_2"], "attr": {"new_axis_mask": {"i": "0"}, "ellipsis_mask": {"i": "0"}, "shrink_axis_mask": {"i": "1"}, "T": {"type": "DT_INT32"}, "end_mask": {"i": "0"}, "begin_mask": {"i": "0"}, "Index": {"type": "DT_INT32"}}}, {"name": "StatefulPartitionedCall/GEN/reshape_1/Reshape/shape", "op": "Pack", "input": ["StatefulPartitionedCall/GEN/reshape_1/strided_slice", "StatefulPartitionedCall/GEN/reshape_1/Reshape/shape/1", "StatefulPartitionedCall/GEN/reshape_1/Reshape/shape/2", "StatefulPartitionedCall/GEN/reshape_1/Reshape/shape/3"], "attr": {"T": {"type": "DT_INT32"}, "axis": {"i": "0"}, "N": {"i": "4"}}}, {"name": "StatefulPartitionedCall/GEN/reshape_1/Reshape", "op": "Reshape", "input": ["StatefulPartitionedCall/GEN/00d/BiasAdd", "StatefulPartitionedCall/GEN/reshape_1/Reshape/shape"], "attr": {"T": {"type": "DT_HALF"}, "Tshape": {"type": "DT_INT32"}}}, {"name": "StatefulPartitionedCall/GEN/00n/Shape", "op": "Shape", "input": ["StatefulPartitionedCall/GEN/reshape_1/Reshape"], "attr": {"T": {"type": "DT_HALF"}, "out_type": {"type": "DT_INT32"}}, "experimentalType": {"typeId": "TFT_PRODUCT", "args": [{"typeId": "TFT_SHAPE_TENSOR", "args": [{"typeId": "TFT_INT32"}]}]}}, {"name": "StatefulPartitionedCall/GEN/00n/strided_slice", "op": "StridedSlice", "input": ["StatefulPartitionedCall/GEN/00n/Shape", "StatefulPartitionedCall/GEN/00n/strided_slice/stack", "StatefulPartitionedCall/GEN/00n/strided_slice/stack_1", "StatefulPartitionedCall/GEN/00n/strided_slice/stack_2"], "attr": {"new_axis_mask": {"i": "0"}, "T": {"type": "DT_INT32"}, "ellipsis_mask": {"i": "0"}, "shrink_axis_mask": {"i": "1"}, "begin_mask": {"i": "0"}, "end_mask": {"i": "0"}, "Index": {"type": "DT_INT32"}}}, {"name": "StatefulPartitionedCall/GEN/00n/random_normal/shape", "op": "Pack", "input": ["StatefulPartitionedCall/GEN/00n/strided_slice", "StatefulPartitionedCall/GEN/00n/random_normal/shape/1", "StatefulPartitionedCall/GEN/00n/random_normal/shape/2", "StatefulPartitionedCall/GEN/00n/random_normal/shape/3"], "attr": {"N": {"i": "4"}, "axis": {"i": "0"}, "T": {"type": "DT_INT32"}}}, {"name": "StatefulPartitionedCall/GEN/00n/random_normal/RandomStandardNormal", "op": "RandomStandardNormal", "input": ["StatefulPartitionedCall/GEN/00n/random_normal/shape"], "attr": {"dtype": {"type": "DT_HALF"}, "T": {"type": "DT_INT32"}, "seed2": {"i": "0"}, "seed": {"i": "0"}}}, {"name": "StatefulPartitionedCall/GEN/00n/mul", "op": "Mul", "input": ["StatefulPartitionedCall/GEN/00n/Cast", "StatefulPartitionedCall/GEN/00n/random_normal/RandomStandardNormal"], "attr": {"T": {"type": "DT_HALF"}}}, {"name": "StatefulPartitionedCall/GEN/00n/add", "op": "AddV2", "input": ["StatefulPartitionedCall/GEN/reshape_1/Reshape", "StatefulPartitionedCall/GEN/00n/mul"], "attr": {"T": {"type": "DT_HALF"}}}, {"name": "StatefulPartitionedCall/GEN/tf.math.reduce_std_10/reduce_std/reduce_variance/Mean", "op": "Mean", "input": ["StatefulPartitionedCall/GEN/00n/add", "StatefulPartitionedCall/GEN/tf.math.reduce_std_10/reduce_std/reduce_variance/Mean/reduction_indices"], "attr": {"Tidx": {"type": "DT_INT32"}, "keep_dims": {"b": true}, "T": {"type": "DT_HALF"}}}, {"name": "StatefulPartitionedCall/GEN/tf.math.reduce_std_10/reduce_std/reduce_variance/sub", "op": "SquaredDifference", "input": ["StatefulPartitionedCall/GEN/00n/add", "StatefulPartitionedCall/GEN/tf.math.reduce_std_10/reduce_std/reduce_variance/Mean"], "attr": {"T": {"type": "DT_HALF"}}}, {"name": "StatefulPartitionedCall/GEN/tf.math.reduce_std_10/reduce_std/reduce_variance/Mean_1", "op": "Mean", "input": ["StatefulPartitionedCall/GEN/tf.math.reduce_std_10/reduce_std/reduce_variance/sub", "StatefulPartitionedCall/GEN/tf.math.reduce_std_10/reduce_std/reduce_variance/Mean_1/reduction_indices"], "attr": {"keep_dims": {"b": true}, "Tidx": {"type": "DT_INT32"}, "T": {"type": "DT_HALF"}}}, {"name": "StatefulPartitionedCall/GEN/tf.math.reduce_std_10/reduce_std/Sqrt", "op": "Sqrt", "input": ["StatefulPartitionedCall/GEN/tf.math.reduce_std_10/reduce_std/reduce_variance/Mean_1"], "attr": {"T": {"type": "DT_HALF"}}}, {"name": "StatefulPartitionedCall/GEN/tf.__operators__.add_24/AddV2", "op": "AddV2", "input": ["StatefulPartitionedCall/GEN/tf.math.reduce_std_10/reduce_std/Sqrt", "StatefulPartitionedCall/GEN/tf.__operators__.add_24/y"], "attr": {"T": {"type": "DT_HALF"}}}, {"name": "StatefulPartitionedCall/GEN/tf.math.truediv_10/truediv", "op": "RealDiv", "input": ["StatefulPartitionedCall/GEN/00n/add", "StatefulPartitionedCall/GEN/tf.__operators__.add_24/AddV2"], "attr": {"T": {"type": "DT_HALF"}}}, {"name": "StatefulPartitionedCall/GEN/tf.math.multiply_28/Mul", "op": "Mul", "input": ["StatefulPartitionedCall/GEN/tf.math.truediv_10/truediv", "StatefulPartitionedCall/GEN/00ai/BiasAdd"], "attr": {"T": {"type": "DT_HALF"}}}, {"name": "StatefulPartitionedCall/GEN/tf.nn.silu_40/Sigmoid", "op": "Sigmoid", "input": ["StatefulPartitionedCall/GEN/tf.math.multiply_28/Mul"], "attr": {"_input_shapes": {"list": {"shape": [{"dim": [{"size": "-2"}, {"size": "-26"}, {"size": "4"}, {"size": "896"}]}]}}, "T": {"type": "DT_HALF"}}}, {"name": "StatefulPartitionedCall/GEN/tf.nn.silu_40/mul_1", "op": "Mul", "input": ["StatefulPartitionedCall/GEN/tf.math.multiply_28/Mul", "StatefulPartitionedCall/GEN/tf.nn.silu_40/Sigmoid"], "attr": {"T": {"type": "DT_HALF"}}}, {"name": "StatefulPartitionedCall/GEN/0c/Shape", "op": "Shape", "input": ["StatefulPartitionedCall/GEN/tf.nn.silu_40/mul_1"], "attr": {"out_type": {"type": "DT_INT32"}, "T": {"type": "DT_HALF"}}, "experimentalType": {"typeId": "TFT_PRODUCT", "args": [{"typeId": "TFT_SHAPE_TENSOR", "args": [{"typeId": "TFT_INT32"}]}]}}, {"name": "StatefulPartitionedCall/GEN/tf.compat.v1.shape_4/Shape", "op": "Shape", "input": ["StatefulPartitionedCall/GEN/tf.nn.silu_40/mul_1"], "attr": {"out_type": {"type": "DT_INT32"}, "T": {"type": "DT_HALF"}}, "experimentalType": {"typeId": "TFT_PRODUCT", "args": [{"typeId": "TFT_SHAPE_TENSOR", "args": [{"typeId": "TFT_INT32"}]}]}}, {"name": "StatefulPartitionedCall/GEN/0c/strided_slice", "op": "StridedSlice", "input": ["StatefulPartitionedCall/GEN/0c/Shape", "StatefulPartitionedCall/GEN/0c/strided_slice/stack", "StatefulPartitionedCall/GEN/0c/strided_slice/stack_1", "StatefulPartitionedCall/GEN/0c/strided_slice/stack_2"], "attr": {"T": {"type": "DT_INT32"}, "begin_mask": {"i": "0"}, "shrink_axis_mask": {"i": "1"}, "end_mask": {"i": "0"}, "new_axis_mask": {"i": "0"}, "Index": {"type": "DT_INT32"}, "ellipsis_mask": {"i": "0"}}}, {"name": "StatefulPartitionedCall/GEN/tf.__operators__.getitem_4/strided_slice", "op": "StridedSlice", "input": ["StatefulPartitionedCall/GEN/tf.compat.v1.shape_4/Shape", "StatefulPartitionedCall/GEN/tf.__operators__.getitem_4/strided_slice/stack", "StatefulPartitionedCall/GEN/tf.__operators__.getitem_4/strided_slice/stack_1", "StatefulPartitionedCall/GEN/tf.__operators__.getitem_4/strided_slice/stack_2"], "attr": {"end_mask": {"i": "0"}, "ellipsis_mask": {"i": "0"}, "Index": {"type": "DT_INT32"}, "new_axis_mask": {"i": "0"}, "T": {"type": "DT_INT32"}, "begin_mask": {"i": "0"}, "shrink_axis_mask": {"i": "1"}}}, {"name": "StatefulPartitionedCall/GEN/0c/stack", "op": "Pack", "input": ["StatefulPartitionedCall/GEN/0c/strided_slice", "StatefulPartitionedCall/GEN/0c/stack/1", "StatefulPartitionedCall/GEN/0c/stack/2", "StatefulPartitionedCall/GEN/0c/stack/3"], "attr": {"axis": {"i": "0"}, "N": {"i": "4"}, "T": {"type": "DT_INT32"}}}, {"name": "StatefulPartitionedCall/GEN/tf.reshape_8/Reshape/shape", "op": "Pack", "input": ["StatefulPartitionedCall/GEN/tf.__operators__.getitem_4/strided_slice", "StatefulPartitionedCall/GEN/tf.reshape_8/Reshape/shape/1", "StatefulPartitionedCall/GEN/tf.reshape_8/Reshape/shape/2", "StatefulPartitionedCall/GEN/tf.reshape_8/Reshape/shape/3", "StatefulPartitionedCall/GEN/tf.reshape_8/Reshape/shape/4"], "attr": {"axis": {"i": "0"}, "N": {"i": "5"}, "T": {"type": "DT_INT32"}}}, {"name": "StatefulPartitionedCall/GEN/tf.reshape_9/Reshape/shape", "op": "Pack", "input": ["StatefulPartitionedCall/GEN/tf.__operators__.getitem_4/strided_slice", "StatefulPartitionedCall/GEN/tf.reshape_9/Reshape/shape/1", "StatefulPartitionedCall/GEN/tf.reshape_9/Reshape/shape/2", "StatefulPartitionedCall/GEN/tf.reshape_9/Reshape/shape/3"], "attr": {"axis": {"i": "0"}, "N": {"i": "4"}, "T": {"type": "DT_INT32"}}}, {"name": "StatefulPartitionedCall/GEN/0c/conv2d_transpose", "op": "Conv2DBackpropInput", "input": ["StatefulPartitionedCall/GEN/0c/stack", "StatefulPartitionedCall/GEN/0c/conv2d_transpose/Cast", "StatefulPartitionedCall/GEN/tf.nn.silu_40/mul_1"], "attr": {"padding": {"s": "U0FNRQ=="}, "T": {"type": "DT_HALF"}, "dilations": {"list": {"i": ["1", "1", "1", "1"]}}, "data_format": {"s": "TkhXQw=="}, "explicit_paddings": {"list": {}}, "use_cudnn_on_gpu": {"b": true}, "strides": {"list": {"i": ["1", "1", "2", "1"]}}}}, {"name": "StatefulPartitionedCall/GEN/tf.reshape_8/Reshape", "op": "Reshape", "input": ["StatefulPartitionedCall/GEN/tf.nn.silu_40/mul_1", "StatefulPartitionedCall/GEN/tf.reshape_8/Reshape/shape"], "attr": {"Tshape": {"type": "DT_INT32"}, "T": {"type": "DT_HALF"}}}, {"name": "StatefulPartitionedCall/GEN/0c/BiasAdd", "op": "BiasAdd", "input": ["StatefulPartitionedCall/GEN/0c/conv2d_transpose", "StatefulPartitionedCall/GEN/0c/BiasAdd/Cast"], "attr": {"T": {"type": "DT_HALF"}, "data_format": {"s": "TkhXQw=="}, "_input_shapes": {"list": {"shape": [{"dim": [{"size": "-2"}, {"size": "1"}, {"size": "8"}, {"size": "768"}]}, {"dim": [{"size": "768"}]}]}}}}, {"name": "StatefulPartitionedCall/GEN/tf.compat.v1.transpose_7/transpose", "op": "Transpose", "input": ["StatefulPartitionedCall/GEN/tf.reshape_8/Reshape", "StatefulPartitionedCall/GEN/tf.compat.v1.transpose_7/transpose/perm"], "attr": {"_input_shapes": {"list": {"shape": [{"dim": [{"size": "-39"}, {"size": "1"}, {"size": "4"}, {"size": "448"}, {"size": "2"}]}, {"dim": [{"size": "5"}]}]}}, "Tperm": {"type": "DT_INT32"}, "T": {"type": "DT_HALF"}}}, {"name": "StatefulPartitionedCall/GEN/0r/Shape", "op": "Shape", "input": ["StatefulPartitionedCall/GEN/0c/BiasAdd"], "attr": {"out_type": {"type": "DT_INT32"}, "T": {"type": "DT_HALF"}}, "experimentalType": {"typeId": "TFT_PRODUCT", "args": [{"typeId": "TFT_SHAPE_TENSOR", "args": [{"typeId": "TFT_INT32"}]}]}}, {"name": "StatefulPartitionedCall/GEN/tf.reshape_9/Reshape", "op": "Reshape", "input": ["StatefulPartitionedCall/GEN/tf.compat.v1.transpose_7/transpose", "StatefulPartitionedCall/GEN/tf.reshape_9/Reshape/shape"], "attr": {"Tshape": {"type": "DT_INT32"}, "T": {"type": "DT_HALF"}}}, {"name": "StatefulPartitionedCall/GEN/0r/strided_slice", "op": "StridedSlice", "input": ["StatefulPartitionedCall/GEN/0r/Shape", "StatefulPartitionedCall/GEN/0r/strided_slice/stack", "StatefulPartitionedCall/GEN/0r/strided_slice/stack_1", "StatefulPartitionedCall/GEN/0r/strided_slice/stack_2"], "attr": {"begin_mask": {"i": "0"}, "ellipsis_mask": {"i": "0"}, "end_mask": {"i": "0"}, "shrink_axis_mask": {"i": "1"}, "Index": {"type": "DT_INT32"}, "T": {"type": "DT_INT32"}, "new_axis_mask": {"i": "0"}}}, {"name": "StatefulPartitionedCall/GEN/res1c/Conv2D", "op": "Conv2D", "input": ["StatefulPartitionedCall/GEN/tf.reshape_9/Reshape", "StatefulPartitionedCall/GEN/res1c/Conv2D/Cast"], "device": "/device:CPU:0", "attr": {"use_cudnn_on_gpu": {"b": true}, "data_format": {"s": "TkhXQw=="}, "strides": {"list": {"i": ["1", "1", "1", "1"]}}, "dilations": {"list": {"i": ["1", "1", "1", "1"]}}, "padding": {"s": "U0FNRQ=="}, "_input_shapes": {"list": {"shape": [{"dim": [{"size": "-39"}, {"size": "1"}, {"size": "8"}, {"size": "448"}]}, {"dim": [{"size": "1"}, {"size": "1"}, {"size": "448"}, {"size": "768"}]}]}}, "explicit_paddings": {"list": {}}, "T": {"type": "DT_HALF"}}}, {"name": "StatefulPartitionedCall/GEN/0r/random_normal/shape", "op": "Pack", "input": ["StatefulPartitionedCall/GEN/0r/strided_slice", "StatefulPartitionedCall/GEN/0r/random_normal/shape/1", "StatefulPartitionedCall/GEN/0r/random_normal/shape/2", "StatefulPartitionedCall/GEN/0r/random_normal/shape/3"], "attr": {"N": {"i": "4"}, "axis": {"i": "0"}, "T": {"type": "DT_INT32"}}}, {"name": "StatefulPartitionedCall/GEN/res1c/BiasAdd", "op": "BiasAdd", "input": ["StatefulPartitionedCall/GEN/res1c/Conv2D", "StatefulPartitionedCall/GEN/res1c/BiasAdd/Cast"], "attr": {"_input_shapes": {"list": {"shape": [{"dim": [{"size": "-39"}, {"size": "1"}, {"size": "8"}, {"size": "768"}]}, {"dim": [{"size": "768"}]}]}}, "data_format": {"s": "TkhXQw=="}, "T": {"type": "DT_HALF"}}}, {"name": "StatefulPartitionedCall/GEN/0r/random_normal/RandomStandardNormal", "op": "RandomStandardNormal", "input": ["StatefulPartitionedCall/GEN/0r/random_normal/shape"], "attr": {"T": {"type": "DT_INT32"}, "dtype": {"type": "DT_HALF"}, "seed": {"i": "0"}, "seed2": {"i": "0"}}}, {"name": "StatefulPartitionedCall/GEN/0r/mul", "op": "Mul", "input": ["StatefulPartitionedCall/GEN/0r/Cast", "StatefulPartitionedCall/GEN/0r/random_normal/RandomStandardNormal"], "attr": {"T": {"type": "DT_HALF"}}}, {"name": "StatefulPartitionedCall/GEN/0r/add", "op": "AddV2", "input": ["StatefulPartitionedCall/GEN/0c/BiasAdd", "StatefulPartitionedCall/GEN/0r/mul"], "attr": {"T": {"type": "DT_HALF"}}}, {"name": "StatefulPartitionedCall/GEN/tf.math.reduce_std_11/reduce_std/reduce_variance/Mean", "op": "Mean", "input": ["StatefulPartitionedCall/GEN/0r/add", "StatefulPartitionedCall/GEN/tf.math.reduce_std_11/reduce_std/reduce_variance/Mean/reduction_indices"], "attr": {"T": {"type": "DT_HALF"}, "Tidx": {"type": "DT_INT32"}, "keep_dims": {"b": true}}}, {"name": "StatefulPartitionedCall/GEN/tf.math.reduce_std_11/reduce_std/reduce_variance/sub", "op": "SquaredDifference", "input": ["StatefulPartitionedCall/GEN/0r/add", "StatefulPartitionedCall/GEN/tf.math.reduce_std_11/reduce_std/reduce_variance/Mean"], "attr": {"T": {"type": "DT_HALF"}}}, {"name": "StatefulPartitionedCall/GEN/tf.math.reduce_std_11/reduce_std/reduce_variance/Mean_1", "op": "Mean", "input": ["StatefulPartitionedCall/GEN/tf.math.reduce_std_11/reduce_std/reduce_variance/sub", "StatefulPartitionedCall/GEN/tf.math.reduce_std_11/reduce_std/reduce_variance/Mean_1/reduction_indices"], "attr": {"keep_dims": {"b": true}, "Tidx": {"type": "DT_INT32"}, "T": {"type": "DT_HALF"}}}, {"name": "StatefulPartitionedCall/GEN/tf.math.reduce_std_11/reduce_std/Sqrt", "op": "Sqrt", "input": ["StatefulPartitionedCall/GEN/tf.math.reduce_std_11/reduce_std/reduce_variance/Mean_1"], "attr": {"T": {"type": "DT_HALF"}}}, {"name": "StatefulPartitionedCall/GEN/tf.__operators__.add_25/AddV2", "op": "AddV2", "input": ["StatefulPartitionedCall/GEN/tf.math.reduce_std_11/reduce_std/Sqrt", "StatefulPartitionedCall/GEN/tf.__operators__.add_25/y"], "attr": {"T": {"type": "DT_HALF"}}}, {"name": "StatefulPartitionedCall/GEN/tf.math.truediv_11/truediv", "op": "RealDiv", "input": ["StatefulPartitionedCall/GEN/0r/add", "StatefulPartitionedCall/GEN/tf.__operators__.add_25/AddV2"], "attr": {"T": {"type": "DT_HALF"}}}, {"name": "StatefulPartitionedCall/GEN/tf.math.multiply_29/Mul", "op": "Mul", "input": ["StatefulPartitionedCall/GEN/tf.math.truediv_11/truediv", "StatefulPartitionedCall/GEN/0ai/BiasAdd"], "attr": {"T": {"type": "DT_HALF"}}}, {"name": "StatefulPartitionedCall/GEN/tf.nn.silu_41/Sigmoid", "op": "Sigmoid", "input": ["StatefulPartitionedCall/GEN/tf.math.multiply_29/Mul"], "attr": {"_input_shapes": {"list": {"shape": [{"dim": [{"size": "-35"}, {"size": "-24"}, {"size": "8"}, {"size": "768"}]}]}}, "T": {"type": "DT_HALF"}}}, {"name": "StatefulPartitionedCall/GEN/tf.nn.silu_41/mul_1", "op": "Mul", "input": ["StatefulPartitionedCall/GEN/tf.math.multiply_29/Mul", "StatefulPartitionedCall/GEN/tf.nn.silu_41/Sigmoid"], "attr": {"T": {"type": "DT_HALF"}}}, {"name": "StatefulPartitionedCall/GEN/1c/Conv2D", "op": "Conv2D", "input": ["StatefulPartitionedCall/GEN/tf.nn.silu_41/mul_1", "StatefulPartitionedCall/GEN/1c/Conv2D/ArithmeticOptimizer/FoldMultiplyIntoConv_scaled_StatefulPartitionedCall/GEN/1c/Conv2D_Cast"], "device": "/device:CPU:0", "attr": {"data_format": {"s": "TkhXQw=="}, "dilations": {"list": {"i": ["1", "1", "1", "1"]}}, "use_cudnn_on_gpu": {"b": true}, "explicit_paddings": {"list": {}}, "_input_shapes": {"list": {"shape": [{"dim": [{"size": "-35"}, {"size": "-24"}, {"size": "8"}, {"size": "768"}]}, {"dim": [{"size": "1"}, {"size": "4"}, {"size": "768"}, {"size": "768"}]}]}}, "padding": {"s": "U0FNRQ=="}, "strides": {"list": {"i": ["1", "1", "1", "1"]}}, "T": {"type": "DT_HALF"}}}, {"name": "StatefulPartitionedCall/GEN/1c/BiasAdd", "op": "BiasAdd", "input": ["StatefulPartitionedCall/GEN/1c/Conv2D", "StatefulPartitionedCall/GEN/1c/BiasAdd/Cast"], "attr": {"_input_shapes": {"list": {"shape": [{"dim": [{"size": "-35"}, {"size": "-24"}, {"size": "8"}, {"size": "768"}]}, {"dim": [{"size": "768"}]}]}}, "T": {"type": "DT_HALF"}, "data_format": {"s": "TkhXQw=="}}}, {"name": "StatefulPartitionedCall/GEN/1r/Shape", "op": "Shape", "input": ["StatefulPartitionedCall/GEN/1c/BiasAdd"], "attr": {"out_type": {"type": "DT_INT32"}, "T": {"type": "DT_HALF"}}, "experimentalType": {"typeId": "TFT_PRODUCT", "args": [{"typeId": "TFT_SHAPE_TENSOR", "args": [{"typeId": "TFT_INT32"}]}]}}, {"name": "StatefulPartitionedCall/GEN/1r/strided_slice", "op": "StridedSlice", "input": ["StatefulPartitionedCall/GEN/1r/Shape", "StatefulPartitionedCall/GEN/1r/strided_slice/stack", "StatefulPartitionedCall/GEN/1r/strided_slice/stack_1", "StatefulPartitionedCall/GEN/1r/strided_slice/stack_2"], "attr": {"Index": {"type": "DT_INT32"}, "new_axis_mask": {"i": "0"}, "T": {"type": "DT_INT32"}, "ellipsis_mask": {"i": "0"}, "begin_mask": {"i": "0"}, "shrink_axis_mask": {"i": "1"}, "end_mask": {"i": "0"}}}, {"name": "StatefulPartitionedCall/GEN/1r/random_normal/shape", "op": "Pack", "input": ["StatefulPartitionedCall/GEN/1r/strided_slice", "StatefulPartitionedCall/GEN/1r/random_normal/shape/1", "StatefulPartitionedCall/GEN/1r/random_normal/shape/2", "StatefulPartitionedCall/GEN/1r/random_normal/shape/3"], "attr": {"axis": {"i": "0"}, "T": {"type": "DT_INT32"}, "N": {"i": "4"}}}, {"name": "StatefulPartitionedCall/GEN/1r/random_normal/RandomStandardNormal", "op": "RandomStandardNormal", "input": ["StatefulPartitionedCall/GEN/1r/random_normal/shape"], "attr": {"seed": {"i": "0"}, "dtype": {"type": "DT_HALF"}, "seed2": {"i": "0"}, "T": {"type": "DT_INT32"}}}, {"name": "StatefulPartitionedCall/GEN/1r/mul", "op": "Mul", "input": ["StatefulPartitionedCall/GEN/1r/Cast", "StatefulPartitionedCall/GEN/1r/random_normal/RandomStandardNormal"], "attr": {"T": {"type": "DT_HALF"}}}, {"name": "StatefulPartitionedCall/GEN/1r/add", "op": "AddV2", "input": ["StatefulPartitionedCall/GEN/1c/BiasAdd", "StatefulPartitionedCall/GEN/1r/mul"], "attr": {"T": {"type": "DT_HALF"}}}, {"name": "StatefulPartitionedCall/GEN/tf.math.reduce_std_12/reduce_std/reduce_variance/Mean", "op": "Mean", "input": ["StatefulPartitionedCall/GEN/1r/add", "StatefulPartitionedCall/GEN/tf.math.reduce_std_12/reduce_std/reduce_variance/Mean/reduction_indices"], "attr": {"keep_dims": {"b": true}, "Tidx": {"type": "DT_INT32"}, "T": {"type": "DT_HALF"}}}, {"name": "StatefulPartitionedCall/GEN/tf.math.reduce_std_12/reduce_std/reduce_variance/sub", "op": "SquaredDifference", "input": ["StatefulPartitionedCall/GEN/1r/add", "StatefulPartitionedCall/GEN/tf.math.reduce_std_12/reduce_std/reduce_variance/Mean"], "attr": {"T": {"type": "DT_HALF"}}}, {"name": "StatefulPartitionedCall/GEN/tf.math.reduce_std_12/reduce_std/reduce_variance/Mean_1", "op": "Mean", "input": ["StatefulPartitionedCall/GEN/tf.math.reduce_std_12/reduce_std/reduce_variance/sub", "StatefulPartitionedCall/GEN/tf.math.reduce_std_12/reduce_std/reduce_variance/Mean_1/reduction_indices"], "attr": {"T": {"type": "DT_HALF"}, "Tidx": {"type": "DT_INT32"}, "keep_dims": {"b": true}}}, {"name": "StatefulPartitionedCall/GEN/tf.math.reduce_std_12/reduce_std/Sqrt", "op": "Sqrt", "input": ["StatefulPartitionedCall/GEN/tf.math.reduce_std_12/reduce_std/reduce_variance/Mean_1"], "attr": {"T": {"type": "DT_HALF"}}}, {"name": "StatefulPartitionedCall/GEN/tf.__operators__.add_26/AddV2", "op": "AddV2", "input": ["StatefulPartitionedCall/GEN/tf.math.reduce_std_12/reduce_std/Sqrt", "StatefulPartitionedCall/GEN/tf.__operators__.add_26/y"], "attr": {"T": {"type": "DT_HALF"}}}, {"name": "StatefulPartitionedCall/GEN/tf.math.truediv_12/truediv", "op": "RealDiv", "input": ["StatefulPartitionedCall/GEN/1r/add", "StatefulPartitionedCall/GEN/tf.__operators__.add_26/AddV2"], "attr": {"T": {"type": "DT_HALF"}}}, {"name": "StatefulPartitionedCall/GEN/tf.math.multiply_31/Mul", "op": "Mul", "input": ["StatefulPartitionedCall/GEN/tf.math.truediv_12/truediv", "StatefulPartitionedCall/GEN/1ai/BiasAdd"], "attr": {"T": {"type": "DT_HALF"}}}, {"name": "StatefulPartitionedCall/GEN/tf.nn.silu_42/mul_1", "op": "Mul", "input": ["unknown_15", "StatefulPartitionedCall/GEN/tf.math.multiply_31/Mul"], "attr": {"T": {"type": "DT_HALF"}, "_grappler_ArithmeticOptimizer_MinimizeBroadcasts": {"b": true}}}, {"name": "StatefulPartitionedCall/GEN/tf.nn.silu_42/Sigmoid", "op": "Sigmoid", "input": ["StatefulPartitionedCall/GEN/tf.math.multiply_31/Mul"], "attr": {"T": {"type": "DT_HALF"}, "_input_shapes": {"list": {"shape": [{"dim": [{"size": "-38"}, {"size": "-24"}, {"size": "8"}, {"size": "768"}]}]}}}}, {"name": "StatefulPartitionedCall/GEN/tf.math.multiply_32/Mul", "op": "Mul", "input": ["StatefulPartitionedCall/GEN/tf.nn.silu_42/mul_1", "StatefulPartitionedCall/GEN/tf.nn.silu_42/Sigmoid"], "attr": {"_grappler_ArithmeticOptimizer_MinimizeBroadcasts": {"b": true}, "T": {"type": "DT_HALF"}}}, {"name": "StatefulPartitionedCall/GEN/tf.__operators__.add_27/AddV2", "op": "AddV2", "input": ["StatefulPartitionedCall/GEN/tf.math.multiply_32/Mul", "StatefulPartitionedCall/GEN/res1c/BiasAdd"], "attr": {"T": {"type": "DT_HALF"}}}, {"name": "StatefulPartitionedCall/GEN/2c/Shape", "op": "Shape", "input": ["StatefulPartitionedCall/GEN/tf.__operators__.add_27/AddV2"], "attr": {"T": {"type": "DT_HALF"}, "out_type": {"type": "DT_INT32"}}, "experimentalType": {"typeId": "TFT_PRODUCT", "args": [{"typeId": "TFT_SHAPE_TENSOR", "args": [{"typeId": "TFT_INT32"}]}]}}, {"name": "StatefulPartitionedCall/GEN/tf.compat.v1.shape_5/Shape", "op": "Shape", "input": ["StatefulPartitionedCall/GEN/tf.__operators__.add_27/AddV2"], "attr": {"out_type": {"type": "DT_INT32"}, "T": {"type": "DT_HALF"}}, "experimentalType": {"typeId": "TFT_PRODUCT", "args": [{"typeId": "TFT_SHAPE_TENSOR", "args": [{"typeId": "TFT_INT32"}]}]}}, {"name": "StatefulPartitionedCall/GEN/2c/strided_slice", "op": "StridedSlice", "input": ["StatefulPartitionedCall/GEN/2c/Shape", "StatefulPartitionedCall/GEN/2c/strided_slice/stack", "StatefulPartitionedCall/GEN/2c/strided_slice/stack_1", "StatefulPartitionedCall/GEN/2c/strided_slice/stack_2"], "attr": {"ellipsis_mask": {"i": "0"}, "shrink_axis_mask": {"i": "1"}, "new_axis_mask": {"i": "0"}, "begin_mask": {"i": "0"}, "end_mask": {"i": "0"}, "T": {"type": "DT_INT32"}, "Index": {"type": "DT_INT32"}}}, {"name": "StatefulPartitionedCall/GEN/tf.__operators__.getitem_5/strided_slice", "op": "StridedSlice", "input": ["StatefulPartitionedCall/GEN/tf.compat.v1.shape_5/Shape", "StatefulPartitionedCall/GEN/tf.__operators__.getitem_5/strided_slice/stack", "StatefulPartitionedCall/GEN/tf.__operators__.getitem_5/strided_slice/stack_1", "StatefulPartitionedCall/GEN/tf.__operators__.getitem_5/strided_slice/stack_2"], "attr": {"ellipsis_mask": {"i": "0"}, "Index": {"type": "DT_INT32"}, "new_axis_mask": {"i": "0"}, "T": {"type": "DT_INT32"}, "begin_mask": {"i": "0"}, "end_mask": {"i": "0"}, "shrink_axis_mask": {"i": "1"}}}, {"name": "StatefulPartitionedCall/GEN/2c/stack", "op": "Pack", "input": ["StatefulPartitionedCall/GEN/2c/strided_slice", "StatefulPartitionedCall/GEN/2c/stack/1", "StatefulPartitionedCall/GEN/2c/stack/2", "StatefulPartitionedCall/GEN/2c/stack/3"], "attr": {"T": {"type": "DT_INT32"}, "axis": {"i": "0"}, "N": {"i": "4"}}}, {"name": "StatefulPartitionedCall/GEN/tf.reshape_10/Reshape/shape", "op": "Pack", "input": ["StatefulPartitionedCall/GEN/tf.__operators__.getitem_5/strided_slice", "StatefulPartitionedCall/GEN/tf.reshape_10/Reshape/shape/1", "StatefulPartitionedCall/GEN/tf.reshape_10/Reshape/shape/2", "StatefulPartitionedCall/GEN/tf.reshape_10/Reshape/shape/3", "StatefulPartitionedCall/GEN/tf.reshape_10/Reshape/shape/4"], "attr": {"N": {"i": "5"}, "axis": {"i": "0"}, "T": {"type": "DT_INT32"}}}, {"name": "StatefulPartitionedCall/GEN/tf.reshape_11/Reshape/shape", "op": "Pack", "input": ["StatefulPartitionedCall/GEN/tf.__operators__.getitem_5/strided_slice", "StatefulPartitionedCall/GEN/tf.reshape_11/Reshape/shape/1", "StatefulPartitionedCall/GEN/tf.reshape_11/Reshape/shape/2", "StatefulPartitionedCall/GEN/tf.reshape_11/Reshape/shape/3"], "attr": {"T": {"type": "DT_INT32"}, "axis": {"i": "0"}, "N": {"i": "4"}}}, {"name": "StatefulPartitionedCall/GEN/2c/conv2d_transpose", "op": "Conv2DBackpropInput", "input": ["StatefulPartitionedCall/GEN/2c/stack", "StatefulPartitionedCall/GEN/2c/conv2d_transpose/Cast", "StatefulPartitionedCall/GEN/tf.__operators__.add_27/AddV2"], "attr": {"padding": {"s": "U0FNRQ=="}, "data_format": {"s": "TkhXQw=="}, "explicit_paddings": {"list": {}}, "T": {"type": "DT_HALF"}, "use_cudnn_on_gpu": {"b": true}, "strides": {"list": {"i": ["1", "1", "2", "1"]}}, "dilations": {"list": {"i": ["1", "1", "1", "1"]}}}}, {"name": "StatefulPartitionedCall/GEN/tf.reshape_10/Reshape", "op": "Reshape", "input": ["StatefulPartitionedCall/GEN/tf.__operators__.add_27/AddV2", "StatefulPartitionedCall/GEN/tf.reshape_10/Reshape/shape"], "attr": {"Tshape": {"type": "DT_INT32"}, "T": {"type": "DT_HALF"}}}, {"name": "StatefulPartitionedCall/GEN/2c/BiasAdd", "op": "BiasAdd", "input": ["StatefulPartitionedCall/GEN/2c/conv2d_transpose", "StatefulPartitionedCall/GEN/2c/BiasAdd/Cast"], "attr": {"T": {"type": "DT_HALF"}, "data_format": {"s": "TkhXQw=="}, "_input_shapes": {"list": {"shape": [{"dim": [{"size": "-4"}, {"size": "1"}, {"size": "16"}, {"size": "640"}]}, {"dim": [{"size": "640"}]}]}}}}, {"name": "StatefulPartitionedCall/GEN/tf.compat.v1.transpose_8/transpose", "op": "Transpose", "input": ["StatefulPartitionedCall/GEN/tf.reshape_10/Reshape", "StatefulPartitionedCall/GEN/tf.compat.v1.transpose_8/transpose/perm"], "attr": {"_input_shapes": {"list": {"shape": [{"dim": [{"size": "-46"}, {"size": "1"}, {"size": "8"}, {"size": "384"}, {"size": "2"}]}, {"dim": [{"size": "5"}]}]}}, "T": {"type": "DT_HALF"}, "Tperm": {"type": "DT_INT32"}}}, {"name": "StatefulPartitionedCall/GEN/2r/Shape", "op": "Shape", "input": ["StatefulPartitionedCall/GEN/2c/BiasAdd"], "attr": {"out_type": {"type": "DT_INT32"}, "T": {"type": "DT_HALF"}}, "experimentalType": {"typeId": "TFT_PRODUCT", "args": [{"typeId": "TFT_SHAPE_TENSOR", "args": [{"typeId": "TFT_INT32"}]}]}}, {"name": "StatefulPartitionedCall/GEN/tf.reshape_11/Reshape", "op": "Reshape", "input": ["StatefulPartitionedCall/GEN/tf.compat.v1.transpose_8/transpose", "StatefulPartitionedCall/GEN/tf.reshape_11/Reshape/shape"], "attr": {"Tshape": {"type": "DT_INT32"}, "T": {"type": "DT_HALF"}}}, {"name": "StatefulPartitionedCall/GEN/2r/strided_slice", "op": "StridedSlice", "input": ["StatefulPartitionedCall/GEN/2r/Shape", "StatefulPartitionedCall/GEN/2r/strided_slice/stack", "StatefulPartitionedCall/GEN/2r/strided_slice/stack_1", "StatefulPartitionedCall/GEN/2r/strided_slice/stack_2"], "attr": {"Index": {"type": "DT_INT32"}, "ellipsis_mask": {"i": "0"}, "T": {"type": "DT_INT32"}, "end_mask": {"i": "0"}, "new_axis_mask": {"i": "0"}, "shrink_axis_mask": {"i": "1"}, "begin_mask": {"i": "0"}}}, {"name": "StatefulPartitionedCall/GEN/res2c/Conv2D", "op": "Conv2D", "input": ["StatefulPartitionedCall/GEN/tf.reshape_11/Reshape", "StatefulPartitionedCall/GEN/res2c/Conv2D/Cast"], "device": "/device:CPU:0", "attr": {"T": {"type": "DT_HALF"}, "strides": {"list": {"i": ["1", "1", "1", "1"]}}, "dilations": {"list": {"i": ["1", "1", "1", "1"]}}, "explicit_paddings": {"list": {}}, "padding": {"s": "U0FNRQ=="}, "_input_shapes": {"list": {"shape": [{"dim": [{"size": "-46"}, {"size": "1"}, {"size": "16"}, {"size": "384"}]}, {"dim": [{"size": "1"}, {"size": "1"}, {"size": "384"}, {"size": "640"}]}]}}, "data_format": {"s": "TkhXQw=="}, "use_cudnn_on_gpu": {"b": true}}}, {"name": "StatefulPartitionedCall/GEN/2r/random_normal/shape", "op": "Pack", "input": ["StatefulPartitionedCall/GEN/2r/strided_slice", "StatefulPartitionedCall/GEN/2r/random_normal/shape/1", "StatefulPartitionedCall/GEN/2r/random_normal/shape/2", "StatefulPartitionedCall/GEN/2r/random_normal/shape/3"], "attr": {"T": {"type": "DT_INT32"}, "N": {"i": "4"}, "axis": {"i": "0"}}}, {"name": "StatefulPartitionedCall/GEN/res2c/BiasAdd", "op": "BiasAdd", "input": ["StatefulPartitionedCall/GEN/res2c/Conv2D", "StatefulPartitionedCall/GEN/res2c/BiasAdd/Cast"], "attr": {"T": {"type": "DT_HALF"}, "data_format": {"s": "TkhXQw=="}, "_input_shapes": {"list": {"shape": [{"dim": [{"size": "-46"}, {"size": "1"}, {"size": "16"}, {"size": "640"}]}, {"dim": [{"size": "640"}]}]}}}}, {"name": "StatefulPartitionedCall/GEN/2r/random_normal/RandomStandardNormal", "op": "RandomStandardNormal", "input": ["StatefulPartitionedCall/GEN/2r/random_normal/shape"], "attr": {"seed": {"i": "0"}, "T": {"type": "DT_INT32"}, "dtype": {"type": "DT_HALF"}, "seed2": {"i": "0"}}}, {"name": "StatefulPartitionedCall/GEN/2r/mul", "op": "Mul", "input": ["StatefulPartitionedCall/GEN/2r/Cast", "StatefulPartitionedCall/GEN/2r/random_normal/RandomStandardNormal"], "attr": {"T": {"type": "DT_HALF"}}}, {"name": "StatefulPartitionedCall/GEN/2r/add", "op": "AddV2", "input": ["StatefulPartitionedCall/GEN/2c/BiasAdd", "StatefulPartitionedCall/GEN/2r/mul"], "attr": {"T": {"type": "DT_HALF"}}}, {"name": "StatefulPartitionedCall/GEN/tf.math.reduce_std_13/reduce_std/reduce_variance/Mean", "op": "Mean", "input": ["StatefulPartitionedCall/GEN/2r/add", "StatefulPartitionedCall/GEN/tf.math.reduce_std_13/reduce_std/reduce_variance/Mean/reduction_indices"], "attr": {"Tidx": {"type": "DT_INT32"}, "T": {"type": "DT_HALF"}, "keep_dims": {"b": true}}}, {"name": "StatefulPartitionedCall/GEN/tf.math.reduce_std_13/reduce_std/reduce_variance/sub", "op": "SquaredDifference", "input": ["StatefulPartitionedCall/GEN/2r/add", "StatefulPartitionedCall/GEN/tf.math.reduce_std_13/reduce_std/reduce_variance/Mean"], "attr": {"T": {"type": "DT_HALF"}}}, {"name": "StatefulPartitionedCall/GEN/tf.math.reduce_std_13/reduce_std/reduce_variance/Mean_1", "op": "Mean", "input": ["StatefulPartitionedCall/GEN/tf.math.reduce_std_13/reduce_std/reduce_variance/sub", "StatefulPartitionedCall/GEN/tf.math.reduce_std_13/reduce_std/reduce_variance/Mean_1/reduction_indices"], "attr": {"T": {"type": "DT_HALF"}, "Tidx": {"type": "DT_INT32"}, "keep_dims": {"b": true}}}, {"name": "StatefulPartitionedCall/GEN/tf.math.reduce_std_13/reduce_std/Sqrt", "op": "Sqrt", "input": ["StatefulPartitionedCall/GEN/tf.math.reduce_std_13/reduce_std/reduce_variance/Mean_1"], "attr": {"T": {"type": "DT_HALF"}}}, {"name": "StatefulPartitionedCall/GEN/tf.__operators__.add_28/AddV2", "op": "AddV2", "input": ["StatefulPartitionedCall/GEN/tf.math.reduce_std_13/reduce_std/Sqrt", "StatefulPartitionedCall/GEN/tf.__operators__.add_28/y"], "attr": {"T": {"type": "DT_HALF"}}}, {"name": "StatefulPartitionedCall/GEN/tf.math.truediv_13/truediv", "op": "RealDiv", "input": ["StatefulPartitionedCall/GEN/2r/add", "StatefulPartitionedCall/GEN/tf.__operators__.add_28/AddV2"], "attr": {"T": {"type": "DT_HALF"}}}, {"name": "StatefulPartitionedCall/GEN/tf.math.multiply_33/Mul", "op": "Mul", "input": ["StatefulPartitionedCall/GEN/tf.math.truediv_13/truediv", "StatefulPartitionedCall/GEN/2ai/BiasAdd"], "attr": {"T": {"type": "DT_HALF"}}}, {"name": "StatefulPartitionedCall/GEN/tf.nn.silu_43/Sigmoid", "op": "Sigmoid", "input": ["StatefulPartitionedCall/GEN/tf.math.multiply_33/Mul"], "attr": {"_input_shapes": {"list": {"shape": [{"dim": [{"size": "-42"}, {"size": "-22"}, {"size": "16"}, {"size": "640"}]}]}}, "T": {"type": "DT_HALF"}}}, {"name": "StatefulPartitionedCall/GEN/tf.nn.silu_43/mul_1", "op": "Mul", "input": ["StatefulPartitionedCall/GEN/tf.math.multiply_33/Mul", "StatefulPartitionedCall/GEN/tf.nn.silu_43/Sigmoid"], "attr": {"T": {"type": "DT_HALF"}}}, {"name": "StatefulPartitionedCall/GEN/3c/Conv2D", "op": "Conv2D", "input": ["StatefulPartitionedCall/GEN/tf.nn.silu_43/mul_1", "StatefulPartitionedCall/GEN/3c/Conv2D/ArithmeticOptimizer/FoldMultiplyIntoConv_scaled_StatefulPartitionedCall/GEN/3c/Conv2D_Cast"], "device": "/device:CPU:0", "attr": {"dilations": {"list": {"i": ["1", "1", "1", "1"]}}, "_input_shapes": {"list": {"shape": [{"dim": [{"size": "-42"}, {"size": "-22"}, {"size": "16"}, {"size": "640"}]}, {"dim": [{"size": "1"}, {"size": "4"}, {"size": "640"}, {"size": "640"}]}]}}, "explicit_paddings": {"list": {}}, "use_cudnn_on_gpu": {"b": true}, "T": {"type": "DT_HALF"}, "data_format": {"s": "TkhXQw=="}, "strides": {"list": {"i": ["1", "1", "1", "1"]}}, "padding": {"s": "U0FNRQ=="}}}, {"name": "StatefulPartitionedCall/GEN/3c/BiasAdd", "op": "BiasAdd", "input": ["StatefulPartitionedCall/GEN/3c/Conv2D", "StatefulPartitionedCall/GEN/3c/BiasAdd/Cast"], "attr": {"data_format": {"s": "TkhXQw=="}, "_input_shapes": {"list": {"shape": [{"dim": [{"size": "-42"}, {"size": "-22"}, {"size": "16"}, {"size": "640"}]}, {"dim": [{"size": "640"}]}]}}, "T": {"type": "DT_HALF"}}}, {"name": "StatefulPartitionedCall/GEN/3r/Shape", "op": "Shape", "input": ["StatefulPartitionedCall/GEN/3c/BiasAdd"], "attr": {"out_type": {"type": "DT_INT32"}, "T": {"type": "DT_HALF"}}, "experimentalType": {"typeId": "TFT_PRODUCT", "args": [{"typeId": "TFT_SHAPE_TENSOR", "args": [{"typeId": "TFT_INT32"}]}]}}, {"name": "StatefulPartitionedCall/GEN/3r/strided_slice", "op": "StridedSlice", "input": ["StatefulPartitionedCall/GEN/3r/Shape", "StatefulPartitionedCall/GEN/3r/strided_slice/stack", "StatefulPartitionedCall/GEN/3r/strided_slice/stack_1", "StatefulPartitionedCall/GEN/3r/strided_slice/stack_2"], "attr": {"ellipsis_mask": {"i": "0"}, "end_mask": {"i": "0"}, "new_axis_mask": {"i": "0"}, "shrink_axis_mask": {"i": "1"}, "begin_mask": {"i": "0"}, "Index": {"type": "DT_INT32"}, "T": {"type": "DT_INT32"}}}, {"name": "StatefulPartitionedCall/GEN/3r/random_normal/shape", "op": "Pack", "input": ["StatefulPartitionedCall/GEN/3r/strided_slice", "StatefulPartitionedCall/GEN/3r/random_normal/shape/1", "StatefulPartitionedCall/GEN/3r/random_normal/shape/2", "StatefulPartitionedCall/GEN/3r/random_normal/shape/3"], "attr": {"T": {"type": "DT_INT32"}, "N": {"i": "4"}, "axis": {"i": "0"}}}, {"name": "StatefulPartitionedCall/GEN/3r/random_normal/RandomStandardNormal", "op": "RandomStandardNormal", "input": ["StatefulPartitionedCall/GEN/3r/random_normal/shape"], "attr": {"dtype": {"type": "DT_HALF"}, "seed": {"i": "0"}, "seed2": {"i": "0"}, "T": {"type": "DT_INT32"}}}, {"name": "StatefulPartitionedCall/GEN/3r/mul", "op": "Mul", "input": ["StatefulPartitionedCall/GEN/3r/Cast", "StatefulPartitionedCall/GEN/3r/random_normal/RandomStandardNormal"], "attr": {"T": {"type": "DT_HALF"}}}, {"name": "StatefulPartitionedCall/GEN/3r/add", "op": "AddV2", "input": ["StatefulPartitionedCall/GEN/3c/BiasAdd", "StatefulPartitionedCall/GEN/3r/mul"], "attr": {"T": {"type": "DT_HALF"}}}, {"name": "StatefulPartitionedCall/GEN/tf.math.reduce_std_14/reduce_std/reduce_variance/Mean", "op": "Mean", "input": ["StatefulPartitionedCall/GEN/3r/add", "StatefulPartitionedCall/GEN/tf.math.reduce_std_14/reduce_std/reduce_variance/Mean/reduction_indices"], "attr": {"keep_dims": {"b": true}, "Tidx": {"type": "DT_INT32"}, "T": {"type": "DT_HALF"}}}, {"name": "StatefulPartitionedCall/GEN/tf.math.reduce_std_14/reduce_std/reduce_variance/sub", "op": "SquaredDifference", "input": ["StatefulPartitionedCall/GEN/3r/add", "StatefulPartitionedCall/GEN/tf.math.reduce_std_14/reduce_std/reduce_variance/Mean"], "attr": {"T": {"type": "DT_HALF"}}}, {"name": "StatefulPartitionedCall/GEN/tf.math.reduce_std_14/reduce_std/reduce_variance/Mean_1", "op": "Mean", "input": ["StatefulPartitionedCall/GEN/tf.math.reduce_std_14/reduce_std/reduce_variance/sub", "StatefulPartitionedCall/GEN/tf.math.reduce_std_14/reduce_std/reduce_variance/Mean_1/reduction_indices"], "attr": {"Tidx": {"type": "DT_INT32"}, "keep_dims": {"b": true}, "T": {"type": "DT_HALF"}}}, {"name": "StatefulPartitionedCall/GEN/tf.math.reduce_std_14/reduce_std/Sqrt", "op": "Sqrt", "input": ["StatefulPartitionedCall/GEN/tf.math.reduce_std_14/reduce_std/reduce_variance/Mean_1"], "attr": {"T": {"type": "DT_HALF"}}}, {"name": "StatefulPartitionedCall/GEN/tf.__operators__.add_29/AddV2", "op": "AddV2", "input": ["StatefulPartitionedCall/GEN/tf.math.reduce_std_14/reduce_std/Sqrt", "StatefulPartitionedCall/GEN/tf.__operators__.add_29/y"], "attr": {"T": {"type": "DT_HALF"}}}, {"name": "StatefulPartitionedCall/GEN/tf.math.truediv_14/truediv", "op": "RealDiv", "input": ["StatefulPartitionedCall/GEN/3r/add", "StatefulPartitionedCall/GEN/tf.__operators__.add_29/AddV2"], "attr": {"T": {"type": "DT_HALF"}}}, {"name": "StatefulPartitionedCall/GEN/tf.math.multiply_35/Mul", "op": "Mul", "input": ["StatefulPartitionedCall/GEN/tf.math.truediv_14/truediv", "StatefulPartitionedCall/GEN/3ai/BiasAdd"], "attr": {"T": {"type": "DT_HALF"}}}, {"name": "StatefulPartitionedCall/GEN/tf.nn.silu_44/mul_1", "op": "Mul", "input": ["unknown_29", "StatefulPartitionedCall/GEN/tf.math.multiply_35/Mul"], "attr": {"T": {"type": "DT_HALF"}, "_grappler_ArithmeticOptimizer_MinimizeBroadcasts": {"b": true}}}, {"name": "StatefulPartitionedCall/GEN/tf.nn.silu_44/Sigmoid", "op": "Sigmoid", "input": ["StatefulPartitionedCall/GEN/tf.math.multiply_35/Mul"], "attr": {"T": {"type": "DT_HALF"}, "_input_shapes": {"list": {"shape": [{"dim": [{"size": "-45"}, {"size": "-22"}, {"size": "16"}, {"size": "640"}]}]}}}}, {"name": "StatefulPartitionedCall/GEN/tf.math.multiply_36/Mul", "op": "Mul", "input": ["StatefulPartitionedCall/GEN/tf.nn.silu_44/mul_1", "StatefulPartitionedCall/GEN/tf.nn.silu_44/Sigmoid"], "attr": {"T": {"type": "DT_HALF"}, "_grappler_ArithmeticOptimizer_MinimizeBroadcasts": {"b": true}}}, {"name": "StatefulPartitionedCall/GEN/tf.__operators__.add_30/AddV2", "op": "AddV2", "input": ["StatefulPartitionedCall/GEN/tf.math.multiply_36/Mul", "StatefulPartitionedCall/GEN/res2c/BiasAdd"], "attr": {"T": {"type": "DT_HALF"}}}, {"name": "StatefulPartitionedCall/GEN/4c/Shape", "op": "Shape", "input": ["StatefulPartitionedCall/GEN/tf.__operators__.add_30/AddV2"], "attr": {"out_type": {"type": "DT_INT32"}, "T": {"type": "DT_HALF"}}, "experimentalType": {"typeId": "TFT_PRODUCT", "args": [{"typeId": "TFT_SHAPE_TENSOR", "args": [{"typeId": "TFT_INT32"}]}]}}, {"name": "StatefulPartitionedCall/GEN/tf.compat.v1.shape_6/Shape", "op": "Shape", "input": ["StatefulPartitionedCall/GEN/tf.__operators__.add_30/AddV2"], "attr": {"out_type": {"type": "DT_INT32"}, "T": {"type": "DT_HALF"}}, "experimentalType": {"typeId": "TFT_PRODUCT", "args": [{"typeId": "TFT_SHAPE_TENSOR", "args": [{"typeId": "TFT_INT32"}]}]}}, {"name": "StatefulPartitionedCall/GEN/4c/strided_slice", "op": "StridedSlice", "input": ["StatefulPartitionedCall/GEN/4c/Shape", "StatefulPartitionedCall/GEN/4c/strided_slice/stack", "StatefulPartitionedCall/GEN/4c/strided_slice/stack_1", "StatefulPartitionedCall/GEN/4c/strided_slice/stack_2"], "attr": {"begin_mask": {"i": "0"}, "shrink_axis_mask": {"i": "1"}, "end_mask": {"i": "0"}, "ellipsis_mask": {"i": "0"}, "Index": {"type": "DT_INT32"}, "T": {"type": "DT_INT32"}, "new_axis_mask": {"i": "0"}}}, {"name": "StatefulPartitionedCall/GEN/tf.__operators__.getitem_6/strided_slice", "op": "StridedSlice", "input": ["StatefulPartitionedCall/GEN/tf.compat.v1.shape_6/Shape", "StatefulPartitionedCall/GEN/tf.__operators__.getitem_6/strided_slice/stack", "StatefulPartitionedCall/GEN/tf.__operators__.getitem_6/strided_slice/stack_1", "StatefulPartitionedCall/GEN/tf.__operators__.getitem_6/strided_slice/stack_2"], "attr": {"end_mask": {"i": "0"}, "begin_mask": {"i": "0"}, "shrink_axis_mask": {"i": "1"}, "Index": {"type": "DT_INT32"}, "T": {"type": "DT_INT32"}, "ellipsis_mask": {"i": "0"}, "new_axis_mask": {"i": "0"}}}, {"name": "StatefulPartitionedCall/GEN/4c/stack", "op": "Pack", "input": ["StatefulPartitionedCall/GEN/4c/strided_slice", "StatefulPartitionedCall/GEN/4c/stack/1", "StatefulPartitionedCall/GEN/4c/stack/2", "StatefulPartitionedCall/GEN/4c/stack/3"], "attr": {"axis": {"i": "0"}, "T": {"type": "DT_INT32"}, "N": {"i": "4"}}}, {"name": "StatefulPartitionedCall/GEN/tf.reshape_12/Reshape/shape", "op": "Pack", "input": ["StatefulPartitionedCall/GEN/tf.__operators__.getitem_6/strided_slice", "StatefulPartitionedCall/GEN/tf.reshape_12/Reshape/shape/1", "StatefulPartitionedCall/GEN/tf.reshape_12/Reshape/shape/2", "StatefulPartitionedCall/GEN/tf.reshape_12/Reshape/shape/3", "StatefulPartitionedCall/GEN/tf.reshape_12/Reshape/shape/4"], "attr": {"T": {"type": "DT_INT32"}, "axis": {"i": "0"}, "N": {"i": "5"}}}, {"name": "StatefulPartitionedCall/GEN/tf.reshape_13/Reshape/shape", "op": "Pack", "input": ["StatefulPartitionedCall/GEN/tf.__operators__.getitem_6/strided_slice", "StatefulPartitionedCall/GEN/tf.reshape_13/Reshape/shape/1", "StatefulPartitionedCall/GEN/tf.reshape_13/Reshape/shape/2", "StatefulPartitionedCall/GEN/tf.reshape_13/Reshape/shape/3"], "attr": {"axis": {"i": "0"}, "N": {"i": "4"}, "T": {"type": "DT_INT32"}}}, {"name": "StatefulPartitionedCall/GEN/4c/conv2d_transpose", "op": "Conv2DBackpropInput", "input": ["StatefulPartitionedCall/GEN/4c/stack", "StatefulPartitionedCall/GEN/4c/conv2d_transpose/Cast", "StatefulPartitionedCall/GEN/tf.__operators__.add_30/AddV2"], "attr": {"dilations": {"list": {"i": ["1", "1", "1", "1"]}}, "padding": {"s": "U0FNRQ=="}, "data_format": {"s": "TkhXQw=="}, "use_cudnn_on_gpu": {"b": true}, "strides": {"list": {"i": ["1", "1", "2", "1"]}}, "T": {"type": "DT_HALF"}, "explicit_paddings": {"list": {}}}}, {"name": "StatefulPartitionedCall/GEN/tf.reshape_12/Reshape", "op": "Reshape", "input": ["StatefulPartitionedCall/GEN/tf.__operators__.add_30/AddV2", "StatefulPartitionedCall/GEN/tf.reshape_12/Reshape/shape"], "attr": {"Tshape": {"type": "DT_INT32"}, "T": {"type": "DT_HALF"}}}, {"name": "StatefulPartitionedCall/GEN/4c/BiasAdd", "op": "BiasAdd", "input": ["StatefulPartitionedCall/GEN/4c/conv2d_transpose", "StatefulPartitionedCall/GEN/4c/BiasAdd/Cast"], "attr": {"_input_shapes": {"list": {"shape": [{"dim": [{"size": "-6"}, {"size": "1"}, {"size": "32"}, {"size": "512"}]}, {"dim": [{"size": "512"}]}]}}, "data_format": {"s": "TkhXQw=="}, "T": {"type": "DT_HALF"}}}, {"name": "StatefulPartitionedCall/GEN/tf.compat.v1.transpose_9/transpose", "op": "Transpose", "input": ["StatefulPartitionedCall/GEN/tf.reshape_12/Reshape", "StatefulPartitionedCall/GEN/tf.compat.v1.transpose_9/transpose/perm"], "attr": {"Tperm": {"type": "DT_INT32"}, "_input_shapes": {"list": {"shape": [{"dim": [{"size": "-53"}, {"size": "1"}, {"size": "16"}, {"size": "320"}, {"size": "2"}]}, {"dim": [{"size": "5"}]}]}}, "T": {"type": "DT_HALF"}}}, {"name": "StatefulPartitionedCall/GEN/4r/Shape", "op": "Shape", "input": ["StatefulPartitionedCall/GEN/4c/BiasAdd"], "attr": {"T": {"type": "DT_HALF"}, "out_type": {"type": "DT_INT32"}}, "experimentalType": {"typeId": "TFT_PRODUCT", "args": [{"typeId": "TFT_SHAPE_TENSOR", "args": [{"typeId": "TFT_INT32"}]}]}}, {"name": "StatefulPartitionedCall/GEN/tf.reshape_13/Reshape", "op": "Reshape", "input": ["StatefulPartitionedCall/GEN/tf.compat.v1.transpose_9/transpose", "StatefulPartitionedCall/GEN/tf.reshape_13/Reshape/shape"], "attr": {"T": {"type": "DT_HALF"}, "Tshape": {"type": "DT_INT32"}}}, {"name": "StatefulPartitionedCall/GEN/4r/strided_slice", "op": "StridedSlice", "input": ["StatefulPartitionedCall/GEN/4r/Shape", "StatefulPartitionedCall/GEN/4r/strided_slice/stack", "StatefulPartitionedCall/GEN/4r/strided_slice/stack_1", "StatefulPartitionedCall/GEN/4r/strided_slice/stack_2"], "attr": {"ellipsis_mask": {"i": "0"}, "Index": {"type": "DT_INT32"}, "new_axis_mask": {"i": "0"}, "begin_mask": {"i": "0"}, "shrink_axis_mask": {"i": "1"}, "T": {"type": "DT_INT32"}, "end_mask": {"i": "0"}}}, {"name": "StatefulPartitionedCall/GEN/res3c/Conv2D", "op": "Conv2D", "input": ["StatefulPartitionedCall/GEN/tf.reshape_13/Reshape", "StatefulPartitionedCall/GEN/res3c/Conv2D/Cast"], "device": "/device:CPU:0", "attr": {"data_format": {"s": "TkhXQw=="}, "_input_shapes": {"list": {"shape": [{"dim": [{"size": "-53"}, {"size": "1"}, {"size": "32"}, {"size": "320"}]}, {"dim": [{"size": "1"}, {"size": "1"}, {"size": "320"}, {"size": "512"}]}]}}, "strides": {"list": {"i": ["1", "1", "1", "1"]}}, "dilations": {"list": {"i": ["1", "1", "1", "1"]}}, "T": {"type": "DT_HALF"}, "use_cudnn_on_gpu": {"b": true}, "explicit_paddings": {"list": {}}, "padding": {"s": "U0FNRQ=="}}}, {"name": "StatefulPartitionedCall/GEN/4r/random_normal/shape", "op": "Pack", "input": ["StatefulPartitionedCall/GEN/4r/strided_slice", "StatefulPartitionedCall/GEN/4r/random_normal/shape/1", "StatefulPartitionedCall/GEN/4r/random_normal/shape/2", "StatefulPartitionedCall/GEN/4r/random_normal/shape/3"], "attr": {"axis": {"i": "0"}, "T": {"type": "DT_INT32"}, "N": {"i": "4"}}}, {"name": "StatefulPartitionedCall/GEN/res3c/BiasAdd", "op": "BiasAdd", "input": ["StatefulPartitionedCall/GEN/res3c/Conv2D", "StatefulPartitionedCall/GEN/res3c/BiasAdd/Cast"], "attr": {"T": {"type": "DT_HALF"}, "_input_shapes": {"list": {"shape": [{"dim": [{"size": "-53"}, {"size": "1"}, {"size": "32"}, {"size": "512"}]}, {"dim": [{"size": "512"}]}]}}, "data_format": {"s": "TkhXQw=="}}}, {"name": "StatefulPartitionedCall/GEN/4r/random_normal/RandomStandardNormal", "op": "RandomStandardNormal", "input": ["StatefulPartitionedCall/GEN/4r/random_normal/shape"], "attr": {"dtype": {"type": "DT_HALF"}, "seed": {"i": "0"}, "seed2": {"i": "0"}, "T": {"type": "DT_INT32"}}}, {"name": "StatefulPartitionedCall/GEN/4r/mul", "op": "Mul", "input": ["StatefulPartitionedCall/GEN/4r/Cast", "StatefulPartitionedCall/GEN/4r/random_normal/RandomStandardNormal"], "attr": {"T": {"type": "DT_HALF"}}}, {"name": "StatefulPartitionedCall/GEN/4r/add", "op": "AddV2", "input": ["StatefulPartitionedCall/GEN/4c/BiasAdd", "StatefulPartitionedCall/GEN/4r/mul"], "attr": {"T": {"type": "DT_HALF"}}}, {"name": "StatefulPartitionedCall/GEN/tf.math.reduce_std_15/reduce_std/reduce_variance/Mean", "op": "Mean", "input": ["StatefulPartitionedCall/GEN/4r/add", "StatefulPartitionedCall/GEN/tf.math.reduce_std_15/reduce_std/reduce_variance/Mean/reduction_indices"], "attr": {"keep_dims": {"b": true}, "Tidx": {"type": "DT_INT32"}, "T": {"type": "DT_HALF"}}}, {"name": "StatefulPartitionedCall/GEN/tf.math.reduce_std_15/reduce_std/reduce_variance/sub", "op": "SquaredDifference", "input": ["StatefulPartitionedCall/GEN/4r/add", "StatefulPartitionedCall/GEN/tf.math.reduce_std_15/reduce_std/reduce_variance/Mean"], "attr": {"T": {"type": "DT_HALF"}}}, {"name": "StatefulPartitionedCall/GEN/tf.math.reduce_std_15/reduce_std/reduce_variance/Mean_1", "op": "Mean", "input": ["StatefulPartitionedCall/GEN/tf.math.reduce_std_15/reduce_std/reduce_variance/sub", "StatefulPartitionedCall/GEN/tf.math.reduce_std_15/reduce_std/reduce_variance/Mean_1/reduction_indices"], "attr": {"keep_dims": {"b": true}, "Tidx": {"type": "DT_INT32"}, "T": {"type": "DT_HALF"}}}, {"name": "StatefulPartitionedCall/GEN/tf.math.reduce_std_15/reduce_std/Sqrt", "op": "Sqrt", "input": ["StatefulPartitionedCall/GEN/tf.math.reduce_std_15/reduce_std/reduce_variance/Mean_1"], "attr": {"T": {"type": "DT_HALF"}}}, {"name": "StatefulPartitionedCall/GEN/tf.__operators__.add_31/AddV2", "op": "AddV2", "input": ["StatefulPartitionedCall/GEN/tf.math.reduce_std_15/reduce_std/Sqrt", "StatefulPartitionedCall/GEN/tf.__operators__.add_31/y"], "attr": {"T": {"type": "DT_HALF"}}}, {"name": "StatefulPartitionedCall/GEN/tf.math.truediv_15/truediv", "op": "RealDiv", "input": ["StatefulPartitionedCall/GEN/4r/add", "StatefulPartitionedCall/GEN/tf.__operators__.add_31/AddV2"], "attr": {"T": {"type": "DT_HALF"}}}, {"name": "StatefulPartitionedCall/GEN/tf.math.multiply_37/Mul", "op": "Mul", "input": ["StatefulPartitionedCall/GEN/tf.math.truediv_15/truediv", "StatefulPartitionedCall/GEN/4ai/BiasAdd"], "attr": {"T": {"type": "DT_HALF"}}}, {"name": "StatefulPartitionedCall/GEN/tf.nn.silu_45/Sigmoid", "op": "Sigmoid", "input": ["StatefulPartitionedCall/GEN/tf.math.multiply_37/Mul"], "attr": {"_input_shapes": {"list": {"shape": [{"dim": [{"size": "-49"}, {"size": "-20"}, {"size": "32"}, {"size": "512"}]}]}}, "T": {"type": "DT_HALF"}}}, {"name": "StatefulPartitionedCall/GEN/tf.nn.silu_45/mul_1", "op": "Mul", "input": ["StatefulPartitionedCall/GEN/tf.math.multiply_37/Mul", "StatefulPartitionedCall/GEN/tf.nn.silu_45/Sigmoid"], "attr": {"T": {"type": "DT_HALF"}}}, {"name": "StatefulPartitionedCall/GEN/5c/Conv2D", "op": "Conv2D", "input": ["StatefulPartitionedCall/GEN/tf.nn.silu_45/mul_1", "StatefulPartitionedCall/GEN/5c/Conv2D/ArithmeticOptimizer/FoldMultiplyIntoConv_scaled_StatefulPartitionedCall/GEN/5c/Conv2D_Cast"], "device": "/device:CPU:0", "attr": {"dilations": {"list": {"i": ["1", "1", "1", "1"]}}, "explicit_paddings": {"list": {}}, "data_format": {"s": "TkhXQw=="}, "strides": {"list": {"i": ["1", "1", "1", "1"]}}, "_input_shapes": {"list": {"shape": [{"dim": [{"size": "-49"}, {"size": "-20"}, {"size": "32"}, {"size": "512"}]}, {"dim": [{"size": "1"}, {"size": "4"}, {"size": "512"}, {"size": "512"}]}]}}, "padding": {"s": "U0FNRQ=="}, "T": {"type": "DT_HALF"}, "use_cudnn_on_gpu": {"b": true}}}, {"name": "StatefulPartitionedCall/GEN/5c/BiasAdd", "op": "BiasAdd", "input": ["StatefulPartitionedCall/GEN/5c/Conv2D", "StatefulPartitionedCall/GEN/5c/BiasAdd/Cast"], "attr": {"_input_shapes": {"list": {"shape": [{"dim": [{"size": "-49"}, {"size": "-20"}, {"size": "32"}, {"size": "512"}]}, {"dim": [{"size": "512"}]}]}}, "data_format": {"s": "TkhXQw=="}, "T": {"type": "DT_HALF"}}}, {"name": "StatefulPartitionedCall/GEN/5r/Shape", "op": "Shape", "input": ["StatefulPartitionedCall/GEN/5c/BiasAdd"], "attr": {"T": {"type": "DT_HALF"}, "out_type": {"type": "DT_INT32"}}, "experimentalType": {"typeId": "TFT_PRODUCT", "args": [{"typeId": "TFT_SHAPE_TENSOR", "args": [{"typeId": "TFT_INT32"}]}]}}, {"name": "StatefulPartitionedCall/GEN/5r/strided_slice", "op": "StridedSlice", "input": ["StatefulPartitionedCall/GEN/5r/Shape", "StatefulPartitionedCall/GEN/5r/strided_slice/stack", "StatefulPartitionedCall/GEN/5r/strided_slice/stack_1", "StatefulPartitionedCall/GEN/5r/strided_slice/stack_2"], "attr": {"shrink_axis_mask": {"i": "1"}, "begin_mask": {"i": "0"}, "Index": {"type": "DT_INT32"}, "new_axis_mask": {"i": "0"}, "T": {"type": "DT_INT32"}, "end_mask": {"i": "0"}, "ellipsis_mask": {"i": "0"}}}, {"name": "StatefulPartitionedCall/GEN/5r/random_normal/shape", "op": "Pack", "input": ["StatefulPartitionedCall/GEN/5r/strided_slice", "StatefulPartitionedCall/GEN/5r/random_normal/shape/1", "StatefulPartitionedCall/GEN/5r/random_normal/shape/2", "StatefulPartitionedCall/GEN/5r/random_normal/shape/3"], "attr": {"T": {"type": "DT_INT32"}, "axis": {"i": "0"}, "N": {"i": "4"}}}, {"name": "StatefulPartitionedCall/GEN/5r/random_normal/RandomStandardNormal", "op": "RandomStandardNormal", "input": ["StatefulPartitionedCall/GEN/5r/random_normal/shape"], "attr": {"T": {"type": "DT_INT32"}, "seed": {"i": "0"}, "seed2": {"i": "0"}, "dtype": {"type": "DT_HALF"}}}, {"name": "StatefulPartitionedCall/GEN/5r/mul", "op": "Mul", "input": ["StatefulPartitionedCall/GEN/5r/Cast", "StatefulPartitionedCall/GEN/5r/random_normal/RandomStandardNormal"], "attr": {"T": {"type": "DT_HALF"}}}, {"name": "StatefulPartitionedCall/GEN/5r/add", "op": "AddV2", "input": ["StatefulPartitionedCall/GEN/5c/BiasAdd", "StatefulPartitionedCall/GEN/5r/mul"], "attr": {"T": {"type": "DT_HALF"}}}, {"name": "StatefulPartitionedCall/GEN/tf.math.reduce_std_16/reduce_std/reduce_variance/Mean", "op": "Mean", "input": ["StatefulPartitionedCall/GEN/5r/add", "StatefulPartitionedCall/GEN/tf.math.reduce_std_16/reduce_std/reduce_variance/Mean/reduction_indices"], "attr": {"keep_dims": {"b": true}, "Tidx": {"type": "DT_INT32"}, "T": {"type": "DT_HALF"}}}, {"name": "StatefulPartitionedCall/GEN/tf.math.reduce_std_16/reduce_std/reduce_variance/sub", "op": "SquaredDifference", "input": ["StatefulPartitionedCall/GEN/5r/add", "StatefulPartitionedCall/GEN/tf.math.reduce_std_16/reduce_std/reduce_variance/Mean"], "attr": {"T": {"type": "DT_HALF"}}}, {"name": "StatefulPartitionedCall/GEN/tf.math.reduce_std_16/reduce_std/reduce_variance/Mean_1", "op": "Mean", "input": ["StatefulPartitionedCall/GEN/tf.math.reduce_std_16/reduce_std/reduce_variance/sub", "StatefulPartitionedCall/GEN/tf.math.reduce_std_16/reduce_std/reduce_variance/Mean_1/reduction_indices"], "attr": {"keep_dims": {"b": true}, "Tidx": {"type": "DT_INT32"}, "T": {"type": "DT_HALF"}}}, {"name": "StatefulPartitionedCall/GEN/tf.math.reduce_std_16/reduce_std/Sqrt", "op": "Sqrt", "input": ["StatefulPartitionedCall/GEN/tf.math.reduce_std_16/reduce_std/reduce_variance/Mean_1"], "attr": {"T": {"type": "DT_HALF"}}}, {"name": "StatefulPartitionedCall/GEN/tf.__operators__.add_32/AddV2", "op": "AddV2", "input": ["StatefulPartitionedCall/GEN/tf.math.reduce_std_16/reduce_std/Sqrt", "StatefulPartitionedCall/GEN/tf.__operators__.add_32/y"], "attr": {"T": {"type": "DT_HALF"}}}, {"name": "StatefulPartitionedCall/GEN/tf.math.truediv_16/truediv", "op": "RealDiv", "input": ["StatefulPartitionedCall/GEN/5r/add", "StatefulPartitionedCall/GEN/tf.__operators__.add_32/AddV2"], "attr": {"T": {"type": "DT_HALF"}}}, {"name": "StatefulPartitionedCall/GEN/tf.math.multiply_39/Mul", "op": "Mul", "input": ["StatefulPartitionedCall/GEN/tf.math.truediv_16/truediv", "StatefulPartitionedCall/GEN/5ai/BiasAdd"], "attr": {"T": {"type": "DT_HALF"}}}, {"name": "StatefulPartitionedCall/GEN/tf.nn.silu_46/mul_1", "op": "Mul", "input": ["unknown_43", "StatefulPartitionedCall/GEN/tf.math.multiply_39/Mul"], "attr": {"_grappler_ArithmeticOptimizer_MinimizeBroadcasts": {"b": true}, "T": {"type": "DT_HALF"}}}, {"name": "StatefulPartitionedCall/GEN/tf.nn.silu_46/Sigmoid", "op": "Sigmoid", "input": ["StatefulPartitionedCall/GEN/tf.math.multiply_39/Mul"], "attr": {"_input_shapes": {"list": {"shape": [{"dim": [{"size": "-52"}, {"size": "-20"}, {"size": "32"}, {"size": "512"}]}]}}, "T": {"type": "DT_HALF"}}}, {"name": "StatefulPartitionedCall/GEN/tf.math.multiply_40/Mul", "op": "Mul", "input": ["StatefulPartitionedCall/GEN/tf.nn.silu_46/mul_1", "StatefulPartitionedCall/GEN/tf.nn.silu_46/Sigmoid"], "attr": {"T": {"type": "DT_HALF"}, "_grappler_ArithmeticOptimizer_MinimizeBroadcasts": {"b": true}}}, {"name": "StatefulPartitionedCall/GEN/tf.__operators__.add_33/AddV2", "op": "AddV2", "input": ["StatefulPartitionedCall/GEN/tf.math.multiply_40/Mul", "StatefulPartitionedCall/GEN/res3c/BiasAdd"], "attr": {"T": {"type": "DT_HALF"}}}, {"name": "StatefulPartitionedCall/GEN/6c/Shape", "op": "Shape", "input": ["StatefulPartitionedCall/GEN/tf.__operators__.add_33/AddV2"], "attr": {"out_type": {"type": "DT_INT32"}, "T": {"type": "DT_HALF"}}, "experimentalType": {"typeId": "TFT_PRODUCT", "args": [{"typeId": "TFT_SHAPE_TENSOR", "args": [{"typeId": "TFT_INT32"}]}]}}, {"name": "StatefulPartitionedCall/GEN/tf.compat.v1.shape_7/Shape", "op": "Shape", "input": ["StatefulPartitionedCall/GEN/tf.__operators__.add_33/AddV2"], "attr": {"T": {"type": "DT_HALF"}, "out_type": {"type": "DT_INT32"}}, "experimentalType": {"typeId": "TFT_PRODUCT", "args": [{"typeId": "TFT_SHAPE_TENSOR", "args": [{"typeId": "TFT_INT32"}]}]}}, {"name": "StatefulPartitionedCall/GEN/6c/strided_slice", "op": "StridedSlice", "input": ["StatefulPartitionedCall/GEN/6c/Shape", "StatefulPartitionedCall/GEN/6c/strided_slice/stack", "StatefulPartitionedCall/GEN/6c/strided_slice/stack_1", "StatefulPartitionedCall/GEN/6c/strided_slice/stack_2"], "attr": {"new_axis_mask": {"i": "0"}, "end_mask": {"i": "0"}, "T": {"type": "DT_INT32"}, "shrink_axis_mask": {"i": "1"}, "begin_mask": {"i": "0"}, "ellipsis_mask": {"i": "0"}, "Index": {"type": "DT_INT32"}}}, {"name": "StatefulPartitionedCall/GEN/tf.__operators__.getitem_7/strided_slice", "op": "StridedSlice", "input": ["StatefulPartitionedCall/GEN/tf.compat.v1.shape_7/Shape", "StatefulPartitionedCall/GEN/tf.__operators__.getitem_7/strided_slice/stack", "StatefulPartitionedCall/GEN/tf.__operators__.getitem_7/strided_slice/stack_1", "StatefulPartitionedCall/GEN/tf.__operators__.getitem_7/strided_slice/stack_2"], "attr": {"ellipsis_mask": {"i": "0"}, "new_axis_mask": {"i": "0"}, "Index": {"type": "DT_INT32"}, "shrink_axis_mask": {"i": "1"}, "begin_mask": {"i": "0"}, "end_mask": {"i": "0"}, "T": {"type": "DT_INT32"}}}, {"name": "StatefulPartitionedCall/GEN/6c/stack", "op": "Pack", "input": ["StatefulPartitionedCall/GEN/6c/strided_slice", "StatefulPartitionedCall/GEN/6c/stack/1", "StatefulPartitionedCall/GEN/6c/stack/2", "StatefulPartitionedCall/GEN/6c/stack/3"], "attr": {"T": {"type": "DT_INT32"}, "axis": {"i": "0"}, "N": {"i": "4"}}}, {"name": "StatefulPartitionedCall/GEN/tf.reshape_14/Reshape/shape", "op": "Pack", "input": ["StatefulPartitionedCall/GEN/tf.__operators__.getitem_7/strided_slice", "StatefulPartitionedCall/GEN/tf.reshape_14/Reshape/shape/1", "StatefulPartitionedCall/GEN/tf.reshape_14/Reshape/shape/2", "StatefulPartitionedCall/GEN/tf.reshape_14/Reshape/shape/3", "StatefulPartitionedCall/GEN/tf.reshape_14/Reshape/shape/4"], "attr": {"N": {"i": "5"}, "T": {"type": "DT_INT32"}, "axis": {"i": "0"}}}, {"name": "StatefulPartitionedCall/GEN/tf.reshape_15/Reshape/shape", "op": "Pack", "input": ["StatefulPartitionedCall/GEN/tf.__operators__.getitem_7/strided_slice", "StatefulPartitionedCall/GEN/tf.reshape_15/Reshape/shape/1", "StatefulPartitionedCall/GEN/tf.reshape_15/Reshape/shape/2", "StatefulPartitionedCall/GEN/tf.reshape_15/Reshape/shape/3"], "attr": {"axis": {"i": "0"}, "N": {"i": "4"}, "T": {"type": "DT_INT32"}}}, {"name": "StatefulPartitionedCall/GEN/6c/conv2d_transpose", "op": "Conv2DBackpropInput", "input": ["StatefulPartitionedCall/GEN/6c/stack", "StatefulPartitionedCall/GEN/6c/conv2d_transpose/Cast", "StatefulPartitionedCall/GEN/tf.__operators__.add_33/AddV2"], "attr": {"data_format": {"s": "TkhXQw=="}, "strides": {"list": {"i": ["1", "1", "2", "1"]}}, "explicit_paddings": {"list": {}}, "T": {"type": "DT_HALF"}, "dilations": {"list": {"i": ["1", "1", "1", "1"]}}, "use_cudnn_on_gpu": {"b": true}, "padding": {"s": "U0FNRQ=="}}}, {"name": "StatefulPartitionedCall/GEN/tf.reshape_14/Reshape", "op": "Reshape", "input": ["StatefulPartitionedCall/GEN/tf.__operators__.add_33/AddV2", "StatefulPartitionedCall/GEN/tf.reshape_14/Reshape/shape"], "attr": {"T": {"type": "DT_HALF"}, "Tshape": {"type": "DT_INT32"}}}, {"name": "StatefulPartitionedCall/GEN/6c/BiasAdd", "op": "BiasAdd", "input": ["StatefulPartitionedCall/GEN/6c/conv2d_transpose", "StatefulPartitionedCall/GEN/6c/BiasAdd/Cast"], "attr": {"T": {"type": "DT_HALF"}, "data_format": {"s": "TkhXQw=="}, "_input_shapes": {"list": {"shape": [{"dim": [{"size": "-8"}, {"size": "1"}, {"size": "64"}, {"size": "384"}]}, {"dim": [{"size": "384"}]}]}}}}, {"name": "StatefulPartitionedCall/GEN/tf.compat.v1.transpose_10/transpose", "op": "Transpose", "input": ["StatefulPartitionedCall/GEN/tf.reshape_14/Reshape", "StatefulPartitionedCall/GEN/tf.compat.v1.transpose_10/transpose/perm"], "attr": {"_input_shapes": {"list": {"shape": [{"dim": [{"size": "-60"}, {"size": "1"}, {"size": "32"}, {"size": "256"}, {"size": "2"}]}, {"dim": [{"size": "5"}]}]}}, "T": {"type": "DT_HALF"}, "Tperm": {"type": "DT_INT32"}}}, {"name": "StatefulPartitionedCall/GEN/6r/Shape", "op": "Shape", "input": ["StatefulPartitionedCall/GEN/6c/BiasAdd"], "attr": {"T": {"type": "DT_HALF"}, "out_type": {"type": "DT_INT32"}}, "experimentalType": {"typeId": "TFT_PRODUCT", "args": [{"typeId": "TFT_SHAPE_TENSOR", "args": [{"typeId": "TFT_INT32"}]}]}}, {"name": "StatefulPartitionedCall/GEN/tf.reshape_15/Reshape", "op": "Reshape", "input": ["StatefulPartitionedCall/GEN/tf.compat.v1.transpose_10/transpose", "StatefulPartitionedCall/GEN/tf.reshape_15/Reshape/shape"], "attr": {"T": {"type": "DT_HALF"}, "Tshape": {"type": "DT_INT32"}}}, {"name": "StatefulPartitionedCall/GEN/6r/strided_slice", "op": "StridedSlice", "input": ["StatefulPartitionedCall/GEN/6r/Shape", "StatefulPartitionedCall/GEN/6r/strided_slice/stack", "StatefulPartitionedCall/GEN/6r/strided_slice/stack_1", "StatefulPartitionedCall/GEN/6r/strided_slice/stack_2"], "attr": {"Index": {"type": "DT_INT32"}, "end_mask": {"i": "0"}, "shrink_axis_mask": {"i": "1"}, "T": {"type": "DT_INT32"}, "ellipsis_mask": {"i": "0"}, "new_axis_mask": {"i": "0"}, "begin_mask": {"i": "0"}}}, {"name": "StatefulPartitionedCall/GEN/res4c/Conv2D", "op": "Conv2D", "input": ["StatefulPartitionedCall/GEN/tf.reshape_15/Reshape", "StatefulPartitionedCall/GEN/res4c/Conv2D/Cast"], "device": "/device:CPU:0", "attr": {"T": {"type": "DT_HALF"}, "strides": {"list": {"i": ["1", "1", "1", "1"]}}, "padding": {"s": "U0FNRQ=="}, "use_cudnn_on_gpu": {"b": true}, "_input_shapes": {"list": {"shape": [{"dim": [{"size": "-60"}, {"size": "1"}, {"size": "64"}, {"size": "256"}]}, {"dim": [{"size": "1"}, {"size": "1"}, {"size": "256"}, {"size": "384"}]}]}}, "data_format": {"s": "TkhXQw=="}, "explicit_paddings": {"list": {}}, "dilations": {"list": {"i": ["1", "1", "1", "1"]}}}}, {"name": "StatefulPartitionedCall/GEN/6r/random_normal/shape", "op": "Pack", "input": ["StatefulPartitionedCall/GEN/6r/strided_slice", "StatefulPartitionedCall/GEN/6r/random_normal/shape/1", "StatefulPartitionedCall/GEN/6r/random_normal/shape/2", "StatefulPartitionedCall/GEN/6r/random_normal/shape/3"], "attr": {"N": {"i": "4"}, "axis": {"i": "0"}, "T": {"type": "DT_INT32"}}}, {"name": "StatefulPartitionedCall/GEN/res4c/BiasAdd", "op": "BiasAdd", "input": ["StatefulPartitionedCall/GEN/res4c/Conv2D", "StatefulPartitionedCall/GEN/res4c/BiasAdd/Cast"], "attr": {"T": {"type": "DT_HALF"}, "data_format": {"s": "TkhXQw=="}, "_input_shapes": {"list": {"shape": [{"dim": [{"size": "-60"}, {"size": "1"}, {"size": "64"}, {"size": "384"}]}, {"dim": [{"size": "384"}]}]}}}}, {"name": "StatefulPartitionedCall/GEN/6r/random_normal/RandomStandardNormal", "op": "RandomStandardNormal", "input": ["StatefulPartitionedCall/GEN/6r/random_normal/shape"], "attr": {"dtype": {"type": "DT_HALF"}, "seed": {"i": "0"}, "seed2": {"i": "0"}, "T": {"type": "DT_INT32"}}}, {"name": "StatefulPartitionedCall/GEN/6r/mul", "op": "Mul", "input": ["StatefulPartitionedCall/GEN/6r/Cast", "StatefulPartitionedCall/GEN/6r/random_normal/RandomStandardNormal"], "attr": {"T": {"type": "DT_HALF"}}}, {"name": "StatefulPartitionedCall/GEN/6r/add", "op": "AddV2", "input": ["StatefulPartitionedCall/GEN/6c/BiasAdd", "StatefulPartitionedCall/GEN/6r/mul"], "attr": {"T": {"type": "DT_HALF"}}}, {"name": "StatefulPartitionedCall/GEN/tf.math.reduce_std_17/reduce_std/reduce_variance/Mean", "op": "Mean", "input": ["StatefulPartitionedCall/GEN/6r/add", "StatefulPartitionedCall/GEN/tf.math.reduce_std_17/reduce_std/reduce_variance/Mean/reduction_indices"], "attr": {"keep_dims": {"b": true}, "T": {"type": "DT_HALF"}, "Tidx": {"type": "DT_INT32"}}}, {"name": "StatefulPartitionedCall/GEN/tf.math.reduce_std_17/reduce_std/reduce_variance/sub", "op": "SquaredDifference", "input": ["StatefulPartitionedCall/GEN/6r/add", "StatefulPartitionedCall/GEN/tf.math.reduce_std_17/reduce_std/reduce_variance/Mean"], "attr": {"T": {"type": "DT_HALF"}}}, {"name": "StatefulPartitionedCall/GEN/tf.math.reduce_std_17/reduce_std/reduce_variance/Mean_1", "op": "Mean", "input": ["StatefulPartitionedCall/GEN/tf.math.reduce_std_17/reduce_std/reduce_variance/sub", "StatefulPartitionedCall/GEN/tf.math.reduce_std_17/reduce_std/reduce_variance/Mean_1/reduction_indices"], "attr": {"keep_dims": {"b": true}, "T": {"type": "DT_HALF"}, "Tidx": {"type": "DT_INT32"}}}, {"name": "StatefulPartitionedCall/GEN/tf.math.reduce_std_17/reduce_std/Sqrt", "op": "Sqrt", "input": ["StatefulPartitionedCall/GEN/tf.math.reduce_std_17/reduce_std/reduce_variance/Mean_1"], "attr": {"T": {"type": "DT_HALF"}}}, {"name": "StatefulPartitionedCall/GEN/tf.__operators__.add_34/AddV2", "op": "AddV2", "input": ["StatefulPartitionedCall/GEN/tf.math.reduce_std_17/reduce_std/Sqrt", "StatefulPartitionedCall/GEN/tf.__operators__.add_34/y"], "attr": {"T": {"type": "DT_HALF"}}}, {"name": "StatefulPartitionedCall/GEN/tf.math.truediv_17/truediv", "op": "RealDiv", "input": ["StatefulPartitionedCall/GEN/6r/add", "StatefulPartitionedCall/GEN/tf.__operators__.add_34/AddV2"], "attr": {"T": {"type": "DT_HALF"}}}, {"name": "StatefulPartitionedCall/GEN/tf.math.multiply_41/Mul", "op": "Mul", "input": ["StatefulPartitionedCall/GEN/tf.math.truediv_17/truediv", "StatefulPartitionedCall/GEN/6ai/BiasAdd"], "attr": {"T": {"type": "DT_HALF"}}}, {"name": "StatefulPartitionedCall/GEN/tf.nn.silu_47/Sigmoid", "op": "Sigmoid", "input": ["StatefulPartitionedCall/GEN/tf.math.multiply_41/Mul"], "attr": {"_input_shapes": {"list": {"shape": [{"dim": [{"size": "-56"}, {"size": "-18"}, {"size": "64"}, {"size": "384"}]}]}}, "T": {"type": "DT_HALF"}}}, {"name": "StatefulPartitionedCall/GEN/tf.nn.silu_47/mul_1", "op": "Mul", "input": ["StatefulPartitionedCall/GEN/tf.math.multiply_41/Mul", "StatefulPartitionedCall/GEN/tf.nn.silu_47/Sigmoid"], "attr": {"T": {"type": "DT_HALF"}}}, {"name": "StatefulPartitionedCall/GEN/7c/Conv2D", "op": "Conv2D", "input": ["StatefulPartitionedCall/GEN/tf.nn.silu_47/mul_1", "StatefulPartitionedCall/GEN/7c/Conv2D/ArithmeticOptimizer/FoldMultiplyIntoConv_scaled_StatefulPartitionedCall/GEN/7c/Conv2D_Cast"], "device": "/device:CPU:0", "attr": {"data_format": {"s": "TkhXQw=="}, "padding": {"s": "U0FNRQ=="}, "T": {"type": "DT_HALF"}, "explicit_paddings": {"list": {}}, "_input_shapes": {"list": {"shape": [{"dim": [{"size": "-56"}, {"size": "-18"}, {"size": "64"}, {"size": "384"}]}, {"dim": [{"size": "1"}, {"size": "4"}, {"size": "384"}, {"size": "384"}]}]}}, "dilations": {"list": {"i": ["1", "1", "1", "1"]}}, "strides": {"list": {"i": ["1", "1", "1", "1"]}}, "use_cudnn_on_gpu": {"b": true}}}, {"name": "StatefulPartitionedCall/GEN/7c/BiasAdd", "op": "BiasAdd", "input": ["StatefulPartitionedCall/GEN/7c/Conv2D", "StatefulPartitionedCall/GEN/7c/BiasAdd/Cast"], "attr": {"_input_shapes": {"list": {"shape": [{"dim": [{"size": "-56"}, {"size": "-18"}, {"size": "64"}, {"size": "384"}]}, {"dim": [{"size": "384"}]}]}}, "T": {"type": "DT_HALF"}, "data_format": {"s": "TkhXQw=="}}}, {"name": "StatefulPartitionedCall/GEN/7r/Shape", "op": "Shape", "input": ["StatefulPartitionedCall/GEN/7c/BiasAdd"], "attr": {"T": {"type": "DT_HALF"}, "out_type": {"type": "DT_INT32"}}, "experimentalType": {"typeId": "TFT_PRODUCT", "args": [{"typeId": "TFT_SHAPE_TENSOR", "args": [{"typeId": "TFT_INT32"}]}]}}, {"name": "StatefulPartitionedCall/GEN/7r/strided_slice", "op": "StridedSlice", "input": ["StatefulPartitionedCall/GEN/7r/Shape", "StatefulPartitionedCall/GEN/7r/strided_slice/stack", "StatefulPartitionedCall/GEN/7r/strided_slice/stack_1", "StatefulPartitionedCall/GEN/7r/strided_slice/stack_2"], "attr": {"new_axis_mask": {"i": "0"}, "Index": {"type": "DT_INT32"}, "shrink_axis_mask": {"i": "1"}, "end_mask": {"i": "0"}, "T": {"type": "DT_INT32"}, "ellipsis_mask": {"i": "0"}, "begin_mask": {"i": "0"}}}, {"name": "StatefulPartitionedCall/GEN/7r/random_normal/shape", "op": "Pack", "input": ["StatefulPartitionedCall/GEN/7r/strided_slice", "StatefulPartitionedCall/GEN/7r/random_normal/shape/1", "StatefulPartitionedCall/GEN/7r/random_normal/shape/2", "StatefulPartitionedCall/GEN/7r/random_normal/shape/3"], "attr": {"axis": {"i": "0"}, "T": {"type": "DT_INT32"}, "N": {"i": "4"}}}, {"name": "StatefulPartitionedCall/GEN/7r/random_normal/RandomStandardNormal", "op": "RandomStandardNormal", "input": ["StatefulPartitionedCall/GEN/7r/random_normal/shape"], "attr": {"seed2": {"i": "0"}, "seed": {"i": "0"}, "T": {"type": "DT_INT32"}, "dtype": {"type": "DT_HALF"}}}, {"name": "StatefulPartitionedCall/GEN/7r/mul", "op": "Mul", "input": ["StatefulPartitionedCall/GEN/7r/Cast", "StatefulPartitionedCall/GEN/7r/random_normal/RandomStandardNormal"], "attr": {"T": {"type": "DT_HALF"}}}, {"name": "StatefulPartitionedCall/GEN/7r/add", "op": "AddV2", "input": ["StatefulPartitionedCall/GEN/7c/BiasAdd", "StatefulPartitionedCall/GEN/7r/mul"], "attr": {"T": {"type": "DT_HALF"}}}, {"name": "StatefulPartitionedCall/GEN/tf.math.reduce_std_18/reduce_std/reduce_variance/Mean", "op": "Mean", "input": ["StatefulPartitionedCall/GEN/7r/add", "StatefulPartitionedCall/GEN/tf.math.reduce_std_18/reduce_std/reduce_variance/Mean/reduction_indices"], "attr": {"Tidx": {"type": "DT_INT32"}, "T": {"type": "DT_HALF"}, "keep_dims": {"b": true}}}, {"name": "StatefulPartitionedCall/GEN/tf.math.reduce_std_18/reduce_std/reduce_variance/sub", "op": "SquaredDifference", "input": ["StatefulPartitionedCall/GEN/7r/add", "StatefulPartitionedCall/GEN/tf.math.reduce_std_18/reduce_std/reduce_variance/Mean"], "attr": {"T": {"type": "DT_HALF"}}}, {"name": "StatefulPartitionedCall/GEN/tf.math.reduce_std_18/reduce_std/reduce_variance/Mean_1", "op": "Mean", "input": ["StatefulPartitionedCall/GEN/tf.math.reduce_std_18/reduce_std/reduce_variance/sub", "StatefulPartitionedCall/GEN/tf.math.reduce_std_18/reduce_std/reduce_variance/Mean_1/reduction_indices"], "attr": {"Tidx": {"type": "DT_INT32"}, "keep_dims": {"b": true}, "T": {"type": "DT_HALF"}}}, {"name": "StatefulPartitionedCall/GEN/tf.math.reduce_std_18/reduce_std/Sqrt", "op": "Sqrt", "input": ["StatefulPartitionedCall/GEN/tf.math.reduce_std_18/reduce_std/reduce_variance/Mean_1"], "attr": {"T": {"type": "DT_HALF"}}}, {"name": "StatefulPartitionedCall/GEN/tf.__operators__.add_35/AddV2", "op": "AddV2", "input": ["StatefulPartitionedCall/GEN/tf.math.reduce_std_18/reduce_std/Sqrt", "StatefulPartitionedCall/GEN/tf.__operators__.add_35/y"], "attr": {"T": {"type": "DT_HALF"}}}, {"name": "StatefulPartitionedCall/GEN/tf.math.truediv_18/truediv", "op": "RealDiv", "input": ["StatefulPartitionedCall/GEN/7r/add", "StatefulPartitionedCall/GEN/tf.__operators__.add_35/AddV2"], "attr": {"T": {"type": "DT_HALF"}}}, {"name": "StatefulPartitionedCall/GEN/tf.math.multiply_43/Mul", "op": "Mul", "input": ["StatefulPartitionedCall/GEN/tf.math.truediv_18/truediv", "StatefulPartitionedCall/GEN/7ai/BiasAdd"], "attr": {"T": {"type": "DT_HALF"}}}, {"name": "StatefulPartitionedCall/GEN/tf.nn.silu_48/mul_1", "op": "Mul", "input": ["unknown_57", "StatefulPartitionedCall/GEN/tf.math.multiply_43/Mul"], "attr": {"T": {"type": "DT_HALF"}, "_grappler_ArithmeticOptimizer_MinimizeBroadcasts": {"b": true}}}, {"name": "StatefulPartitionedCall/GEN/tf.nn.silu_48/Sigmoid", "op": "Sigmoid", "input": ["StatefulPartitionedCall/GEN/tf.math.multiply_43/Mul"], "attr": {"T": {"type": "DT_HALF"}, "_input_shapes": {"list": {"shape": [{"dim": [{"size": "-59"}, {"size": "-18"}, {"size": "64"}, {"size": "384"}]}]}}}}, {"name": "StatefulPartitionedCall/GEN/tf.math.multiply_44/Mul", "op": "Mul", "input": ["StatefulPartitionedCall/GEN/tf.nn.silu_48/mul_1", "StatefulPartitionedCall/GEN/tf.nn.silu_48/Sigmoid"], "attr": {"T": {"type": "DT_HALF"}, "_grappler_ArithmeticOptimizer_MinimizeBroadcasts": {"b": true}}}, {"name": "StatefulPartitionedCall/GEN/tf.__operators__.add_36/AddV2", "op": "AddV2", "input": ["StatefulPartitionedCall/GEN/tf.math.multiply_44/Mul", "StatefulPartitionedCall/GEN/res4c/BiasAdd"], "attr": {"T": {"type": "DT_HALF"}}}, {"name": "StatefulPartitionedCall/GEN/8c/Shape", "op": "Shape", "input": ["StatefulPartitionedCall/GEN/tf.__operators__.add_36/AddV2"], "attr": {"out_type": {"type": "DT_INT32"}, "T": {"type": "DT_HALF"}}, "experimentalType": {"typeId": "TFT_PRODUCT", "args": [{"typeId": "TFT_SHAPE_TENSOR", "args": [{"typeId": "TFT_INT32"}]}]}}, {"name": "StatefulPartitionedCall/GEN/8c/strided_slice", "op": "StridedSlice", "input": ["StatefulPartitionedCall/GEN/8c/Shape", "StatefulPartitionedCall/GEN/8c/strided_slice/stack", "StatefulPartitionedCall/GEN/8c/strided_slice/stack_1", "StatefulPartitionedCall/GEN/8c/strided_slice/stack_2"], "attr": {"begin_mask": {"i": "0"}, "new_axis_mask": {"i": "0"}, "shrink_axis_mask": {"i": "1"}, "ellipsis_mask": {"i": "0"}, "end_mask": {"i": "0"}, "Index": {"type": "DT_INT32"}, "T": {"type": "DT_INT32"}}}, {"name": "StatefulPartitionedCall/GEN/8c/stack", "op": "Pack", "input": ["StatefulPartitionedCall/GEN/8c/strided_slice", "StatefulPartitionedCall/GEN/8c/stack/1", "StatefulPartitionedCall/GEN/8c/stack/2", "StatefulPartitionedCall/GEN/8c/stack/3"], "attr": {"N": {"i": "4"}, "axis": {"i": "0"}, "T": {"type": "DT_INT32"}}}, {"name": "StatefulPartitionedCall/GEN/8c/conv2d_transpose", "op": "Conv2DBackpropInput", "input": ["StatefulPartitionedCall/GEN/8c/stack", "StatefulPartitionedCall/GEN/8c/conv2d_transpose/Cast", "StatefulPartitionedCall/GEN/tf.__operators__.add_36/AddV2"], "attr": {"T": {"type": "DT_HALF"}, "strides": {"list": {"i": ["1", "1", "2", "1"]}}, "dilations": {"list": {"i": ["1", "1", "1", "1"]}}, "explicit_paddings": {"list": {}}, "data_format": {"s": "TkhXQw=="}, "padding": {"s": "U0FNRQ=="}, "use_cudnn_on_gpu": {"b": true}}}, {"name": "StatefulPartitionedCall/GEN/8c/BiasAdd", "op": "BiasAdd", "input": ["StatefulPartitionedCall/GEN/8c/conv2d_transpose", "StatefulPartitionedCall/GEN/8c/BiasAdd/Cast"], "attr": {"_input_shapes": {"list": {"shape": [{"dim": [{"size": "-10"}, {"size": "1"}, {"size": "128"}, {"size": "256"}]}, {"dim": [{"size": "256"}]}]}}, "data_format": {"s": "TkhXQw=="}, "T": {"type": "DT_HALF"}}}, {"name": "StatefulPartitionedCall/GEN/8r/Shape", "op": "Shape", "input": ["StatefulPartitionedCall/GEN/8c/BiasAdd"], "attr": {"T": {"type": "DT_HALF"}, "out_type": {"type": "DT_INT32"}}, "experimentalType": {"typeId": "TFT_PRODUCT", "args": [{"typeId": "TFT_SHAPE_TENSOR", "args": [{"typeId": "TFT_INT32"}]}]}}, {"name": "StatefulPartitionedCall/GEN/8r/strided_slice", "op": "StridedSlice", "input": ["StatefulPartitionedCall/GEN/8r/Shape", "StatefulPartitionedCall/GEN/8r/strided_slice/stack", "StatefulPartitionedCall/GEN/8r/strided_slice/stack_1", "StatefulPartitionedCall/GEN/8r/strided_slice/stack_2"], "attr": {"end_mask": {"i": "0"}, "new_axis_mask": {"i": "0"}, "begin_mask": {"i": "0"}, "T": {"type": "DT_INT32"}, "shrink_axis_mask": {"i": "1"}, "ellipsis_mask": {"i": "0"}, "Index": {"type": "DT_INT32"}}}, {"name": "StatefulPartitionedCall/GEN/8r/random_normal/shape", "op": "Pack", "input": ["StatefulPartitionedCall/GEN/8r/strided_slice", "StatefulPartitionedCall/GEN/8r/random_normal/shape/1", "StatefulPartitionedCall/GEN/8r/random_normal/shape/2", "StatefulPartitionedCall/GEN/8r/random_normal/shape/3"], "attr": {"T": {"type": "DT_INT32"}, "N": {"i": "4"}, "axis": {"i": "0"}}}, {"name": "StatefulPartitionedCall/GEN/8r/random_normal/RandomStandardNormal", "op": "RandomStandardNormal", "input": ["StatefulPartitionedCall/GEN/8r/random_normal/shape"], "attr": {"seed2": {"i": "0"}, "T": {"type": "DT_INT32"}, "dtype": {"type": "DT_HALF"}, "seed": {"i": "0"}}}, {"name": "StatefulPartitionedCall/GEN/8r/mul", "op": "Mul", "input": ["StatefulPartitionedCall/GEN/8r/Cast", "StatefulPartitionedCall/GEN/8r/random_normal/RandomStandardNormal"], "attr": {"T": {"type": "DT_HALF"}}}, {"name": "StatefulPartitionedCall/GEN/8r/add", "op": "AddV2", "input": ["StatefulPartitionedCall/GEN/8c/BiasAdd", "StatefulPartitionedCall/GEN/8r/mul"], "attr": {"T": {"type": "DT_HALF"}}}, {"name": "StatefulPartitionedCall/GEN/tf.math.reduce_std_19/reduce_std/reduce_variance/Mean", "op": "Mean", "input": ["StatefulPartitionedCall/GEN/8r/add", "StatefulPartitionedCall/GEN/tf.math.reduce_std_19/reduce_std/reduce_variance/Mean/reduction_indices"], "attr": {"T": {"type": "DT_HALF"}, "keep_dims": {"b": true}, "Tidx": {"type": "DT_INT32"}}}, {"name": "StatefulPartitionedCall/GEN/tf.math.reduce_std_19/reduce_std/reduce_variance/sub", "op": "SquaredDifference", "input": ["StatefulPartitionedCall/GEN/8r/add", "StatefulPartitionedCall/GEN/tf.math.reduce_std_19/reduce_std/reduce_variance/Mean"], "attr": {"T": {"type": "DT_HALF"}}}, {"name": "StatefulPartitionedCall/GEN/tf.math.reduce_std_19/reduce_std/reduce_variance/Mean_1", "op": "Mean", "input": ["StatefulPartitionedCall/GEN/tf.math.reduce_std_19/reduce_std/reduce_variance/sub", "StatefulPartitionedCall/GEN/tf.math.reduce_std_19/reduce_std/reduce_variance/Mean_1/reduction_indices"], "attr": {"Tidx": {"type": "DT_INT32"}, "T": {"type": "DT_HALF"}, "keep_dims": {"b": true}}}, {"name": "StatefulPartitionedCall/GEN/tf.math.reduce_std_19/reduce_std/Sqrt", "op": "Sqrt", "input": ["StatefulPartitionedCall/GEN/tf.math.reduce_std_19/reduce_std/reduce_variance/Mean_1"], "attr": {"T": {"type": "DT_HALF"}}}, {"name": "StatefulPartitionedCall/GEN/tf.__operators__.add_37/AddV2", "op": "AddV2", "input": ["StatefulPartitionedCall/GEN/tf.math.reduce_std_19/reduce_std/Sqrt", "StatefulPartitionedCall/GEN/tf.__operators__.add_37/y"], "attr": {"T": {"type": "DT_HALF"}}}, {"name": "StatefulPartitionedCall/GEN/tf.math.truediv_19/truediv", "op": "RealDiv", "input": ["StatefulPartitionedCall/GEN/8r/add", "StatefulPartitionedCall/GEN/tf.__operators__.add_37/AddV2"], "attr": {"T": {"type": "DT_HALF"}}}, {"name": "StatefulPartitionedCall/GEN/tf.math.multiply_45/Mul", "op": "Mul", "input": ["StatefulPartitionedCall/GEN/tf.math.truediv_19/truediv", "StatefulPartitionedCall/GEN/8ai/BiasAdd"], "attr": {"T": {"type": "DT_HALF"}}}, {"name": "StatefulPartitionedCall/GEN/tf.nn.silu_49/Sigmoid", "op": "Sigmoid", "input": ["StatefulPartitionedCall/GEN/tf.math.multiply_45/Mul"], "attr": {"T": {"type": "DT_HALF"}, "_input_shapes": {"list": {"shape": [{"dim": [{"size": "-66"}, {"size": "-13"}, {"size": "128"}, {"size": "256"}]}]}}}}, {"name": "StatefulPartitionedCall/GEN/tf.nn.silu_49/mul_1", "op": "Mul", "input": ["StatefulPartitionedCall/GEN/tf.math.multiply_45/Mul", "StatefulPartitionedCall/GEN/tf.nn.silu_49/Sigmoid"], "attr": {"T": {"type": "DT_HALF"}}}, {"name": "StatefulPartitionedCall/GEN/9c/Conv2D", "op": "Conv2D", "input": ["StatefulPartitionedCall/GEN/tf.nn.silu_49/mul_1", "StatefulPartitionedCall/GEN/9c/Conv2D/Cast"], "device": "/device:CPU:0", "attr": {"data_format": {"s": "TkhXQw=="}, "dilations": {"list": {"i": ["1", "1", "1", "1"]}}, "use_cudnn_on_gpu": {"b": true}, "T": {"type": "DT_HALF"}, "_input_shapes": {"list": {"shape": [{"dim": [{"size": "-66"}, {"size": "-13"}, {"size": "128"}, {"size": "256"}]}, {"dim": [{"size": "1"}, {"size": "4"}, {"size": "256"}, {"size": "128"}]}]}}, "padding": {"s": "U0FNRQ=="}, "explicit_paddings": {"list": {}}, "strides": {"list": {"i": ["1", "1", "1", "1"]}}}}, {"name": "StatefulPartitionedCall/GEN/9c/BiasAdd", "op": "BiasAdd", "input": ["StatefulPartitionedCall/GEN/9c/Conv2D", "StatefulPartitionedCall/GEN/9c/BiasAdd/Cast"], "attr": {"data_format": {"s": "TkhXQw=="}, "_input_shapes": {"list": {"shape": [{"dim": [{"size": "-66"}, {"size": "-13"}, {"size": "128"}, {"size": "128"}]}, {"dim": [{"size": "128"}]}]}}, "T": {"type": "DT_HALF"}}}, {"name": "StatefulPartitionedCall/GEN/tf.split_10/split", "op": "Split", "input": ["StatefulPartitionedCall/GEN/tf.split_10/split/split_dim", "StatefulPartitionedCall/GEN/9c/BiasAdd"], "attr": {"num_split": {"i": "2"}, "T": {"type": "DT_HALF"}}}, {"name": "StatefulPartitionedCall/GEN/tf.concat_10/concat", "op": "ConcatV2", "input": ["StatefulPartitionedCall/GEN/tf.split_10/split", "StatefulPartitionedCall/GEN/tf.split_10/split:1", "StatefulPartitionedCall/GEN/tf.concat_10/concat/axis"], "attr": {"N": {"i": "2"}, "T": {"type": "DT_HALF"}, "Tidx": {"type": "DT_INT32"}}}, {"name": "StatefulPartitionedCall/GEN/tf.cast_9/Cast", "op": "Cast", "input": ["StatefulPartitionedCall/GEN/tf.concat_10/concat"], "attr": {"DstT": {"type": "DT_FLOAT"}, "SrcT": {"type": "DT_HALF"}, "Truncate": {"b": false}}}, {"name": "Identity", "op": "Identity", "input": ["StatefulPartitionedCall/GEN/tf.cast_9/Cast"], "attr": {"T": {"type": "DT_FLOAT"}}}], "library": {}, "versions": {"producer": 1766}}, "weightsManifest": [{"paths": ["group1-shard1of15.bin", "group1-shard2of15.bin", "group1-shard3of15.bin", "group1-shard4of15.bin", "group1-shard5of15.bin", "group1-shard6of15.bin", "group1-shard7of15.bin", "group1-shard8of15.bin", "group1-shard9of15.bin", "group1-shard10of15.bin", "group1-shard11of15.bin", "group1-shard12of15.bin", "group1-shard13of15.bin", "group1-shard14of15.bin", "group1-shard15of15.bin"], "weights": [{"name": "StatefulPartitionedCall/GEN/tf.split_10/split/split_dim", "shape": [], "dtype": "int32"}, {"name": "StatefulPartitionedCall/GEN/8r/Cast", "shape": [1], "dtype": "float32"}, {"name": "StatefulPartitionedCall/GEN/8c/strided_slice/stack", "shape": [1], "dtype": "int32"}, {"name": "StatefulPartitionedCall/GEN/8c/strided_slice/stack_1", "shape": [1], "dtype": "int32"}, {"name": "StatefulPartitionedCall/GEN/8c/strided_slice/stack_2", "shape": [1], "dtype": "int32"}, {"name": "StatefulPartitionedCall/GEN/8c/stack/1", "shape": [], "dtype": "int32"}, {"name": "StatefulPartitionedCall/GEN/8c/stack/2", "shape": [], "dtype": "int32"}, {"name": "StatefulPartitionedCall/GEN/8c/stack/3", "shape": [], "dtype": "int32"}, {"name": "StatefulPartitionedCall/GEN/8c/conv2d_transpose/Cast", "shape": [1, 4, 256, 384], "dtype": "float32"}, {"name": "unknown_57", "shape": [], "dtype": "float32"}, {"name": "StatefulPartitionedCall/GEN/7r/Cast", "shape": [1], "dtype": "float32"}, {"name": "StatefulPartitionedCall/GEN/6r/Cast", "shape": [1], "dtype": "float32"}, {"name": "StatefulPartitionedCall/GEN/6c/strided_slice/stack", "shape": [1], "dtype": "int32"}, {"name": "StatefulPartitionedCall/GEN/6c/strided_slice/stack_1", "shape": [1], "dtype": "int32"}, {"name": "StatefulPartitionedCall/GEN/6c/strided_slice/stack_2", "shape": [1], "dtype": "int32"}, {"name": "StatefulPartitionedCall/GEN/6c/stack/1", "shape": [], "dtype": "int32"}, {"name": "StatefulPartitionedCall/GEN/6c/stack/2", "shape": [], "dtype": "int32"}, {"name": "StatefulPartitionedCall/GEN/6c/stack/3", "shape": [], "dtype": "int32"}, {"name": "StatefulPartitionedCall/GEN/6c/conv2d_transpose/Cast", "shape": [1, 4, 384, 512], "dtype": "float32"}, {"name": "StatefulPartitionedCall/GEN/6c/BiasAdd/Cast", "shape": [384], "dtype": "float32"}, {"name": "StatefulPartitionedCall/GEN/6r/strided_slice/stack", "shape": [1], "dtype": "int32"}, {"name": "StatefulPartitionedCall/GEN/6r/strided_slice/stack_1", "shape": [1], "dtype": "int32"}, {"name": "StatefulPartitionedCall/GEN/6r/strided_slice/stack_2", "shape": [1], "dtype": "int32"}, {"name": "StatefulPartitionedCall/GEN/6r/random_normal/shape/1", "shape": [], "dtype": "int32"}, {"name": "StatefulPartitionedCall/GEN/6r/random_normal/shape/2", "shape": [], "dtype": "int32"}, {"name": "StatefulPartitionedCall/GEN/6r/random_normal/shape/3", "shape": [], "dtype": "int32"}, {"name": "StatefulPartitionedCall/GEN/tf.math.reduce_std_17/reduce_std/reduce_variance/Mean/reduction_indices", "shape": [], "dtype": "int32"}, {"name": "StatefulPartitionedCall/GEN/tf.math.reduce_std_17/reduce_std/reduce_variance/Mean_1/reduction_indices", "shape": [], "dtype": "int32"}, {"name": "StatefulPartitionedCall/GEN/tf.__operators__.add_34/y", "shape": [], "dtype": "float32"}, {"name": "StatefulPartitionedCall/GEN/6ai/Conv2D/Cast", "shape": [1, 1, 128, 384], "dtype": "float32"}, {"name": "StatefulPartitionedCall/GEN/6ai/BiasAdd/Cast", "shape": [384], "dtype": "float32"}, {"name": "StatefulPartitionedCall/GEN/7c/Conv2D/ArithmeticOptimizer/FoldMultiplyIntoConv_scaled_StatefulPartitionedCall/GEN/7c/Conv2D_Cast", "shape": [1, 4, 384, 384], "dtype": "float32"}, {"name": "StatefulPartitionedCall/GEN/7c/BiasAdd/Cast", "shape": [384], "dtype": "float32"}, {"name": "StatefulPartitionedCall/GEN/7r/strided_slice/stack", "shape": [1], "dtype": "int32"}, {"name": "StatefulPartitionedCall/GEN/7r/strided_slice/stack_1", "shape": [1], "dtype": "int32"}, {"name": "StatefulPartitionedCall/GEN/7r/strided_slice/stack_2", "shape": [1], "dtype": "int32"}, {"name": "StatefulPartitionedCall/GEN/7r/random_normal/shape/1", "shape": [], "dtype": "int32"}, {"name": "StatefulPartitionedCall/GEN/7r/random_normal/shape/2", "shape": [], "dtype": "int32"}, {"name": "StatefulPartitionedCall/GEN/7r/random_normal/shape/3", "shape": [], "dtype": "int32"}, {"name": "StatefulPartitionedCall/GEN/tf.math.reduce_std_18/reduce_std/reduce_variance/Mean/reduction_indices", "shape": [], "dtype": "int32"}, {"name": "StatefulPartitionedCall/GEN/tf.math.reduce_std_18/reduce_std/reduce_variance/Mean_1/reduction_indices", "shape": [], "dtype": "int32"}, {"name": "StatefulPartitionedCall/GEN/tf.__operators__.add_35/y", "shape": [], "dtype": "float32"}, {"name": "StatefulPartitionedCall/GEN/7ai/Conv2D/Cast", "shape": [1, 1, 128, 384], "dtype": "float32"}, {"name": "StatefulPartitionedCall/GEN/7ai/BiasAdd/Cast", "shape": [384], "dtype": "float32"}, {"name": "StatefulPartitionedCall/GEN/tf.reshape_14/Reshape/shape/1", "shape": [], "dtype": "int32"}, {"name": "StatefulPartitionedCall/GEN/tf.reshape_14/Reshape/shape/2", "shape": [], "dtype": "int32"}, {"name": "StatefulPartitionedCall/GEN/tf.reshape_14/Reshape/shape/3", "shape": [], "dtype": "int32"}, {"name": "StatefulPartitionedCall/GEN/tf.reshape_14/Reshape/shape/4", "shape": [], "dtype": "int32"}, {"name": "StatefulPartitionedCall/GEN/tf.compat.v1.transpose_10/transpose/perm", "shape": [5], "dtype": "int32"}, {"name": "unknown_43", "shape": [], "dtype": "float32"}, {"name": "StatefulPartitionedCall/GEN/5r/Cast", "shape": [1], "dtype": "float32"}, {"name": "StatefulPartitionedCall/GEN/4r/Cast", "shape": [1], "dtype": "float32"}, {"name": "StatefulPartitionedCall/GEN/4c/strided_slice/stack", "shape": [1], "dtype": "int32"}, {"name": "StatefulPartitionedCall/GEN/4c/strided_slice/stack_1", "shape": [1], "dtype": "int32"}, {"name": "StatefulPartitionedCall/GEN/4c/strided_slice/stack_2", "shape": [1], "dtype": "int32"}, {"name": "StatefulPartitionedCall/GEN/4c/stack/1", "shape": [], "dtype": "int32"}, {"name": "StatefulPartitionedCall/GEN/4c/stack/2", "shape": [], "dtype": "int32"}, {"name": "StatefulPartitionedCall/GEN/4c/stack/3", "shape": [], "dtype": "int32"}, {"name": "StatefulPartitionedCall/GEN/4c/conv2d_transpose/Cast", "shape": [1, 4, 512, 640], "dtype": "float32"}, {"name": "StatefulPartitionedCall/GEN/4c/BiasAdd/Cast", "shape": [512], "dtype": "float32"}, {"name": "StatefulPartitionedCall/GEN/4r/strided_slice/stack", "shape": [1], "dtype": "int32"}, {"name": "StatefulPartitionedCall/GEN/4r/strided_slice/stack_1", "shape": [1], "dtype": "int32"}, {"name": "StatefulPartitionedCall/GEN/4r/strided_slice/stack_2", "shape": [1], "dtype": "int32"}, {"name": "StatefulPartitionedCall/GEN/4r/random_normal/shape/1", "shape": [], "dtype": "int32"}, {"name": "StatefulPartitionedCall/GEN/4r/random_normal/shape/2", "shape": [], "dtype": "int32"}, {"name": "StatefulPartitionedCall/GEN/4r/random_normal/shape/3", "shape": [], "dtype": "int32"}, {"name": "StatefulPartitionedCall/GEN/tf.math.reduce_std_15/reduce_std/reduce_variance/Mean/reduction_indices", "shape": [], "dtype": "int32"}, {"name": "StatefulPartitionedCall/GEN/tf.math.reduce_std_15/reduce_std/reduce_variance/Mean_1/reduction_indices", "shape": [], "dtype": "int32"}, {"name": "StatefulPartitionedCall/GEN/tf.__operators__.add_31/y", "shape": [], "dtype": "float32"}, {"name": "StatefulPartitionedCall/GEN/4ai/Conv2D/Cast", "shape": [1, 1, 128, 512], "dtype": "float32"}, {"name": "StatefulPartitionedCall/GEN/4ai/BiasAdd/Cast", "shape": [512], "dtype": "float32"}, {"name": "StatefulPartitionedCall/GEN/5c/Conv2D/ArithmeticOptimizer/FoldMultiplyIntoConv_scaled_StatefulPartitionedCall/GEN/5c/Conv2D_Cast", "shape": [1, 4, 512, 512], "dtype": "float32"}, {"name": "StatefulPartitionedCall/GEN/5c/BiasAdd/Cast", "shape": [512], "dtype": "float32"}, {"name": "StatefulPartitionedCall/GEN/5r/strided_slice/stack", "shape": [1], "dtype": "int32"}, {"name": "StatefulPartitionedCall/GEN/5r/strided_slice/stack_1", "shape": [1], "dtype": "int32"}, {"name": "StatefulPartitionedCall/GEN/5r/strided_slice/stack_2", "shape": [1], "dtype": "int32"}, {"name": "StatefulPartitionedCall/GEN/5r/random_normal/shape/1", "shape": [], "dtype": "int32"}, {"name": "StatefulPartitionedCall/GEN/5r/random_normal/shape/2", "shape": [], "dtype": "int32"}, {"name": "StatefulPartitionedCall/GEN/5r/random_normal/shape/3", "shape": [], "dtype": "int32"}, {"name": "StatefulPartitionedCall/GEN/tf.math.reduce_std_16/reduce_std/reduce_variance/Mean/reduction_indices", "shape": [], "dtype": "int32"}, {"name": "StatefulPartitionedCall/GEN/tf.math.reduce_std_16/reduce_std/reduce_variance/Mean_1/reduction_indices", "shape": [], "dtype": "int32"}, {"name": "StatefulPartitionedCall/GEN/tf.__operators__.add_32/y", "shape": [], "dtype": "float32"}, {"name": "StatefulPartitionedCall/GEN/5ai/Conv2D/Cast", "shape": [1, 1, 128, 512], "dtype": "float32"}, {"name": "StatefulPartitionedCall/GEN/5ai/BiasAdd/Cast", "shape": [512], "dtype": "float32"}, {"name": "StatefulPartitionedCall/GEN/tf.reshape_12/Reshape/shape/1", "shape": [], "dtype": "int32"}, {"name": "StatefulPartitionedCall/GEN/tf.reshape_12/Reshape/shape/2", "shape": [], "dtype": "int32"}, {"name": "StatefulPartitionedCall/GEN/tf.reshape_12/Reshape/shape/3", "shape": [], "dtype": "int32"}, {"name": "StatefulPartitionedCall/GEN/tf.reshape_12/Reshape/shape/4", "shape": [], "dtype": "int32"}, {"name": "StatefulPartitionedCall/GEN/tf.compat.v1.transpose_9/transpose/perm", "shape": [5], "dtype": "int32"}, {"name": "unknown_29", "shape": [], "dtype": "float32"}, {"name": "StatefulPartitionedCall/GEN/3r/Cast", "shape": [1], "dtype": "float32"}, {"name": "StatefulPartitionedCall/GEN/2r/Cast", "shape": [1], "dtype": "float32"}, {"name": "StatefulPartitionedCall/GEN/2c/strided_slice/stack", "shape": [1], "dtype": "int32"}, {"name": "StatefulPartitionedCall/GEN/2c/strided_slice/stack_1", "shape": [1], "dtype": "int32"}, {"name": "StatefulPartitionedCall/GEN/2c/strided_slice/stack_2", "shape": [1], "dtype": "int32"}, {"name": "StatefulPartitionedCall/GEN/2c/stack/1", "shape": [], "dtype": "int32"}, {"name": "StatefulPartitionedCall/GEN/2c/stack/2", "shape": [], "dtype": "int32"}, {"name": "StatefulPartitionedCall/GEN/2c/stack/3", "shape": [], "dtype": "int32"}, {"name": "StatefulPartitionedCall/GEN/2c/conv2d_transpose/Cast", "shape": [1, 4, 640, 768], "dtype": "float32"}, {"name": "StatefulPartitionedCall/GEN/2c/BiasAdd/Cast", "shape": [640], "dtype": "float32"}, {"name": "StatefulPartitionedCall/GEN/2r/strided_slice/stack", "shape": [1], "dtype": "int32"}, {"name": "StatefulPartitionedCall/GEN/2r/strided_slice/stack_1", "shape": [1], "dtype": "int32"}, {"name": "StatefulPartitionedCall/GEN/2r/strided_slice/stack_2", "shape": [1], "dtype": "int32"}, {"name": "StatefulPartitionedCall/GEN/2r/random_normal/shape/1", "shape": [], "dtype": "int32"}, {"name": "StatefulPartitionedCall/GEN/2r/random_normal/shape/2", "shape": [], "dtype": "int32"}, {"name": "StatefulPartitionedCall/GEN/2r/random_normal/shape/3", "shape": [], "dtype": "int32"}, {"name": "StatefulPartitionedCall/GEN/tf.math.reduce_std_13/reduce_std/reduce_variance/Mean/reduction_indices", "shape": [], "dtype": "int32"}, {"name": "StatefulPartitionedCall/GEN/tf.math.reduce_std_13/reduce_std/reduce_variance/Mean_1/reduction_indices", "shape": [], "dtype": "int32"}, {"name": "StatefulPartitionedCall/GEN/tf.__operators__.add_28/y", "shape": [], "dtype": "float32"}, {"name": "StatefulPartitionedCall/GEN/2ai/Conv2D/Cast", "shape": [1, 1, 128, 640], "dtype": "float32"}, {"name": "StatefulPartitionedCall/GEN/2ai/BiasAdd/Cast", "shape": [640], "dtype": "float32"}, {"name": "StatefulPartitionedCall/GEN/3c/Conv2D/ArithmeticOptimizer/FoldMultiplyIntoConv_scaled_StatefulPartitionedCall/GEN/3c/Conv2D_Cast", "shape": [1, 4, 640, 640], "dtype": "float32"}, {"name": "StatefulPartitionedCall/GEN/3c/BiasAdd/Cast", "shape": [640], "dtype": "float32"}, {"name": "StatefulPartitionedCall/GEN/3r/strided_slice/stack", "shape": [1], "dtype": "int32"}, {"name": "StatefulPartitionedCall/GEN/3r/strided_slice/stack_1", "shape": [1], "dtype": "int32"}, {"name": "StatefulPartitionedCall/GEN/3r/strided_slice/stack_2", "shape": [1], "dtype": "int32"}, {"name": "StatefulPartitionedCall/GEN/3r/random_normal/shape/1", "shape": [], "dtype": "int32"}, {"name": "StatefulPartitionedCall/GEN/3r/random_normal/shape/2", "shape": [], "dtype": "int32"}, {"name": "StatefulPartitionedCall/GEN/3r/random_normal/shape/3", "shape": [], "dtype": "int32"}, {"name": "StatefulPartitionedCall/GEN/tf.math.reduce_std_14/reduce_std/reduce_variance/Mean/reduction_indices", "shape": [], "dtype": "int32"}, {"name": "StatefulPartitionedCall/GEN/tf.math.reduce_std_14/reduce_std/reduce_variance/Mean_1/reduction_indices", "shape": [], "dtype": "int32"}, {"name": "StatefulPartitionedCall/GEN/tf.__operators__.add_29/y", "shape": [], "dtype": "float32"}, {"name": "StatefulPartitionedCall/GEN/3ai/Conv2D/Cast", "shape": [1, 1, 128, 640], "dtype": "float32"}, {"name": "StatefulPartitionedCall/GEN/3ai/BiasAdd/Cast", "shape": [640], "dtype": "float32"}, {"name": "StatefulPartitionedCall/GEN/tf.reshape_10/Reshape/shape/1", "shape": [], "dtype": "int32"}, {"name": "StatefulPartitionedCall/GEN/tf.reshape_10/Reshape/shape/2", "shape": [], "dtype": "int32"}, {"name": "StatefulPartitionedCall/GEN/tf.reshape_10/Reshape/shape/3", "shape": [], "dtype": "int32"}, {"name": "StatefulPartitionedCall/GEN/tf.reshape_10/Reshape/shape/4", "shape": [], "dtype": "int32"}, {"name": "StatefulPartitionedCall/GEN/tf.compat.v1.transpose_8/transpose/perm", "shape": [5], "dtype": "int32"}, {"name": "unknown_15", "shape": [], "dtype": "float32"}, {"name": "StatefulPartitionedCall/GEN/1r/Cast", "shape": [1], "dtype": "float32"}, {"name": "StatefulPartitionedCall/GEN/0r/Cast", "shape": [1], "dtype": "float32"}, {"name": "StatefulPartitionedCall/GEN/0c/strided_slice/stack", "shape": [1], "dtype": "int32"}, {"name": "StatefulPartitionedCall/GEN/0c/strided_slice/stack_1", "shape": [1], "dtype": "int32"}, {"name": "StatefulPartitionedCall/GEN/0c/strided_slice/stack_2", "shape": [1], "dtype": "int32"}, {"name": "StatefulPartitionedCall/GEN/0c/stack/1", "shape": [], "dtype": "int32"}, {"name": "StatefulPartitionedCall/GEN/0c/stack/2", "shape": [], "dtype": "int32"}, {"name": "StatefulPartitionedCall/GEN/0c/stack/3", "shape": [], "dtype": "int32"}, {"name": "StatefulPartitionedCall/GEN/0c/conv2d_transpose/Cast", "shape": [1, 4, 768, 896], "dtype": "float32"}, {"name": "StatefulPartitionedCall/GEN/0c/BiasAdd/Cast", "shape": [768], "dtype": "float32"}, {"name": "StatefulPartitionedCall/GEN/0r/strided_slice/stack", "shape": [1], "dtype": "int32"}, {"name": "StatefulPartitionedCall/GEN/0r/strided_slice/stack_1", "shape": [1], "dtype": "int32"}, {"name": "StatefulPartitionedCall/GEN/0r/strided_slice/stack_2", "shape": [1], "dtype": "int32"}, {"name": "StatefulPartitionedCall/GEN/0r/random_normal/shape/1", "shape": [], "dtype": "int32"}, {"name": "StatefulPartitionedCall/GEN/0r/random_normal/shape/2", "shape": [], "dtype": "int32"}, {"name": "StatefulPartitionedCall/GEN/0r/random_normal/shape/3", "shape": [], "dtype": "int32"}, {"name": "StatefulPartitionedCall/GEN/tf.math.reduce_std_11/reduce_std/reduce_variance/Mean/reduction_indices", "shape": [], "dtype": "int32"}, {"name": "StatefulPartitionedCall/GEN/tf.math.reduce_std_11/reduce_std/reduce_variance/Mean_1/reduction_indices", "shape": [], "dtype": "int32"}, {"name": "StatefulPartitionedCall/GEN/tf.__operators__.add_25/y", "shape": [], "dtype": "float32"}, {"name": "StatefulPartitionedCall/GEN/0ai/Conv2D/Cast", "shape": [1, 1, 128, 768], "dtype": "float32"}, {"name": "StatefulPartitionedCall/GEN/0ai/BiasAdd/Cast", "shape": [768], "dtype": "float32"}, {"name": "StatefulPartitionedCall/GEN/1c/Conv2D/ArithmeticOptimizer/FoldMultiplyIntoConv_scaled_StatefulPartitionedCall/GEN/1c/Conv2D_Cast", "shape": [1, 4, 768, 768], "dtype": "float32"}, {"name": "StatefulPartitionedCall/GEN/1c/BiasAdd/Cast", "shape": [768], "dtype": "float32"}, {"name": "StatefulPartitionedCall/GEN/1r/strided_slice/stack", "shape": [1], "dtype": "int32"}, {"name": "StatefulPartitionedCall/GEN/1r/strided_slice/stack_1", "shape": [1], "dtype": "int32"}, {"name": "StatefulPartitionedCall/GEN/1r/strided_slice/stack_2", "shape": [1], "dtype": "int32"}, {"name": "StatefulPartitionedCall/GEN/1r/random_normal/shape/1", "shape": [], "dtype": "int32"}, {"name": "StatefulPartitionedCall/GEN/1r/random_normal/shape/2", "shape": [], "dtype": "int32"}, {"name": "StatefulPartitionedCall/GEN/1r/random_normal/shape/3", "shape": [], "dtype": "int32"}, {"name": "StatefulPartitionedCall/GEN/tf.math.reduce_std_12/reduce_std/reduce_variance/Mean/reduction_indices", "shape": [], "dtype": "int32"}, {"name": "StatefulPartitionedCall/GEN/tf.math.reduce_std_12/reduce_std/reduce_variance/Mean_1/reduction_indices", "shape": [], "dtype": "int32"}, {"name": "StatefulPartitionedCall/GEN/tf.__operators__.add_26/y", "shape": [], "dtype": "float32"}, {"name": "StatefulPartitionedCall/GEN/1ai/Conv2D/Cast", "shape": [1, 1, 128, 768], "dtype": "float32"}, {"name": "StatefulPartitionedCall/GEN/1ai/BiasAdd/Cast", "shape": [768], "dtype": "float32"}, {"name": "StatefulPartitionedCall/GEN/tf.reshape_8/Reshape/shape/1", "shape": [], "dtype": "int32"}, {"name": "StatefulPartitionedCall/GEN/tf.reshape_8/Reshape/shape/2", "shape": [], "dtype": "int32"}, {"name": "StatefulPartitionedCall/GEN/tf.reshape_8/Reshape/shape/3", "shape": [], "dtype": "int32"}, {"name": "StatefulPartitionedCall/GEN/tf.reshape_8/Reshape/shape/4", "shape": [], "dtype": "int32"}, {"name": "StatefulPartitionedCall/GEN/tf.compat.v1.transpose_7/transpose/perm", "shape": [5], "dtype": "int32"}, {"name": "StatefulPartitionedCall/GEN/00n/Cast", "shape": [1], "dtype": "float32"}, {"name": "StatefulPartitionedCall/GEN/flatten_2/Const", "shape": [2], "dtype": "int32"}, {"name": "StatefulPartitionedCall/GEN/00d/MatMul/Cast", "shape": [256, 3584], "dtype": "float32"}, {"name": "StatefulPartitionedCall/GEN/00d/BiasAdd/Cast", "shape": [3584], "dtype": "float32"}, {"name": "StatefulPartitionedCall/GEN/reshape_1/strided_slice/stack", "shape": [1], "dtype": "int32"}, {"name": "StatefulPartitionedCall/GEN/reshape_1/strided_slice/stack_1", "shape": [1], "dtype": "int32"}, {"name": "StatefulPartitionedCall/GEN/reshape_1/strided_slice/stack_2", "shape": [1], "dtype": "int32"}, {"name": "StatefulPartitionedCall/GEN/reshape_1/Reshape/shape/1", "shape": [], "dtype": "int32"}, {"name": "StatefulPartitionedCall/GEN/reshape_1/Reshape/shape/2", "shape": [], "dtype": "int32"}, {"name": "StatefulPartitionedCall/GEN/reshape_1/Reshape/shape/3", "shape": [], "dtype": "int32"}, {"name": "StatefulPartitionedCall/GEN/00n/strided_slice/stack", "shape": [1], "dtype": "int32"}, {"name": "StatefulPartitionedCall/GEN/00n/strided_slice/stack_1", "shape": [1], "dtype": "int32"}, {"name": "StatefulPartitionedCall/GEN/00n/strided_slice/stack_2", "shape": [1], "dtype": "int32"}, {"name": "StatefulPartitionedCall/GEN/00n/random_normal/shape/1", "shape": [], "dtype": "int32"}, {"name": "StatefulPartitionedCall/GEN/00n/random_normal/shape/2", "shape": [], "dtype": "int32"}, {"name": "StatefulPartitionedCall/GEN/00n/random_normal/shape/3", "shape": [], "dtype": "int32"}, {"name": "StatefulPartitionedCall/GEN/tf.math.reduce_std_10/reduce_std/reduce_variance/Mean/reduction_indices", "shape": [], "dtype": "int32"}, {"name": "StatefulPartitionedCall/GEN/tf.math.reduce_std_10/reduce_std/reduce_variance/Mean_1/reduction_indices", "shape": [], "dtype": "int32"}, {"name": "StatefulPartitionedCall/GEN/tf.__operators__.add_24/y", "shape": [], "dtype": "float32"}, {"name": "StatefulPartitionedCall/GEN/tf.expand_dims_2/ExpandDims/dim", "shape": [], "dtype": "int32"}, {"name": "StatefulPartitionedCall/GEN/00ai/Conv2D/Cast", "shape": [1, 1, 128, 896], "dtype": "float32"}, {"name": "StatefulPartitionedCall/GEN/00ai/BiasAdd/Cast", "shape": [896], "dtype": "float32"}, {"name": "StatefulPartitionedCall/GEN/tf.__operators__.getitem_4/strided_slice/stack", "shape": [1], "dtype": "int32"}, {"name": "StatefulPartitionedCall/GEN/tf.__operators__.getitem_4/strided_slice/stack_1", "shape": [1], "dtype": "int32"}, {"name": "StatefulPartitionedCall/GEN/tf.__operators__.getitem_4/strided_slice/stack_2", "shape": [1], "dtype": "int32"}, {"name": "StatefulPartitionedCall/GEN/tf.reshape_9/Reshape/shape/1", "shape": [], "dtype": "int32"}, {"name": "StatefulPartitionedCall/GEN/tf.reshape_9/Reshape/shape/2", "shape": [], "dtype": "int32"}, {"name": "StatefulPartitionedCall/GEN/tf.reshape_9/Reshape/shape/3", "shape": [], "dtype": "int32"}, {"name": "StatefulPartitionedCall/GEN/res1c/Conv2D/Cast", "shape": [1, 1, 448, 768], "dtype": "float32"}, {"name": "StatefulPartitionedCall/GEN/res1c/BiasAdd/Cast", "shape": [768], "dtype": "float32"}, {"name": "StatefulPartitionedCall/GEN/tf.__operators__.getitem_5/strided_slice/stack", "shape": [1], "dtype": "int32"}, {"name": "StatefulPartitionedCall/GEN/tf.__operators__.getitem_5/strided_slice/stack_1", "shape": [1], "dtype": "int32"}, {"name": "StatefulPartitionedCall/GEN/tf.__operators__.getitem_5/strided_slice/stack_2", "shape": [1], "dtype": "int32"}, {"name": "StatefulPartitionedCall/GEN/tf.reshape_11/Reshape/shape/1", "shape": [], "dtype": "int32"}, {"name": "StatefulPartitionedCall/GEN/tf.reshape_11/Reshape/shape/2", "shape": [], "dtype": "int32"}, {"name": "StatefulPartitionedCall/GEN/tf.reshape_11/Reshape/shape/3", "shape": [], "dtype": "int32"}, {"name": "StatefulPartitionedCall/GEN/res2c/Conv2D/Cast", "shape": [1, 1, 384, 640], "dtype": "float32"}, {"name": "StatefulPartitionedCall/GEN/res2c/BiasAdd/Cast", "shape": [640], "dtype": "float32"}, {"name": "StatefulPartitionedCall/GEN/tf.__operators__.getitem_6/strided_slice/stack", "shape": [1], "dtype": "int32"}, {"name": "StatefulPartitionedCall/GEN/tf.__operators__.getitem_6/strided_slice/stack_1", "shape": [1], "dtype": "int32"}, {"name": "StatefulPartitionedCall/GEN/tf.__operators__.getitem_6/strided_slice/stack_2", "shape": [1], "dtype": "int32"}, {"name": "StatefulPartitionedCall/GEN/tf.reshape_13/Reshape/shape/1", "shape": [], "dtype": "int32"}, {"name": "StatefulPartitionedCall/GEN/tf.reshape_13/Reshape/shape/2", "shape": [], "dtype": "int32"}, {"name": "StatefulPartitionedCall/GEN/tf.reshape_13/Reshape/shape/3", "shape": [], "dtype": "int32"}, {"name": "StatefulPartitionedCall/GEN/res3c/Conv2D/Cast", "shape": [1, 1, 320, 512], "dtype": "float32"}, {"name": "StatefulPartitionedCall/GEN/res3c/BiasAdd/Cast", "shape": [512], "dtype": "float32"}, {"name": "StatefulPartitionedCall/GEN/tf.__operators__.getitem_7/strided_slice/stack", "shape": [1], "dtype": "int32"}, {"name": "StatefulPartitionedCall/GEN/tf.__operators__.getitem_7/strided_slice/stack_1", "shape": [1], "dtype": "int32"}, {"name": "StatefulPartitionedCall/GEN/tf.__operators__.getitem_7/strided_slice/stack_2", "shape": [1], "dtype": "int32"}, {"name": "StatefulPartitionedCall/GEN/tf.reshape_15/Reshape/shape/1", "shape": [], "dtype": "int32"}, {"name": "StatefulPartitionedCall/GEN/tf.reshape_15/Reshape/shape/2", "shape": [], "dtype": "int32"}, {"name": "StatefulPartitionedCall/GEN/tf.reshape_15/Reshape/shape/3", "shape": [], "dtype": "int32"}, {"name": "StatefulPartitionedCall/GEN/res4c/Conv2D/Cast", "shape": [1, 1, 256, 384], "dtype": "float32"}, {"name": "StatefulPartitionedCall/GEN/res4c/BiasAdd/Cast", "shape": [384], "dtype": "float32"}, {"name": "StatefulPartitionedCall/GEN/8c/BiasAdd/Cast", "shape": [256], "dtype": "float32"}, {"name": "StatefulPartitionedCall/GEN/8r/strided_slice/stack", "shape": [1], "dtype": "int32"}, {"name": "StatefulPartitionedCall/GEN/8r/strided_slice/stack_1", "shape": [1], "dtype": "int32"}, {"name": "StatefulPartitionedCall/GEN/8r/strided_slice/stack_2", "shape": [1], "dtype": "int32"}, {"name": "StatefulPartitionedCall/GEN/8r/random_normal/shape/1", "shape": [], "dtype": "int32"}, {"name": "StatefulPartitionedCall/GEN/8r/random_normal/shape/2", "shape": [], "dtype": "int32"}, {"name": "StatefulPartitionedCall/GEN/8r/random_normal/shape/3", "shape": [], "dtype": "int32"}, {"name": "StatefulPartitionedCall/GEN/tf.math.reduce_std_19/reduce_std/reduce_variance/Mean/reduction_indices", "shape": [], "dtype": "int32"}, {"name": "StatefulPartitionedCall/GEN/tf.math.reduce_std_19/reduce_std/reduce_variance/Mean_1/reduction_indices", "shape": [], "dtype": "int32"}, {"name": "StatefulPartitionedCall/GEN/tf.__operators__.add_37/y", "shape": [], "dtype": "float32"}, {"name": "StatefulPartitionedCall/GEN/tf.split_9/split/split_dim", "shape": [], "dtype": "int32"}, {"name": "StatefulPartitionedCall/GEN/tf.concat_9/concat/axis", "shape": [], "dtype": "int32"}, {"name": "StatefulPartitionedCall/GEN/tf.expand_dims_3/ExpandDims/dim", "shape": [], "dtype": "int32"}, {"name": "StatefulPartitionedCall/GEN/8ai/Conv2D/Cast", "shape": [1, 1, 128, 256], "dtype": "float32"}, {"name": "StatefulPartitionedCall/GEN/8ai/BiasAdd/Cast", "shape": [256], "dtype": "float32"}, {"name": "StatefulPartitionedCall/GEN/9c/Conv2D/Cast", "shape": [1, 4, 256, 128], "dtype": "float32"}, {"name": "StatefulPartitionedCall/GEN/9c/BiasAdd/Cast", "shape": [128], "dtype": "float32"}, {"name": "StatefulPartitionedCall/GEN/tf.concat_10/concat/axis", "shape": [], "dtype": "int32"}]}]}