{"format": "graph-model", "generatedBy": "2.15.0", "convertedBy": "TensorFlow.js Converter v4.20.0", "signature": {"inputs": {"input_8": {"name": "input_8:0", "dtype": "DT_FLOAT", "tensorShape": {"dim": [{"size": "-1"}, {"size": "256"}, {"size": "128"}]}}}, "outputs": {"Identity_1:0": {"name": "Identity_1:0", "dtype": "DT_FLOAT", "tensorShape": {"dim": [{"size": "24576"}, {"size": "513"}, {"size": "2"}]}}, "Identity:0": {"name": "Identity:0", "dtype": "DT_FLOAT", "tensorShape": {"dim": [{"size": "24576"}, {"size": "513"}, {"size": "2"}]}}}}, "modelTopology": {"node": [{"name": "StatefulPartitionedCall/model/generate_waveform_layer/split_9/split_dim", "op": "Const", "attr": {"dtype": {"type": "DT_INT32"}, "value": {"tensor": {"dtype": "DT_INT32", "tensorShape": {}}}}}, {"name": "StatefulPartitionedCall/model/generate_waveform_layer/Pow/x", "op": "Const", "attr": {"dtype": {"type": "DT_FLOAT"}, "value": {"tensor": {"dtype": "DT_FLOAT", "tensorShape": {}}}}}, {"name": "StatefulPartitionedCall/model/generate_waveform_layer/mul_1/x", "op": "Const", "attr": {"value": {"tensor": {"dtype": "DT_FLOAT", "tensorShape": {}}}, "dtype": {"type": "DT_FLOAT"}}}, {"name": "StatefulPartitionedCall/model/generate_waveform_layer/DEC/tf.split_3/split/split_dim", "op": "Const", "attr": {"value": {"tensor": {"dtype": "DT_INT32", "tensorShape": {}}}, "dtype": {"type": "DT_INT32"}}}, {"name": "StatefulPartitionedCall/model/generate_waveform_layer/DEC/conv2d_11/Conv2D/Cast", "op": "Const", "attr": {"value": {"tensor": {"dtype": "DT_HALF", "tensorShape": {"dim": [{"size": "1"}, {"size": "1"}, {"size": "768"}, {"size": "513"}]}}}, "dtype": {"type": "DT_HALF"}}}, {"name": "StatefulPartitionedCall/model/generate_waveform_layer/DEC/conv2d_11/BiasAdd/Cast", "op": "Const", "attr": {"dtype": {"type": "DT_HALF"}, "value": {"tensor": {"dtype": "DT_HALF", "tensorShape": {"dim": [{"size": "513"}]}}}}}, {"name": "StatefulPartitionedCall/model/generate_waveform_layer/DEC/tf.clip_by_value/clip_by_value/Minimum/y", "op": "Const", "attr": {"dtype": {"type": "DT_HALF"}, "value": {"tensor": {"dtype": "DT_HALF", "tensorShape": {}}}}}, {"name": "StatefulPartitionedCall/model/generate_waveform_layer/DEC/tf.clip_by_value/clip_by_value/y", "op": "Const", "attr": {"dtype": {"type": "DT_HALF"}, "value": {"tensor": {"dtype": "DT_HALF", "tensorShape": {}}}}}, {"name": "StatefulPartitionedCall/model/generate_waveform_layer/DEC/tf.concat_3/concat/axis", "op": "Const", "attr": {"dtype": {"type": "DT_INT32"}, "value": {"tensor": {"dtype": "DT_INT32", "tensorShape": {}}}}}, {"name": "StatefulPartitionedCall/model/generate_waveform_layer/DEC/tf.compat.v1.transpose_5/transpose/perm", "op": "Const", "attr": {"value": {"tensor": {"dtype": "DT_INT32", "tensorShape": {"dim": [{"size": "4"}]}}}, "dtype": {"type": "DT_INT32"}}}, {"name": "StatefulPartitionedCall/model/generate_waveform_layer/DEC/tf.split_3/split_1/split_dim", "op": "Const", "attr": {"value": {"tensor": {"dtype": "DT_INT32", "tensorShape": {}}}, "dtype": {"type": "DT_INT32"}}}, {"name": "StatefulPartitionedCall/model/generate_waveform_layer/DEC/conv2d_11/Conv2D_1/Cast", "op": "Const", "attr": {"dtype": {"type": "DT_HALF"}, "value": {"tensor": {"dtype": "DT_HALF", "tensorShape": {"dim": [{"size": "1"}, {"size": "1"}, {"size": "768"}, {"size": "513"}]}}}}}, {"name": "StatefulPartitionedCall/model/generate_waveform_layer/DEC/conv2d_11/BiasAdd_1/Cast", "op": "Const", "attr": {"value": {"tensor": {"dtype": "DT_HALF", "tensorShape": {"dim": [{"size": "513"}]}}}, "dtype": {"type": "DT_HALF"}}}, {"name": "StatefulPartitionedCall/model/generate_waveform_layer/DEC/tf.clip_by_value/clip_by_value_1/Minimum/y", "op": "Const", "attr": {"dtype": {"type": "DT_HALF"}, "value": {"tensor": {"dtype": "DT_HALF", "tensorShape": {}}}}}, {"name": "StatefulPartitionedCall/model/generate_waveform_layer/DEC/tf.clip_by_value/clip_by_value_1/y", "op": "Const", "attr": {"dtype": {"type": "DT_HALF"}, "value": {"tensor": {"dtype": "DT_HALF", "tensorShape": {}}}}}, {"name": "StatefulPartitionedCall/model/generate_waveform_layer/DEC/tf.concat_3/concat_1/axis", "op": "Const", "attr": {"dtype": {"type": "DT_INT32"}, "value": {"tensor": {"dtype": "DT_INT32", "tensorShape": {}}}}}, {"name": "StatefulPartitionedCall/model/generate_waveform_layer/DEC/tf.compat.v1.transpose_5/transpose_1/perm", "op": "Const", "attr": {"dtype": {"type": "DT_INT32"}, "value": {"tensor": {"dtype": "DT_INT32", "tensorShape": {"dim": [{"size": "4"}]}}}}}, {"name": "StatefulPartitionedCall/model/generate_waveform_layer/DEC/tf.split_3/split_2/split_dim", "op": "Const", "attr": {"value": {"tensor": {"dtype": "DT_INT32", "tensorShape": {}}}, "dtype": {"type": "DT_INT32"}}}, {"name": "StatefulPartitionedCall/model/generate_waveform_layer/DEC/conv2d_11/Conv2D_2/Cast", "op": "Const", "attr": {"dtype": {"type": "DT_HALF"}, "value": {"tensor": {"dtype": "DT_HALF", "tensorShape": {"dim": [{"size": "1"}, {"size": "1"}, {"size": "768"}, {"size": "513"}]}}}}}, {"name": "StatefulPartitionedCall/model/generate_waveform_layer/DEC/conv2d_11/BiasAdd_2/Cast", "op": "Const", "attr": {"value": {"tensor": {"dtype": "DT_HALF", "tensorShape": {"dim": [{"size": "513"}]}}}, "dtype": {"type": "DT_HALF"}}}, {"name": "StatefulPartitionedCall/model/generate_waveform_layer/DEC/tf.clip_by_value/clip_by_value_2/Minimum/y", "op": "Const", "attr": {"value": {"tensor": {"dtype": "DT_HALF", "tensorShape": {}}}, "dtype": {"type": "DT_HALF"}}}, {"name": "StatefulPartitionedCall/model/generate_waveform_layer/DEC/tf.clip_by_value/clip_by_value_2/y", "op": "Const", "attr": {"value": {"tensor": {"dtype": "DT_HALF", "tensorShape": {}}}, "dtype": {"type": "DT_HALF"}}}, {"name": "StatefulPartitionedCall/model/generate_waveform_layer/DEC/tf.concat_3/concat_2/axis", "op": "Const", "attr": {"dtype": {"type": "DT_INT32"}, "value": {"tensor": {"dtype": "DT_INT32", "tensorShape": {}}}}}, {"name": "StatefulPartitionedCall/model/generate_waveform_layer/DEC/tf.compat.v1.transpose_5/transpose_2/perm", "op": "Const", "attr": {"value": {"tensor": {"dtype": "DT_INT32", "tensorShape": {"dim": [{"size": "4"}]}}}, "dtype": {"type": "DT_INT32"}}}, {"name": "StatefulPartitionedCall/model/generate_waveform_layer/concat_11/axis", "op": "Const", "attr": {"dtype": {"type": "DT_INT32"}, "value": {"tensor": {"dtype": "DT_INT32", "tensorShape": {}}}}}, {"name": "StatefulPartitionedCall/model/generate_waveform_layer/mul/y", "op": "Const", "attr": {"dtype": {"type": "DT_FLOAT"}, "value": {"tensor": {"dtype": "DT_FLOAT", "tensorShape": {}}}}}, {"name": "StatefulPartitionedCall/model/generate_waveform_layer/add/y", "op": "Const", "attr": {"value": {"tensor": {"dtype": "DT_FLOAT", "tensorShape": {}}}, "dtype": {"type": "DT_FLOAT"}}}, {"name": "StatefulPartitionedCall/model/generate_waveform_layer/add_1/y", "op": "Const", "attr": {"value": {"tensor": {"dtype": "DT_FLOAT", "tensorShape": {}}}, "dtype": {"type": "DT_FLOAT"}}}, {"name": "StatefulPartitionedCall/model/generate_waveform_layer/concat_13/axis", "op": "Const", "attr": {"value": {"tensor": {"dtype": "DT_INT32", "tensorShape": {}}}, "dtype": {"type": "DT_INT32"}}}, {"name": "StatefulPartitionedCall/model/generate_waveform_layer/split_18/split_dim", "op": "Const", "attr": {"value": {"tensor": {"dtype": "DT_INT32", "tensorShape": {}}}, "dtype": {"type": "DT_INT32"}}}, {"name": "StatefulPartitionedCall/model/generate_waveform_layer/Pow_1/x", "op": "Const", "attr": {"dtype": {"type": "DT_FLOAT"}, "value": {"tensor": {"dtype": "DT_FLOAT", "tensorShape": {}}}}}, {"name": "StatefulPartitionedCall/model/generate_waveform_layer/mul_5/x", "op": "Const", "attr": {"dtype": {"type": "DT_FLOAT"}, "value": {"tensor": {"dtype": "DT_FLOAT", "tensorShape": {}}}}}, {"name": "StatefulPartitionedCall/model/generate_waveform_layer/DEC/tf.split_3/split_3/split_dim", "op": "Const", "attr": {"dtype": {"type": "DT_INT32"}, "value": {"tensor": {"dtype": "DT_INT32", "tensorShape": {}}}}}, {"name": "StatefulPartitionedCall/model/generate_waveform_layer/DEC/conv2d_11/Conv2D_3/Cast", "op": "Const", "attr": {"dtype": {"type": "DT_HALF"}, "value": {"tensor": {"dtype": "DT_HALF", "tensorShape": {"dim": [{"size": "1"}, {"size": "1"}, {"size": "768"}, {"size": "513"}]}}}}}, {"name": "StatefulPartitionedCall/model/generate_waveform_layer/DEC/conv2d_11/BiasAdd_3/Cast", "op": "Const", "attr": {"value": {"tensor": {"dtype": "DT_HALF", "tensorShape": {"dim": [{"size": "513"}]}}}, "dtype": {"type": "DT_HALF"}}}, {"name": "StatefulPartitionedCall/model/generate_waveform_layer/DEC/tf.clip_by_value/clip_by_value_3/Minimum/y", "op": "Const", "attr": {"value": {"tensor": {"dtype": "DT_HALF", "tensorShape": {}}}, "dtype": {"type": "DT_HALF"}}}, {"name": "StatefulPartitionedCall/model/generate_waveform_layer/DEC/tf.clip_by_value/clip_by_value_3/y", "op": "Const", "attr": {"dtype": {"type": "DT_HALF"}, "value": {"tensor": {"dtype": "DT_HALF", "tensorShape": {}}}}}, {"name": "StatefulPartitionedCall/model/generate_waveform_layer/DEC/tf.concat_3/concat_3/axis", "op": "Const", "attr": {"value": {"tensor": {"dtype": "DT_INT32", "tensorShape": {}}}, "dtype": {"type": "DT_INT32"}}}, {"name": "StatefulPartitionedCall/model/generate_waveform_layer/DEC/tf.compat.v1.transpose_5/transpose_3/perm", "op": "Const", "attr": {"value": {"tensor": {"dtype": "DT_INT32", "tensorShape": {"dim": [{"size": "4"}]}}}, "dtype": {"type": "DT_INT32"}}}, {"name": "StatefulPartitionedCall/model/generate_waveform_layer/DEC/tf.split_3/split_4/split_dim", "op": "Const", "attr": {"dtype": {"type": "DT_INT32"}, "value": {"tensor": {"dtype": "DT_INT32", "tensorShape": {}}}}}, {"name": "StatefulPartitionedCall/model/generate_waveform_layer/DEC/conv2d_11/Conv2D_4/Cast", "op": "Const", "attr": {"value": {"tensor": {"dtype": "DT_HALF", "tensorShape": {"dim": [{"size": "1"}, {"size": "1"}, {"size": "768"}, {"size": "513"}]}}}, "dtype": {"type": "DT_HALF"}}}, {"name": "StatefulPartitionedCall/model/generate_waveform_layer/DEC/conv2d_11/BiasAdd_4/Cast", "op": "Const", "attr": {"value": {"tensor": {"dtype": "DT_HALF", "tensorShape": {"dim": [{"size": "513"}]}}}, "dtype": {"type": "DT_HALF"}}}, {"name": "StatefulPartitionedCall/model/generate_waveform_layer/DEC/tf.clip_by_value/clip_by_value_4/Minimum/y", "op": "Const", "attr": {"dtype": {"type": "DT_HALF"}, "value": {"tensor": {"dtype": "DT_HALF", "tensorShape": {}}}}}, {"name": "StatefulPartitionedCall/model/generate_waveform_layer/DEC/tf.clip_by_value/clip_by_value_4/y", "op": "Const", "attr": {"dtype": {"type": "DT_HALF"}, "value": {"tensor": {"dtype": "DT_HALF", "tensorShape": {}}}}}, {"name": "StatefulPartitionedCall/model/generate_waveform_layer/DEC/tf.concat_3/concat_4/axis", "op": "Const", "attr": {"dtype": {"type": "DT_INT32"}, "value": {"tensor": {"dtype": "DT_INT32", "tensorShape": {}}}}}, {"name": "StatefulPartitionedCall/model/generate_waveform_layer/DEC/tf.compat.v1.transpose_5/transpose_4/perm", "op": "Const", "attr": {"dtype": {"type": "DT_INT32"}, "value": {"tensor": {"dtype": "DT_INT32", "tensorShape": {"dim": [{"size": "4"}]}}}}}, {"name": "StatefulPartitionedCall/model/generate_waveform_layer/DEC/tf.split_3/split_5/split_dim", "op": "Const", "attr": {"dtype": {"type": "DT_INT32"}, "value": {"tensor": {"dtype": "DT_INT32", "tensorShape": {}}}}}, {"name": "StatefulPartitionedCall/model/generate_waveform_layer/DEC/conv2d_11/Conv2D_5/Cast", "op": "Const", "attr": {"value": {"tensor": {"dtype": "DT_HALF", "tensorShape": {"dim": [{"size": "1"}, {"size": "1"}, {"size": "768"}, {"size": "513"}]}}}, "dtype": {"type": "DT_HALF"}}}, {"name": "StatefulPartitionedCall/model/generate_waveform_layer/DEC/conv2d_11/BiasAdd_5/Cast", "op": "Const", "attr": {"value": {"tensor": {"dtype": "DT_HALF", "tensorShape": {"dim": [{"size": "513"}]}}}, "dtype": {"type": "DT_HALF"}}}, {"name": "StatefulPartitionedCall/model/generate_waveform_layer/DEC/tf.clip_by_value/clip_by_value_5/Minimum/y", "op": "Const", "attr": {"value": {"tensor": {"dtype": "DT_HALF", "tensorShape": {}}}, "dtype": {"type": "DT_HALF"}}}, {"name": "StatefulPartitionedCall/model/generate_waveform_layer/DEC/tf.clip_by_value/clip_by_value_5/y", "op": "Const", "attr": {"dtype": {"type": "DT_HALF"}, "value": {"tensor": {"dtype": "DT_HALF", "tensorShape": {}}}}}, {"name": "StatefulPartitionedCall/model/generate_waveform_layer/DEC/tf.concat_3/concat_5/axis", "op": "Const", "attr": {"dtype": {"type": "DT_INT32"}, "value": {"tensor": {"dtype": "DT_INT32", "tensorShape": {}}}}}, {"name": "StatefulPartitionedCall/model/generate_waveform_layer/DEC/tf.compat.v1.transpose_5/transpose_5/perm", "op": "Const", "attr": {"value": {"tensor": {"dtype": "DT_INT32", "tensorShape": {"dim": [{"size": "4"}]}}}, "dtype": {"type": "DT_INT32"}}}, {"name": "StatefulPartitionedCall/model/generate_waveform_layer/concat_23/axis", "op": "Const", "attr": {"dtype": {"type": "DT_INT32"}, "value": {"tensor": {"dtype": "DT_INT32", "tensorShape": {}}}}}, {"name": "StatefulPartitionedCall/model/generate_waveform_layer/mul_4/y", "op": "Const", "attr": {"dtype": {"type": "DT_FLOAT"}, "value": {"tensor": {"dtype": "DT_FLOAT", "tensorShape": {}}}}}, {"name": "StatefulPartitionedCall/model/generate_waveform_layer/add_2/y", "op": "Const", "attr": {"value": {"tensor": {"dtype": "DT_FLOAT", "tensorShape": {}}}, "dtype": {"type": "DT_FLOAT"}}}, {"name": "StatefulPartitionedCall/model/generate_waveform_layer/add_3/y", "op": "Const", "attr": {"dtype": {"type": "DT_FLOAT"}, "value": {"tensor": {"dtype": "DT_FLOAT", "tensorShape": {}}}}}, {"name": "StatefulPartitionedCall/model/generate_waveform_layer/concat_25/axis", "op": "Const", "attr": {"dtype": {"type": "DT_INT32"}, "value": {"tensor": {"dtype": "DT_INT32", "tensorShape": {}}}}}, {"name": "StatefulPartitionedCall/model/generate_waveform_layer/split_10/split_dim", "op": "Const", "attr": {"dtype": {"type": "DT_INT32"}, "value": {"tensor": {"dtype": "DT_INT32", "tensorShape": {}}}}}, {"name": "StatefulPartitionedCall/model/generate_waveform_layer/DEC/tf.split_4/split/split_dim", "op": "Const", "attr": {"value": {"tensor": {"dtype": "DT_INT32", "tensorShape": {}}}, "dtype": {"type": "DT_INT32"}}}, {"name": "StatefulPartitionedCall/model/generate_waveform_layer/DEC/conv2d_transpose_5/stack", "op": "Const", "attr": {"dtype": {"type": "DT_INT32"}, "value": {"tensor": {"dtype": "DT_INT32", "tensorShape": {"dim": [{"size": "4"}]}}}}}, {"name": "StatefulPartitionedCall/model/generate_waveform_layer/DEC/conv2d_transpose_5/conv2d_transpose/Cast", "op": "Const", "attr": {"value": {"tensor": {"dtype": "DT_HALF", "tensorShape": {"dim": [{"size": "1"}, {"size": "4"}, {"size": "768"}, {"size": "768"}]}}}, "dtype": {"type": "DT_HALF"}}}, {"name": "StatefulPartitionedCall/model/generate_waveform_layer/DEC/conv2d_transpose_4/stack", "op": "Const", "attr": {"value": {"tensor": {"dtype": "DT_INT32", "tensorShape": {"dim": [{"size": "4"}]}}}, "dtype": {"type": "DT_INT32"}}}, {"name": "StatefulPartitionedCall/model/generate_waveform_layer/DEC/conv2d_transpose_4/conv2d_transpose/Cast", "op": "Const", "attr": {"value": {"tensor": {"dtype": "DT_HALF", "tensorShape": {"dim": [{"size": "1"}, {"size": "4"}, {"size": "768"}, {"size": "512"}]}}}, "dtype": {"type": "DT_HALF"}}}, {"name": "StatefulPartitionedCall/model/generate_waveform_layer/DEC/conv2d_transpose_4/BiasAdd/Cast", "op": "Const", "attr": {"dtype": {"type": "DT_HALF"}, "value": {"tensor": {"dtype": "DT_HALF", "tensorShape": {"dim": [{"size": "768"}]}}}}}, {"name": "StatefulPartitionedCall/model/generate_waveform_layer/DEC/add_noise_9/Cast", "op": "Const", "attr": {"value": {"tensor": {"dtype": "DT_HALF", "tensorShape": {"dim": [{"size": "1"}]}}}, "dtype": {"type": "DT_HALF"}}}, {"name": "StatefulPartitionedCall/model/generate_waveform_layer/DEC/add_noise_9/random_normal/shape", "op": "Const", "attr": {"value": {"tensor": {"dtype": "DT_INT32", "tensorShape": {"dim": [{"size": "4"}]}}}, "dtype": {"type": "DT_INT32"}}}, {"name": "StatefulPartitionedCall/model/generate_waveform_layer/DEC/conv2d_transpose_5/BiasAdd/Cast", "op": "Const", "attr": {"value": {"tensor": {"dtype": "DT_HALF", "tensorShape": {"dim": [{"size": "768"}]}}}, "dtype": {"type": "DT_HALF"}}}, {"name": "StatefulPartitionedCall/model/generate_waveform_layer/DEC/add_noise_10/Cast", "op": "Const", "attr": {"value": {"tensor": {"dtype": "DT_HALF", "tensorShape": {"dim": [{"size": "1"}]}}}, "dtype": {"type": "DT_HALF"}}}, {"name": "StatefulPartitionedCall/model/generate_waveform_layer/DEC/add_noise_10/random_normal/shape", "op": "Const", "attr": {"dtype": {"type": "DT_INT32"}, "value": {"tensor": {"dtype": "DT_INT32", "tensorShape": {"dim": [{"size": "4"}]}}}}}, {"name": "StatefulPartitionedCall/model/generate_waveform_layer/DEC/conv2d_transpose_3/stack", "op": "Const", "attr": {"dtype": {"type": "DT_INT32"}, "value": {"tensor": {"dtype": "DT_INT32", "tensorShape": {"dim": [{"size": "4"}]}}}}}, {"name": "StatefulPartitionedCall/model/generate_waveform_layer/DEC/conv2d_transpose_3/conv2d_transpose/Cast", "op": "Const", "attr": {"dtype": {"type": "DT_HALF"}, "value": {"tensor": {"dtype": "DT_HALF", "tensorShape": {"dim": [{"size": "1"}, {"size": "4"}, {"size": "768"}, {"size": "768"}]}}}}}, {"name": "StatefulPartitionedCall/model/generate_waveform_layer/DEC/conv2d_transpose_2/stack", "op": "Const", "attr": {"value": {"tensor": {"dtype": "DT_INT32", "tensorShape": {"dim": [{"size": "4"}]}}}, "dtype": {"type": "DT_INT32"}}}, {"name": "StatefulPartitionedCall/model/generate_waveform_layer/DEC/conv2d_transpose_2/conv2d_transpose/Cast", "op": "Const", "attr": {"dtype": {"type": "DT_HALF"}, "value": {"tensor": {"dtype": "DT_HALF", "tensorShape": {"dim": [{"size": "1"}, {"size": "4"}, {"size": "768"}, {"size": "512"}]}}}}}, {"name": "StatefulPartitionedCall/model/generate_waveform_layer/DEC/conv2d_transpose_1/stack", "op": "Const", "attr": {"value": {"tensor": {"dtype": "DT_INT32", "tensorShape": {"dim": [{"size": "4"}]}}}, "dtype": {"type": "DT_INT32"}}}, {"name": "StatefulPartitionedCall/model/generate_waveform_layer/DEC/conv2d_transpose_1/conv2d_transpose/Cast", "op": "Const", "attr": {"value": {"tensor": {"dtype": "DT_HALF", "tensorShape": {"dim": [{"size": "1"}, {"size": "4"}, {"size": "512"}, {"size": "256"}]}}}, "dtype": {"type": "DT_HALF"}}}, {"name": "StatefulPartitionedCall/model/generate_waveform_layer/DEC/conv2d_9/Conv2D/Cast", "op": "Const", "attr": {"dtype": {"type": "DT_HALF"}, "value": {"tensor": {"dtype": "DT_HALF", "tensorShape": {"dim": [{"size": "1"}, {"size": "3"}, {"size": "512"}, {"size": "256"}]}}}}}, {"name": "StatefulPartitionedCall/model/generate_waveform_layer/DEC/conv2d_9/BiasAdd/Cast", "op": "Const", "attr": {"value": {"tensor": {"dtype": "DT_HALF", "tensorShape": {"dim": [{"size": "256"}]}}}, "dtype": {"type": "DT_HALF"}}}, {"name": "StatefulPartitionedCall/model/generate_waveform_layer/DEC/add_noise_3/Cast", "op": "Const", "attr": {"dtype": {"type": "DT_HALF"}, "value": {"tensor": {"dtype": "DT_HALF", "tensorShape": {"dim": [{"size": "1"}]}}}}}, {"name": "StatefulPartitionedCall/model/generate_waveform_layer/DEC/add_noise_3/random_normal/shape", "op": "Const", "attr": {"dtype": {"type": "DT_INT32"}, "value": {"tensor": {"dtype": "DT_INT32", "tensorShape": {"dim": [{"size": "4"}]}}}}}, {"name": "StatefulPartitionedCall/model/generate_waveform_layer/DEC/conv2d_transpose_1/BiasAdd/Cast", "op": "Const", "attr": {"dtype": {"type": "DT_HALF"}, "value": {"tensor": {"dtype": "DT_HALF", "tensorShape": {"dim": [{"size": "512"}]}}}}}, {"name": "StatefulPartitionedCall/model/generate_waveform_layer/DEC/add_noise_6/Cast", "op": "Const", "attr": {"dtype": {"type": "DT_HALF"}, "value": {"tensor": {"dtype": "DT_HALF", "tensorShape": {"dim": [{"size": "1"}]}}}}}, {"name": "StatefulPartitionedCall/model/generate_waveform_layer/DEC/add_noise_6/random_normal/shape", "op": "Const", "attr": {"value": {"tensor": {"dtype": "DT_INT32", "tensorShape": {"dim": [{"size": "4"}]}}}, "dtype": {"type": "DT_INT32"}}}, {"name": "StatefulPartitionedCall/model/generate_waveform_layer/DEC/conv2d_8/Conv2D/Cast", "op": "Const", "attr": {"dtype": {"type": "DT_HALF"}, "value": {"tensor": {"dtype": "DT_HALF", "tensorShape": {"dim": [{"size": "1"}, {"size": "3"}, {"size": "768"}, {"size": "512"}]}}}}}, {"name": "StatefulPartitionedCall/model/generate_waveform_layer/DEC/conv2d_8/BiasAdd/Cast", "op": "Const", "attr": {"value": {"tensor": {"dtype": "DT_HALF", "tensorShape": {"dim": [{"size": "512"}]}}}, "dtype": {"type": "DT_HALF"}}}, {"name": "StatefulPartitionedCall/model/generate_waveform_layer/DEC/add_noise_2/Cast", "op": "Const", "attr": {"dtype": {"type": "DT_HALF"}, "value": {"tensor": {"dtype": "DT_HALF", "tensorShape": {"dim": [{"size": "1"}]}}}}}, {"name": "StatefulPartitionedCall/model/generate_waveform_layer/DEC/add_noise_2/random_normal/shape", "op": "Const", "attr": {"dtype": {"type": "DT_INT32"}, "value": {"tensor": {"dtype": "DT_INT32", "tensorShape": {"dim": [{"size": "4"}]}}}}}, {"name": "StatefulPartitionedCall/model/generate_waveform_layer/DEC/conv2d_transpose_2/BiasAdd/Cast", "op": "Const", "attr": {"dtype": {"type": "DT_HALF"}, "value": {"tensor": {"dtype": "DT_HALF", "tensorShape": {"dim": [{"size": "768"}]}}}}}, {"name": "StatefulPartitionedCall/model/generate_waveform_layer/DEC/add_noise_7/Cast", "op": "Const", "attr": {"dtype": {"type": "DT_HALF"}, "value": {"tensor": {"dtype": "DT_HALF", "tensorShape": {"dim": [{"size": "1"}]}}}}}, {"name": "StatefulPartitionedCall/model/generate_waveform_layer/DEC/add_noise_7/random_normal/shape", "op": "Const", "attr": {"value": {"tensor": {"dtype": "DT_INT32", "tensorShape": {"dim": [{"size": "4"}]}}}, "dtype": {"type": "DT_INT32"}}}, {"name": "StatefulPartitionedCall/model/generate_waveform_layer/split_6/split_dim", "op": "Const", "attr": {"dtype": {"type": "DT_INT32"}, "value": {"tensor": {"dtype": "DT_INT32", "tensorShape": {}}}}}, {"name": "StatefulPartitionedCall/model/generate_waveform_layer/strided_slice_5/stack", "op": "Const", "attr": {"value": {"tensor": {"dtype": "DT_INT32", "tensorShape": {"dim": [{"size": "1"}]}}}, "dtype": {"type": "DT_INT32"}}}, {"name": "StatefulPartitionedCall/model/generate_waveform_layer/strided_slice_5/stack_1", "op": "Const", "attr": {"value": {"tensor": {"dtype": "DT_INT32", "tensorShape": {"dim": [{"size": "1"}]}}}, "dtype": {"type": "DT_INT32"}}}, {"name": "StatefulPartitionedCall/model/generate_waveform_layer/strided_slice_5/stack_2", "op": "Const", "attr": {"dtype": {"type": "DT_INT32"}, "value": {"tensor": {"dtype": "DT_INT32", "tensorShape": {"dim": [{"size": "1"}]}}}}}, {"name": "StatefulPartitionedCall/model/generate_waveform_layer/concat_8/axis", "op": "Const", "attr": {"dtype": {"type": "DT_INT32"}, "value": {"tensor": {"dtype": "DT_INT32", "tensorShape": {}}}}}, {"name": "StatefulPartitionedCall/model/generate_waveform_layer/DEC/conv2d_6/Conv2D/Cast", "op": "Const", "attr": {"value": {"tensor": {"dtype": "DT_HALF", "tensorShape": {"dim": [{"size": "1"}, {"size": "3"}, {"size": "64"}, {"size": "768"}]}}}, "dtype": {"type": "DT_HALF"}}}, {"name": "StatefulPartitionedCall/model/generate_waveform_layer/DEC/conv2d_6/BiasAdd/Cast", "op": "Const", "attr": {"dtype": {"type": "DT_HALF"}, "value": {"tensor": {"dtype": "DT_HALF", "tensorShape": {"dim": [{"size": "768"}]}}}}}, {"name": "StatefulPartitionedCall/model/generate_waveform_layer/DEC/add_noise/Cast", "op": "Const", "attr": {"dtype": {"type": "DT_HALF"}, "value": {"tensor": {"dtype": "DT_HALF", "tensorShape": {"dim": [{"size": "1"}]}}}}}, {"name": "StatefulPartitionedCall/model/generate_waveform_layer/DEC/add_noise/random_normal/shape", "op": "Const", "attr": {"dtype": {"type": "DT_INT32"}, "value": {"tensor": {"dtype": "DT_INT32", "tensorShape": {"dim": [{"size": "4"}]}}}}}, {"name": "StatefulPartitionedCall/model/generate_waveform_layer/DEC/conv2d_7/Conv2D/Cast", "op": "Const", "attr": {"dtype": {"type": "DT_HALF"}, "value": {"tensor": {"dtype": "DT_HALF", "tensorShape": {"dim": [{"size": "1"}, {"size": "3"}, {"size": "768"}, {"size": "768"}]}}}}}, {"name": "StatefulPartitionedCall/model/generate_waveform_layer/DEC/conv2d_7/BiasAdd/Cast", "op": "Const", "attr": {"value": {"tensor": {"dtype": "DT_HALF", "tensorShape": {"dim": [{"size": "768"}]}}}, "dtype": {"type": "DT_HALF"}}}, {"name": "StatefulPartitionedCall/model/generate_waveform_layer/DEC/add_noise_1/Cast", "op": "Const", "attr": {"dtype": {"type": "DT_HALF"}, "value": {"tensor": {"dtype": "DT_HALF", "tensorShape": {"dim": [{"size": "1"}]}}}}}, {"name": "StatefulPartitionedCall/model/generate_waveform_layer/DEC/add_noise_1/random_normal/shape", "op": "Const", "attr": {"value": {"tensor": {"dtype": "DT_INT32", "tensorShape": {"dim": [{"size": "4"}]}}}, "dtype": {"type": "DT_INT32"}}}, {"name": "StatefulPartitionedCall/model/generate_waveform_layer/DEC/conv2d_transpose_3/BiasAdd/Cast", "op": "Const", "attr": {"value": {"tensor": {"dtype": "DT_HALF", "tensorShape": {"dim": [{"size": "768"}]}}}, "dtype": {"type": "DT_HALF"}}}, {"name": "StatefulPartitionedCall/model/generate_waveform_layer/DEC/add_noise_8/Cast", "op": "Const", "attr": {"value": {"tensor": {"dtype": "DT_HALF", "tensorShape": {"dim": [{"size": "1"}]}}}, "dtype": {"type": "DT_HALF"}}}, {"name": "StatefulPartitionedCall/model/generate_waveform_layer/DEC/add_noise_8/random_normal/shape", "op": "Const", "attr": {"value": {"tensor": {"dtype": "DT_INT32", "tensorShape": {"dim": [{"size": "4"}]}}}, "dtype": {"type": "DT_INT32"}}}, {"name": "StatefulPartitionedCall/model/generate_waveform_layer/DEC/conv2d_12/Conv2D/Cast", "op": "Const", "attr": {"value": {"tensor": {"dtype": "DT_HALF", "tensorShape": {"dim": [{"size": "1"}, {"size": "1"}, {"size": "768"}, {"size": "513"}]}}}, "dtype": {"type": "DT_HALF"}}}, {"name": "StatefulPartitionedCall/model/generate_waveform_layer/DEC/conv2d_12/BiasAdd/Cast", "op": "Const", "attr": {"value": {"tensor": {"dtype": "DT_HALF", "tensorShape": {"dim": [{"size": "513"}]}}}, "dtype": {"type": "DT_HALF"}}}, {"name": "StatefulPartitionedCall/model/generate_waveform_layer/DEC/tf.clip_by_value_1/clip_by_value/Minimum/y", "op": "Const", "attr": {"dtype": {"type": "DT_HALF"}, "value": {"tensor": {"dtype": "DT_HALF", "tensorShape": {}}}}}, {"name": "StatefulPartitionedCall/model/generate_waveform_layer/DEC/tf.clip_by_value_1/clip_by_value/y", "op": "Const", "attr": {"value": {"tensor": {"dtype": "DT_HALF", "tensorShape": {}}}, "dtype": {"type": "DT_HALF"}}}, {"name": "StatefulPartitionedCall/model/generate_waveform_layer/DEC/tf.concat_4/concat/axis", "op": "Const", "attr": {"value": {"tensor": {"dtype": "DT_INT32", "tensorShape": {}}}, "dtype": {"type": "DT_INT32"}}}, {"name": "StatefulPartitionedCall/model/generate_waveform_layer/DEC/tf.compat.v1.transpose_6/transpose/perm", "op": "Const", "attr": {"value": {"tensor": {"dtype": "DT_INT32", "tensorShape": {"dim": [{"size": "4"}]}}}, "dtype": {"type": "DT_INT32"}}}, {"name": "StatefulPartitionedCall/model/generate_waveform_layer/DEC/tf.split_4/split_1/split_dim", "op": "Const", "attr": {"dtype": {"type": "DT_INT32"}, "value": {"tensor": {"dtype": "DT_INT32", "tensorShape": {}}}}}, {"name": "StatefulPartitionedCall/model/generate_waveform_layer/DEC/conv2d_transpose_5/stack_1", "op": "Const", "attr": {"value": {"tensor": {"dtype": "DT_INT32", "tensorShape": {"dim": [{"size": "4"}]}}}, "dtype": {"type": "DT_INT32"}}}, {"name": "StatefulPartitionedCall/model/generate_waveform_layer/DEC/conv2d_transpose_5/conv2d_transpose_1/Cast", "op": "Const", "attr": {"dtype": {"type": "DT_HALF"}, "value": {"tensor": {"dtype": "DT_HALF", "tensorShape": {"dim": [{"size": "1"}, {"size": "4"}, {"size": "768"}, {"size": "768"}]}}}}}, {"name": "StatefulPartitionedCall/model/generate_waveform_layer/DEC/conv2d_transpose_4/stack_1", "op": "Const", "attr": {"dtype": {"type": "DT_INT32"}, "value": {"tensor": {"dtype": "DT_INT32", "tensorShape": {"dim": [{"size": "4"}]}}}}}, {"name": "StatefulPartitionedCall/model/generate_waveform_layer/DEC/conv2d_transpose_4/conv2d_transpose_1/Cast", "op": "Const", "attr": {"dtype": {"type": "DT_HALF"}, "value": {"tensor": {"dtype": "DT_HALF", "tensorShape": {"dim": [{"size": "1"}, {"size": "4"}, {"size": "768"}, {"size": "512"}]}}}}}, {"name": "StatefulPartitionedCall/model/generate_waveform_layer/DEC/conv2d_transpose_4/BiasAdd_1/Cast", "op": "Const", "attr": {"value": {"tensor": {"dtype": "DT_HALF", "tensorShape": {"dim": [{"size": "768"}]}}}, "dtype": {"type": "DT_HALF"}}}, {"name": "StatefulPartitionedCall/model/generate_waveform_layer/DEC/add_noise_9/Cast_1", "op": "Const", "attr": {"value": {"tensor": {"dtype": "DT_HALF", "tensorShape": {"dim": [{"size": "1"}]}}}, "dtype": {"type": "DT_HALF"}}}, {"name": "StatefulPartitionedCall/model/generate_waveform_layer/DEC/add_noise_9/random_normal_1/shape", "op": "Const", "attr": {"dtype": {"type": "DT_INT32"}, "value": {"tensor": {"dtype": "DT_INT32", "tensorShape": {"dim": [{"size": "4"}]}}}}}, {"name": "StatefulPartitionedCall/model/generate_waveform_layer/DEC/conv2d_transpose_5/BiasAdd_1/Cast", "op": "Const", "attr": {"dtype": {"type": "DT_HALF"}, "value": {"tensor": {"dtype": "DT_HALF", "tensorShape": {"dim": [{"size": "768"}]}}}}}, {"name": "StatefulPartitionedCall/model/generate_waveform_layer/DEC/add_noise_10/Cast_1", "op": "Const", "attr": {"dtype": {"type": "DT_HALF"}, "value": {"tensor": {"dtype": "DT_HALF", "tensorShape": {"dim": [{"size": "1"}]}}}}}, {"name": "StatefulPartitionedCall/model/generate_waveform_layer/DEC/add_noise_10/random_normal_1/shape", "op": "Const", "attr": {"dtype": {"type": "DT_INT32"}, "value": {"tensor": {"dtype": "DT_INT32", "tensorShape": {"dim": [{"size": "4"}]}}}}}, {"name": "StatefulPartitionedCall/model/generate_waveform_layer/DEC/conv2d_transpose_3/stack_1", "op": "Const", "attr": {"dtype": {"type": "DT_INT32"}, "value": {"tensor": {"dtype": "DT_INT32", "tensorShape": {"dim": [{"size": "4"}]}}}}}, {"name": "StatefulPartitionedCall/model/generate_waveform_layer/DEC/conv2d_transpose_3/conv2d_transpose_1/Cast", "op": "Const", "attr": {"dtype": {"type": "DT_HALF"}, "value": {"tensor": {"dtype": "DT_HALF", "tensorShape": {"dim": [{"size": "1"}, {"size": "4"}, {"size": "768"}, {"size": "768"}]}}}}}, {"name": "StatefulPartitionedCall/model/generate_waveform_layer/DEC/conv2d_transpose_2/stack_1", "op": "Const", "attr": {"value": {"tensor": {"dtype": "DT_INT32", "tensorShape": {"dim": [{"size": "4"}]}}}, "dtype": {"type": "DT_INT32"}}}, {"name": "StatefulPartitionedCall/model/generate_waveform_layer/DEC/conv2d_transpose_2/conv2d_transpose_1/Cast", "op": "Const", "attr": {"dtype": {"type": "DT_HALF"}, "value": {"tensor": {"dtype": "DT_HALF", "tensorShape": {"dim": [{"size": "1"}, {"size": "4"}, {"size": "768"}, {"size": "512"}]}}}}}, {"name": "StatefulPartitionedCall/model/generate_waveform_layer/DEC/conv2d_transpose_1/stack_1", "op": "Const", "attr": {"value": {"tensor": {"dtype": "DT_INT32", "tensorShape": {"dim": [{"size": "4"}]}}}, "dtype": {"type": "DT_INT32"}}}, {"name": "StatefulPartitionedCall/model/generate_waveform_layer/DEC/conv2d_transpose_1/conv2d_transpose_1/Cast", "op": "Const", "attr": {"dtype": {"type": "DT_HALF"}, "value": {"tensor": {"dtype": "DT_HALF", "tensorShape": {"dim": [{"size": "1"}, {"size": "4"}, {"size": "512"}, {"size": "256"}]}}}}}, {"name": "StatefulPartitionedCall/model/generate_waveform_layer/DEC/conv2d_9/Conv2D_1/Cast", "op": "Const", "attr": {"dtype": {"type": "DT_HALF"}, "value": {"tensor": {"dtype": "DT_HALF", "tensorShape": {"dim": [{"size": "1"}, {"size": "3"}, {"size": "512"}, {"size": "256"}]}}}}}, {"name": "StatefulPartitionedCall/model/generate_waveform_layer/DEC/conv2d_9/BiasAdd_1/Cast", "op": "Const", "attr": {"value": {"tensor": {"dtype": "DT_HALF", "tensorShape": {"dim": [{"size": "256"}]}}}, "dtype": {"type": "DT_HALF"}}}, {"name": "StatefulPartitionedCall/model/generate_waveform_layer/DEC/add_noise_3/Cast_1", "op": "Const", "attr": {"value": {"tensor": {"dtype": "DT_HALF", "tensorShape": {"dim": [{"size": "1"}]}}}, "dtype": {"type": "DT_HALF"}}}, {"name": "StatefulPartitionedCall/model/generate_waveform_layer/DEC/add_noise_3/random_normal_1/shape", "op": "Const", "attr": {"dtype": {"type": "DT_INT32"}, "value": {"tensor": {"dtype": "DT_INT32", "tensorShape": {"dim": [{"size": "4"}]}}}}}, {"name": "StatefulPartitionedCall/model/generate_waveform_layer/DEC/conv2d_transpose_1/BiasAdd_1/Cast", "op": "Const", "attr": {"value": {"tensor": {"dtype": "DT_HALF", "tensorShape": {"dim": [{"size": "512"}]}}}, "dtype": {"type": "DT_HALF"}}}, {"name": "StatefulPartitionedCall/model/generate_waveform_layer/DEC/add_noise_6/Cast_1", "op": "Const", "attr": {"value": {"tensor": {"dtype": "DT_HALF", "tensorShape": {"dim": [{"size": "1"}]}}}, "dtype": {"type": "DT_HALF"}}}, {"name": "StatefulPartitionedCall/model/generate_waveform_layer/DEC/add_noise_6/random_normal_1/shape", "op": "Const", "attr": {"dtype": {"type": "DT_INT32"}, "value": {"tensor": {"dtype": "DT_INT32", "tensorShape": {"dim": [{"size": "4"}]}}}}}, {"name": "StatefulPartitionedCall/model/generate_waveform_layer/DEC/conv2d_8/Conv2D_1/Cast", "op": "Const", "attr": {"value": {"tensor": {"dtype": "DT_HALF", "tensorShape": {"dim": [{"size": "1"}, {"size": "3"}, {"size": "768"}, {"size": "512"}]}}}, "dtype": {"type": "DT_HALF"}}}, {"name": "StatefulPartitionedCall/model/generate_waveform_layer/DEC/conv2d_8/BiasAdd_1/Cast", "op": "Const", "attr": {"value": {"tensor": {"dtype": "DT_HALF", "tensorShape": {"dim": [{"size": "512"}]}}}, "dtype": {"type": "DT_HALF"}}}, {"name": "StatefulPartitionedCall/model/generate_waveform_layer/DEC/add_noise_2/Cast_1", "op": "Const", "attr": {"dtype": {"type": "DT_HALF"}, "value": {"tensor": {"dtype": "DT_HALF", "tensorShape": {"dim": [{"size": "1"}]}}}}}, {"name": "StatefulPartitionedCall/model/generate_waveform_layer/DEC/add_noise_2/random_normal_1/shape", "op": "Const", "attr": {"dtype": {"type": "DT_INT32"}, "value": {"tensor": {"dtype": "DT_INT32", "tensorShape": {"dim": [{"size": "4"}]}}}}}, {"name": "StatefulPartitionedCall/model/generate_waveform_layer/DEC/conv2d_transpose_2/BiasAdd_1/Cast", "op": "Const", "attr": {"value": {"tensor": {"dtype": "DT_HALF", "tensorShape": {"dim": [{"size": "768"}]}}}, "dtype": {"type": "DT_HALF"}}}, {"name": "StatefulPartitionedCall/model/generate_waveform_layer/DEC/add_noise_7/Cast_1", "op": "Const", "attr": {"dtype": {"type": "DT_HALF"}, "value": {"tensor": {"dtype": "DT_HALF", "tensorShape": {"dim": [{"size": "1"}]}}}}}, {"name": "StatefulPartitionedCall/model/generate_waveform_layer/DEC/add_noise_7/random_normal_1/shape", "op": "Const", "attr": {"value": {"tensor": {"dtype": "DT_INT32", "tensorShape": {"dim": [{"size": "4"}]}}}, "dtype": {"type": "DT_INT32"}}}, {"name": "StatefulPartitionedCall/model/generate_waveform_layer/split_7/split_dim", "op": "Const", "attr": {"dtype": {"type": "DT_INT32"}, "value": {"tensor": {"dtype": "DT_INT32", "tensorShape": {}}}}}, {"name": "StatefulPartitionedCall/model/generate_waveform_layer/strided_slice_6/stack", "op": "Const", "attr": {"dtype": {"type": "DT_INT32"}, "value": {"tensor": {"dtype": "DT_INT32", "tensorShape": {"dim": [{"size": "1"}]}}}}}, {"name": "StatefulPartitionedCall/model/generate_waveform_layer/strided_slice_6/stack_1", "op": "Const", "attr": {"dtype": {"type": "DT_INT32"}, "value": {"tensor": {"dtype": "DT_INT32", "tensorShape": {"dim": [{"size": "1"}]}}}}}, {"name": "StatefulPartitionedCall/model/generate_waveform_layer/strided_slice_6/stack_2", "op": "Const", "attr": {"dtype": {"type": "DT_INT32"}, "value": {"tensor": {"dtype": "DT_INT32", "tensorShape": {"dim": [{"size": "1"}]}}}}}, {"name": "StatefulPartitionedCall/model/generate_waveform_layer/concat_9/axis", "op": "Const", "attr": {"dtype": {"type": "DT_INT32"}, "value": {"tensor": {"dtype": "DT_INT32", "tensorShape": {}}}}}, {"name": "StatefulPartitionedCall/model/generate_waveform_layer/DEC/conv2d_6/Conv2D_1/Cast", "op": "Const", "attr": {"dtype": {"type": "DT_HALF"}, "value": {"tensor": {"dtype": "DT_HALF", "tensorShape": {"dim": [{"size": "1"}, {"size": "3"}, {"size": "64"}, {"size": "768"}]}}}}}, {"name": "StatefulPartitionedCall/model/generate_waveform_layer/DEC/conv2d_6/BiasAdd_1/Cast", "op": "Const", "attr": {"dtype": {"type": "DT_HALF"}, "value": {"tensor": {"dtype": "DT_HALF", "tensorShape": {"dim": [{"size": "768"}]}}}}}, {"name": "StatefulPartitionedCall/model/generate_waveform_layer/DEC/add_noise/Cast_1", "op": "Const", "attr": {"dtype": {"type": "DT_HALF"}, "value": {"tensor": {"dtype": "DT_HALF", "tensorShape": {"dim": [{"size": "1"}]}}}}}, {"name": "StatefulPartitionedCall/model/generate_waveform_layer/DEC/add_noise/random_normal_1/shape", "op": "Const", "attr": {"dtype": {"type": "DT_INT32"}, "value": {"tensor": {"dtype": "DT_INT32", "tensorShape": {"dim": [{"size": "4"}]}}}}}, {"name": "StatefulPartitionedCall/model/generate_waveform_layer/DEC/conv2d_7/Conv2D_1/Cast", "op": "Const", "attr": {"value": {"tensor": {"dtype": "DT_HALF", "tensorShape": {"dim": [{"size": "1"}, {"size": "3"}, {"size": "768"}, {"size": "768"}]}}}, "dtype": {"type": "DT_HALF"}}}, {"name": "StatefulPartitionedCall/model/generate_waveform_layer/DEC/conv2d_7/BiasAdd_1/Cast", "op": "Const", "attr": {"value": {"tensor": {"dtype": "DT_HALF", "tensorShape": {"dim": [{"size": "768"}]}}}, "dtype": {"type": "DT_HALF"}}}, {"name": "StatefulPartitionedCall/model/generate_waveform_layer/DEC/add_noise_1/Cast_1", "op": "Const", "attr": {"value": {"tensor": {"dtype": "DT_HALF", "tensorShape": {"dim": [{"size": "1"}]}}}, "dtype": {"type": "DT_HALF"}}}, {"name": "StatefulPartitionedCall/model/generate_waveform_layer/DEC/add_noise_1/random_normal_1/shape", "op": "Const", "attr": {"dtype": {"type": "DT_INT32"}, "value": {"tensor": {"dtype": "DT_INT32", "tensorShape": {"dim": [{"size": "4"}]}}}}}, {"name": "StatefulPartitionedCall/model/generate_waveform_layer/DEC/conv2d_transpose_3/BiasAdd_1/Cast", "op": "Const", "attr": {"value": {"tensor": {"dtype": "DT_HALF", "tensorShape": {"dim": [{"size": "768"}]}}}, "dtype": {"type": "DT_HALF"}}}, {"name": "StatefulPartitionedCall/model/generate_waveform_layer/DEC/add_noise_8/Cast_1", "op": "Const", "attr": {"dtype": {"type": "DT_HALF"}, "value": {"tensor": {"dtype": "DT_HALF", "tensorShape": {"dim": [{"size": "1"}]}}}}}, {"name": "StatefulPartitionedCall/model/generate_waveform_layer/DEC/add_noise_8/random_normal_1/shape", "op": "Const", "attr": {"value": {"tensor": {"dtype": "DT_INT32", "tensorShape": {"dim": [{"size": "4"}]}}}, "dtype": {"type": "DT_INT32"}}}, {"name": "StatefulPartitionedCall/model/generate_waveform_layer/DEC/conv2d_12/Conv2D_1/Cast", "op": "Const", "attr": {"value": {"tensor": {"dtype": "DT_HALF", "tensorShape": {"dim": [{"size": "1"}, {"size": "1"}, {"size": "768"}, {"size": "513"}]}}}, "dtype": {"type": "DT_HALF"}}}, {"name": "StatefulPartitionedCall/model/generate_waveform_layer/DEC/conv2d_12/BiasAdd_1/Cast", "op": "Const", "attr": {"value": {"tensor": {"dtype": "DT_HALF", "tensorShape": {"dim": [{"size": "513"}]}}}, "dtype": {"type": "DT_HALF"}}}, {"name": "StatefulPartitionedCall/model/generate_waveform_layer/DEC/tf.clip_by_value_1/clip_by_value_1/Minimum/y", "op": "Const", "attr": {"dtype": {"type": "DT_HALF"}, "value": {"tensor": {"dtype": "DT_HALF", "tensorShape": {}}}}}, {"name": "StatefulPartitionedCall/model/generate_waveform_layer/DEC/tf.clip_by_value_1/clip_by_value_1/y", "op": "Const", "attr": {"dtype": {"type": "DT_HALF"}, "value": {"tensor": {"dtype": "DT_HALF", "tensorShape": {}}}}}, {"name": "StatefulPartitionedCall/model/generate_waveform_layer/DEC/tf.concat_4/concat_1/axis", "op": "Const", "attr": {"value": {"tensor": {"dtype": "DT_INT32", "tensorShape": {}}}, "dtype": {"type": "DT_INT32"}}}, {"name": "StatefulPartitionedCall/model/generate_waveform_layer/DEC/tf.compat.v1.transpose_6/transpose_1/perm", "op": "Const", "attr": {"value": {"tensor": {"dtype": "DT_INT32", "tensorShape": {"dim": [{"size": "4"}]}}}, "dtype": {"type": "DT_INT32"}}}, {"name": "StatefulPartitionedCall/model/generate_waveform_layer/DEC/tf.split_4/split_2/split_dim", "op": "Const", "attr": {"dtype": {"type": "DT_INT32"}, "value": {"tensor": {"dtype": "DT_INT32", "tensorShape": {}}}}}, {"name": "StatefulPartitionedCall/model/generate_waveform_layer/DEC/conv2d_transpose_5/stack_2", "op": "Const", "attr": {"dtype": {"type": "DT_INT32"}, "value": {"tensor": {"dtype": "DT_INT32", "tensorShape": {"dim": [{"size": "4"}]}}}}}, {"name": "StatefulPartitionedCall/model/generate_waveform_layer/DEC/conv2d_transpose_5/conv2d_transpose_2/Cast", "op": "Const", "attr": {"value": {"tensor": {"dtype": "DT_HALF", "tensorShape": {"dim": [{"size": "1"}, {"size": "4"}, {"size": "768"}, {"size": "768"}]}}}, "dtype": {"type": "DT_HALF"}}}, {"name": "StatefulPartitionedCall/model/generate_waveform_layer/DEC/conv2d_transpose_4/stack_2", "op": "Const", "attr": {"value": {"tensor": {"dtype": "DT_INT32", "tensorShape": {"dim": [{"size": "4"}]}}}, "dtype": {"type": "DT_INT32"}}}, {"name": "StatefulPartitionedCall/model/generate_waveform_layer/DEC/conv2d_transpose_4/conv2d_transpose_2/Cast", "op": "Const", "attr": {"value": {"tensor": {"dtype": "DT_HALF", "tensorShape": {"dim": [{"size": "1"}, {"size": "4"}, {"size": "768"}, {"size": "512"}]}}}, "dtype": {"type": "DT_HALF"}}}, {"name": "StatefulPartitionedCall/model/generate_waveform_layer/DEC/conv2d_transpose_4/BiasAdd_2/Cast", "op": "Const", "attr": {"dtype": {"type": "DT_HALF"}, "value": {"tensor": {"dtype": "DT_HALF", "tensorShape": {"dim": [{"size": "768"}]}}}}}, {"name": "StatefulPartitionedCall/model/generate_waveform_layer/DEC/add_noise_9/Cast_2", "op": "Const", "attr": {"value": {"tensor": {"dtype": "DT_HALF", "tensorShape": {"dim": [{"size": "1"}]}}}, "dtype": {"type": "DT_HALF"}}}, {"name": "StatefulPartitionedCall/model/generate_waveform_layer/DEC/add_noise_9/random_normal_2/shape", "op": "Const", "attr": {"dtype": {"type": "DT_INT32"}, "value": {"tensor": {"dtype": "DT_INT32", "tensorShape": {"dim": [{"size": "4"}]}}}}}, {"name": "StatefulPartitionedCall/model/generate_waveform_layer/DEC/conv2d_transpose_5/BiasAdd_2/Cast", "op": "Const", "attr": {"value": {"tensor": {"dtype": "DT_HALF", "tensorShape": {"dim": [{"size": "768"}]}}}, "dtype": {"type": "DT_HALF"}}}, {"name": "StatefulPartitionedCall/model/generate_waveform_layer/DEC/add_noise_10/Cast_2", "op": "Const", "attr": {"value": {"tensor": {"dtype": "DT_HALF", "tensorShape": {"dim": [{"size": "1"}]}}}, "dtype": {"type": "DT_HALF"}}}, {"name": "StatefulPartitionedCall/model/generate_waveform_layer/DEC/add_noise_10/random_normal_2/shape", "op": "Const", "attr": {"dtype": {"type": "DT_INT32"}, "value": {"tensor": {"dtype": "DT_INT32", "tensorShape": {"dim": [{"size": "4"}]}}}}}, {"name": "StatefulPartitionedCall/model/generate_waveform_layer/DEC/conv2d_transpose_3/stack_2", "op": "Const", "attr": {"dtype": {"type": "DT_INT32"}, "value": {"tensor": {"dtype": "DT_INT32", "tensorShape": {"dim": [{"size": "4"}]}}}}}, {"name": "StatefulPartitionedCall/model/generate_waveform_layer/DEC/conv2d_transpose_3/conv2d_transpose_2/Cast", "op": "Const", "attr": {"value": {"tensor": {"dtype": "DT_HALF", "tensorShape": {"dim": [{"size": "1"}, {"size": "4"}, {"size": "768"}, {"size": "768"}]}}}, "dtype": {"type": "DT_HALF"}}}, {"name": "StatefulPartitionedCall/model/generate_waveform_layer/DEC/conv2d_transpose_2/stack_2", "op": "Const", "attr": {"value": {"tensor": {"dtype": "DT_INT32", "tensorShape": {"dim": [{"size": "4"}]}}}, "dtype": {"type": "DT_INT32"}}}, {"name": "StatefulPartitionedCall/model/generate_waveform_layer/DEC/conv2d_transpose_2/conv2d_transpose_2/Cast", "op": "Const", "attr": {"dtype": {"type": "DT_HALF"}, "value": {"tensor": {"dtype": "DT_HALF", "tensorShape": {"dim": [{"size": "1"}, {"size": "4"}, {"size": "768"}, {"size": "512"}]}}}}}, {"name": "StatefulPartitionedCall/model/generate_waveform_layer/DEC/conv2d_transpose_1/stack_2", "op": "Const", "attr": {"dtype": {"type": "DT_INT32"}, "value": {"tensor": {"dtype": "DT_INT32", "tensorShape": {"dim": [{"size": "4"}]}}}}}, {"name": "StatefulPartitionedCall/model/generate_waveform_layer/DEC/conv2d_transpose_1/conv2d_transpose_2/Cast", "op": "Const", "attr": {"dtype": {"type": "DT_HALF"}, "value": {"tensor": {"dtype": "DT_HALF", "tensorShape": {"dim": [{"size": "1"}, {"size": "4"}, {"size": "512"}, {"size": "256"}]}}}}}, {"name": "StatefulPartitionedCall/model/generate_waveform_layer/DEC/conv2d_9/Conv2D_2/Cast", "op": "Const", "attr": {"dtype": {"type": "DT_HALF"}, "value": {"tensor": {"dtype": "DT_HALF", "tensorShape": {"dim": [{"size": "1"}, {"size": "3"}, {"size": "512"}, {"size": "256"}]}}}}}, {"name": "StatefulPartitionedCall/model/generate_waveform_layer/DEC/conv2d_9/BiasAdd_2/Cast", "op": "Const", "attr": {"dtype": {"type": "DT_HALF"}, "value": {"tensor": {"dtype": "DT_HALF", "tensorShape": {"dim": [{"size": "256"}]}}}}}, {"name": "StatefulPartitionedCall/model/generate_waveform_layer/DEC/add_noise_3/Cast_2", "op": "Const", "attr": {"value": {"tensor": {"dtype": "DT_HALF", "tensorShape": {"dim": [{"size": "1"}]}}}, "dtype": {"type": "DT_HALF"}}}, {"name": "StatefulPartitionedCall/model/generate_waveform_layer/DEC/add_noise_3/random_normal_2/shape", "op": "Const", "attr": {"dtype": {"type": "DT_INT32"}, "value": {"tensor": {"dtype": "DT_INT32", "tensorShape": {"dim": [{"size": "4"}]}}}}}, {"name": "StatefulPartitionedCall/model/generate_waveform_layer/DEC/conv2d_transpose_1/BiasAdd_2/Cast", "op": "Const", "attr": {"value": {"tensor": {"dtype": "DT_HALF", "tensorShape": {"dim": [{"size": "512"}]}}}, "dtype": {"type": "DT_HALF"}}}, {"name": "StatefulPartitionedCall/model/generate_waveform_layer/DEC/add_noise_6/Cast_2", "op": "Const", "attr": {"dtype": {"type": "DT_HALF"}, "value": {"tensor": {"dtype": "DT_HALF", "tensorShape": {"dim": [{"size": "1"}]}}}}}, {"name": "StatefulPartitionedCall/model/generate_waveform_layer/DEC/add_noise_6/random_normal_2/shape", "op": "Const", "attr": {"dtype": {"type": "DT_INT32"}, "value": {"tensor": {"dtype": "DT_INT32", "tensorShape": {"dim": [{"size": "4"}]}}}}}, {"name": "StatefulPartitionedCall/model/generate_waveform_layer/DEC/conv2d_8/Conv2D_2/Cast", "op": "Const", "attr": {"value": {"tensor": {"dtype": "DT_HALF", "tensorShape": {"dim": [{"size": "1"}, {"size": "3"}, {"size": "768"}, {"size": "512"}]}}}, "dtype": {"type": "DT_HALF"}}}, {"name": "StatefulPartitionedCall/model/generate_waveform_layer/DEC/conv2d_8/BiasAdd_2/Cast", "op": "Const", "attr": {"value": {"tensor": {"dtype": "DT_HALF", "tensorShape": {"dim": [{"size": "512"}]}}}, "dtype": {"type": "DT_HALF"}}}, {"name": "StatefulPartitionedCall/model/generate_waveform_layer/DEC/add_noise_2/Cast_2", "op": "Const", "attr": {"value": {"tensor": {"dtype": "DT_HALF", "tensorShape": {"dim": [{"size": "1"}]}}}, "dtype": {"type": "DT_HALF"}}}, {"name": "StatefulPartitionedCall/model/generate_waveform_layer/DEC/add_noise_2/random_normal_2/shape", "op": "Const", "attr": {"value": {"tensor": {"dtype": "DT_INT32", "tensorShape": {"dim": [{"size": "4"}]}}}, "dtype": {"type": "DT_INT32"}}}, {"name": "StatefulPartitionedCall/model/generate_waveform_layer/DEC/conv2d_transpose_2/BiasAdd_2/Cast", "op": "Const", "attr": {"value": {"tensor": {"dtype": "DT_HALF", "tensorShape": {"dim": [{"size": "768"}]}}}, "dtype": {"type": "DT_HALF"}}}, {"name": "StatefulPartitionedCall/model/generate_waveform_layer/DEC/add_noise_7/Cast_2", "op": "Const", "attr": {"value": {"tensor": {"dtype": "DT_HALF", "tensorShape": {"dim": [{"size": "1"}]}}}, "dtype": {"type": "DT_HALF"}}}, {"name": "StatefulPartitionedCall/model/generate_waveform_layer/DEC/add_noise_7/random_normal_2/shape", "op": "Const", "attr": {"value": {"tensor": {"dtype": "DT_INT32", "tensorShape": {"dim": [{"size": "4"}]}}}, "dtype": {"type": "DT_INT32"}}}, {"name": "StatefulPartitionedCall/model/generate_waveform_layer/split_8/split_dim", "op": "Const", "attr": {"value": {"tensor": {"dtype": "DT_INT32", "tensorShape": {}}}, "dtype": {"type": "DT_INT32"}}}, {"name": "StatefulPartitionedCall/model/generate_waveform_layer/DEC2/tf.split_8/split/split_dim", "op": "Const", "attr": {"dtype": {"type": "DT_INT32"}, "value": {"tensor": {"dtype": "DT_INT32", "tensorShape": {}}}}}, {"name": "StatefulPartitionedCall/model/generate_waveform_layer/DEC2/conv2d_transpose_9/stack", "op": "Const", "attr": {"dtype": {"type": "DT_INT32"}, "value": {"tensor": {"dtype": "DT_INT32", "tensorShape": {"dim": [{"size": "4"}]}}}}}, {"name": "StatefulPartitionedCall/model/generate_waveform_layer/DEC2/conv2d_transpose_9/conv2d_transpose/Cast", "op": "Const", "attr": {"value": {"tensor": {"dtype": "DT_HALF", "tensorShape": {"dim": [{"size": "1"}, {"size": "4"}, {"size": "256"}, {"size": "384"}]}}}, "dtype": {"type": "DT_HALF"}}}, {"name": "StatefulPartitionedCall/model/generate_waveform_layer/DEC2/conv2d_transpose_8/stack", "op": "Const", "attr": {"value": {"tensor": {"dtype": "DT_INT32", "tensorShape": {"dim": [{"size": "4"}]}}}, "dtype": {"type": "DT_INT32"}}}, {"name": "StatefulPartitionedCall/model/generate_waveform_layer/DEC2/conv2d_transpose_8/conv2d_transpose/Cast", "op": "Const", "attr": {"dtype": {"type": "DT_HALF"}, "value": {"tensor": {"dtype": "DT_HALF", "tensorShape": {"dim": [{"size": "1"}, {"size": "4"}, {"size": "384"}, {"size": "512"}]}}}}}, {"name": "StatefulPartitionedCall/model/generate_waveform_layer/DEC2/conv2d_transpose_7/stack", "op": "Const", "attr": {"dtype": {"type": "DT_INT32"}, "value": {"tensor": {"dtype": "DT_INT32", "tensorShape": {"dim": [{"size": "4"}]}}}}}, {"name": "StatefulPartitionedCall/model/generate_waveform_layer/DEC2/conv2d_transpose_7/conv2d_transpose/Cast", "op": "Const", "attr": {"value": {"tensor": {"dtype": "DT_HALF", "tensorShape": {"dim": [{"size": "1"}, {"size": "4"}, {"size": "512"}, {"size": "640"}]}}}, "dtype": {"type": "DT_HALF"}}}, {"name": "StatefulPartitionedCall/model/generate_waveform_layer/DEC2/conv2d_transpose_6/stack", "op": "Const", "attr": {"dtype": {"type": "DT_INT32"}, "value": {"tensor": {"dtype": "DT_INT32", "tensorShape": {"dim": [{"size": "4"}]}}}}}, {"name": "StatefulPartitionedCall/model/generate_waveform_layer/DEC2/conv2d_transpose_6/conv2d_transpose/Cast", "op": "Const", "attr": {"dtype": {"type": "DT_HALF"}, "value": {"tensor": {"dtype": "DT_HALF", "tensorShape": {"dim": [{"size": "1"}, {"size": "4"}, {"size": "640"}, {"size": "768"}]}}}}}, {"name": "StatefulPartitionedCall/model/generate_waveform_layer/split_2/split_dim", "op": "Const", "attr": {"dtype": {"type": "DT_INT32"}, "value": {"tensor": {"dtype": "DT_INT32", "tensorShape": {}}}}}, {"name": "StatefulPartitionedCall/model/generate_waveform_layer/strided_slice_2/stack", "op": "Const", "attr": {"value": {"tensor": {"dtype": "DT_INT32", "tensorShape": {"dim": [{"size": "1"}]}}}, "dtype": {"type": "DT_INT32"}}}, {"name": "StatefulPartitionedCall/model/generate_waveform_layer/strided_slice_2/stack_1", "op": "Const", "attr": {"value": {"tensor": {"dtype": "DT_INT32", "tensorShape": {"dim": [{"size": "1"}]}}}, "dtype": {"type": "DT_INT32"}}}, {"name": "StatefulPartitionedCall/model/generate_waveform_layer/strided_slice_2/stack_2", "op": "Const", "attr": {"dtype": {"type": "DT_INT32"}, "value": {"tensor": {"dtype": "DT_INT32", "tensorShape": {"dim": [{"size": "1"}]}}}}}, {"name": "StatefulPartitionedCall/model/generate_waveform_layer/concat_3/axis", "op": "Const", "attr": {"value": {"tensor": {"dtype": "DT_INT32", "tensorShape": {}}}, "dtype": {"type": "DT_INT32"}}}, {"name": "StatefulPartitionedCall/model/generate_waveform_layer/DEC2/conv2d_20/Conv2D/Cast", "op": "Const", "attr": {"dtype": {"type": "DT_HALF"}, "value": {"tensor": {"dtype": "DT_HALF", "tensorShape": {"dim": [{"size": "1"}, {"size": "3"}, {"size": "64"}, {"size": "768"}]}}}}}, {"name": "StatefulPartitionedCall/model/generate_waveform_layer/DEC2/conv2d_20/BiasAdd/Cast", "op": "Const", "attr": {"dtype": {"type": "DT_HALF"}, "value": {"tensor": {"dtype": "DT_HALF", "tensorShape": {"dim": [{"size": "768"}]}}}}}, {"name": "StatefulPartitionedCall/model/generate_waveform_layer/DEC2/add_noise_11/Cast", "op": "Const", "attr": {"dtype": {"type": "DT_HALF"}, "value": {"tensor": {"dtype": "DT_HALF", "tensorShape": {"dim": [{"size": "1"}]}}}}}, {"name": "StatefulPartitionedCall/model/generate_waveform_layer/DEC2/add_noise_11/random_normal/shape", "op": "Const", "attr": {"dtype": {"type": "DT_INT32"}, "value": {"tensor": {"dtype": "DT_INT32", "tensorShape": {"dim": [{"size": "4"}]}}}}}, {"name": "StatefulPartitionedCall/model/generate_waveform_layer/DEC2/conv2d_transpose_6/BiasAdd/Cast", "op": "Const", "attr": {"dtype": {"type": "DT_HALF"}, "value": {"tensor": {"dtype": "DT_HALF", "tensorShape": {"dim": [{"size": "640"}]}}}}}, {"name": "StatefulPartitionedCall/model/generate_waveform_layer/DEC2/add_noise_12/Cast", "op": "Const", "attr": {"value": {"tensor": {"dtype": "DT_HALF", "tensorShape": {"dim": [{"size": "1"}]}}}, "dtype": {"type": "DT_HALF"}}}, {"name": "StatefulPartitionedCall/model/generate_waveform_layer/DEC2/add_noise_12/random_normal/shape", "op": "Const", "attr": {"dtype": {"type": "DT_INT32"}, "value": {"tensor": {"dtype": "DT_INT32", "tensorShape": {"dim": [{"size": "4"}]}}}}}, {"name": "StatefulPartitionedCall/model/generate_waveform_layer/DEC2/conv2d_21/Conv2D/Cast", "op": "Const", "attr": {"value": {"tensor": {"dtype": "DT_HALF", "tensorShape": {"dim": [{"size": "1"}, {"size": "3"}, {"size": "640"}, {"size": "640"}]}}}, "dtype": {"type": "DT_HALF"}}}, {"name": "StatefulPartitionedCall/model/generate_waveform_layer/DEC2/conv2d_21/BiasAdd/Cast", "op": "Const", "attr": {"value": {"tensor": {"dtype": "DT_HALF", "tensorShape": {"dim": [{"size": "640"}]}}}, "dtype": {"type": "DT_HALF"}}}, {"name": "StatefulPartitionedCall/model/generate_waveform_layer/DEC2/add_noise_13/Cast", "op": "Const", "attr": {"value": {"tensor": {"dtype": "DT_HALF", "tensorShape": {"dim": [{"size": "1"}]}}}, "dtype": {"type": "DT_HALF"}}}, {"name": "StatefulPartitionedCall/model/generate_waveform_layer/DEC2/add_noise_13/random_normal/shape", "op": "Const", "attr": {"dtype": {"type": "DT_INT32"}, "value": {"tensor": {"dtype": "DT_INT32", "tensorShape": {"dim": [{"size": "4"}]}}}}}, {"name": "StatefulPartitionedCall/model/generate_waveform_layer/DEC2/conv2d_transpose_7/BiasAdd/Cast", "op": "Const", "attr": {"value": {"tensor": {"dtype": "DT_HALF", "tensorShape": {"dim": [{"size": "512"}]}}}, "dtype": {"type": "DT_HALF"}}}, {"name": "StatefulPartitionedCall/model/generate_waveform_layer/DEC2/add_noise_14/Cast", "op": "Const", "attr": {"value": {"tensor": {"dtype": "DT_HALF", "tensorShape": {"dim": [{"size": "1"}]}}}, "dtype": {"type": "DT_HALF"}}}, {"name": "StatefulPartitionedCall/model/generate_waveform_layer/DEC2/add_noise_14/random_normal/shape", "op": "Const", "attr": {"value": {"tensor": {"dtype": "DT_INT32", "tensorShape": {"dim": [{"size": "4"}]}}}, "dtype": {"type": "DT_INT32"}}}, {"name": "StatefulPartitionedCall/model/generate_waveform_layer/DEC2/conv2d_22/Conv2D/Cast", "op": "Const", "attr": {"dtype": {"type": "DT_HALF"}, "value": {"tensor": {"dtype": "DT_HALF", "tensorShape": {"dim": [{"size": "1"}, {"size": "3"}, {"size": "512"}, {"size": "512"}]}}}}}, {"name": "StatefulPartitionedCall/model/generate_waveform_layer/DEC2/conv2d_22/BiasAdd/Cast", "op": "Const", "attr": {"value": {"tensor": {"dtype": "DT_HALF", "tensorShape": {"dim": [{"size": "512"}]}}}, "dtype": {"type": "DT_HALF"}}}, {"name": "StatefulPartitionedCall/model/generate_waveform_layer/DEC2/add_noise_15/Cast", "op": "Const", "attr": {"value": {"tensor": {"dtype": "DT_HALF", "tensorShape": {"dim": [{"size": "1"}]}}}, "dtype": {"type": "DT_HALF"}}}, {"name": "StatefulPartitionedCall/model/generate_waveform_layer/DEC2/add_noise_15/random_normal/shape", "op": "Const", "attr": {"value": {"tensor": {"dtype": "DT_INT32", "tensorShape": {"dim": [{"size": "4"}]}}}, "dtype": {"type": "DT_INT32"}}}, {"name": "StatefulPartitionedCall/model/generate_waveform_layer/DEC2/conv2d_transpose_8/BiasAdd/Cast", "op": "Const", "attr": {"dtype": {"type": "DT_HALF"}, "value": {"tensor": {"dtype": "DT_HALF", "tensorShape": {"dim": [{"size": "384"}]}}}}}, {"name": "StatefulPartitionedCall/model/generate_waveform_layer/DEC2/add_noise_16/Cast", "op": "Const", "attr": {"value": {"tensor": {"dtype": "DT_HALF", "tensorShape": {"dim": [{"size": "1"}]}}}, "dtype": {"type": "DT_HALF"}}}, {"name": "StatefulPartitionedCall/model/generate_waveform_layer/DEC2/add_noise_16/random_normal/shape", "op": "Const", "attr": {"dtype": {"type": "DT_INT32"}, "value": {"tensor": {"dtype": "DT_INT32", "tensorShape": {"dim": [{"size": "4"}]}}}}}, {"name": "StatefulPartitionedCall/model/generate_waveform_layer/DEC2/conv2d_transpose_9/BiasAdd/Cast", "op": "Const", "attr": {"dtype": {"type": "DT_HALF"}, "value": {"tensor": {"dtype": "DT_HALF", "tensorShape": {"dim": [{"size": "256"}]}}}}}, {"name": "StatefulPartitionedCall/model/generate_waveform_layer/DEC2/add_noise_17/Cast", "op": "Const", "attr": {"value": {"tensor": {"dtype": "DT_HALF", "tensorShape": {"dim": [{"size": "1"}]}}}, "dtype": {"type": "DT_HALF"}}}, {"name": "StatefulPartitionedCall/model/generate_waveform_layer/DEC2/add_noise_17/random_normal/shape", "op": "Const", "attr": {"dtype": {"type": "DT_INT32"}, "value": {"tensor": {"dtype": "DT_INT32", "tensorShape": {"dim": [{"size": "4"}]}}}}}, {"name": "StatefulPartitionedCall/model/generate_waveform_layer/DEC2/cout/Conv2D/Cast", "op": "Const", "attr": {"value": {"tensor": {"dtype": "DT_HALF", "tensorShape": {"dim": [{"size": "1"}, {"size": "1"}, {"size": "256"}, {"size": "64"}]}}}, "dtype": {"type": "DT_HALF"}}}, {"name": "StatefulPartitionedCall/model/generate_waveform_layer/DEC2/cout/BiasAdd/Cast", "op": "Const", "attr": {"dtype": {"type": "DT_HALF"}, "value": {"tensor": {"dtype": "DT_HALF", "tensorShape": {"dim": [{"size": "64"}]}}}}}, {"name": "StatefulPartitionedCall/model/generate_waveform_layer/DEC2/tf.concat_8/concat/axis", "op": "Const", "attr": {"value": {"tensor": {"dtype": "DT_INT32", "tensorShape": {}}}, "dtype": {"type": "DT_INT32"}}}, {"name": "StatefulPartitionedCall/model/generate_waveform_layer/DEC2/tf.split_8/split_1/split_dim", "op": "Const", "attr": {"value": {"tensor": {"dtype": "DT_INT32", "tensorShape": {}}}, "dtype": {"type": "DT_INT32"}}}, {"name": "StatefulPartitionedCall/model/generate_waveform_layer/DEC2/conv2d_transpose_9/stack_1", "op": "Const", "attr": {"dtype": {"type": "DT_INT32"}, "value": {"tensor": {"dtype": "DT_INT32", "tensorShape": {"dim": [{"size": "4"}]}}}}}, {"name": "StatefulPartitionedCall/model/generate_waveform_layer/DEC2/conv2d_transpose_9/conv2d_transpose_1/Cast", "op": "Const", "attr": {"value": {"tensor": {"dtype": "DT_HALF", "tensorShape": {"dim": [{"size": "1"}, {"size": "4"}, {"size": "256"}, {"size": "384"}]}}}, "dtype": {"type": "DT_HALF"}}}, {"name": "StatefulPartitionedCall/model/generate_waveform_layer/DEC2/conv2d_transpose_8/stack_1", "op": "Const", "attr": {"dtype": {"type": "DT_INT32"}, "value": {"tensor": {"dtype": "DT_INT32", "tensorShape": {"dim": [{"size": "4"}]}}}}}, {"name": "StatefulPartitionedCall/model/generate_waveform_layer/DEC2/conv2d_transpose_8/conv2d_transpose_1/Cast", "op": "Const", "attr": {"value": {"tensor": {"dtype": "DT_HALF", "tensorShape": {"dim": [{"size": "1"}, {"size": "4"}, {"size": "384"}, {"size": "512"}]}}}, "dtype": {"type": "DT_HALF"}}}, {"name": "StatefulPartitionedCall/model/generate_waveform_layer/DEC2/conv2d_transpose_7/stack_1", "op": "Const", "attr": {"value": {"tensor": {"dtype": "DT_INT32", "tensorShape": {"dim": [{"size": "4"}]}}}, "dtype": {"type": "DT_INT32"}}}, {"name": "StatefulPartitionedCall/model/generate_waveform_layer/DEC2/conv2d_transpose_7/conv2d_transpose_1/Cast", "op": "Const", "attr": {"value": {"tensor": {"dtype": "DT_HALF", "tensorShape": {"dim": [{"size": "1"}, {"size": "4"}, {"size": "512"}, {"size": "640"}]}}}, "dtype": {"type": "DT_HALF"}}}, {"name": "StatefulPartitionedCall/model/generate_waveform_layer/DEC2/conv2d_transpose_6/stack_1", "op": "Const", "attr": {"value": {"tensor": {"dtype": "DT_INT32", "tensorShape": {"dim": [{"size": "4"}]}}}, "dtype": {"type": "DT_INT32"}}}, {"name": "StatefulPartitionedCall/model/generate_waveform_layer/DEC2/conv2d_transpose_6/conv2d_transpose_1/Cast", "op": "Const", "attr": {"value": {"tensor": {"dtype": "DT_HALF", "tensorShape": {"dim": [{"size": "1"}, {"size": "4"}, {"size": "640"}, {"size": "768"}]}}}, "dtype": {"type": "DT_HALF"}}}, {"name": "StatefulPartitionedCall/model/generate_waveform_layer/split_3/split_dim", "op": "Const", "attr": {"dtype": {"type": "DT_INT32"}, "value": {"tensor": {"dtype": "DT_INT32", "tensorShape": {}}}}}, {"name": "StatefulPartitionedCall/model/generate_waveform_layer/strided_slice_3/stack", "op": "Const", "attr": {"value": {"tensor": {"dtype": "DT_INT32", "tensorShape": {"dim": [{"size": "1"}]}}}, "dtype": {"type": "DT_INT32"}}}, {"name": "StatefulPartitionedCall/model/generate_waveform_layer/strided_slice_3/stack_1", "op": "Const", "attr": {"value": {"tensor": {"dtype": "DT_INT32", "tensorShape": {"dim": [{"size": "1"}]}}}, "dtype": {"type": "DT_INT32"}}}, {"name": "StatefulPartitionedCall/model/generate_waveform_layer/strided_slice_3/stack_2", "op": "Const", "attr": {"value": {"tensor": {"dtype": "DT_INT32", "tensorShape": {"dim": [{"size": "1"}]}}}, "dtype": {"type": "DT_INT32"}}}, {"name": "StatefulPartitionedCall/model/generate_waveform_layer/concat_4/axis", "op": "Const", "attr": {"dtype": {"type": "DT_INT32"}, "value": {"tensor": {"dtype": "DT_INT32", "tensorShape": {}}}}}, {"name": "StatefulPartitionedCall/model/generate_waveform_layer/DEC2/conv2d_20/Conv2D_1/Cast", "op": "Const", "attr": {"value": {"tensor": {"dtype": "DT_HALF", "tensorShape": {"dim": [{"size": "1"}, {"size": "3"}, {"size": "64"}, {"size": "768"}]}}}, "dtype": {"type": "DT_HALF"}}}, {"name": "StatefulPartitionedCall/model/generate_waveform_layer/DEC2/conv2d_20/BiasAdd_1/Cast", "op": "Const", "attr": {"dtype": {"type": "DT_HALF"}, "value": {"tensor": {"dtype": "DT_HALF", "tensorShape": {"dim": [{"size": "768"}]}}}}}, {"name": "StatefulPartitionedCall/model/generate_waveform_layer/DEC2/add_noise_11/Cast_1", "op": "Const", "attr": {"value": {"tensor": {"dtype": "DT_HALF", "tensorShape": {"dim": [{"size": "1"}]}}}, "dtype": {"type": "DT_HALF"}}}, {"name": "StatefulPartitionedCall/model/generate_waveform_layer/DEC2/add_noise_11/random_normal_1/shape", "op": "Const", "attr": {"value": {"tensor": {"dtype": "DT_INT32", "tensorShape": {"dim": [{"size": "4"}]}}}, "dtype": {"type": "DT_INT32"}}}, {"name": "StatefulPartitionedCall/model/generate_waveform_layer/DEC2/conv2d_transpose_6/BiasAdd_1/Cast", "op": "Const", "attr": {"dtype": {"type": "DT_HALF"}, "value": {"tensor": {"dtype": "DT_HALF", "tensorShape": {"dim": [{"size": "640"}]}}}}}, {"name": "StatefulPartitionedCall/model/generate_waveform_layer/DEC2/add_noise_12/Cast_1", "op": "Const", "attr": {"dtype": {"type": "DT_HALF"}, "value": {"tensor": {"dtype": "DT_HALF", "tensorShape": {"dim": [{"size": "1"}]}}}}}, {"name": "StatefulPartitionedCall/model/generate_waveform_layer/DEC2/add_noise_12/random_normal_1/shape", "op": "Const", "attr": {"value": {"tensor": {"dtype": "DT_INT32", "tensorShape": {"dim": [{"size": "4"}]}}}, "dtype": {"type": "DT_INT32"}}}, {"name": "StatefulPartitionedCall/model/generate_waveform_layer/DEC2/conv2d_21/Conv2D_1/Cast", "op": "Const", "attr": {"dtype": {"type": "DT_HALF"}, "value": {"tensor": {"dtype": "DT_HALF", "tensorShape": {"dim": [{"size": "1"}, {"size": "3"}, {"size": "640"}, {"size": "640"}]}}}}}, {"name": "StatefulPartitionedCall/model/generate_waveform_layer/DEC2/conv2d_21/BiasAdd_1/Cast", "op": "Const", "attr": {"value": {"tensor": {"dtype": "DT_HALF", "tensorShape": {"dim": [{"size": "640"}]}}}, "dtype": {"type": "DT_HALF"}}}, {"name": "StatefulPartitionedCall/model/generate_waveform_layer/DEC2/add_noise_13/Cast_1", "op": "Const", "attr": {"value": {"tensor": {"dtype": "DT_HALF", "tensorShape": {"dim": [{"size": "1"}]}}}, "dtype": {"type": "DT_HALF"}}}, {"name": "StatefulPartitionedCall/model/generate_waveform_layer/DEC2/add_noise_13/random_normal_1/shape", "op": "Const", "attr": {"dtype": {"type": "DT_INT32"}, "value": {"tensor": {"dtype": "DT_INT32", "tensorShape": {"dim": [{"size": "4"}]}}}}}, {"name": "StatefulPartitionedCall/model/generate_waveform_layer/DEC2/conv2d_transpose_7/BiasAdd_1/Cast", "op": "Const", "attr": {"value": {"tensor": {"dtype": "DT_HALF", "tensorShape": {"dim": [{"size": "512"}]}}}, "dtype": {"type": "DT_HALF"}}}, {"name": "StatefulPartitionedCall/model/generate_waveform_layer/DEC2/add_noise_14/Cast_1", "op": "Const", "attr": {"value": {"tensor": {"dtype": "DT_HALF", "tensorShape": {"dim": [{"size": "1"}]}}}, "dtype": {"type": "DT_HALF"}}}, {"name": "StatefulPartitionedCall/model/generate_waveform_layer/DEC2/add_noise_14/random_normal_1/shape", "op": "Const", "attr": {"value": {"tensor": {"dtype": "DT_INT32", "tensorShape": {"dim": [{"size": "4"}]}}}, "dtype": {"type": "DT_INT32"}}}, {"name": "StatefulPartitionedCall/model/generate_waveform_layer/DEC2/conv2d_22/Conv2D_1/Cast", "op": "Const", "attr": {"dtype": {"type": "DT_HALF"}, "value": {"tensor": {"dtype": "DT_HALF", "tensorShape": {"dim": [{"size": "1"}, {"size": "3"}, {"size": "512"}, {"size": "512"}]}}}}}, {"name": "StatefulPartitionedCall/model/generate_waveform_layer/DEC2/conv2d_22/BiasAdd_1/Cast", "op": "Const", "attr": {"dtype": {"type": "DT_HALF"}, "value": {"tensor": {"dtype": "DT_HALF", "tensorShape": {"dim": [{"size": "512"}]}}}}}, {"name": "StatefulPartitionedCall/model/generate_waveform_layer/DEC2/add_noise_15/Cast_1", "op": "Const", "attr": {"value": {"tensor": {"dtype": "DT_HALF", "tensorShape": {"dim": [{"size": "1"}]}}}, "dtype": {"type": "DT_HALF"}}}, {"name": "StatefulPartitionedCall/model/generate_waveform_layer/DEC2/add_noise_15/random_normal_1/shape", "op": "Const", "attr": {"value": {"tensor": {"dtype": "DT_INT32", "tensorShape": {"dim": [{"size": "4"}]}}}, "dtype": {"type": "DT_INT32"}}}, {"name": "StatefulPartitionedCall/model/generate_waveform_layer/DEC2/conv2d_transpose_8/BiasAdd_1/Cast", "op": "Const", "attr": {"dtype": {"type": "DT_HALF"}, "value": {"tensor": {"dtype": "DT_HALF", "tensorShape": {"dim": [{"size": "384"}]}}}}}, {"name": "StatefulPartitionedCall/model/generate_waveform_layer/DEC2/add_noise_16/Cast_1", "op": "Const", "attr": {"value": {"tensor": {"dtype": "DT_HALF", "tensorShape": {"dim": [{"size": "1"}]}}}, "dtype": {"type": "DT_HALF"}}}, {"name": "StatefulPartitionedCall/model/generate_waveform_layer/DEC2/add_noise_16/random_normal_1/shape", "op": "Const", "attr": {"value": {"tensor": {"dtype": "DT_INT32", "tensorShape": {"dim": [{"size": "4"}]}}}, "dtype": {"type": "DT_INT32"}}}, {"name": "StatefulPartitionedCall/model/generate_waveform_layer/DEC2/conv2d_transpose_9/BiasAdd_1/Cast", "op": "Const", "attr": {"dtype": {"type": "DT_HALF"}, "value": {"tensor": {"dtype": "DT_HALF", "tensorShape": {"dim": [{"size": "256"}]}}}}}, {"name": "StatefulPartitionedCall/model/generate_waveform_layer/DEC2/add_noise_17/Cast_1", "op": "Const", "attr": {"dtype": {"type": "DT_HALF"}, "value": {"tensor": {"dtype": "DT_HALF", "tensorShape": {"dim": [{"size": "1"}]}}}}}, {"name": "StatefulPartitionedCall/model/generate_waveform_layer/DEC2/add_noise_17/random_normal_1/shape", "op": "Const", "attr": {"dtype": {"type": "DT_INT32"}, "value": {"tensor": {"dtype": "DT_INT32", "tensorShape": {"dim": [{"size": "4"}]}}}}}, {"name": "StatefulPartitionedCall/model/generate_waveform_layer/DEC2/cout/Conv2D_1/Cast", "op": "Const", "attr": {"dtype": {"type": "DT_HALF"}, "value": {"tensor": {"dtype": "DT_HALF", "tensorShape": {"dim": [{"size": "1"}, {"size": "1"}, {"size": "256"}, {"size": "64"}]}}}}}, {"name": "StatefulPartitionedCall/model/generate_waveform_layer/DEC2/cout/BiasAdd_1/Cast", "op": "Const", "attr": {"value": {"tensor": {"dtype": "DT_HALF", "tensorShape": {"dim": [{"size": "64"}]}}}, "dtype": {"type": "DT_HALF"}}}, {"name": "StatefulPartitionedCall/model/generate_waveform_layer/DEC2/tf.concat_8/concat_1/axis", "op": "Const", "attr": {"dtype": {"type": "DT_INT32"}, "value": {"tensor": {"dtype": "DT_INT32", "tensorShape": {}}}}}, {"name": "StatefulPartitionedCall/model/generate_waveform_layer/DEC2/tf.split_8/split_2/split_dim", "op": "Const", "attr": {"dtype": {"type": "DT_INT32"}, "value": {"tensor": {"dtype": "DT_INT32", "tensorShape": {}}}}}, {"name": "StatefulPartitionedCall/model/generate_waveform_layer/DEC2/conv2d_transpose_9/stack_2", "op": "Const", "attr": {"dtype": {"type": "DT_INT32"}, "value": {"tensor": {"dtype": "DT_INT32", "tensorShape": {"dim": [{"size": "4"}]}}}}}, {"name": "StatefulPartitionedCall/model/generate_waveform_layer/DEC2/conv2d_transpose_9/conv2d_transpose_2/Cast", "op": "Const", "attr": {"dtype": {"type": "DT_HALF"}, "value": {"tensor": {"dtype": "DT_HALF", "tensorShape": {"dim": [{"size": "1"}, {"size": "4"}, {"size": "256"}, {"size": "384"}]}}}}}, {"name": "StatefulPartitionedCall/model/generate_waveform_layer/DEC2/conv2d_transpose_8/stack_2", "op": "Const", "attr": {"value": {"tensor": {"dtype": "DT_INT32", "tensorShape": {"dim": [{"size": "4"}]}}}, "dtype": {"type": "DT_INT32"}}}, {"name": "StatefulPartitionedCall/model/generate_waveform_layer/DEC2/conv2d_transpose_8/conv2d_transpose_2/Cast", "op": "Const", "attr": {"dtype": {"type": "DT_HALF"}, "value": {"tensor": {"dtype": "DT_HALF", "tensorShape": {"dim": [{"size": "1"}, {"size": "4"}, {"size": "384"}, {"size": "512"}]}}}}}, {"name": "StatefulPartitionedCall/model/generate_waveform_layer/DEC2/conv2d_transpose_7/stack_2", "op": "Const", "attr": {"value": {"tensor": {"dtype": "DT_INT32", "tensorShape": {"dim": [{"size": "4"}]}}}, "dtype": {"type": "DT_INT32"}}}, {"name": "StatefulPartitionedCall/model/generate_waveform_layer/DEC2/conv2d_transpose_7/conv2d_transpose_2/Cast", "op": "Const", "attr": {"value": {"tensor": {"dtype": "DT_HALF", "tensorShape": {"dim": [{"size": "1"}, {"size": "4"}, {"size": "512"}, {"size": "640"}]}}}, "dtype": {"type": "DT_HALF"}}}, {"name": "StatefulPartitionedCall/model/generate_waveform_layer/DEC2/conv2d_transpose_6/stack_2", "op": "Const", "attr": {"value": {"tensor": {"dtype": "DT_INT32", "tensorShape": {"dim": [{"size": "4"}]}}}, "dtype": {"type": "DT_INT32"}}}, {"name": "StatefulPartitionedCall/model/generate_waveform_layer/DEC2/conv2d_transpose_6/conv2d_transpose_2/Cast", "op": "Const", "attr": {"value": {"tensor": {"dtype": "DT_HALF", "tensorShape": {"dim": [{"size": "1"}, {"size": "4"}, {"size": "640"}, {"size": "768"}]}}}, "dtype": {"type": "DT_HALF"}}}, {"name": "StatefulPartitionedCall/model/generate_waveform_layer/split_4/split_dim", "op": "Const", "attr": {"dtype": {"type": "DT_INT32"}, "value": {"tensor": {"dtype": "DT_INT32", "tensorShape": {}}}}}, {"name": "StatefulPartitionedCall/model/generate_waveform_layer/strided_slice_1/stack", "op": "Const", "attr": {"dtype": {"type": "DT_INT32"}, "value": {"tensor": {"dtype": "DT_INT32", "tensorShape": {"dim": [{"size": "4"}]}}}}}, {"name": "StatefulPartitionedCall/model/generate_waveform_layer/strided_slice_1/stack_1", "op": "Const", "attr": {"value": {"tensor": {"dtype": "DT_INT32", "tensorShape": {"dim": [{"size": "4"}]}}}, "dtype": {"type": "DT_INT32"}}}, {"name": "StatefulPartitionedCall/model/generate_waveform_layer/strided_slice_1/stack_2", "op": "Const", "attr": {"dtype": {"type": "DT_INT32"}, "value": {"tensor": {"dtype": "DT_INT32", "tensorShape": {"dim": [{"size": "4"}]}}}}}, {"name": "StatefulPartitionedCall/model/generate_waveform_layer/strided_slice_4/stack", "op": "Const", "attr": {"value": {"tensor": {"dtype": "DT_INT32", "tensorShape": {"dim": [{"size": "1"}]}}}, "dtype": {"type": "DT_INT32"}}}, {"name": "StatefulPartitionedCall/model/generate_waveform_layer/strided_slice_4/stack_1", "op": "Const", "attr": {"dtype": {"type": "DT_INT32"}, "value": {"tensor": {"dtype": "DT_INT32", "tensorShape": {"dim": [{"size": "1"}]}}}}}, {"name": "StatefulPartitionedCall/model/generate_waveform_layer/strided_slice_4/stack_2", "op": "Const", "attr": {"dtype": {"type": "DT_INT32"}, "value": {"tensor": {"dtype": "DT_INT32", "tensorShape": {"dim": [{"size": "1"}]}}}}}, {"name": "StatefulPartitionedCall/model/generate_waveform_layer/concat_5/axis", "op": "Const", "attr": {"value": {"tensor": {"dtype": "DT_INT32", "tensorShape": {}}}, "dtype": {"type": "DT_INT32"}}}, {"name": "StatefulPartitionedCall/model/generate_waveform_layer/DEC2/conv2d_20/Conv2D_2/Cast", "op": "Const", "attr": {"value": {"tensor": {"dtype": "DT_HALF", "tensorShape": {"dim": [{"size": "1"}, {"size": "3"}, {"size": "64"}, {"size": "768"}]}}}, "dtype": {"type": "DT_HALF"}}}, {"name": "StatefulPartitionedCall/model/generate_waveform_layer/DEC2/conv2d_20/BiasAdd_2/Cast", "op": "Const", "attr": {"dtype": {"type": "DT_HALF"}, "value": {"tensor": {"dtype": "DT_HALF", "tensorShape": {"dim": [{"size": "768"}]}}}}}, {"name": "StatefulPartitionedCall/model/generate_waveform_layer/DEC2/add_noise_11/Cast_2", "op": "Const", "attr": {"dtype": {"type": "DT_HALF"}, "value": {"tensor": {"dtype": "DT_HALF", "tensorShape": {"dim": [{"size": "1"}]}}}}}, {"name": "StatefulPartitionedCall/model/generate_waveform_layer/DEC2/add_noise_11/random_normal_2/shape", "op": "Const", "attr": {"dtype": {"type": "DT_INT32"}, "value": {"tensor": {"dtype": "DT_INT32", "tensorShape": {"dim": [{"size": "4"}]}}}}}, {"name": "StatefulPartitionedCall/model/generate_waveform_layer/DEC2/conv2d_transpose_6/BiasAdd_2/Cast", "op": "Const", "attr": {"value": {"tensor": {"dtype": "DT_HALF", "tensorShape": {"dim": [{"size": "640"}]}}}, "dtype": {"type": "DT_HALF"}}}, {"name": "StatefulPartitionedCall/model/generate_waveform_layer/DEC2/add_noise_12/Cast_2", "op": "Const", "attr": {"value": {"tensor": {"dtype": "DT_HALF", "tensorShape": {"dim": [{"size": "1"}]}}}, "dtype": {"type": "DT_HALF"}}}, {"name": "StatefulPartitionedCall/model/generate_waveform_layer/DEC2/add_noise_12/random_normal_2/shape", "op": "Const", "attr": {"dtype": {"type": "DT_INT32"}, "value": {"tensor": {"dtype": "DT_INT32", "tensorShape": {"dim": [{"size": "4"}]}}}}}, {"name": "StatefulPartitionedCall/model/generate_waveform_layer/DEC2/conv2d_21/Conv2D_2/Cast", "op": "Const", "attr": {"dtype": {"type": "DT_HALF"}, "value": {"tensor": {"dtype": "DT_HALF", "tensorShape": {"dim": [{"size": "1"}, {"size": "3"}, {"size": "640"}, {"size": "640"}]}}}}}, {"name": "StatefulPartitionedCall/model/generate_waveform_layer/DEC2/conv2d_21/BiasAdd_2/Cast", "op": "Const", "attr": {"dtype": {"type": "DT_HALF"}, "value": {"tensor": {"dtype": "DT_HALF", "tensorShape": {"dim": [{"size": "640"}]}}}}}, {"name": "StatefulPartitionedCall/model/generate_waveform_layer/DEC2/add_noise_13/Cast_2", "op": "Const", "attr": {"value": {"tensor": {"dtype": "DT_HALF", "tensorShape": {"dim": [{"size": "1"}]}}}, "dtype": {"type": "DT_HALF"}}}, {"name": "StatefulPartitionedCall/model/generate_waveform_layer/DEC2/add_noise_13/random_normal_2/shape", "op": "Const", "attr": {"value": {"tensor": {"dtype": "DT_INT32", "tensorShape": {"dim": [{"size": "4"}]}}}, "dtype": {"type": "DT_INT32"}}}, {"name": "StatefulPartitionedCall/model/generate_waveform_layer/DEC2/conv2d_transpose_7/BiasAdd_2/Cast", "op": "Const", "attr": {"dtype": {"type": "DT_HALF"}, "value": {"tensor": {"dtype": "DT_HALF", "tensorShape": {"dim": [{"size": "512"}]}}}}}, {"name": "StatefulPartitionedCall/model/generate_waveform_layer/DEC2/add_noise_14/Cast_2", "op": "Const", "attr": {"value": {"tensor": {"dtype": "DT_HALF", "tensorShape": {"dim": [{"size": "1"}]}}}, "dtype": {"type": "DT_HALF"}}}, {"name": "StatefulPartitionedCall/model/generate_waveform_layer/DEC2/add_noise_14/random_normal_2/shape", "op": "Const", "attr": {"value": {"tensor": {"dtype": "DT_INT32", "tensorShape": {"dim": [{"size": "4"}]}}}, "dtype": {"type": "DT_INT32"}}}, {"name": "StatefulPartitionedCall/model/generate_waveform_layer/DEC2/conv2d_22/Conv2D_2/Cast", "op": "Const", "attr": {"value": {"tensor": {"dtype": "DT_HALF", "tensorShape": {"dim": [{"size": "1"}, {"size": "3"}, {"size": "512"}, {"size": "512"}]}}}, "dtype": {"type": "DT_HALF"}}}, {"name": "StatefulPartitionedCall/model/generate_waveform_layer/DEC2/conv2d_22/BiasAdd_2/Cast", "op": "Const", "attr": {"dtype": {"type": "DT_HALF"}, "value": {"tensor": {"dtype": "DT_HALF", "tensorShape": {"dim": [{"size": "512"}]}}}}}, {"name": "StatefulPartitionedCall/model/generate_waveform_layer/DEC2/add_noise_15/Cast_2", "op": "Const", "attr": {"dtype": {"type": "DT_HALF"}, "value": {"tensor": {"dtype": "DT_HALF", "tensorShape": {"dim": [{"size": "1"}]}}}}}, {"name": "StatefulPartitionedCall/model/generate_waveform_layer/DEC2/add_noise_15/random_normal_2/shape", "op": "Const", "attr": {"dtype": {"type": "DT_INT32"}, "value": {"tensor": {"dtype": "DT_INT32", "tensorShape": {"dim": [{"size": "4"}]}}}}}, {"name": "StatefulPartitionedCall/model/generate_waveform_layer/DEC2/conv2d_transpose_8/BiasAdd_2/Cast", "op": "Const", "attr": {"value": {"tensor": {"dtype": "DT_HALF", "tensorShape": {"dim": [{"size": "384"}]}}}, "dtype": {"type": "DT_HALF"}}}, {"name": "StatefulPartitionedCall/model/generate_waveform_layer/DEC2/add_noise_16/Cast_2", "op": "Const", "attr": {"dtype": {"type": "DT_HALF"}, "value": {"tensor": {"dtype": "DT_HALF", "tensorShape": {"dim": [{"size": "1"}]}}}}}, {"name": "StatefulPartitionedCall/model/generate_waveform_layer/DEC2/add_noise_16/random_normal_2/shape", "op": "Const", "attr": {"dtype": {"type": "DT_INT32"}, "value": {"tensor": {"dtype": "DT_INT32", "tensorShape": {"dim": [{"size": "4"}]}}}}}, {"name": "StatefulPartitionedCall/model/generate_waveform_layer/DEC2/conv2d_transpose_9/BiasAdd_2/Cast", "op": "Const", "attr": {"dtype": {"type": "DT_HALF"}, "value": {"tensor": {"dtype": "DT_HALF", "tensorShape": {"dim": [{"size": "256"}]}}}}}, {"name": "StatefulPartitionedCall/model/generate_waveform_layer/DEC2/add_noise_17/Cast_2", "op": "Const", "attr": {"value": {"tensor": {"dtype": "DT_HALF", "tensorShape": {"dim": [{"size": "1"}]}}}, "dtype": {"type": "DT_HALF"}}}, {"name": "StatefulPartitionedCall/model/generate_waveform_layer/DEC2/add_noise_17/random_normal_2/shape", "op": "Const", "attr": {"value": {"tensor": {"dtype": "DT_INT32", "tensorShape": {"dim": [{"size": "4"}]}}}, "dtype": {"type": "DT_INT32"}}}, {"name": "StatefulPartitionedCall/model/generate_waveform_layer/DEC2/cout/Conv2D_2/Cast", "op": "Const", "attr": {"dtype": {"type": "DT_HALF"}, "value": {"tensor": {"dtype": "DT_HALF", "tensorShape": {"dim": [{"size": "1"}, {"size": "1"}, {"size": "256"}, {"size": "64"}]}}}}}, {"name": "StatefulPartitionedCall/model/generate_waveform_layer/DEC2/cout/BiasAdd_2/Cast", "op": "Const", "attr": {"dtype": {"type": "DT_HALF"}, "value": {"tensor": {"dtype": "DT_HALF", "tensorShape": {"dim": [{"size": "64"}]}}}}}, {"name": "StatefulPartitionedCall/model/generate_waveform_layer/DEC2/tf.concat_8/concat_2/axis", "op": "Const", "attr": {"value": {"tensor": {"dtype": "DT_INT32", "tensorShape": {}}}, "dtype": {"type": "DT_INT32"}}}, {"name": "StatefulPartitionedCall/model/generate_waveform_layer/concat_6/axis", "op": "Const", "attr": {"dtype": {"type": "DT_INT32"}, "value": {"tensor": {"dtype": "DT_INT32", "tensorShape": {}}}}}, {"name": "StatefulPartitionedCall/model/generate_waveform_layer/strided_slice_7/stack", "op": "Const", "attr": {"dtype": {"type": "DT_INT32"}, "value": {"tensor": {"dtype": "DT_INT32", "tensorShape": {"dim": [{"size": "1"}]}}}}}, {"name": "StatefulPartitionedCall/model/generate_waveform_layer/strided_slice_7/stack_1", "op": "Const", "attr": {"value": {"tensor": {"dtype": "DT_INT32", "tensorShape": {"dim": [{"size": "1"}]}}}, "dtype": {"type": "DT_INT32"}}}, {"name": "StatefulPartitionedCall/model/generate_waveform_layer/strided_slice_7/stack_2", "op": "Const", "attr": {"dtype": {"type": "DT_INT32"}, "value": {"tensor": {"dtype": "DT_INT32", "tensorShape": {"dim": [{"size": "1"}]}}}}}, {"name": "StatefulPartitionedCall/model/generate_waveform_layer/concat_10/axis", "op": "Const", "attr": {"value": {"tensor": {"dtype": "DT_INT32", "tensorShape": {}}}, "dtype": {"type": "DT_INT32"}}}, {"name": "StatefulPartitionedCall/model/generate_waveform_layer/DEC/conv2d_6/Conv2D_2/Cast", "op": "Const", "attr": {"dtype": {"type": "DT_HALF"}, "value": {"tensor": {"dtype": "DT_HALF", "tensorShape": {"dim": [{"size": "1"}, {"size": "3"}, {"size": "64"}, {"size": "768"}]}}}}}, {"name": "StatefulPartitionedCall/model/generate_waveform_layer/DEC/conv2d_6/BiasAdd_2/Cast", "op": "Const", "attr": {"dtype": {"type": "DT_HALF"}, "value": {"tensor": {"dtype": "DT_HALF", "tensorShape": {"dim": [{"size": "768"}]}}}}}, {"name": "StatefulPartitionedCall/model/generate_waveform_layer/DEC/add_noise/Cast_2", "op": "Const", "attr": {"dtype": {"type": "DT_HALF"}, "value": {"tensor": {"dtype": "DT_HALF", "tensorShape": {"dim": [{"size": "1"}]}}}}}, {"name": "StatefulPartitionedCall/model/generate_waveform_layer/DEC/add_noise/random_normal_2/shape", "op": "Const", "attr": {"value": {"tensor": {"dtype": "DT_INT32", "tensorShape": {"dim": [{"size": "4"}]}}}, "dtype": {"type": "DT_INT32"}}}, {"name": "StatefulPartitionedCall/model/generate_waveform_layer/DEC/conv2d_7/Conv2D_2/Cast", "op": "Const", "attr": {"dtype": {"type": "DT_HALF"}, "value": {"tensor": {"dtype": "DT_HALF", "tensorShape": {"dim": [{"size": "1"}, {"size": "3"}, {"size": "768"}, {"size": "768"}]}}}}}, {"name": "StatefulPartitionedCall/model/generate_waveform_layer/DEC/conv2d_7/BiasAdd_2/Cast", "op": "Const", "attr": {"value": {"tensor": {"dtype": "DT_HALF", "tensorShape": {"dim": [{"size": "768"}]}}}, "dtype": {"type": "DT_HALF"}}}, {"name": "StatefulPartitionedCall/model/generate_waveform_layer/DEC/add_noise_1/Cast_2", "op": "Const", "attr": {"dtype": {"type": "DT_HALF"}, "value": {"tensor": {"dtype": "DT_HALF", "tensorShape": {"dim": [{"size": "1"}]}}}}}, {"name": "StatefulPartitionedCall/model/generate_waveform_layer/DEC/add_noise_1/random_normal_2/shape", "op": "Const", "attr": {"value": {"tensor": {"dtype": "DT_INT32", "tensorShape": {"dim": [{"size": "4"}]}}}, "dtype": {"type": "DT_INT32"}}}, {"name": "StatefulPartitionedCall/model/generate_waveform_layer/DEC/conv2d_transpose_3/BiasAdd_2/Cast", "op": "Const", "attr": {"value": {"tensor": {"dtype": "DT_HALF", "tensorShape": {"dim": [{"size": "768"}]}}}, "dtype": {"type": "DT_HALF"}}}, {"name": "StatefulPartitionedCall/model/generate_waveform_layer/DEC/add_noise_8/Cast_2", "op": "Const", "attr": {"dtype": {"type": "DT_HALF"}, "value": {"tensor": {"dtype": "DT_HALF", "tensorShape": {"dim": [{"size": "1"}]}}}}}, {"name": "StatefulPartitionedCall/model/generate_waveform_layer/DEC/add_noise_8/random_normal_2/shape", "op": "Const", "attr": {"dtype": {"type": "DT_INT32"}, "value": {"tensor": {"dtype": "DT_INT32", "tensorShape": {"dim": [{"size": "4"}]}}}}}, {"name": "StatefulPartitionedCall/model/generate_waveform_layer/DEC/conv2d_12/Conv2D_2/Cast", "op": "Const", "attr": {"dtype": {"type": "DT_HALF"}, "value": {"tensor": {"dtype": "DT_HALF", "tensorShape": {"dim": [{"size": "1"}, {"size": "1"}, {"size": "768"}, {"size": "513"}]}}}}}, {"name": "StatefulPartitionedCall/model/generate_waveform_layer/DEC/conv2d_12/BiasAdd_2/Cast", "op": "Const", "attr": {"value": {"tensor": {"dtype": "DT_HALF", "tensorShape": {"dim": [{"size": "513"}]}}}, "dtype": {"type": "DT_HALF"}}}, {"name": "StatefulPartitionedCall/model/generate_waveform_layer/DEC/tf.clip_by_value_1/clip_by_value_2/Minimum/y", "op": "Const", "attr": {"dtype": {"type": "DT_HALF"}, "value": {"tensor": {"dtype": "DT_HALF", "tensorShape": {}}}}}, {"name": "StatefulPartitionedCall/model/generate_waveform_layer/DEC/tf.clip_by_value_1/clip_by_value_2/y", "op": "Const", "attr": {"value": {"tensor": {"dtype": "DT_HALF", "tensorShape": {}}}, "dtype": {"type": "DT_HALF"}}}, {"name": "StatefulPartitionedCall/model/generate_waveform_layer/DEC/tf.concat_4/concat_2/axis", "op": "Const", "attr": {"value": {"tensor": {"dtype": "DT_INT32", "tensorShape": {}}}, "dtype": {"type": "DT_INT32"}}}, {"name": "StatefulPartitionedCall/model/generate_waveform_layer/DEC/tf.compat.v1.transpose_6/transpose_2/perm", "op": "Const", "attr": {"value": {"tensor": {"dtype": "DT_INT32", "tensorShape": {"dim": [{"size": "4"}]}}}, "dtype": {"type": "DT_INT32"}}}, {"name": "StatefulPartitionedCall/model/generate_waveform_layer/concat_12/axis", "op": "Const", "attr": {"dtype": {"type": "DT_INT32"}, "value": {"tensor": {"dtype": "DT_INT32", "tensorShape": {}}}}}, {"name": "StatefulPartitionedCall/model/generate_waveform_layer/mul_3/y", "op": "Const", "attr": {"dtype": {"type": "DT_FLOAT"}, "value": {"tensor": {"dtype": "DT_FLOAT", "tensorShape": {}}}}}, {"name": "StatefulPartitionedCall/model/generate_waveform_layer/concat_14/axis", "op": "Const", "attr": {"dtype": {"type": "DT_INT32"}, "value": {"tensor": {"dtype": "DT_INT32", "tensorShape": {}}}}}, {"name": "StatefulPartitionedCall/model/generate_waveform_layer/split_19/split_dim", "op": "Const", "attr": {"dtype": {"type": "DT_INT32"}, "value": {"tensor": {"dtype": "DT_INT32", "tensorShape": {}}}}}, {"name": "StatefulPartitionedCall/model/generate_waveform_layer/DEC/tf.split_4/split_3/split_dim", "op": "Const", "attr": {"value": {"tensor": {"dtype": "DT_INT32", "tensorShape": {}}}, "dtype": {"type": "DT_INT32"}}}, {"name": "StatefulPartitionedCall/model/generate_waveform_layer/DEC/conv2d_transpose_5/stack_3", "op": "Const", "attr": {"value": {"tensor": {"dtype": "DT_INT32", "tensorShape": {"dim": [{"size": "4"}]}}}, "dtype": {"type": "DT_INT32"}}}, {"name": "StatefulPartitionedCall/model/generate_waveform_layer/DEC/conv2d_transpose_5/conv2d_transpose_3/Cast", "op": "Const", "attr": {"value": {"tensor": {"dtype": "DT_HALF", "tensorShape": {"dim": [{"size": "1"}, {"size": "4"}, {"size": "768"}, {"size": "768"}]}}}, "dtype": {"type": "DT_HALF"}}}, {"name": "StatefulPartitionedCall/model/generate_waveform_layer/DEC/conv2d_transpose_4/stack_3", "op": "Const", "attr": {"dtype": {"type": "DT_INT32"}, "value": {"tensor": {"dtype": "DT_INT32", "tensorShape": {"dim": [{"size": "4"}]}}}}}, {"name": "StatefulPartitionedCall/model/generate_waveform_layer/DEC/conv2d_transpose_4/conv2d_transpose_3/Cast", "op": "Const", "attr": {"value": {"tensor": {"dtype": "DT_HALF", "tensorShape": {"dim": [{"size": "1"}, {"size": "4"}, {"size": "768"}, {"size": "512"}]}}}, "dtype": {"type": "DT_HALF"}}}, {"name": "StatefulPartitionedCall/model/generate_waveform_layer/DEC/conv2d_transpose_4/BiasAdd_3/Cast", "op": "Const", "attr": {"dtype": {"type": "DT_HALF"}, "value": {"tensor": {"dtype": "DT_HALF", "tensorShape": {"dim": [{"size": "768"}]}}}}}, {"name": "StatefulPartitionedCall/model/generate_waveform_layer/DEC/add_noise_9/Cast_3", "op": "Const", "attr": {"dtype": {"type": "DT_HALF"}, "value": {"tensor": {"dtype": "DT_HALF", "tensorShape": {"dim": [{"size": "1"}]}}}}}, {"name": "StatefulPartitionedCall/model/generate_waveform_layer/DEC/add_noise_9/random_normal_3/shape", "op": "Const", "attr": {"value": {"tensor": {"dtype": "DT_INT32", "tensorShape": {"dim": [{"size": "4"}]}}}, "dtype": {"type": "DT_INT32"}}}, {"name": "StatefulPartitionedCall/model/generate_waveform_layer/DEC/conv2d_transpose_5/BiasAdd_3/Cast", "op": "Const", "attr": {"dtype": {"type": "DT_HALF"}, "value": {"tensor": {"dtype": "DT_HALF", "tensorShape": {"dim": [{"size": "768"}]}}}}}, {"name": "StatefulPartitionedCall/model/generate_waveform_layer/DEC/add_noise_10/Cast_3", "op": "Const", "attr": {"value": {"tensor": {"dtype": "DT_HALF", "tensorShape": {"dim": [{"size": "1"}]}}}, "dtype": {"type": "DT_HALF"}}}, {"name": "StatefulPartitionedCall/model/generate_waveform_layer/DEC/add_noise_10/random_normal_3/shape", "op": "Const", "attr": {"value": {"tensor": {"dtype": "DT_INT32", "tensorShape": {"dim": [{"size": "4"}]}}}, "dtype": {"type": "DT_INT32"}}}, {"name": "StatefulPartitionedCall/model/generate_waveform_layer/DEC/conv2d_transpose_3/stack_3", "op": "Const", "attr": {"value": {"tensor": {"dtype": "DT_INT32", "tensorShape": {"dim": [{"size": "4"}]}}}, "dtype": {"type": "DT_INT32"}}}, {"name": "StatefulPartitionedCall/model/generate_waveform_layer/DEC/conv2d_transpose_3/conv2d_transpose_3/Cast", "op": "Const", "attr": {"dtype": {"type": "DT_HALF"}, "value": {"tensor": {"dtype": "DT_HALF", "tensorShape": {"dim": [{"size": "1"}, {"size": "4"}, {"size": "768"}, {"size": "768"}]}}}}}, {"name": "StatefulPartitionedCall/model/generate_waveform_layer/DEC/conv2d_transpose_2/stack_3", "op": "Const", "attr": {"value": {"tensor": {"dtype": "DT_INT32", "tensorShape": {"dim": [{"size": "4"}]}}}, "dtype": {"type": "DT_INT32"}}}, {"name": "StatefulPartitionedCall/model/generate_waveform_layer/DEC/conv2d_transpose_2/conv2d_transpose_3/Cast", "op": "Const", "attr": {"dtype": {"type": "DT_HALF"}, "value": {"tensor": {"dtype": "DT_HALF", "tensorShape": {"dim": [{"size": "1"}, {"size": "4"}, {"size": "768"}, {"size": "512"}]}}}}}, {"name": "StatefulPartitionedCall/model/generate_waveform_layer/DEC/conv2d_transpose_1/stack_3", "op": "Const", "attr": {"dtype": {"type": "DT_INT32"}, "value": {"tensor": {"dtype": "DT_INT32", "tensorShape": {"dim": [{"size": "4"}]}}}}}, {"name": "StatefulPartitionedCall/model/generate_waveform_layer/DEC/conv2d_transpose_1/conv2d_transpose_3/Cast", "op": "Const", "attr": {"value": {"tensor": {"dtype": "DT_HALF", "tensorShape": {"dim": [{"size": "1"}, {"size": "4"}, {"size": "512"}, {"size": "256"}]}}}, "dtype": {"type": "DT_HALF"}}}, {"name": "StatefulPartitionedCall/model/generate_waveform_layer/DEC/conv2d_9/Conv2D_3/Cast", "op": "Const", "attr": {"value": {"tensor": {"dtype": "DT_HALF", "tensorShape": {"dim": [{"size": "1"}, {"size": "3"}, {"size": "512"}, {"size": "256"}]}}}, "dtype": {"type": "DT_HALF"}}}, {"name": "StatefulPartitionedCall/model/generate_waveform_layer/DEC/conv2d_9/BiasAdd_3/Cast", "op": "Const", "attr": {"value": {"tensor": {"dtype": "DT_HALF", "tensorShape": {"dim": [{"size": "256"}]}}}, "dtype": {"type": "DT_HALF"}}}, {"name": "StatefulPartitionedCall/model/generate_waveform_layer/DEC/add_noise_3/Cast_3", "op": "Const", "attr": {"value": {"tensor": {"dtype": "DT_HALF", "tensorShape": {"dim": [{"size": "1"}]}}}, "dtype": {"type": "DT_HALF"}}}, {"name": "StatefulPartitionedCall/model/generate_waveform_layer/DEC/add_noise_3/random_normal_3/shape", "op": "Const", "attr": {"value": {"tensor": {"dtype": "DT_INT32", "tensorShape": {"dim": [{"size": "4"}]}}}, "dtype": {"type": "DT_INT32"}}}, {"name": "StatefulPartitionedCall/model/generate_waveform_layer/DEC/conv2d_transpose_1/BiasAdd_3/Cast", "op": "Const", "attr": {"value": {"tensor": {"dtype": "DT_HALF", "tensorShape": {"dim": [{"size": "512"}]}}}, "dtype": {"type": "DT_HALF"}}}, {"name": "StatefulPartitionedCall/model/generate_waveform_layer/DEC/add_noise_6/Cast_3", "op": "Const", "attr": {"dtype": {"type": "DT_HALF"}, "value": {"tensor": {"dtype": "DT_HALF", "tensorShape": {"dim": [{"size": "1"}]}}}}}, {"name": "StatefulPartitionedCall/model/generate_waveform_layer/DEC/add_noise_6/random_normal_3/shape", "op": "Const", "attr": {"value": {"tensor": {"dtype": "DT_INT32", "tensorShape": {"dim": [{"size": "4"}]}}}, "dtype": {"type": "DT_INT32"}}}, {"name": "StatefulPartitionedCall/model/generate_waveform_layer/DEC/conv2d_8/Conv2D_3/Cast", "op": "Const", "attr": {"dtype": {"type": "DT_HALF"}, "value": {"tensor": {"dtype": "DT_HALF", "tensorShape": {"dim": [{"size": "1"}, {"size": "3"}, {"size": "768"}, {"size": "512"}]}}}}}, {"name": "StatefulPartitionedCall/model/generate_waveform_layer/DEC/conv2d_8/BiasAdd_3/Cast", "op": "Const", "attr": {"dtype": {"type": "DT_HALF"}, "value": {"tensor": {"dtype": "DT_HALF", "tensorShape": {"dim": [{"size": "512"}]}}}}}, {"name": "StatefulPartitionedCall/model/generate_waveform_layer/DEC/add_noise_2/Cast_3", "op": "Const", "attr": {"dtype": {"type": "DT_HALF"}, "value": {"tensor": {"dtype": "DT_HALF", "tensorShape": {"dim": [{"size": "1"}]}}}}}, {"name": "StatefulPartitionedCall/model/generate_waveform_layer/DEC/add_noise_2/random_normal_3/shape", "op": "Const", "attr": {"dtype": {"type": "DT_INT32"}, "value": {"tensor": {"dtype": "DT_INT32", "tensorShape": {"dim": [{"size": "4"}]}}}}}, {"name": "StatefulPartitionedCall/model/generate_waveform_layer/DEC/conv2d_transpose_2/BiasAdd_3/Cast", "op": "Const", "attr": {"value": {"tensor": {"dtype": "DT_HALF", "tensorShape": {"dim": [{"size": "768"}]}}}, "dtype": {"type": "DT_HALF"}}}, {"name": "StatefulPartitionedCall/model/generate_waveform_layer/DEC/add_noise_7/Cast_3", "op": "Const", "attr": {"value": {"tensor": {"dtype": "DT_HALF", "tensorShape": {"dim": [{"size": "1"}]}}}, "dtype": {"type": "DT_HALF"}}}, {"name": "StatefulPartitionedCall/model/generate_waveform_layer/DEC/add_noise_7/random_normal_3/shape", "op": "Const", "attr": {"value": {"tensor": {"dtype": "DT_INT32", "tensorShape": {"dim": [{"size": "4"}]}}}, "dtype": {"type": "DT_INT32"}}}, {"name": "StatefulPartitionedCall/model/generate_waveform_layer/split_15/split_dim", "op": "Const", "attr": {"value": {"tensor": {"dtype": "DT_INT32", "tensorShape": {}}}, "dtype": {"type": "DT_INT32"}}}, {"name": "StatefulPartitionedCall/model/generate_waveform_layer/strided_slice_12/stack", "op": "Const", "attr": {"dtype": {"type": "DT_INT32"}, "value": {"tensor": {"dtype": "DT_INT32", "tensorShape": {"dim": [{"size": "1"}]}}}}}, {"name": "StatefulPartitionedCall/model/generate_waveform_layer/strided_slice_12/stack_1", "op": "Const", "attr": {"value": {"tensor": {"dtype": "DT_INT32", "tensorShape": {"dim": [{"size": "1"}]}}}, "dtype": {"type": "DT_INT32"}}}, {"name": "StatefulPartitionedCall/model/generate_waveform_layer/strided_slice_12/stack_2", "op": "Const", "attr": {"dtype": {"type": "DT_INT32"}, "value": {"tensor": {"dtype": "DT_INT32", "tensorShape": {"dim": [{"size": "1"}]}}}}}, {"name": "StatefulPartitionedCall/model/generate_waveform_layer/concat_20/axis", "op": "Const", "attr": {"value": {"tensor": {"dtype": "DT_INT32", "tensorShape": {}}}, "dtype": {"type": "DT_INT32"}}}, {"name": "StatefulPartitionedCall/model/generate_waveform_layer/DEC/conv2d_6/Conv2D_3/Cast", "op": "Const", "attr": {"value": {"tensor": {"dtype": "DT_HALF", "tensorShape": {"dim": [{"size": "1"}, {"size": "3"}, {"size": "64"}, {"size": "768"}]}}}, "dtype": {"type": "DT_HALF"}}}, {"name": "StatefulPartitionedCall/model/generate_waveform_layer/DEC/conv2d_6/BiasAdd_3/Cast", "op": "Const", "attr": {"value": {"tensor": {"dtype": "DT_HALF", "tensorShape": {"dim": [{"size": "768"}]}}}, "dtype": {"type": "DT_HALF"}}}, {"name": "StatefulPartitionedCall/model/generate_waveform_layer/DEC/add_noise/Cast_3", "op": "Const", "attr": {"dtype": {"type": "DT_HALF"}, "value": {"tensor": {"dtype": "DT_HALF", "tensorShape": {"dim": [{"size": "1"}]}}}}}, {"name": "StatefulPartitionedCall/model/generate_waveform_layer/DEC/add_noise/random_normal_3/shape", "op": "Const", "attr": {"dtype": {"type": "DT_INT32"}, "value": {"tensor": {"dtype": "DT_INT32", "tensorShape": {"dim": [{"size": "4"}]}}}}}, {"name": "StatefulPartitionedCall/model/generate_waveform_layer/DEC/conv2d_7/Conv2D_3/Cast", "op": "Const", "attr": {"dtype": {"type": "DT_HALF"}, "value": {"tensor": {"dtype": "DT_HALF", "tensorShape": {"dim": [{"size": "1"}, {"size": "3"}, {"size": "768"}, {"size": "768"}]}}}}}, {"name": "StatefulPartitionedCall/model/generate_waveform_layer/DEC/conv2d_7/BiasAdd_3/Cast", "op": "Const", "attr": {"value": {"tensor": {"dtype": "DT_HALF", "tensorShape": {"dim": [{"size": "768"}]}}}, "dtype": {"type": "DT_HALF"}}}, {"name": "StatefulPartitionedCall/model/generate_waveform_layer/DEC/add_noise_1/Cast_3", "op": "Const", "attr": {"value": {"tensor": {"dtype": "DT_HALF", "tensorShape": {"dim": [{"size": "1"}]}}}, "dtype": {"type": "DT_HALF"}}}, {"name": "StatefulPartitionedCall/model/generate_waveform_layer/DEC/add_noise_1/random_normal_3/shape", "op": "Const", "attr": {"dtype": {"type": "DT_INT32"}, "value": {"tensor": {"dtype": "DT_INT32", "tensorShape": {"dim": [{"size": "4"}]}}}}}, {"name": "StatefulPartitionedCall/model/generate_waveform_layer/DEC/conv2d_transpose_3/BiasAdd_3/Cast", "op": "Const", "attr": {"value": {"tensor": {"dtype": "DT_HALF", "tensorShape": {"dim": [{"size": "768"}]}}}, "dtype": {"type": "DT_HALF"}}}, {"name": "StatefulPartitionedCall/model/generate_waveform_layer/DEC/add_noise_8/Cast_3", "op": "Const", "attr": {"value": {"tensor": {"dtype": "DT_HALF", "tensorShape": {"dim": [{"size": "1"}]}}}, "dtype": {"type": "DT_HALF"}}}, {"name": "StatefulPartitionedCall/model/generate_waveform_layer/DEC/add_noise_8/random_normal_3/shape", "op": "Const", "attr": {"dtype": {"type": "DT_INT32"}, "value": {"tensor": {"dtype": "DT_INT32", "tensorShape": {"dim": [{"size": "4"}]}}}}}, {"name": "StatefulPartitionedCall/model/generate_waveform_layer/DEC/conv2d_12/Conv2D_3/Cast", "op": "Const", "attr": {"value": {"tensor": {"dtype": "DT_HALF", "tensorShape": {"dim": [{"size": "1"}, {"size": "1"}, {"size": "768"}, {"size": "513"}]}}}, "dtype": {"type": "DT_HALF"}}}, {"name": "StatefulPartitionedCall/model/generate_waveform_layer/DEC/conv2d_12/BiasAdd_3/Cast", "op": "Const", "attr": {"dtype": {"type": "DT_HALF"}, "value": {"tensor": {"dtype": "DT_HALF", "tensorShape": {"dim": [{"size": "513"}]}}}}}, {"name": "StatefulPartitionedCall/model/generate_waveform_layer/DEC/tf.clip_by_value_1/clip_by_value_3/Minimum/y", "op": "Const", "attr": {"dtype": {"type": "DT_HALF"}, "value": {"tensor": {"dtype": "DT_HALF", "tensorShape": {}}}}}, {"name": "StatefulPartitionedCall/model/generate_waveform_layer/DEC/tf.clip_by_value_1/clip_by_value_3/y", "op": "Const", "attr": {"dtype": {"type": "DT_HALF"}, "value": {"tensor": {"dtype": "DT_HALF", "tensorShape": {}}}}}, {"name": "StatefulPartitionedCall/model/generate_waveform_layer/DEC/tf.concat_4/concat_3/axis", "op": "Const", "attr": {"dtype": {"type": "DT_INT32"}, "value": {"tensor": {"dtype": "DT_INT32", "tensorShape": {}}}}}, {"name": "StatefulPartitionedCall/model/generate_waveform_layer/DEC/tf.compat.v1.transpose_6/transpose_3/perm", "op": "Const", "attr": {"dtype": {"type": "DT_INT32"}, "value": {"tensor": {"dtype": "DT_INT32", "tensorShape": {"dim": [{"size": "4"}]}}}}}, {"name": "StatefulPartitionedCall/model/generate_waveform_layer/DEC/tf.split_4/split_4/split_dim", "op": "Const", "attr": {"dtype": {"type": "DT_INT32"}, "value": {"tensor": {"dtype": "DT_INT32", "tensorShape": {}}}}}, {"name": "StatefulPartitionedCall/model/generate_waveform_layer/DEC/conv2d_transpose_5/stack_4", "op": "Const", "attr": {"value": {"tensor": {"dtype": "DT_INT32", "tensorShape": {"dim": [{"size": "4"}]}}}, "dtype": {"type": "DT_INT32"}}}, {"name": "StatefulPartitionedCall/model/generate_waveform_layer/DEC/conv2d_transpose_5/conv2d_transpose_4/Cast", "op": "Const", "attr": {"value": {"tensor": {"dtype": "DT_HALF", "tensorShape": {"dim": [{"size": "1"}, {"size": "4"}, {"size": "768"}, {"size": "768"}]}}}, "dtype": {"type": "DT_HALF"}}}, {"name": "StatefulPartitionedCall/model/generate_waveform_layer/DEC/conv2d_transpose_4/stack_4", "op": "Const", "attr": {"value": {"tensor": {"dtype": "DT_INT32", "tensorShape": {"dim": [{"size": "4"}]}}}, "dtype": {"type": "DT_INT32"}}}, {"name": "StatefulPartitionedCall/model/generate_waveform_layer/DEC/conv2d_transpose_4/conv2d_transpose_4/Cast", "op": "Const", "attr": {"value": {"tensor": {"dtype": "DT_HALF", "tensorShape": {"dim": [{"size": "1"}, {"size": "4"}, {"size": "768"}, {"size": "512"}]}}}, "dtype": {"type": "DT_HALF"}}}, {"name": "StatefulPartitionedCall/model/generate_waveform_layer/DEC/conv2d_transpose_4/BiasAdd_4/Cast", "op": "Const", "attr": {"value": {"tensor": {"dtype": "DT_HALF", "tensorShape": {"dim": [{"size": "768"}]}}}, "dtype": {"type": "DT_HALF"}}}, {"name": "StatefulPartitionedCall/model/generate_waveform_layer/DEC/add_noise_9/Cast_4", "op": "Const", "attr": {"dtype": {"type": "DT_HALF"}, "value": {"tensor": {"dtype": "DT_HALF", "tensorShape": {"dim": [{"size": "1"}]}}}}}, {"name": "StatefulPartitionedCall/model/generate_waveform_layer/DEC/add_noise_9/random_normal_4/shape", "op": "Const", "attr": {"value": {"tensor": {"dtype": "DT_INT32", "tensorShape": {"dim": [{"size": "4"}]}}}, "dtype": {"type": "DT_INT32"}}}, {"name": "StatefulPartitionedCall/model/generate_waveform_layer/DEC/conv2d_transpose_5/BiasAdd_4/Cast", "op": "Const", "attr": {"value": {"tensor": {"dtype": "DT_HALF", "tensorShape": {"dim": [{"size": "768"}]}}}, "dtype": {"type": "DT_HALF"}}}, {"name": "StatefulPartitionedCall/model/generate_waveform_layer/DEC/add_noise_10/Cast_4", "op": "Const", "attr": {"value": {"tensor": {"dtype": "DT_HALF", "tensorShape": {"dim": [{"size": "1"}]}}}, "dtype": {"type": "DT_HALF"}}}, {"name": "StatefulPartitionedCall/model/generate_waveform_layer/DEC/add_noise_10/random_normal_4/shape", "op": "Const", "attr": {"dtype": {"type": "DT_INT32"}, "value": {"tensor": {"dtype": "DT_INT32", "tensorShape": {"dim": [{"size": "4"}]}}}}}, {"name": "StatefulPartitionedCall/model/generate_waveform_layer/DEC/conv2d_transpose_3/stack_4", "op": "Const", "attr": {"dtype": {"type": "DT_INT32"}, "value": {"tensor": {"dtype": "DT_INT32", "tensorShape": {"dim": [{"size": "4"}]}}}}}, {"name": "StatefulPartitionedCall/model/generate_waveform_layer/DEC/conv2d_transpose_3/conv2d_transpose_4/Cast", "op": "Const", "attr": {"dtype": {"type": "DT_HALF"}, "value": {"tensor": {"dtype": "DT_HALF", "tensorShape": {"dim": [{"size": "1"}, {"size": "4"}, {"size": "768"}, {"size": "768"}]}}}}}, {"name": "StatefulPartitionedCall/model/generate_waveform_layer/DEC/conv2d_transpose_2/stack_4", "op": "Const", "attr": {"value": {"tensor": {"dtype": "DT_INT32", "tensorShape": {"dim": [{"size": "4"}]}}}, "dtype": {"type": "DT_INT32"}}}, {"name": "StatefulPartitionedCall/model/generate_waveform_layer/DEC/conv2d_transpose_2/conv2d_transpose_4/Cast", "op": "Const", "attr": {"value": {"tensor": {"dtype": "DT_HALF", "tensorShape": {"dim": [{"size": "1"}, {"size": "4"}, {"size": "768"}, {"size": "512"}]}}}, "dtype": {"type": "DT_HALF"}}}, {"name": "StatefulPartitionedCall/model/generate_waveform_layer/DEC/conv2d_transpose_1/stack_4", "op": "Const", "attr": {"dtype": {"type": "DT_INT32"}, "value": {"tensor": {"dtype": "DT_INT32", "tensorShape": {"dim": [{"size": "4"}]}}}}}, {"name": "StatefulPartitionedCall/model/generate_waveform_layer/DEC/conv2d_transpose_1/conv2d_transpose_4/Cast", "op": "Const", "attr": {"value": {"tensor": {"dtype": "DT_HALF", "tensorShape": {"dim": [{"size": "1"}, {"size": "4"}, {"size": "512"}, {"size": "256"}]}}}, "dtype": {"type": "DT_HALF"}}}, {"name": "StatefulPartitionedCall/model/generate_waveform_layer/DEC/conv2d_9/Conv2D_4/Cast", "op": "Const", "attr": {"dtype": {"type": "DT_HALF"}, "value": {"tensor": {"dtype": "DT_HALF", "tensorShape": {"dim": [{"size": "1"}, {"size": "3"}, {"size": "512"}, {"size": "256"}]}}}}}, {"name": "StatefulPartitionedCall/model/generate_waveform_layer/DEC/conv2d_9/BiasAdd_4/Cast", "op": "Const", "attr": {"dtype": {"type": "DT_HALF"}, "value": {"tensor": {"dtype": "DT_HALF", "tensorShape": {"dim": [{"size": "256"}]}}}}}, {"name": "StatefulPartitionedCall/model/generate_waveform_layer/DEC/add_noise_3/Cast_4", "op": "Const", "attr": {"value": {"tensor": {"dtype": "DT_HALF", "tensorShape": {"dim": [{"size": "1"}]}}}, "dtype": {"type": "DT_HALF"}}}, {"name": "StatefulPartitionedCall/model/generate_waveform_layer/DEC/add_noise_3/random_normal_4/shape", "op": "Const", "attr": {"value": {"tensor": {"dtype": "DT_INT32", "tensorShape": {"dim": [{"size": "4"}]}}}, "dtype": {"type": "DT_INT32"}}}, {"name": "StatefulPartitionedCall/model/generate_waveform_layer/DEC/conv2d_transpose_1/BiasAdd_4/Cast", "op": "Const", "attr": {"dtype": {"type": "DT_HALF"}, "value": {"tensor": {"dtype": "DT_HALF", "tensorShape": {"dim": [{"size": "512"}]}}}}}, {"name": "StatefulPartitionedCall/model/generate_waveform_layer/DEC/add_noise_6/Cast_4", "op": "Const", "attr": {"dtype": {"type": "DT_HALF"}, "value": {"tensor": {"dtype": "DT_HALF", "tensorShape": {"dim": [{"size": "1"}]}}}}}, {"name": "StatefulPartitionedCall/model/generate_waveform_layer/DEC/add_noise_6/random_normal_4/shape", "op": "Const", "attr": {"value": {"tensor": {"dtype": "DT_INT32", "tensorShape": {"dim": [{"size": "4"}]}}}, "dtype": {"type": "DT_INT32"}}}, {"name": "StatefulPartitionedCall/model/generate_waveform_layer/DEC/conv2d_8/Conv2D_4/Cast", "op": "Const", "attr": {"value": {"tensor": {"dtype": "DT_HALF", "tensorShape": {"dim": [{"size": "1"}, {"size": "3"}, {"size": "768"}, {"size": "512"}]}}}, "dtype": {"type": "DT_HALF"}}}, {"name": "StatefulPartitionedCall/model/generate_waveform_layer/DEC/conv2d_8/BiasAdd_4/Cast", "op": "Const", "attr": {"value": {"tensor": {"dtype": "DT_HALF", "tensorShape": {"dim": [{"size": "512"}]}}}, "dtype": {"type": "DT_HALF"}}}, {"name": "StatefulPartitionedCall/model/generate_waveform_layer/DEC/add_noise_2/Cast_4", "op": "Const", "attr": {"dtype": {"type": "DT_HALF"}, "value": {"tensor": {"dtype": "DT_HALF", "tensorShape": {"dim": [{"size": "1"}]}}}}}, {"name": "StatefulPartitionedCall/model/generate_waveform_layer/DEC/add_noise_2/random_normal_4/shape", "op": "Const", "attr": {"value": {"tensor": {"dtype": "DT_INT32", "tensorShape": {"dim": [{"size": "4"}]}}}, "dtype": {"type": "DT_INT32"}}}, {"name": "StatefulPartitionedCall/model/generate_waveform_layer/DEC/conv2d_transpose_2/BiasAdd_4/Cast", "op": "Const", "attr": {"value": {"tensor": {"dtype": "DT_HALF", "tensorShape": {"dim": [{"size": "768"}]}}}, "dtype": {"type": "DT_HALF"}}}, {"name": "StatefulPartitionedCall/model/generate_waveform_layer/DEC/add_noise_7/Cast_4", "op": "Const", "attr": {"dtype": {"type": "DT_HALF"}, "value": {"tensor": {"dtype": "DT_HALF", "tensorShape": {"dim": [{"size": "1"}]}}}}}, {"name": "StatefulPartitionedCall/model/generate_waveform_layer/DEC/add_noise_7/random_normal_4/shape", "op": "Const", "attr": {"dtype": {"type": "DT_INT32"}, "value": {"tensor": {"dtype": "DT_INT32", "tensorShape": {"dim": [{"size": "4"}]}}}}}, {"name": "StatefulPartitionedCall/model/generate_waveform_layer/split_16/split_dim", "op": "Const", "attr": {"value": {"tensor": {"dtype": "DT_INT32", "tensorShape": {}}}, "dtype": {"type": "DT_INT32"}}}, {"name": "StatefulPartitionedCall/model/generate_waveform_layer/strided_slice_13/stack", "op": "Const", "attr": {"value": {"tensor": {"dtype": "DT_INT32", "tensorShape": {"dim": [{"size": "1"}]}}}, "dtype": {"type": "DT_INT32"}}}, {"name": "StatefulPartitionedCall/model/generate_waveform_layer/strided_slice_13/stack_1", "op": "Const", "attr": {"value": {"tensor": {"dtype": "DT_INT32", "tensorShape": {"dim": [{"size": "1"}]}}}, "dtype": {"type": "DT_INT32"}}}, {"name": "StatefulPartitionedCall/model/generate_waveform_layer/strided_slice_13/stack_2", "op": "Const", "attr": {"value": {"tensor": {"dtype": "DT_INT32", "tensorShape": {"dim": [{"size": "1"}]}}}, "dtype": {"type": "DT_INT32"}}}, {"name": "StatefulPartitionedCall/model/generate_waveform_layer/concat_21/axis", "op": "Const", "attr": {"dtype": {"type": "DT_INT32"}, "value": {"tensor": {"dtype": "DT_INT32", "tensorShape": {}}}}}, {"name": "StatefulPartitionedCall/model/generate_waveform_layer/DEC/conv2d_6/Conv2D_4/Cast", "op": "Const", "attr": {"value": {"tensor": {"dtype": "DT_HALF", "tensorShape": {"dim": [{"size": "1"}, {"size": "3"}, {"size": "64"}, {"size": "768"}]}}}, "dtype": {"type": "DT_HALF"}}}, {"name": "StatefulPartitionedCall/model/generate_waveform_layer/DEC/conv2d_6/BiasAdd_4/Cast", "op": "Const", "attr": {"value": {"tensor": {"dtype": "DT_HALF", "tensorShape": {"dim": [{"size": "768"}]}}}, "dtype": {"type": "DT_HALF"}}}, {"name": "StatefulPartitionedCall/model/generate_waveform_layer/DEC/add_noise/Cast_4", "op": "Const", "attr": {"dtype": {"type": "DT_HALF"}, "value": {"tensor": {"dtype": "DT_HALF", "tensorShape": {"dim": [{"size": "1"}]}}}}}, {"name": "StatefulPartitionedCall/model/generate_waveform_layer/DEC/add_noise/random_normal_4/shape", "op": "Const", "attr": {"value": {"tensor": {"dtype": "DT_INT32", "tensorShape": {"dim": [{"size": "4"}]}}}, "dtype": {"type": "DT_INT32"}}}, {"name": "StatefulPartitionedCall/model/generate_waveform_layer/DEC/conv2d_7/Conv2D_4/Cast", "op": "Const", "attr": {"dtype": {"type": "DT_HALF"}, "value": {"tensor": {"dtype": "DT_HALF", "tensorShape": {"dim": [{"size": "1"}, {"size": "3"}, {"size": "768"}, {"size": "768"}]}}}}}, {"name": "StatefulPartitionedCall/model/generate_waveform_layer/DEC/conv2d_7/BiasAdd_4/Cast", "op": "Const", "attr": {"value": {"tensor": {"dtype": "DT_HALF", "tensorShape": {"dim": [{"size": "768"}]}}}, "dtype": {"type": "DT_HALF"}}}, {"name": "StatefulPartitionedCall/model/generate_waveform_layer/DEC/add_noise_1/Cast_4", "op": "Const", "attr": {"dtype": {"type": "DT_HALF"}, "value": {"tensor": {"dtype": "DT_HALF", "tensorShape": {"dim": [{"size": "1"}]}}}}}, {"name": "StatefulPartitionedCall/model/generate_waveform_layer/DEC/add_noise_1/random_normal_4/shape", "op": "Const", "attr": {"dtype": {"type": "DT_INT32"}, "value": {"tensor": {"dtype": "DT_INT32", "tensorShape": {"dim": [{"size": "4"}]}}}}}, {"name": "StatefulPartitionedCall/model/generate_waveform_layer/DEC/conv2d_transpose_3/BiasAdd_4/Cast", "op": "Const", "attr": {"dtype": {"type": "DT_HALF"}, "value": {"tensor": {"dtype": "DT_HALF", "tensorShape": {"dim": [{"size": "768"}]}}}}}, {"name": "StatefulPartitionedCall/model/generate_waveform_layer/DEC/add_noise_8/Cast_4", "op": "Const", "attr": {"value": {"tensor": {"dtype": "DT_HALF", "tensorShape": {"dim": [{"size": "1"}]}}}, "dtype": {"type": "DT_HALF"}}}, {"name": "StatefulPartitionedCall/model/generate_waveform_layer/DEC/add_noise_8/random_normal_4/shape", "op": "Const", "attr": {"value": {"tensor": {"dtype": "DT_INT32", "tensorShape": {"dim": [{"size": "4"}]}}}, "dtype": {"type": "DT_INT32"}}}, {"name": "StatefulPartitionedCall/model/generate_waveform_layer/DEC/conv2d_12/Conv2D_4/Cast", "op": "Const", "attr": {"value": {"tensor": {"dtype": "DT_HALF", "tensorShape": {"dim": [{"size": "1"}, {"size": "1"}, {"size": "768"}, {"size": "513"}]}}}, "dtype": {"type": "DT_HALF"}}}, {"name": "StatefulPartitionedCall/model/generate_waveform_layer/DEC/conv2d_12/BiasAdd_4/Cast", "op": "Const", "attr": {"value": {"tensor": {"dtype": "DT_HALF", "tensorShape": {"dim": [{"size": "513"}]}}}, "dtype": {"type": "DT_HALF"}}}, {"name": "StatefulPartitionedCall/model/generate_waveform_layer/DEC/tf.clip_by_value_1/clip_by_value_4/Minimum/y", "op": "Const", "attr": {"dtype": {"type": "DT_HALF"}, "value": {"tensor": {"dtype": "DT_HALF", "tensorShape": {}}}}}, {"name": "StatefulPartitionedCall/model/generate_waveform_layer/DEC/tf.clip_by_value_1/clip_by_value_4/y", "op": "Const", "attr": {"value": {"tensor": {"dtype": "DT_HALF", "tensorShape": {}}}, "dtype": {"type": "DT_HALF"}}}, {"name": "StatefulPartitionedCall/model/generate_waveform_layer/DEC/tf.concat_4/concat_4/axis", "op": "Const", "attr": {"value": {"tensor": {"dtype": "DT_INT32", "tensorShape": {}}}, "dtype": {"type": "DT_INT32"}}}, {"name": "StatefulPartitionedCall/model/generate_waveform_layer/DEC/tf.compat.v1.transpose_6/transpose_4/perm", "op": "Const", "attr": {"dtype": {"type": "DT_INT32"}, "value": {"tensor": {"dtype": "DT_INT32", "tensorShape": {"dim": [{"size": "4"}]}}}}}, {"name": "StatefulPartitionedCall/model/generate_waveform_layer/DEC/tf.split_4/split_5/split_dim", "op": "Const", "attr": {"value": {"tensor": {"dtype": "DT_INT32", "tensorShape": {}}}, "dtype": {"type": "DT_INT32"}}}, {"name": "StatefulPartitionedCall/model/generate_waveform_layer/DEC/conv2d_transpose_5/stack_5", "op": "Const", "attr": {"dtype": {"type": "DT_INT32"}, "value": {"tensor": {"dtype": "DT_INT32", "tensorShape": {"dim": [{"size": "4"}]}}}}}, {"name": "StatefulPartitionedCall/model/generate_waveform_layer/DEC/conv2d_transpose_5/conv2d_transpose_5/Cast", "op": "Const", "attr": {"dtype": {"type": "DT_HALF"}, "value": {"tensor": {"dtype": "DT_HALF", "tensorShape": {"dim": [{"size": "1"}, {"size": "4"}, {"size": "768"}, {"size": "768"}]}}}}}, {"name": "StatefulPartitionedCall/model/generate_waveform_layer/DEC/conv2d_transpose_4/stack_5", "op": "Const", "attr": {"dtype": {"type": "DT_INT32"}, "value": {"tensor": {"dtype": "DT_INT32", "tensorShape": {"dim": [{"size": "4"}]}}}}}, {"name": "StatefulPartitionedCall/model/generate_waveform_layer/DEC/conv2d_transpose_4/conv2d_transpose_5/Cast", "op": "Const", "attr": {"dtype": {"type": "DT_HALF"}, "value": {"tensor": {"dtype": "DT_HALF", "tensorShape": {"dim": [{"size": "1"}, {"size": "4"}, {"size": "768"}, {"size": "512"}]}}}}}, {"name": "StatefulPartitionedCall/model/generate_waveform_layer/DEC/conv2d_transpose_4/BiasAdd_5/Cast", "op": "Const", "attr": {"value": {"tensor": {"dtype": "DT_HALF", "tensorShape": {"dim": [{"size": "768"}]}}}, "dtype": {"type": "DT_HALF"}}}, {"name": "StatefulPartitionedCall/model/generate_waveform_layer/DEC/add_noise_9/Cast_5", "op": "Const", "attr": {"value": {"tensor": {"dtype": "DT_HALF", "tensorShape": {"dim": [{"size": "1"}]}}}, "dtype": {"type": "DT_HALF"}}}, {"name": "StatefulPartitionedCall/model/generate_waveform_layer/DEC/add_noise_9/random_normal_5/shape", "op": "Const", "attr": {"dtype": {"type": "DT_INT32"}, "value": {"tensor": {"dtype": "DT_INT32", "tensorShape": {"dim": [{"size": "4"}]}}}}}, {"name": "StatefulPartitionedCall/model/generate_waveform_layer/DEC/conv2d_transpose_5/BiasAdd_5/Cast", "op": "Const", "attr": {"dtype": {"type": "DT_HALF"}, "value": {"tensor": {"dtype": "DT_HALF", "tensorShape": {"dim": [{"size": "768"}]}}}}}, {"name": "StatefulPartitionedCall/model/generate_waveform_layer/DEC/add_noise_10/Cast_5", "op": "Const", "attr": {"dtype": {"type": "DT_HALF"}, "value": {"tensor": {"dtype": "DT_HALF", "tensorShape": {"dim": [{"size": "1"}]}}}}}, {"name": "StatefulPartitionedCall/model/generate_waveform_layer/DEC/add_noise_10/random_normal_5/shape", "op": "Const", "attr": {"value": {"tensor": {"dtype": "DT_INT32", "tensorShape": {"dim": [{"size": "4"}]}}}, "dtype": {"type": "DT_INT32"}}}, {"name": "StatefulPartitionedCall/model/generate_waveform_layer/DEC/conv2d_transpose_3/stack_5", "op": "Const", "attr": {"value": {"tensor": {"dtype": "DT_INT32", "tensorShape": {"dim": [{"size": "4"}]}}}, "dtype": {"type": "DT_INT32"}}}, {"name": "StatefulPartitionedCall/model/generate_waveform_layer/DEC/conv2d_transpose_3/conv2d_transpose_5/Cast", "op": "Const", "attr": {"dtype": {"type": "DT_HALF"}, "value": {"tensor": {"dtype": "DT_HALF", "tensorShape": {"dim": [{"size": "1"}, {"size": "4"}, {"size": "768"}, {"size": "768"}]}}}}}, {"name": "StatefulPartitionedCall/model/generate_waveform_layer/DEC/conv2d_transpose_2/stack_5", "op": "Const", "attr": {"value": {"tensor": {"dtype": "DT_INT32", "tensorShape": {"dim": [{"size": "4"}]}}}, "dtype": {"type": "DT_INT32"}}}, {"name": "StatefulPartitionedCall/model/generate_waveform_layer/DEC/conv2d_transpose_2/conv2d_transpose_5/Cast", "op": "Const", "attr": {"dtype": {"type": "DT_HALF"}, "value": {"tensor": {"dtype": "DT_HALF", "tensorShape": {"dim": [{"size": "1"}, {"size": "4"}, {"size": "768"}, {"size": "512"}]}}}}}, {"name": "StatefulPartitionedCall/model/generate_waveform_layer/DEC/conv2d_transpose_1/stack_5", "op": "Const", "attr": {"dtype": {"type": "DT_INT32"}, "value": {"tensor": {"dtype": "DT_INT32", "tensorShape": {"dim": [{"size": "4"}]}}}}}, {"name": "StatefulPartitionedCall/model/generate_waveform_layer/DEC/conv2d_transpose_1/conv2d_transpose_5/Cast", "op": "Const", "attr": {"dtype": {"type": "DT_HALF"}, "value": {"tensor": {"dtype": "DT_HALF", "tensorShape": {"dim": [{"size": "1"}, {"size": "4"}, {"size": "512"}, {"size": "256"}]}}}}}, {"name": "StatefulPartitionedCall/model/generate_waveform_layer/DEC/conv2d_9/Conv2D_5/Cast", "op": "Const", "attr": {"value": {"tensor": {"dtype": "DT_HALF", "tensorShape": {"dim": [{"size": "1"}, {"size": "3"}, {"size": "512"}, {"size": "256"}]}}}, "dtype": {"type": "DT_HALF"}}}, {"name": "StatefulPartitionedCall/model/generate_waveform_layer/DEC/conv2d_9/BiasAdd_5/Cast", "op": "Const", "attr": {"dtype": {"type": "DT_HALF"}, "value": {"tensor": {"dtype": "DT_HALF", "tensorShape": {"dim": [{"size": "256"}]}}}}}, {"name": "StatefulPartitionedCall/model/generate_waveform_layer/DEC/add_noise_3/Cast_5", "op": "Const", "attr": {"value": {"tensor": {"dtype": "DT_HALF", "tensorShape": {"dim": [{"size": "1"}]}}}, "dtype": {"type": "DT_HALF"}}}, {"name": "StatefulPartitionedCall/model/generate_waveform_layer/DEC/add_noise_3/random_normal_5/shape", "op": "Const", "attr": {"value": {"tensor": {"dtype": "DT_INT32", "tensorShape": {"dim": [{"size": "4"}]}}}, "dtype": {"type": "DT_INT32"}}}, {"name": "StatefulPartitionedCall/model/generate_waveform_layer/DEC/conv2d_transpose_1/BiasAdd_5/Cast", "op": "Const", "attr": {"value": {"tensor": {"dtype": "DT_HALF", "tensorShape": {"dim": [{"size": "512"}]}}}, "dtype": {"type": "DT_HALF"}}}, {"name": "StatefulPartitionedCall/model/generate_waveform_layer/DEC/add_noise_6/Cast_5", "op": "Const", "attr": {"dtype": {"type": "DT_HALF"}, "value": {"tensor": {"dtype": "DT_HALF", "tensorShape": {"dim": [{"size": "1"}]}}}}}, {"name": "StatefulPartitionedCall/model/generate_waveform_layer/DEC/add_noise_6/random_normal_5/shape", "op": "Const", "attr": {"value": {"tensor": {"dtype": "DT_INT32", "tensorShape": {"dim": [{"size": "4"}]}}}, "dtype": {"type": "DT_INT32"}}}, {"name": "StatefulPartitionedCall/model/generate_waveform_layer/DEC/conv2d_8/Conv2D_5/Cast", "op": "Const", "attr": {"dtype": {"type": "DT_HALF"}, "value": {"tensor": {"dtype": "DT_HALF", "tensorShape": {"dim": [{"size": "1"}, {"size": "3"}, {"size": "768"}, {"size": "512"}]}}}}}, {"name": "StatefulPartitionedCall/model/generate_waveform_layer/DEC/conv2d_8/BiasAdd_5/Cast", "op": "Const", "attr": {"dtype": {"type": "DT_HALF"}, "value": {"tensor": {"dtype": "DT_HALF", "tensorShape": {"dim": [{"size": "512"}]}}}}}, {"name": "StatefulPartitionedCall/model/generate_waveform_layer/DEC/add_noise_2/Cast_5", "op": "Const", "attr": {"value": {"tensor": {"dtype": "DT_HALF", "tensorShape": {"dim": [{"size": "1"}]}}}, "dtype": {"type": "DT_HALF"}}}, {"name": "StatefulPartitionedCall/model/generate_waveform_layer/DEC/add_noise_2/random_normal_5/shape", "op": "Const", "attr": {"value": {"tensor": {"dtype": "DT_INT32", "tensorShape": {"dim": [{"size": "4"}]}}}, "dtype": {"type": "DT_INT32"}}}, {"name": "StatefulPartitionedCall/model/generate_waveform_layer/DEC/conv2d_transpose_2/BiasAdd_5/Cast", "op": "Const", "attr": {"value": {"tensor": {"dtype": "DT_HALF", "tensorShape": {"dim": [{"size": "768"}]}}}, "dtype": {"type": "DT_HALF"}}}, {"name": "StatefulPartitionedCall/model/generate_waveform_layer/DEC/add_noise_7/Cast_5", "op": "Const", "attr": {"value": {"tensor": {"dtype": "DT_HALF", "tensorShape": {"dim": [{"size": "1"}]}}}, "dtype": {"type": "DT_HALF"}}}, {"name": "StatefulPartitionedCall/model/generate_waveform_layer/DEC/add_noise_7/random_normal_5/shape", "op": "Const", "attr": {"dtype": {"type": "DT_INT32"}, "value": {"tensor": {"dtype": "DT_INT32", "tensorShape": {"dim": [{"size": "4"}]}}}}}, {"name": "StatefulPartitionedCall/model/generate_waveform_layer/split_17/split_dim", "op": "Const", "attr": {"dtype": {"type": "DT_INT32"}, "value": {"tensor": {"dtype": "DT_INT32", "tensorShape": {}}}}}, {"name": "StatefulPartitionedCall/model/generate_waveform_layer/DEC2/tf.split_8/split_3/split_dim", "op": "Const", "attr": {"value": {"tensor": {"dtype": "DT_INT32", "tensorShape": {}}}, "dtype": {"type": "DT_INT32"}}}, {"name": "StatefulPartitionedCall/model/generate_waveform_layer/DEC2/conv2d_transpose_9/stack_3", "op": "Const", "attr": {"dtype": {"type": "DT_INT32"}, "value": {"tensor": {"dtype": "DT_INT32", "tensorShape": {"dim": [{"size": "4"}]}}}}}, {"name": "StatefulPartitionedCall/model/generate_waveform_layer/DEC2/conv2d_transpose_9/conv2d_transpose_3/Cast", "op": "Const", "attr": {"dtype": {"type": "DT_HALF"}, "value": {"tensor": {"dtype": "DT_HALF", "tensorShape": {"dim": [{"size": "1"}, {"size": "4"}, {"size": "256"}, {"size": "384"}]}}}}}, {"name": "StatefulPartitionedCall/model/generate_waveform_layer/DEC2/conv2d_transpose_8/stack_3", "op": "Const", "attr": {"value": {"tensor": {"dtype": "DT_INT32", "tensorShape": {"dim": [{"size": "4"}]}}}, "dtype": {"type": "DT_INT32"}}}, {"name": "StatefulPartitionedCall/model/generate_waveform_layer/DEC2/conv2d_transpose_8/conv2d_transpose_3/Cast", "op": "Const", "attr": {"value": {"tensor": {"dtype": "DT_HALF", "tensorShape": {"dim": [{"size": "1"}, {"size": "4"}, {"size": "384"}, {"size": "512"}]}}}, "dtype": {"type": "DT_HALF"}}}, {"name": "StatefulPartitionedCall/model/generate_waveform_layer/DEC2/conv2d_transpose_7/stack_3", "op": "Const", "attr": {"dtype": {"type": "DT_INT32"}, "value": {"tensor": {"dtype": "DT_INT32", "tensorShape": {"dim": [{"size": "4"}]}}}}}, {"name": "StatefulPartitionedCall/model/generate_waveform_layer/DEC2/conv2d_transpose_7/conv2d_transpose_3/Cast", "op": "Const", "attr": {"dtype": {"type": "DT_HALF"}, "value": {"tensor": {"dtype": "DT_HALF", "tensorShape": {"dim": [{"size": "1"}, {"size": "4"}, {"size": "512"}, {"size": "640"}]}}}}}, {"name": "StatefulPartitionedCall/model/generate_waveform_layer/DEC2/conv2d_transpose_6/stack_3", "op": "Const", "attr": {"dtype": {"type": "DT_INT32"}, "value": {"tensor": {"dtype": "DT_INT32", "tensorShape": {"dim": [{"size": "4"}]}}}}}, {"name": "StatefulPartitionedCall/model/generate_waveform_layer/DEC2/conv2d_transpose_6/conv2d_transpose_3/Cast", "op": "Const", "attr": {"dtype": {"type": "DT_HALF"}, "value": {"tensor": {"dtype": "DT_HALF", "tensorShape": {"dim": [{"size": "1"}, {"size": "4"}, {"size": "640"}, {"size": "768"}]}}}}}, {"name": "StatefulPartitionedCall/model/generate_waveform_layer/split_11/split_dim", "op": "Const", "attr": {"dtype": {"type": "DT_INT32"}, "value": {"tensor": {"dtype": "DT_INT32", "tensorShape": {}}}}}, {"name": "StatefulPartitionedCall/model/generate_waveform_layer/strided_slice_9/stack", "op": "Const", "attr": {"value": {"tensor": {"dtype": "DT_INT32", "tensorShape": {"dim": [{"size": "1"}]}}}, "dtype": {"type": "DT_INT32"}}}, {"name": "StatefulPartitionedCall/model/generate_waveform_layer/strided_slice_9/stack_1", "op": "Const", "attr": {"value": {"tensor": {"dtype": "DT_INT32", "tensorShape": {"dim": [{"size": "1"}]}}}, "dtype": {"type": "DT_INT32"}}}, {"name": "StatefulPartitionedCall/model/generate_waveform_layer/strided_slice_9/stack_2", "op": "Const", "attr": {"dtype": {"type": "DT_INT32"}, "value": {"tensor": {"dtype": "DT_INT32", "tensorShape": {"dim": [{"size": "1"}]}}}}}, {"name": "StatefulPartitionedCall/model/generate_waveform_layer/concat_15/axis", "op": "Const", "attr": {"value": {"tensor": {"dtype": "DT_INT32", "tensorShape": {}}}, "dtype": {"type": "DT_INT32"}}}, {"name": "StatefulPartitionedCall/model/generate_waveform_layer/DEC2/conv2d_20/Conv2D_3/Cast", "op": "Const", "attr": {"value": {"tensor": {"dtype": "DT_HALF", "tensorShape": {"dim": [{"size": "1"}, {"size": "3"}, {"size": "64"}, {"size": "768"}]}}}, "dtype": {"type": "DT_HALF"}}}, {"name": "StatefulPartitionedCall/model/generate_waveform_layer/DEC2/conv2d_20/BiasAdd_3/Cast", "op": "Const", "attr": {"dtype": {"type": "DT_HALF"}, "value": {"tensor": {"dtype": "DT_HALF", "tensorShape": {"dim": [{"size": "768"}]}}}}}, {"name": "StatefulPartitionedCall/model/generate_waveform_layer/DEC2/add_noise_11/Cast_3", "op": "Const", "attr": {"dtype": {"type": "DT_HALF"}, "value": {"tensor": {"dtype": "DT_HALF", "tensorShape": {"dim": [{"size": "1"}]}}}}}, {"name": "StatefulPartitionedCall/model/generate_waveform_layer/DEC2/add_noise_11/random_normal_3/shape", "op": "Const", "attr": {"value": {"tensor": {"dtype": "DT_INT32", "tensorShape": {"dim": [{"size": "4"}]}}}, "dtype": {"type": "DT_INT32"}}}, {"name": "StatefulPartitionedCall/model/generate_waveform_layer/DEC2/conv2d_transpose_6/BiasAdd_3/Cast", "op": "Const", "attr": {"value": {"tensor": {"dtype": "DT_HALF", "tensorShape": {"dim": [{"size": "640"}]}}}, "dtype": {"type": "DT_HALF"}}}, {"name": "StatefulPartitionedCall/model/generate_waveform_layer/DEC2/add_noise_12/Cast_3", "op": "Const", "attr": {"value": {"tensor": {"dtype": "DT_HALF", "tensorShape": {"dim": [{"size": "1"}]}}}, "dtype": {"type": "DT_HALF"}}}, {"name": "StatefulPartitionedCall/model/generate_waveform_layer/DEC2/add_noise_12/random_normal_3/shape", "op": "Const", "attr": {"value": {"tensor": {"dtype": "DT_INT32", "tensorShape": {"dim": [{"size": "4"}]}}}, "dtype": {"type": "DT_INT32"}}}, {"name": "StatefulPartitionedCall/model/generate_waveform_layer/DEC2/conv2d_21/Conv2D_3/Cast", "op": "Const", "attr": {"dtype": {"type": "DT_HALF"}, "value": {"tensor": {"dtype": "DT_HALF", "tensorShape": {"dim": [{"size": "1"}, {"size": "3"}, {"size": "640"}, {"size": "640"}]}}}}}, {"name": "StatefulPartitionedCall/model/generate_waveform_layer/DEC2/conv2d_21/BiasAdd_3/Cast", "op": "Const", "attr": {"dtype": {"type": "DT_HALF"}, "value": {"tensor": {"dtype": "DT_HALF", "tensorShape": {"dim": [{"size": "640"}]}}}}}, {"name": "StatefulPartitionedCall/model/generate_waveform_layer/DEC2/add_noise_13/Cast_3", "op": "Const", "attr": {"dtype": {"type": "DT_HALF"}, "value": {"tensor": {"dtype": "DT_HALF", "tensorShape": {"dim": [{"size": "1"}]}}}}}, {"name": "StatefulPartitionedCall/model/generate_waveform_layer/DEC2/add_noise_13/random_normal_3/shape", "op": "Const", "attr": {"value": {"tensor": {"dtype": "DT_INT32", "tensorShape": {"dim": [{"size": "4"}]}}}, "dtype": {"type": "DT_INT32"}}}, {"name": "StatefulPartitionedCall/model/generate_waveform_layer/DEC2/conv2d_transpose_7/BiasAdd_3/Cast", "op": "Const", "attr": {"value": {"tensor": {"dtype": "DT_HALF", "tensorShape": {"dim": [{"size": "512"}]}}}, "dtype": {"type": "DT_HALF"}}}, {"name": "StatefulPartitionedCall/model/generate_waveform_layer/DEC2/add_noise_14/Cast_3", "op": "Const", "attr": {"dtype": {"type": "DT_HALF"}, "value": {"tensor": {"dtype": "DT_HALF", "tensorShape": {"dim": [{"size": "1"}]}}}}}, {"name": "StatefulPartitionedCall/model/generate_waveform_layer/DEC2/add_noise_14/random_normal_3/shape", "op": "Const", "attr": {"dtype": {"type": "DT_INT32"}, "value": {"tensor": {"dtype": "DT_INT32", "tensorShape": {"dim": [{"size": "4"}]}}}}}, {"name": "StatefulPartitionedCall/model/generate_waveform_layer/DEC2/conv2d_22/Conv2D_3/Cast", "op": "Const", "attr": {"value": {"tensor": {"dtype": "DT_HALF", "tensorShape": {"dim": [{"size": "1"}, {"size": "3"}, {"size": "512"}, {"size": "512"}]}}}, "dtype": {"type": "DT_HALF"}}}, {"name": "StatefulPartitionedCall/model/generate_waveform_layer/DEC2/conv2d_22/BiasAdd_3/Cast", "op": "Const", "attr": {"dtype": {"type": "DT_HALF"}, "value": {"tensor": {"dtype": "DT_HALF", "tensorShape": {"dim": [{"size": "512"}]}}}}}, {"name": "StatefulPartitionedCall/model/generate_waveform_layer/DEC2/add_noise_15/Cast_3", "op": "Const", "attr": {"dtype": {"type": "DT_HALF"}, "value": {"tensor": {"dtype": "DT_HALF", "tensorShape": {"dim": [{"size": "1"}]}}}}}, {"name": "StatefulPartitionedCall/model/generate_waveform_layer/DEC2/add_noise_15/random_normal_3/shape", "op": "Const", "attr": {"dtype": {"type": "DT_INT32"}, "value": {"tensor": {"dtype": "DT_INT32", "tensorShape": {"dim": [{"size": "4"}]}}}}}, {"name": "StatefulPartitionedCall/model/generate_waveform_layer/DEC2/conv2d_transpose_8/BiasAdd_3/Cast", "op": "Const", "attr": {"dtype": {"type": "DT_HALF"}, "value": {"tensor": {"dtype": "DT_HALF", "tensorShape": {"dim": [{"size": "384"}]}}}}}, {"name": "StatefulPartitionedCall/model/generate_waveform_layer/DEC2/add_noise_16/Cast_3", "op": "Const", "attr": {"dtype": {"type": "DT_HALF"}, "value": {"tensor": {"dtype": "DT_HALF", "tensorShape": {"dim": [{"size": "1"}]}}}}}, {"name": "StatefulPartitionedCall/model/generate_waveform_layer/DEC2/add_noise_16/random_normal_3/shape", "op": "Const", "attr": {"value": {"tensor": {"dtype": "DT_INT32", "tensorShape": {"dim": [{"size": "4"}]}}}, "dtype": {"type": "DT_INT32"}}}, {"name": "StatefulPartitionedCall/model/generate_waveform_layer/DEC2/conv2d_transpose_9/BiasAdd_3/Cast", "op": "Const", "attr": {"value": {"tensor": {"dtype": "DT_HALF", "tensorShape": {"dim": [{"size": "256"}]}}}, "dtype": {"type": "DT_HALF"}}}, {"name": "StatefulPartitionedCall/model/generate_waveform_layer/DEC2/add_noise_17/Cast_3", "op": "Const", "attr": {"value": {"tensor": {"dtype": "DT_HALF", "tensorShape": {"dim": [{"size": "1"}]}}}, "dtype": {"type": "DT_HALF"}}}, {"name": "StatefulPartitionedCall/model/generate_waveform_layer/DEC2/add_noise_17/random_normal_3/shape", "op": "Const", "attr": {"dtype": {"type": "DT_INT32"}, "value": {"tensor": {"dtype": "DT_INT32", "tensorShape": {"dim": [{"size": "4"}]}}}}}, {"name": "StatefulPartitionedCall/model/generate_waveform_layer/DEC2/cout/Conv2D_3/Cast", "op": "Const", "attr": {"value": {"tensor": {"dtype": "DT_HALF", "tensorShape": {"dim": [{"size": "1"}, {"size": "1"}, {"size": "256"}, {"size": "64"}]}}}, "dtype": {"type": "DT_HALF"}}}, {"name": "StatefulPartitionedCall/model/generate_waveform_layer/DEC2/cout/BiasAdd_3/Cast", "op": "Const", "attr": {"dtype": {"type": "DT_HALF"}, "value": {"tensor": {"dtype": "DT_HALF", "tensorShape": {"dim": [{"size": "64"}]}}}}}, {"name": "StatefulPartitionedCall/model/generate_waveform_layer/DEC2/tf.concat_8/concat_3/axis", "op": "Const", "attr": {"dtype": {"type": "DT_INT32"}, "value": {"tensor": {"dtype": "DT_INT32", "tensorShape": {}}}}}, {"name": "StatefulPartitionedCall/model/generate_waveform_layer/DEC2/tf.split_8/split_4/split_dim", "op": "Const", "attr": {"dtype": {"type": "DT_INT32"}, "value": {"tensor": {"dtype": "DT_INT32", "tensorShape": {}}}}}, {"name": "StatefulPartitionedCall/model/generate_waveform_layer/DEC2/conv2d_transpose_9/stack_4", "op": "Const", "attr": {"value": {"tensor": {"dtype": "DT_INT32", "tensorShape": {"dim": [{"size": "4"}]}}}, "dtype": {"type": "DT_INT32"}}}, {"name": "StatefulPartitionedCall/model/generate_waveform_layer/DEC2/conv2d_transpose_9/conv2d_transpose_4/Cast", "op": "Const", "attr": {"value": {"tensor": {"dtype": "DT_HALF", "tensorShape": {"dim": [{"size": "1"}, {"size": "4"}, {"size": "256"}, {"size": "384"}]}}}, "dtype": {"type": "DT_HALF"}}}, {"name": "StatefulPartitionedCall/model/generate_waveform_layer/DEC2/conv2d_transpose_8/stack_4", "op": "Const", "attr": {"value": {"tensor": {"dtype": "DT_INT32", "tensorShape": {"dim": [{"size": "4"}]}}}, "dtype": {"type": "DT_INT32"}}}, {"name": "StatefulPartitionedCall/model/generate_waveform_layer/DEC2/conv2d_transpose_8/conv2d_transpose_4/Cast", "op": "Const", "attr": {"value": {"tensor": {"dtype": "DT_HALF", "tensorShape": {"dim": [{"size": "1"}, {"size": "4"}, {"size": "384"}, {"size": "512"}]}}}, "dtype": {"type": "DT_HALF"}}}, {"name": "StatefulPartitionedCall/model/generate_waveform_layer/DEC2/conv2d_transpose_7/stack_4", "op": "Const", "attr": {"dtype": {"type": "DT_INT32"}, "value": {"tensor": {"dtype": "DT_INT32", "tensorShape": {"dim": [{"size": "4"}]}}}}}, {"name": "StatefulPartitionedCall/model/generate_waveform_layer/DEC2/conv2d_transpose_7/conv2d_transpose_4/Cast", "op": "Const", "attr": {"dtype": {"type": "DT_HALF"}, "value": {"tensor": {"dtype": "DT_HALF", "tensorShape": {"dim": [{"size": "1"}, {"size": "4"}, {"size": "512"}, {"size": "640"}]}}}}}, {"name": "StatefulPartitionedCall/model/generate_waveform_layer/DEC2/conv2d_transpose_6/stack_4", "op": "Const", "attr": {"dtype": {"type": "DT_INT32"}, "value": {"tensor": {"dtype": "DT_INT32", "tensorShape": {"dim": [{"size": "4"}]}}}}}, {"name": "StatefulPartitionedCall/model/generate_waveform_layer/DEC2/conv2d_transpose_6/conv2d_transpose_4/Cast", "op": "Const", "attr": {"value": {"tensor": {"dtype": "DT_HALF", "tensorShape": {"dim": [{"size": "1"}, {"size": "4"}, {"size": "640"}, {"size": "768"}]}}}, "dtype": {"type": "DT_HALF"}}}, {"name": "StatefulPartitionedCall/model/generate_waveform_layer/split_12/split_dim", "op": "Const", "attr": {"dtype": {"type": "DT_INT32"}, "value": {"tensor": {"dtype": "DT_INT32", "tensorShape": {}}}}}, {"name": "StatefulPartitionedCall/model/generate_waveform_layer/strided_slice_10/stack", "op": "Const", "attr": {"value": {"tensor": {"dtype": "DT_INT32", "tensorShape": {"dim": [{"size": "1"}]}}}, "dtype": {"type": "DT_INT32"}}}, {"name": "StatefulPartitionedCall/model/generate_waveform_layer/strided_slice_10/stack_1", "op": "Const", "attr": {"dtype": {"type": "DT_INT32"}, "value": {"tensor": {"dtype": "DT_INT32", "tensorShape": {"dim": [{"size": "1"}]}}}}}, {"name": "StatefulPartitionedCall/model/generate_waveform_layer/strided_slice_10/stack_2", "op": "Const", "attr": {"dtype": {"type": "DT_INT32"}, "value": {"tensor": {"dtype": "DT_INT32", "tensorShape": {"dim": [{"size": "1"}]}}}}}, {"name": "StatefulPartitionedCall/model/generate_waveform_layer/concat_16/axis", "op": "Const", "attr": {"value": {"tensor": {"dtype": "DT_INT32", "tensorShape": {}}}, "dtype": {"type": "DT_INT32"}}}, {"name": "StatefulPartitionedCall/model/generate_waveform_layer/DEC2/conv2d_20/Conv2D_4/Cast", "op": "Const", "attr": {"dtype": {"type": "DT_HALF"}, "value": {"tensor": {"dtype": "DT_HALF", "tensorShape": {"dim": [{"size": "1"}, {"size": "3"}, {"size": "64"}, {"size": "768"}]}}}}}, {"name": "StatefulPartitionedCall/model/generate_waveform_layer/DEC2/conv2d_20/BiasAdd_4/Cast", "op": "Const", "attr": {"dtype": {"type": "DT_HALF"}, "value": {"tensor": {"dtype": "DT_HALF", "tensorShape": {"dim": [{"size": "768"}]}}}}}, {"name": "StatefulPartitionedCall/model/generate_waveform_layer/DEC2/add_noise_11/Cast_4", "op": "Const", "attr": {"value": {"tensor": {"dtype": "DT_HALF", "tensorShape": {"dim": [{"size": "1"}]}}}, "dtype": {"type": "DT_HALF"}}}, {"name": "StatefulPartitionedCall/model/generate_waveform_layer/DEC2/add_noise_11/random_normal_4/shape", "op": "Const", "attr": {"value": {"tensor": {"dtype": "DT_INT32", "tensorShape": {"dim": [{"size": "4"}]}}}, "dtype": {"type": "DT_INT32"}}}, {"name": "StatefulPartitionedCall/model/generate_waveform_layer/DEC2/conv2d_transpose_6/BiasAdd_4/Cast", "op": "Const", "attr": {"value": {"tensor": {"dtype": "DT_HALF", "tensorShape": {"dim": [{"size": "640"}]}}}, "dtype": {"type": "DT_HALF"}}}, {"name": "StatefulPartitionedCall/model/generate_waveform_layer/DEC2/add_noise_12/Cast_4", "op": "Const", "attr": {"value": {"tensor": {"dtype": "DT_HALF", "tensorShape": {"dim": [{"size": "1"}]}}}, "dtype": {"type": "DT_HALF"}}}, {"name": "StatefulPartitionedCall/model/generate_waveform_layer/DEC2/add_noise_12/random_normal_4/shape", "op": "Const", "attr": {"dtype": {"type": "DT_INT32"}, "value": {"tensor": {"dtype": "DT_INT32", "tensorShape": {"dim": [{"size": "4"}]}}}}}, {"name": "StatefulPartitionedCall/model/generate_waveform_layer/DEC2/conv2d_21/Conv2D_4/Cast", "op": "Const", "attr": {"dtype": {"type": "DT_HALF"}, "value": {"tensor": {"dtype": "DT_HALF", "tensorShape": {"dim": [{"size": "1"}, {"size": "3"}, {"size": "640"}, {"size": "640"}]}}}}}, {"name": "StatefulPartitionedCall/model/generate_waveform_layer/DEC2/conv2d_21/BiasAdd_4/Cast", "op": "Const", "attr": {"value": {"tensor": {"dtype": "DT_HALF", "tensorShape": {"dim": [{"size": "640"}]}}}, "dtype": {"type": "DT_HALF"}}}, {"name": "StatefulPartitionedCall/model/generate_waveform_layer/DEC2/add_noise_13/Cast_4", "op": "Const", "attr": {"dtype": {"type": "DT_HALF"}, "value": {"tensor": {"dtype": "DT_HALF", "tensorShape": {"dim": [{"size": "1"}]}}}}}, {"name": "StatefulPartitionedCall/model/generate_waveform_layer/DEC2/add_noise_13/random_normal_4/shape", "op": "Const", "attr": {"value": {"tensor": {"dtype": "DT_INT32", "tensorShape": {"dim": [{"size": "4"}]}}}, "dtype": {"type": "DT_INT32"}}}, {"name": "StatefulPartitionedCall/model/generate_waveform_layer/DEC2/conv2d_transpose_7/BiasAdd_4/Cast", "op": "Const", "attr": {"value": {"tensor": {"dtype": "DT_HALF", "tensorShape": {"dim": [{"size": "512"}]}}}, "dtype": {"type": "DT_HALF"}}}, {"name": "StatefulPartitionedCall/model/generate_waveform_layer/DEC2/add_noise_14/Cast_4", "op": "Const", "attr": {"dtype": {"type": "DT_HALF"}, "value": {"tensor": {"dtype": "DT_HALF", "tensorShape": {"dim": [{"size": "1"}]}}}}}, {"name": "StatefulPartitionedCall/model/generate_waveform_layer/DEC2/add_noise_14/random_normal_4/shape", "op": "Const", "attr": {"value": {"tensor": {"dtype": "DT_INT32", "tensorShape": {"dim": [{"size": "4"}]}}}, "dtype": {"type": "DT_INT32"}}}, {"name": "StatefulPartitionedCall/model/generate_waveform_layer/DEC2/conv2d_22/Conv2D_4/Cast", "op": "Const", "attr": {"value": {"tensor": {"dtype": "DT_HALF", "tensorShape": {"dim": [{"size": "1"}, {"size": "3"}, {"size": "512"}, {"size": "512"}]}}}, "dtype": {"type": "DT_HALF"}}}, {"name": "StatefulPartitionedCall/model/generate_waveform_layer/DEC2/conv2d_22/BiasAdd_4/Cast", "op": "Const", "attr": {"value": {"tensor": {"dtype": "DT_HALF", "tensorShape": {"dim": [{"size": "512"}]}}}, "dtype": {"type": "DT_HALF"}}}, {"name": "StatefulPartitionedCall/model/generate_waveform_layer/DEC2/add_noise_15/Cast_4", "op": "Const", "attr": {"dtype": {"type": "DT_HALF"}, "value": {"tensor": {"dtype": "DT_HALF", "tensorShape": {"dim": [{"size": "1"}]}}}}}, {"name": "StatefulPartitionedCall/model/generate_waveform_layer/DEC2/add_noise_15/random_normal_4/shape", "op": "Const", "attr": {"value": {"tensor": {"dtype": "DT_INT32", "tensorShape": {"dim": [{"size": "4"}]}}}, "dtype": {"type": "DT_INT32"}}}, {"name": "StatefulPartitionedCall/model/generate_waveform_layer/DEC2/conv2d_transpose_8/BiasAdd_4/Cast", "op": "Const", "attr": {"value": {"tensor": {"dtype": "DT_HALF", "tensorShape": {"dim": [{"size": "384"}]}}}, "dtype": {"type": "DT_HALF"}}}, {"name": "StatefulPartitionedCall/model/generate_waveform_layer/DEC2/add_noise_16/Cast_4", "op": "Const", "attr": {"dtype": {"type": "DT_HALF"}, "value": {"tensor": {"dtype": "DT_HALF", "tensorShape": {"dim": [{"size": "1"}]}}}}}, {"name": "StatefulPartitionedCall/model/generate_waveform_layer/DEC2/add_noise_16/random_normal_4/shape", "op": "Const", "attr": {"dtype": {"type": "DT_INT32"}, "value": {"tensor": {"dtype": "DT_INT32", "tensorShape": {"dim": [{"size": "4"}]}}}}}, {"name": "StatefulPartitionedCall/model/generate_waveform_layer/DEC2/conv2d_transpose_9/BiasAdd_4/Cast", "op": "Const", "attr": {"value": {"tensor": {"dtype": "DT_HALF", "tensorShape": {"dim": [{"size": "256"}]}}}, "dtype": {"type": "DT_HALF"}}}, {"name": "StatefulPartitionedCall/model/generate_waveform_layer/DEC2/add_noise_17/Cast_4", "op": "Const", "attr": {"value": {"tensor": {"dtype": "DT_HALF", "tensorShape": {"dim": [{"size": "1"}]}}}, "dtype": {"type": "DT_HALF"}}}, {"name": "StatefulPartitionedCall/model/generate_waveform_layer/DEC2/add_noise_17/random_normal_4/shape", "op": "Const", "attr": {"value": {"tensor": {"dtype": "DT_INT32", "tensorShape": {"dim": [{"size": "4"}]}}}, "dtype": {"type": "DT_INT32"}}}, {"name": "StatefulPartitionedCall/model/generate_waveform_layer/DEC2/cout/Conv2D_4/Cast", "op": "Const", "attr": {"dtype": {"type": "DT_HALF"}, "value": {"tensor": {"dtype": "DT_HALF", "tensorShape": {"dim": [{"size": "1"}, {"size": "1"}, {"size": "256"}, {"size": "64"}]}}}}}, {"name": "StatefulPartitionedCall/model/generate_waveform_layer/DEC2/cout/BiasAdd_4/Cast", "op": "Const", "attr": {"dtype": {"type": "DT_HALF"}, "value": {"tensor": {"dtype": "DT_HALF", "tensorShape": {"dim": [{"size": "64"}]}}}}}, {"name": "StatefulPartitionedCall/model/generate_waveform_layer/DEC2/tf.concat_8/concat_4/axis", "op": "Const", "attr": {"value": {"tensor": {"dtype": "DT_INT32", "tensorShape": {}}}, "dtype": {"type": "DT_INT32"}}}, {"name": "StatefulPartitionedCall/model/generate_waveform_layer/DEC2/tf.split_8/split_5/split_dim", "op": "Const", "attr": {"dtype": {"type": "DT_INT32"}, "value": {"tensor": {"dtype": "DT_INT32", "tensorShape": {}}}}}, {"name": "StatefulPartitionedCall/model/generate_waveform_layer/DEC2/conv2d_transpose_9/stack_5", "op": "Const", "attr": {"dtype": {"type": "DT_INT32"}, "value": {"tensor": {"dtype": "DT_INT32", "tensorShape": {"dim": [{"size": "4"}]}}}}}, {"name": "StatefulPartitionedCall/model/generate_waveform_layer/DEC2/conv2d_transpose_9/conv2d_transpose_5/Cast", "op": "Const", "attr": {"dtype": {"type": "DT_HALF"}, "value": {"tensor": {"dtype": "DT_HALF", "tensorShape": {"dim": [{"size": "1"}, {"size": "4"}, {"size": "256"}, {"size": "384"}]}}}}}, {"name": "StatefulPartitionedCall/model/generate_waveform_layer/DEC2/conv2d_transpose_8/stack_5", "op": "Const", "attr": {"value": {"tensor": {"dtype": "DT_INT32", "tensorShape": {"dim": [{"size": "4"}]}}}, "dtype": {"type": "DT_INT32"}}}, {"name": "StatefulPartitionedCall/model/generate_waveform_layer/DEC2/conv2d_transpose_8/conv2d_transpose_5/Cast", "op": "Const", "attr": {"dtype": {"type": "DT_HALF"}, "value": {"tensor": {"dtype": "DT_HALF", "tensorShape": {"dim": [{"size": "1"}, {"size": "4"}, {"size": "384"}, {"size": "512"}]}}}}}, {"name": "StatefulPartitionedCall/model/generate_waveform_layer/DEC2/conv2d_transpose_7/stack_5", "op": "Const", "attr": {"value": {"tensor": {"dtype": "DT_INT32", "tensorShape": {"dim": [{"size": "4"}]}}}, "dtype": {"type": "DT_INT32"}}}, {"name": "StatefulPartitionedCall/model/generate_waveform_layer/DEC2/conv2d_transpose_7/conv2d_transpose_5/Cast", "op": "Const", "attr": {"value": {"tensor": {"dtype": "DT_HALF", "tensorShape": {"dim": [{"size": "1"}, {"size": "4"}, {"size": "512"}, {"size": "640"}]}}}, "dtype": {"type": "DT_HALF"}}}, {"name": "StatefulPartitionedCall/model/generate_waveform_layer/DEC2/conv2d_transpose_6/stack_5", "op": "Const", "attr": {"dtype": {"type": "DT_INT32"}, "value": {"tensor": {"dtype": "DT_INT32", "tensorShape": {"dim": [{"size": "4"}]}}}}}, {"name": "StatefulPartitionedCall/model/generate_waveform_layer/DEC2/conv2d_transpose_6/conv2d_transpose_5/Cast", "op": "Const", "attr": {"value": {"tensor": {"dtype": "DT_HALF", "tensorShape": {"dim": [{"size": "1"}, {"size": "4"}, {"size": "640"}, {"size": "768"}]}}}, "dtype": {"type": "DT_HALF"}}}, {"name": "StatefulPartitionedCall/model/generate_waveform_layer/split_13/split_dim", "op": "Const", "attr": {"dtype": {"type": "DT_INT32"}, "value": {"tensor": {"dtype": "DT_INT32", "tensorShape": {}}}}}, {"name": "StatefulPartitionedCall/model/generate_waveform_layer/split_1/split_dim", "op": "Const", "attr": {"value": {"tensor": {"dtype": "DT_INT32", "tensorShape": {}}}, "dtype": {"type": "DT_INT32"}}}, {"name": "StatefulPartitionedCall/model/generate_waveform_layer/split/split_dim", "op": "Const", "attr": {"value": {"tensor": {"dtype": "DT_INT32", "tensorShape": {}}}, "dtype": {"type": "DT_INT32"}}}, {"name": "StatefulPartitionedCall/model/generate_waveform_layer/GEN/tf.split_10/split/split_dim", "op": "Const", "attr": {"dtype": {"type": "DT_INT32"}, "value": {"tensor": {"dtype": "DT_INT32", "tensorShape": {}}}}}, {"name": "StatefulPartitionedCall/model/generate_waveform_layer/GEN/8c/stack", "op": "Const", "attr": {"dtype": {"type": "DT_INT32"}, "value": {"tensor": {"dtype": "DT_INT32", "tensorShape": {"dim": [{"size": "4"}]}}}}}, {"name": "StatefulPartitionedCall/model/generate_waveform_layer/GEN/8c/conv2d_transpose/Cast", "op": "Const", "attr": {"dtype": {"type": "DT_HALF"}, "value": {"tensor": {"dtype": "DT_HALF", "tensorShape": {"dim": [{"size": "1"}, {"size": "4"}, {"size": "256"}, {"size": "384"}]}}}}}, {"name": "unknown_57", "op": "Const", "attr": {"dtype": {"type": "DT_HALF"}, "value": {"tensor": {"dtype": "DT_HALF", "tensorShape": {}}}}}, {"name": "StatefulPartitionedCall/model/generate_waveform_layer/GEN/6c/stack", "op": "Const", "attr": {"dtype": {"type": "DT_INT32"}, "value": {"tensor": {"dtype": "DT_INT32", "tensorShape": {"dim": [{"size": "4"}]}}}}}, {"name": "StatefulPartitionedCall/model/generate_waveform_layer/GEN/6c/conv2d_transpose/Cast", "op": "Const", "attr": {"value": {"tensor": {"dtype": "DT_HALF", "tensorShape": {"dim": [{"size": "1"}, {"size": "4"}, {"size": "384"}, {"size": "512"}]}}}, "dtype": {"type": "DT_HALF"}}}, {"name": "StatefulPartitionedCall/model/generate_waveform_layer/GEN/6c/BiasAdd/Cast", "op": "Const", "attr": {"dtype": {"type": "DT_HALF"}, "value": {"tensor": {"dtype": "DT_HALF", "tensorShape": {"dim": [{"size": "384"}]}}}}}, {"name": "StatefulPartitionedCall/model/generate_waveform_layer/GEN/6r/Cast", "op": "Const", "attr": {"dtype": {"type": "DT_HALF"}, "value": {"tensor": {"dtype": "DT_HALF", "tensorShape": {"dim": [{"size": "1"}]}}}}}, {"name": "StatefulPartitionedCall/model/generate_waveform_layer/GEN/6r/random_normal/shape", "op": "Const", "attr": {"value": {"tensor": {"dtype": "DT_INT32", "tensorShape": {"dim": [{"size": "4"}]}}}, "dtype": {"type": "DT_INT32"}}}, {"name": "StatefulPartitionedCall/model/generate_waveform_layer/GEN/tf.math.reduce_std_17/reduce_std/reduce_variance/Mean/reduction_indices", "op": "Const", "attr": {"dtype": {"type": "DT_INT32"}, "value": {"tensor": {"dtype": "DT_INT32", "tensorShape": {}}}}}, {"name": "StatefulPartitionedCall/model/generate_waveform_layer/GEN/tf.math.reduce_std_17/reduce_std/reduce_variance/Mean_1/reduction_indices", "op": "Const", "attr": {"value": {"tensor": {"dtype": "DT_INT32", "tensorShape": {}}}, "dtype": {"type": "DT_INT32"}}}, {"name": "StatefulPartitionedCall/model/generate_waveform_layer/GEN/tf.__operators__.add_34/y", "op": "Const", "attr": {"value": {"tensor": {"dtype": "DT_HALF", "tensorShape": {}}}, "dtype": {"type": "DT_HALF"}}}, {"name": "StatefulPartitionedCall/model/generate_waveform_layer/GEN/6ai/Conv2D/Cast", "op": "Const", "attr": {"dtype": {"type": "DT_HALF"}, "value": {"tensor": {"dtype": "DT_HALF", "tensorShape": {"dim": [{"size": "1"}, {"size": "1"}, {"size": "128"}, {"size": "384"}]}}}}}, {"name": "StatefulPartitionedCall/model/generate_waveform_layer/GEN/6ai/BiasAdd/Cast", "op": "Const", "attr": {"value": {"tensor": {"dtype": "DT_HALF", "tensorShape": {"dim": [{"size": "384"}]}}}, "dtype": {"type": "DT_HALF"}}}, {"name": "StatefulPartitionedCall/model/generate_waveform_layer/GEN/7c/Conv2D/ArithmeticOptimizer/FoldMultiplyIntoConv_scaled_StatefulPartitionedCall/model/generate_waveform_layer/GEN/7c/Conv2D_Cast", "op": "Const", "attr": {"value": {"tensor": {"dtype": "DT_HALF", "tensorShape": {"dim": [{"size": "1"}, {"size": "4"}, {"size": "384"}, {"size": "384"}]}}}, "dtype": {"type": "DT_HALF"}}}, {"name": "StatefulPartitionedCall/model/generate_waveform_layer/GEN/7c/BiasAdd/Cast", "op": "Const", "attr": {"value": {"tensor": {"dtype": "DT_HALF", "tensorShape": {"dim": [{"size": "384"}]}}}, "dtype": {"type": "DT_HALF"}}}, {"name": "StatefulPartitionedCall/model/generate_waveform_layer/GEN/7r/Cast", "op": "Const", "attr": {"dtype": {"type": "DT_HALF"}, "value": {"tensor": {"dtype": "DT_HALF", "tensorShape": {"dim": [{"size": "1"}]}}}}}, {"name": "StatefulPartitionedCall/model/generate_waveform_layer/GEN/7r/random_normal/shape", "op": "Const", "attr": {"value": {"tensor": {"dtype": "DT_INT32", "tensorShape": {"dim": [{"size": "4"}]}}}, "dtype": {"type": "DT_INT32"}}}, {"name": "StatefulPartitionedCall/model/generate_waveform_layer/GEN/tf.math.reduce_std_18/reduce_std/reduce_variance/Mean/reduction_indices", "op": "Const", "attr": {"value": {"tensor": {"dtype": "DT_INT32", "tensorShape": {}}}, "dtype": {"type": "DT_INT32"}}}, {"name": "StatefulPartitionedCall/model/generate_waveform_layer/GEN/tf.math.reduce_std_18/reduce_std/reduce_variance/Mean_1/reduction_indices", "op": "Const", "attr": {"dtype": {"type": "DT_INT32"}, "value": {"tensor": {"dtype": "DT_INT32", "tensorShape": {}}}}}, {"name": "StatefulPartitionedCall/model/generate_waveform_layer/GEN/tf.__operators__.add_35/y", "op": "Const", "attr": {"value": {"tensor": {"dtype": "DT_HALF", "tensorShape": {}}}, "dtype": {"type": "DT_HALF"}}}, {"name": "StatefulPartitionedCall/model/generate_waveform_layer/GEN/7ai/Conv2D/Cast", "op": "Const", "attr": {"dtype": {"type": "DT_HALF"}, "value": {"tensor": {"dtype": "DT_HALF", "tensorShape": {"dim": [{"size": "1"}, {"size": "1"}, {"size": "128"}, {"size": "384"}]}}}}}, {"name": "StatefulPartitionedCall/model/generate_waveform_layer/GEN/7ai/BiasAdd/Cast", "op": "Const", "attr": {"dtype": {"type": "DT_HALF"}, "value": {"tensor": {"dtype": "DT_HALF", "tensorShape": {"dim": [{"size": "384"}]}}}}}, {"name": "unknown_43", "op": "Const", "attr": {"dtype": {"type": "DT_HALF"}, "value": {"tensor": {"dtype": "DT_HALF", "tensorShape": {}}}}}, {"name": "StatefulPartitionedCall/model/generate_waveform_layer/GEN/4c/stack", "op": "Const", "attr": {"dtype": {"type": "DT_INT32"}, "value": {"tensor": {"dtype": "DT_INT32", "tensorShape": {"dim": [{"size": "4"}]}}}}}, {"name": "StatefulPartitionedCall/model/generate_waveform_layer/GEN/4c/conv2d_transpose/Cast", "op": "Const", "attr": {"value": {"tensor": {"dtype": "DT_HALF", "tensorShape": {"dim": [{"size": "1"}, {"size": "4"}, {"size": "512"}, {"size": "640"}]}}}, "dtype": {"type": "DT_HALF"}}}, {"name": "StatefulPartitionedCall/model/generate_waveform_layer/GEN/4c/BiasAdd/Cast", "op": "Const", "attr": {"value": {"tensor": {"dtype": "DT_HALF", "tensorShape": {"dim": [{"size": "512"}]}}}, "dtype": {"type": "DT_HALF"}}}, {"name": "StatefulPartitionedCall/model/generate_waveform_layer/GEN/4r/Cast", "op": "Const", "attr": {"dtype": {"type": "DT_HALF"}, "value": {"tensor": {"dtype": "DT_HALF", "tensorShape": {"dim": [{"size": "1"}]}}}}}, {"name": "StatefulPartitionedCall/model/generate_waveform_layer/GEN/4r/random_normal/shape", "op": "Const", "attr": {"value": {"tensor": {"dtype": "DT_INT32", "tensorShape": {"dim": [{"size": "4"}]}}}, "dtype": {"type": "DT_INT32"}}}, {"name": "StatefulPartitionedCall/model/generate_waveform_layer/GEN/tf.math.reduce_std_15/reduce_std/reduce_variance/Mean/reduction_indices", "op": "Const", "attr": {"dtype": {"type": "DT_INT32"}, "value": {"tensor": {"dtype": "DT_INT32", "tensorShape": {}}}}}, {"name": "StatefulPartitionedCall/model/generate_waveform_layer/GEN/tf.math.reduce_std_15/reduce_std/reduce_variance/Mean_1/reduction_indices", "op": "Const", "attr": {"dtype": {"type": "DT_INT32"}, "value": {"tensor": {"dtype": "DT_INT32", "tensorShape": {}}}}}, {"name": "StatefulPartitionedCall/model/generate_waveform_layer/GEN/tf.__operators__.add_31/y", "op": "Const", "attr": {"dtype": {"type": "DT_HALF"}, "value": {"tensor": {"dtype": "DT_HALF", "tensorShape": {}}}}}, {"name": "StatefulPartitionedCall/model/generate_…
model/generate_waveform_layer/DEC/conv2d_transpose_5/conv2d_transpose_4/Cast", "shape": [1, 4, 768, 768], "dtype": "float32"}, {"name": "StatefulPartitionedCall/model/generate_waveform_layer/DEC/conv2d_transpose_4/stack_4", "shape": [4], "dtype": "int32"}, {"name": "StatefulPartitionedCall/model/generate_waveform_layer/DEC/conv2d_transpose_4/conv2d_transpose_4/Cast", "shape": [1, 4, 768, 512], "dtype": "float32"}, {"name": "StatefulPartitionedCall/model/generate_waveform_layer/DEC/conv2d_transpose_4/BiasAdd_4/Cast", "shape": [768], "dtype": "float32"}, {"name": "StatefulPartitionedCall/model/generate_waveform_layer/DEC/add_noise_9/Cast_4", "shape": [1], "dtype": "float32"}, {"name": "StatefulPartitionedCall/model/generate_waveform_layer/DEC/add_noise_9/random_normal_4/shape", "shape": [4], "dtype": "int32"}, {"name": "StatefulPartitionedCall/model/generate_waveform_layer/DEC/conv2d_transpose_5/BiasAdd_4/Cast", "shape": [768], "dtype": "float32"}, {"name": "StatefulPartitionedCall/model/generate_waveform_layer/DEC/add_noise_10/Cast_4", "shape": [1], "dtype": "float32"}, {"name": "StatefulPartitionedCall/model/generate_waveform_layer/DEC/add_noise_10/random_normal_4/shape", "shape": [4], "dtype": "int32"}, {"name": "StatefulPartitionedCall/model/generate_waveform_layer/DEC/conv2d_transpose_3/stack_4", "shape": [4], "dtype": "int32"}, {"name": "StatefulPartitionedCall/model/generate_waveform_layer/DEC/conv2d_transpose_3/conv2d_transpose_4/Cast", "shape": [1, 4, 768, 768], "dtype": "float32"}, {"name": "StatefulPartitionedCall/model/generate_waveform_layer/DEC/conv2d_transpose_2/stack_4", "shape": [4], "dtype": "int32"}, {"name": "StatefulPartitionedCall/model/generate_waveform_layer/DEC/conv2d_transpose_2/conv2d_transpose_4/Cast", "shape": [1, 4, 768, 512], "dtype": "float32"}, {"name": "StatefulPartitionedCall/model/generate_waveform_layer/DEC/conv2d_transpose_1/stack_4", "shape": [4], "dtype": "int32"}, {"name": "StatefulPartitionedCall/model/generate_waveform_layer/DEC/conv2d_transpose_1/conv2d_transpose_4/Cast", "shape": [1, 4, 512, 256], "dtype": "float32"}, {"name": "StatefulPartitionedCall/model/generate_waveform_layer/DEC/conv2d_9/Conv2D_4/Cast", "shape": [1, 3, 512, 256], "dtype": "float32"}, {"name": "StatefulPartitionedCall/model/generate_waveform_layer/DEC/conv2d_9/BiasAdd_4/Cast", "shape": [256], "dtype": "float32"}, {"name": "StatefulPartitionedCall/model/generate_waveform_layer/DEC/add_noise_3/Cast_4", "shape": [1], "dtype": "float32"}, {"name": "StatefulPartitionedCall/model/generate_waveform_layer/DEC/add_noise_3/random_normal_4/shape", "shape": [4], "dtype": "int32"}, {"name": "StatefulPartitionedCall/model/generate_waveform_layer/DEC/conv2d_transpose_1/BiasAdd_4/Cast", "shape": [512], "dtype": "float32"}, {"name": "StatefulPartitionedCall/model/generate_waveform_layer/DEC/add_noise_6/Cast_4", "shape": [1], "dtype": "float32"}, {"name": "StatefulPartitionedCall/model/generate_waveform_layer/DEC/add_noise_6/random_normal_4/shape", "shape": [4], "dtype": "int32"}, {"name": "StatefulPartitionedCall/model/generate_waveform_layer/DEC/conv2d_8/Conv2D_4/Cast", "shape": [1, 3, 768, 512], "dtype": "float32"}, {"name": "StatefulPartitionedCall/model/generate_waveform_layer/DEC/conv2d_8/BiasAdd_4/Cast", "shape": [512], "dtype": "float32"}, {"name": "StatefulPartitionedCall/model/generate_waveform_layer/DEC/add_noise_2/Cast_4", "shape": [1], "dtype": "float32"}, {"name": "StatefulPartitionedCall/model/generate_waveform_layer/DEC/add_noise_2/random_normal_4/shape", "shape": [4], "dtype": "int32"}, {"name": "StatefulPartitionedCall/model/generate_waveform_layer/DEC/conv2d_transpose_2/BiasAdd_4/Cast", "shape": [768], "dtype": "float32"}, {"name": "StatefulPartitionedCall/model/generate_waveform_layer/DEC/add_noise_7/Cast_4", "shape": [1], "dtype": "float32"}, {"name": "StatefulPartitionedCall/model/generate_waveform_layer/DEC/add_noise_7/random_normal_4/shape", "shape": [4], "dtype": "int32"}, {"name": "StatefulPartitionedCall/model/generate_waveform_layer/split_16/split_dim", "shape": [], "dtype": "int32"}, {"name": "StatefulPartitionedCall/model/generate_waveform_layer/strided_slice_13/stack", "shape": [1], "dtype": "int32"}, {"name": "StatefulPartitionedCall/model/generate_waveform_layer/strided_slice_13/stack_1", "shape": [1], "dtype": "int32"}, {"name": "StatefulPartitionedCall/model/generate_waveform_layer/strided_slice_13/stack_2", "shape": [1], "dtype": "int32"}, {"name": "StatefulPartitionedCall/model/generate_waveform_layer/concat_21/axis", "shape": [], "dtype": "int32"}, {"name": "StatefulPartitionedCall/model/generate_waveform_layer/DEC/conv2d_6/Conv2D_4/Cast", "shape": [1, 3, 64, 768], "dtype": "float32"}, {"name": "StatefulPartitionedCall/model/generate_waveform_layer/DEC/conv2d_6/BiasAdd_4/Cast", "shape": [768], "dtype": "float32"}, {"name": "StatefulPartitionedCall/model/generate_waveform_layer/DEC/add_noise/Cast_4", "shape": [1], "dtype": "float32"}, {"name": "StatefulPartitionedCall/model/generate_waveform_layer/DEC/add_noise/random_normal_4/shape", "shape": [4], "dtype": "int32"}, {"name": "StatefulPartitionedCall/model/generate_waveform_layer/DEC/conv2d_7/Conv2D_4/Cast", "shape": [1, 3, 768, 768], "dtype": "float32"}, {"name": "StatefulPartitionedCall/model/generate_waveform_layer/DEC/conv2d_7/BiasAdd_4/Cast", "shape": [768], "dtype": "float32"}, {"name": "StatefulPartitionedCall/model/generate_waveform_layer/DEC/add_noise_1/Cast_4", "shape": [1], "dtype": "float32"}, {"name": "StatefulPartitionedCall/model/generate_waveform_layer/DEC/add_noise_1/random_normal_4/shape", "shape": [4], "dtype": "int32"}, {"name": "StatefulPartitionedCall/model/generate_waveform_layer/DEC/conv2d_transpose_3/BiasAdd_4/Cast", "shape": [768], "dtype": "float32"}, {"name": "StatefulPartitionedCall/model/generate_waveform_layer/DEC/add_noise_8/Cast_4", "shape": [1], "dtype": "float32"}, {"name": "StatefulPartitionedCall/model/generate_waveform_layer/DEC/add_noise_8/random_normal_4/shape", "shape": [4], "dtype": "int32"}, {"name": "StatefulPartitionedCall/model/generate_waveform_layer/DEC/conv2d_12/Conv2D_4/Cast", "shape": [1, 1, 768, 513], "dtype": "float32"}, {"name": "StatefulPartitionedCall/model/generate_waveform_layer/DEC/conv2d_12/BiasAdd_4/Cast", "shape": [513], "dtype": "float32"}, {"name": "StatefulPartitionedCall/model/generate_waveform_layer/DEC/tf.clip_by_value_1/clip_by_value_4/Minimum/y", "shape": [], "dtype": "float32"}, {"name": "StatefulPartitionedCall/model/generate_waveform_layer/DEC/tf.clip_by_value_1/clip_by_value_4/y", "shape": [], "dtype": "float32"}, {"name": "StatefulPartitionedCall/model/generate_waveform_layer/DEC/tf.concat_4/concat_4/axis", "shape": [], "dtype": "int32"}, {"name": "StatefulPartitionedCall/model/generate_waveform_layer/DEC/tf.compat.v1.transpose_6/transpose_4/perm", "shape": [4], "dtype": "int32"}, {"name": "StatefulPartitionedCall/model/generate_waveform_layer/DEC/tf.split_4/split_5/split_dim", "shape": [], "dtype": "int32"}, {"name": "StatefulPartitionedCall/model/generate_waveform_layer/DEC/conv2d_transpose_5/stack_5", "shape": [4], "dtype": "int32"}, {"name": "StatefulPartitionedCall/model/generate_waveform_layer/DEC/conv2d_transpose_5/conv2d_transpose_5/Cast", "shape": [1, 4, 768, 768], "dtype": "float32"}, {"name": "StatefulPartitionedCall/model/generate_waveform_layer/DEC/conv2d_transpose_4/stack_5", "shape": [4], "dtype": "int32"}, {"name": "StatefulPartitionedCall/model/generate_waveform_layer/DEC/conv2d_transpose_4/conv2d_transpose_5/Cast", "shape": [1, 4, 768, 512], "dtype": "float32"}, {"name": "StatefulPartitionedCall/model/generate_waveform_layer/DEC/conv2d_transpose_4/BiasAdd_5/Cast", "shape": [768], "dtype": "float32"}, {"name": "StatefulPartitionedCall/model/generate_waveform_layer/DEC/add_noise_9/Cast_5", "shape": [1], "dtype": "float32"}, {"name": "StatefulPartitionedCall/model/generate_waveform_layer/DEC/add_noise_9/random_normal_5/shape", "shape": [4], "dtype": "int32"}, {"name": "StatefulPartitionedCall/model/generate_waveform_layer/DEC/conv2d_transpose_5/BiasAdd_5/Cast", "shape": [768], "dtype": "float32"}, {"name": "StatefulPartitionedCall/model/generate_waveform_layer/DEC/add_noise_10/Cast_5", "shape": [1], "dtype": "float32"}, {"name": "StatefulPartitionedCall/model/generate_waveform_layer/DEC/add_noise_10/random_normal_5/shape", "shape": [4], "dtype": "int32"}, {"name": "StatefulPartitionedCall/model/generate_waveform_layer/DEC/conv2d_transpose_3/stack_5", "shape": [4], "dtype": "int32"}, {"name": "StatefulPartitionedCall/model/generate_waveform_layer/DEC/conv2d_transpose_3/conv2d_transpose_5/Cast", "shape": [1, 4, 768, 768], "dtype": "float32"}, {"name": "StatefulPartitionedCall/model/generate_waveform_layer/DEC/conv2d_transpose_2/stack_5", "shape": [4], "dtype": "int32"}, {"name": "StatefulPartitionedCall/model/generate_waveform_layer/DEC/conv2d_transpose_2/conv2d_transpose_5/Cast", "shape": [1, 4, 768, 512], "dtype": "float32"}, {"name": "StatefulPartitionedCall/model/generate_waveform_layer/DEC/conv2d_transpose_1/stack_5", "shape": [4], "dtype": "int32"}, {"name": "StatefulPartitionedCall/model/generate_waveform_layer/DEC/conv2d_transpose_1/conv2d_transpose_5/Cast", "shape": [1, 4, 512, 256], "dtype": "float32"}, {"name": "StatefulPartitionedCall/model/generate_waveform_layer/DEC/conv2d_9/Conv2D_5/Cast", "shape": [1, 3, 512, 256], "dtype": "float32"}, {"name": "StatefulPartitionedCall/model/generate_waveform_layer/DEC/conv2d_9/BiasAdd_5/Cast", "shape": [256], "dtype": "float32"}, {"name": "StatefulPartitionedCall/model/generate_waveform_layer/DEC/add_noise_3/Cast_5", "shape": [1], "dtype": "float32"}, {"name": "StatefulPartitionedCall/model/generate_waveform_layer/DEC/add_noise_3/random_normal_5/shape", "shape": [4], "dtype": "int32"}, {"name": "StatefulPartitionedCall/model/generate_waveform_layer/DEC/conv2d_transpose_1/BiasAdd_5/Cast", "shape": [512], "dtype": "float32"}, {"name": "StatefulPartitionedCall/model/generate_waveform_layer/DEC/add_noise_6/Cast_5", "shape": [1], "dtype": "float32"}, {"name": "StatefulPartitionedCall/model/generate_waveform_layer/DEC/add_noise_6/random_normal_5/shape", "shape": [4], "dtype": "int32"}, {"name": "StatefulPartitionedCall/model/generate_waveform_layer/DEC/conv2d_8/Conv2D_5/Cast", "shape": [1, 3, 768, 512], "dtype": "float32"}, {"name": "StatefulPartitionedCall/model/generate_waveform_layer/DEC/conv2d_8/BiasAdd_5/Cast", "shape": [512], "dtype": "float32"}, {"name": "StatefulPartitionedCall/model/generate_waveform_layer/DEC/add_noise_2/Cast_5", "shape": [1], "dtype": "float32"}, {"name": "StatefulPartitionedCall/model/generate_waveform_layer/DEC/add_noise_2/random_normal_5/shape", "shape": [4], "dtype": "int32"}, {"name": "StatefulPartitionedCall/model/generate_waveform_layer/DEC/conv2d_transpose_2/BiasAdd_5/Cast", "shape": [768], "dtype": "float32"}, {"name": "StatefulPartitionedCall/model/generate_waveform_layer/DEC/add_noise_7/Cast_5", "shape": [1], "dtype": "float32"}, {"name": "StatefulPartitionedCall/model/generate_waveform_layer/DEC/add_noise_7/random_normal_5/shape", "shape": [4], "dtype": "int32"}, {"name": "StatefulPartitionedCall/model/generate_waveform_layer/split_17/split_dim", "shape": [], "dtype": "int32"}, {"name": "StatefulPartitionedCall/model/generate_waveform_layer/DEC2/tf.split_8/split_3/split_dim", "shape": [], "dtype": "int32"}, {"name": "StatefulPartitionedCall/model/generate_waveform_layer/DEC2/conv2d_transpose_9/stack_3", "shape": [4], "dtype": "int32"}, {"name": "StatefulPartitionedCall/model/generate_waveform_layer/DEC2/conv2d_transpose_9/conv2d_transpose_3/Cast", "shape": [1, 4, 256, 384], "dtype": "float32"}, {"name": "StatefulPartitionedCall/model/generate_waveform_layer/DEC2/conv2d_transpose_8/stack_3", "shape": [4], "dtype": "int32"}, {"name": "StatefulPartitionedCall/model/generate_waveform_layer/DEC2/conv2d_transpose_8/conv2d_transpose_3/Cast", "shape": [1, 4, 384, 512], "dtype": "float32"}, {"name": "StatefulPartitionedCall/model/generate_waveform_layer/DEC2/conv2d_transpose_7/stack_3", "shape": [4], "dtype": "int32"}, {"name": "StatefulPartitionedCall/model/generate_waveform_layer/DEC2/conv2d_transpose_7/conv2d_transpose_3/Cast", "shape": [1, 4, 512, 640], "dtype": "float32"}, {"name": "StatefulPartitionedCall/model/generate_waveform_layer/DEC2/conv2d_transpose_6/stack_3", "shape": [4], "dtype": "int32"}, {"name": "StatefulPartitionedCall/model/generate_waveform_layer/DEC2/conv2d_transpose_6/conv2d_transpose_3/Cast", "shape": [1, 4, 640, 768], "dtype": "float32"}, {"name": "StatefulPartitionedCall/model/generate_waveform_layer/split_11/split_dim", "shape": [], "dtype": "int32"}, {"name": "StatefulPartitionedCall/model/generate_waveform_layer/strided_slice_9/stack", "shape": [1], "dtype": "int32"}, {"name": "StatefulPartitionedCall/model/generate_waveform_layer/strided_slice_9/stack_1", "shape": [1], "dtype": "int32"}, {"name": "StatefulPartitionedCall/model/generate_waveform_layer/strided_slice_9/stack_2", "shape": [1], "dtype": "int32"}, {"name": "StatefulPartitionedCall/model/generate_waveform_layer/concat_15/axis", "shape": [], "dtype": "int32"}, {"name": "StatefulPartitionedCall/model/generate_waveform_layer/DEC2/conv2d_20/Conv2D_3/Cast", "shape": [1, 3, 64, 768], "dtype": "float32"}, {"name": "StatefulPartitionedCall/model/generate_waveform_layer/DEC2/conv2d_20/BiasAdd_3/Cast", "shape": [768], "dtype": "float32"}, {"name": "StatefulPartitionedCall/model/generate_waveform_layer/DEC2/add_noise_11/Cast_3", "shape": [1], "dtype": "float32"}, {"name": "StatefulPartitionedCall/model/generate_waveform_layer/DEC2/add_noise_11/random_normal_3/shape", "shape": [4], "dtype": "int32"}, {"name": "StatefulPartitionedCall/model/generate_waveform_layer/DEC2/conv2d_transpose_6/BiasAdd_3/Cast", "shape": [640], "dtype": "float32"}, {"name": "StatefulPartitionedCall/model/generate_waveform_layer/DEC2/add_noise_12/Cast_3", "shape": [1], "dtype": "float32"}, {"name": "StatefulPartitionedCall/model/generate_waveform_layer/DEC2/add_noise_12/random_normal_3/shape", "shape": [4], "dtype": "int32"}, {"name": "StatefulPartitionedCall/model/generate_waveform_layer/DEC2/conv2d_21/Conv2D_3/Cast", "shape": [1, 3, 640, 640], "dtype": "float32"}, {"name": "StatefulPartitionedCall/model/generate_waveform_layer/DEC2/conv2d_21/BiasAdd_3/Cast", "shape": [640], "dtype": "float32"}, {"name": "StatefulPartitionedCall/model/generate_waveform_layer/DEC2/add_noise_13/Cast_3", "shape": [1], "dtype": "float32"}, {"name": "StatefulPartitionedCall/model/generate_waveform_layer/DEC2/add_noise_13/random_normal_3/shape", "shape": [4], "dtype": "int32"}, {"name": "StatefulPartitionedCall/model/generate_waveform_layer/DEC2/conv2d_transpose_7/BiasAdd_3/Cast", "shape": [512], "dtype": "float32"}, {"name": "StatefulPartitionedCall/model/generate_waveform_layer/DEC2/add_noise_14/Cast_3", "shape": [1], "dtype": "float32"}, {"name": "StatefulPartitionedCall/model/generate_waveform_layer/DEC2/add_noise_14/random_normal_3/shape", "shape": [4], "dtype": "int32"}, {"name": "StatefulPartitionedCall/model/generate_waveform_layer/DEC2/conv2d_22/Conv2D_3/Cast", "shape": [1, 3, 512, 512], "dtype": "float32"}, {"name": "StatefulPartitionedCall/model/generate_waveform_layer/DEC2/conv2d_22/BiasAdd_3/Cast", "shape": [512], "dtype": "float32"}, {"name": "StatefulPartitionedCall/model/generate_waveform_layer/DEC2/add_noise_15/Cast_3", "shape": [1], "dtype": "float32"}, {"name": "StatefulPartitionedCall/model/generate_waveform_layer/DEC2/add_noise_15/random_normal_3/shape", "shape": [4], "dtype": "int32"}, {"name": "StatefulPartitionedCall/model/generate_waveform_layer/DEC2/conv2d_transpose_8/BiasAdd_3/Cast", "shape": [384], "dtype": "float32"}, {"name": "StatefulPartitionedCall/model/generate_waveform_layer/DEC2/add_noise_16/Cast_3", "shape": [1], "dtype": "float32"}, {"name": "StatefulPartitionedCall/model/generate_waveform_layer/DEC2/add_noise_16/random_normal_3/shape", "shape": [4], "dtype": "int32"}, {"name": "StatefulPartitionedCall/model/generate_waveform_layer/DEC2/conv2d_transpose_9/BiasAdd_3/Cast", "shape": [256], "dtype": "float32"}, {"name": "StatefulPartitionedCall/model/generate_waveform_layer/DEC2/add_noise_17/Cast_3", "shape": [1], "dtype": "float32"}, {"name": "StatefulPartitionedCall/model/generate_waveform_layer/DEC2/add_noise_17/random_normal_3/shape", "shape": [4], "dtype": "int32"}, {"name": "StatefulPartitionedCall/model/generate_waveform_layer/DEC2/cout/Conv2D_3/Cast", "shape": [1, 1, 256, 64], "dtype": "float32"}, {"name": "StatefulPartitionedCall/model/generate_waveform_layer/DEC2/cout/BiasAdd_3/Cast", "shape": [64], "dtype": "float32"}, {"name": "StatefulPartitionedCall/model/generate_waveform_layer/DEC2/tf.concat_8/concat_3/axis", "shape": [], "dtype": "int32"}, {"name": "StatefulPartitionedCall/model/generate_waveform_layer/DEC2/tf.split_8/split_4/split_dim", "shape": [], "dtype": "int32"}, {"name": "StatefulPartitionedCall/model/generate_waveform_layer/DEC2/conv2d_transpose_9/stack_4", "shape": [4], "dtype": "int32"}, {"name": "StatefulPartitionedCall/model/generate_waveform_layer/DEC2/conv2d_transpose_9/conv2d_transpose_4/Cast", "shape": [1, 4, 256, 384], "dtype": "float32"}, {"name": "StatefulPartitionedCall/model/generate_waveform_layer/DEC2/conv2d_transpose_8/stack_4", "shape": [4], "dtype": "int32"}, {"name": "StatefulPartitionedCall/model/generate_waveform_layer/DEC2/conv2d_transpose_8/conv2d_transpose_4/Cast", "shape": [1, 4, 384, 512], "dtype": "float32"}, {"name": "StatefulPartitionedCall/model/generate_waveform_layer/DEC2/conv2d_transpose_7/stack_4", "shape": [4], "dtype": "int32"}, {"name": "StatefulPartitionedCall/model/generate_waveform_layer/DEC2/conv2d_transpose_7/conv2d_transpose_4/Cast", "shape": [1, 4, 512, 640], "dtype": "float32"}, {"name": "StatefulPartitionedCall/model/generate_waveform_layer/DEC2/conv2d_transpose_6/stack_4", "shape": [4], "dtype": "int32"}, {"name": "StatefulPartitionedCall/model/generate_waveform_layer/DEC2/conv2d_transpose_6/conv2d_transpose_4/Cast", "shape": [1, 4, 640, 768], "dtype": "float32"}, {"name": "StatefulPartitionedCall/model/generate_waveform_layer/split_12/split_dim", "shape": [], "dtype": "int32"}, {"name": "StatefulPartitionedCall/model/generate_waveform_layer/strided_slice_10/stack", "shape": [1], "dtype": "int32"}, {"name": "StatefulPartitionedCall/model/generate_waveform_layer/strided_slice_10/stack_1", "shape": [1], "dtype": "int32"}, {"name": "StatefulPartitionedCall/model/generate_waveform_layer/strided_slice_10/stack_2", "shape": [1], "dtype": "int32"}, {"name": "StatefulPartitionedCall/model/generate_waveform_layer/concat_16/axis", "shape": [], "dtype": "int32"}, {"name": "StatefulPartitionedCall/model/generate_waveform_layer/DEC2/conv2d_20/Conv2D_4/Cast", "shape": [1, 3, 64, 768], "dtype": "float32"}, {"name": "StatefulPartitionedCall/model/generate_waveform_layer/DEC2/conv2d_20/BiasAdd_4/Cast", "shape": [768], "dtype": "float32"}, {"name": "StatefulPartitionedCall/model/generate_waveform_layer/DEC2/add_noise_11/Cast_4", "shape": [1], "dtype": "float32"}, {"name": "StatefulPartitionedCall/model/generate_waveform_layer/DEC2/add_noise_11/random_normal_4/shape", "shape": [4], "dtype": "int32"}, {"name": "StatefulPartitionedCall/model/generate_waveform_layer/DEC2/conv2d_transpose_6/BiasAdd_4/Cast", "shape": [640], "dtype": "float32"}, {"name": "StatefulPartitionedCall/model/generate_waveform_layer/DEC2/add_noise_12/Cast_4", "shape": [1], "dtype": "float32"}, {"name": "StatefulPartitionedCall/model/generate_waveform_layer/DEC2/add_noise_12/random_normal_4/shape", "shape": [4], "dtype": "int32"}, {"name": "StatefulPartitionedCall/model/generate_waveform_layer/DEC2/conv2d_21/Conv2D_4/Cast", "shape": [1, 3, 640, 640], "dtype": "float32"}, {"name": "StatefulPartitionedCall/model/generate_waveform_layer/DEC2/conv2d_21/BiasAdd_4/Cast", "shape": [640], "dtype": "float32"}, {"name": "StatefulPartitionedCall/model/generate_waveform_layer/DEC2/add_noise_13/Cast_4", "shape": [1], "dtype": "float32"}, {"name": "StatefulPartitionedCall/model/generate_waveform_layer/DEC2/add_noise_13/random_normal_4/shape", "shape": [4], "dtype": "int32"}, {"name": "StatefulPartitionedCall/model/generate_waveform_layer/DEC2/conv2d_transpose_7/BiasAdd_4/Cast", "shape": [512], "dtype": "float32"}, {"name": "StatefulPartitionedCall/model/generate_waveform_layer/DEC2/add_noise_14/Cast_4", "shape": [1], "dtype": "float32"}, {"name": "StatefulPartitionedCall/model/generate_waveform_layer/DEC2/add_noise_14/random_normal_4/shape", "shape": [4], "dtype": "int32"}, {"name": "StatefulPartitionedCall/model/generate_waveform_layer/DEC2/conv2d_22/Conv2D_4/Cast", "shape": [1, 3, 512, 512], "dtype": "float32"}, {"name": "StatefulPartitionedCall/model/generate_waveform_layer/DEC2/conv2d_22/BiasAdd_4/Cast", "shape": [512], "dtype": "float32"}, {"name": "StatefulPartitionedCall/model/generate_waveform_layer/DEC2/add_noise_15/Cast_4", "shape": [1], "dtype": "float32"}, {"name": "StatefulPartitionedCall/model/generate_waveform_layer/DEC2/add_noise_15/random_normal_4/shape", "shape": [4], "dtype": "int32"}, {"name": "StatefulPartitionedCall/model/generate_waveform_layer/DEC2/conv2d_transpose_8/BiasAdd_4/Cast", "shape": [384], "dtype": "float32"}, {"name": "StatefulPartitionedCall/model/generate_waveform_layer/DEC2/add_noise_16/Cast_4", "shape": [1], "dtype": "float32"}, {"name": "StatefulPartitionedCall/model/generate_waveform_layer/DEC2/add_noise_16/random_normal_4/shape", "shape": [4], "dtype": "int32"}, {"name": "StatefulPartitionedCall/model/generate_waveform_layer/DEC2/conv2d_transpose_9/BiasAdd_4/Cast", "shape": [256], "dtype": "float32"}, {"name": "StatefulPartitionedCall/model/generate_waveform_layer/DEC2/add_noise_17/Cast_4", "shape": [1], "dtype": "float32"}, {"name": "StatefulPartitionedCall/model/generate_waveform_layer/DEC2/add_noise_17/random_normal_4/shape", "shape": [4], "dtype": "int32"}, {"name": "StatefulPartitionedCall/model/generate_waveform_layer/DEC2/cout/Conv2D_4/Cast", "shape": [1, 1, 256, 64], "dtype": "float32"}, {"name": "StatefulPartitionedCall/model/generate_waveform_layer/DEC2/cout/BiasAdd_4/Cast", "shape": [64], "dtype": "float32"}, {"name": "StatefulPartitionedCall/model/generate_waveform_layer/DEC2/tf.concat_8/concat_4/axis", "shape": [], "dtype": "int32"}, {"name": "StatefulPartitionedCall/model/generate_waveform_layer/DEC2/tf.split_8/split_5/split_dim", "shape": [], "dtype": "int32"}, {"name": "StatefulPartitionedCall/model/generate_waveform_layer/DEC2/conv2d_transpose_9/stack_5", "shape": [4], "dtype": "int32"}, {"name": "StatefulPartitionedCall/model/generate_waveform_layer/DEC2/conv2d_transpose_9/conv2d_transpose_5/Cast", "shape": [1, 4, 256, 384], "dtype": "float32"}, {"name": "StatefulPartitionedCall/model/generate_waveform_layer/DEC2/conv2d_transpose_8/stack_5", "shape": [4], "dtype": "int32"}, {"name": "StatefulPartitionedCall/model/generate_waveform_layer/DEC2/conv2d_transpose_8/conv2d_transpose_5/Cast", "shape": [1, 4, 384, 512], "dtype": "float32"}, {"name": "StatefulPartitionedCall/model/generate_waveform_layer/DEC2/conv2d_transpose_7/stack_5", "shape": [4], "dtype": "int32"}, {"name": "StatefulPartitionedCall/model/generate_waveform_layer/DEC2/conv2d_transpose_7/conv2d_transpose_5/Cast", "shape": [1, 4, 512, 640], "dtype": "float32"}, {"name": "StatefulPartitionedCall/model/generate_waveform_layer/DEC2/conv2d_transpose_6/stack_5", "shape": [4], "dtype": "int32"}, {"name": "StatefulPartitionedCall/model/generate_waveform_layer/DEC2/conv2d_transpose_6/conv2d_transpose_5/Cast", "shape": [1, 4, 640, 768], "dtype": "float32"}, {"name": "StatefulPartitionedCall/model/generate_waveform_layer/split_13/split_dim", "shape": [], "dtype": "int32"}, {"name": "StatefulPartitionedCall/model/generate_waveform_layer/split_1/split_dim", "shape": [], "dtype": "int32"}, {"name": "StatefulPartitionedCall/model/generate_waveform_layer/split/split_dim", "shape": [], "dtype": "int32"}, {"name": "StatefulPartitionedCall/model/generate_waveform_layer/GEN/tf.split_10/split/split_dim", "shape": [], "dtype": "int32"}, {"name": "StatefulPartitionedCall/model/generate_waveform_layer/GEN/8c/stack", "shape": [4], "dtype": "int32"}, {"name": "StatefulPartitionedCall/model/generate_waveform_layer/GEN/8c/conv2d_transpose/Cast", "shape": [1, 4, 256, 384], "dtype": "float32"}, {"name": "unknown_57", "shape": [], "dtype": "float32"}, {"name": "StatefulPartitionedCall/model/generate_waveform_layer/GEN/6c/stack", "shape": [4], "dtype": "int32"}, {"name": "StatefulPartitionedCall/model/generate_waveform_layer/GEN/6c/conv2d_transpose/Cast", "shape": [1, 4, 384, 512], "dtype": "float32"}, {"name": "StatefulPartitionedCall/model/generate_waveform_layer/GEN/6c/BiasAdd/Cast", "shape": [384], "dtype": "float32"}, {"name": "StatefulPartitionedCall/model/generate_waveform_layer/GEN/6r/Cast", "shape": [1], "dtype": "float32"}, {"name": "StatefulPartitionedCall/model/generate_waveform_layer/GEN/6r/random_normal/shape", "shape": [4], "dtype": "int32"}, {"name": "StatefulPartitionedCall/model/generate_waveform_layer/GEN/tf.math.reduce_std_17/reduce_std/reduce_variance/Mean/reduction_indices", "shape": [], "dtype": "int32"}, {"name": "StatefulPartitionedCall/model/generate_waveform_layer/GEN/tf.math.reduce_std_17/reduce_std/reduce_variance/Mean_1/reduction_indices", "shape": [], "dtype": "int32"}, {"name": "StatefulPartitionedCall/model/generate_waveform_layer/GEN/tf.__operators__.add_34/y", "shape": [], "dtype": "float32"}, {"name": "StatefulPartitionedCall/model/generate_waveform_layer/GEN/6ai/Conv2D/Cast", "shape": [1, 1, 128, 384], "dtype": "float32"}, {"name": "StatefulPartitionedCall/model/generate_waveform_layer/GEN/6ai/BiasAdd/Cast", "shape": [384], "dtype": "float32"}, {"name": "StatefulPartitionedCall/model/generate_waveform_layer/GEN/7c/Conv2D/ArithmeticOptimizer/FoldMultiplyIntoConv_scaled_StatefulPartitionedCall/model/generate_waveform_layer/GEN/7c/Conv2D_Cast", "shape": [1, 4, 384, 384], "dtype": "float32"}, {"name": "StatefulPartitionedCall/model/generate_waveform_layer/GEN/7c/BiasAdd/Cast", "shape": [384], "dtype": "float32"}, {"name": "StatefulPartitionedCall/model/generate_waveform_layer/GEN/7r/Cast", "shape": [1], "dtype": "float32"}, {"name": "StatefulPartitionedCall/model/generate_waveform_layer/GEN/7r/random_normal/shape", "shape": [4], "dtype": "int32"}, {"name": "StatefulPartitionedCall/model/generate_waveform_layer/GEN/tf.math.reduce_std_18/reduce_std/reduce_variance/Mean/reduction_indices", "shape": [], "dtype": "int32"}, {"name": "StatefulPartitionedCall/model/generate_waveform_layer/GEN/tf.math.reduce_std_18/reduce_std/reduce_variance/Mean_1/reduction_indices", "shape": [], "dtype": "int32"}, {"name": "StatefulPartitionedCall/model/generate_waveform_layer/GEN/tf.__operators__.add_35/y", "shape": [], "dtype": "float32"}, {"name": "StatefulPartitionedCall/model/generate_waveform_layer/GEN/7ai/Conv2D/Cast", "shape": [1, 1, 128, 384], "dtype": "float32"}, {"name": "StatefulPartitionedCall/model/generate_waveform_layer/GEN/7ai/BiasAdd/Cast", "shape": [384], "dtype": "float32"}, {"name": "unknown_43", "shape": [], "dtype": "float32"}, {"name": "StatefulPartitionedCall/model/generate_waveform_layer/GEN/4c/stack", "shape": [4], "dtype": "int32"}, {"name": "StatefulPartitionedCall/model/generate_waveform_layer/GEN/4c/conv2d_transpose/Cast", "shape": [1, 4, 512, 640], "dtype": "float32"}, {"name": "StatefulPartitionedCall/model/generate_waveform_layer/GEN/4c/BiasAdd/Cast", "shape": [512], "dtype": "float32"}, {"name": "StatefulPartitionedCall/model/generate_waveform_layer/GEN/4r/Cast", "shape": [1], "dtype": "float32"}, {"name": "StatefulPartitionedCall/model/generate_waveform_layer/GEN/4r/random_normal/shape", "shape": [4], "dtype": "int32"}, {"name": "StatefulPartitionedCall/model/generate_waveform_layer/GEN/tf.math.reduce_std_15/reduce_std/reduce_variance/Mean/reduction_indices", "shape": [], "dtype": "int32"}, {"name": "StatefulPartitionedCall/model/generate_waveform_layer/GEN/tf.math.reduce_std_15/reduce_std/reduce_variance/Mean_1/reduction_indices", "shape": [], "dtype": "int32"}, {"name": "StatefulPartitionedCall/model/generate_waveform_layer/GEN/tf.__operators__.add_31/y", "shape": [], "dtype": "float32"}, {"name": "StatefulPartitionedCall/model/generate_waveform_layer/GEN/4ai/Conv2D/Cast", "shape": [1, 1, 128, 512], "dtype": "float32"}, {"name": "StatefulPartitionedCall/model/generate_waveform_layer/GEN/4ai/BiasAdd/Cast", "shape": [512], "dtype": "float32"}, {"name": "StatefulPartitionedCall/model/generate_waveform_layer/GEN/5c/Conv2D/ArithmeticOptimizer/FoldMultiplyIntoConv_scaled_StatefulPartitionedCall/model/generate_waveform_layer/GEN/5c/Conv2D_Cast", "shape": [1, 4, 512, 512], "dtype": "float32"}, {"name": "StatefulPartitionedCall/model/generate_waveform_layer/GEN/5c/BiasAdd/Cast", "shape": [512], "dtype": "float32"}, {"name": "StatefulPartitionedCall/model/generate_waveform_layer/GEN/5r/Cast", "shape": [1], "dtype": "float32"}, {"name": "StatefulPartitionedCall/model/generate_waveform_layer/GEN/5r/random_normal/shape", "shape": [4], "dtype": "int32"}, {"name": "StatefulPartitionedCall/model/generate_waveform_layer/GEN/tf.math.reduce_std_16/reduce_std/reduce_variance/Mean/reduction_indices", "shape": [], "dtype": "int32"}, {"name": "StatefulPartitionedCall/model/generate_waveform_layer/GEN/tf.math.reduce_std_16/reduce_std/reduce_variance/Mean_1/reduction_indices", "shape": [], "dtype": "int32"}, {"name": "StatefulPartitionedCall/model/generate_waveform_layer/GEN/tf.__operators__.add_32/y", "shape": [], "dtype": "float32"}, {"name": "StatefulPartitionedCall/model/generate_waveform_layer/GEN/5ai/Conv2D/Cast", "shape": [1, 1, 128, 512], "dtype": "float32"}, {"name": "StatefulPartitionedCall/model/generate_waveform_layer/GEN/5ai/BiasAdd/Cast", "shape": [512], "dtype": "float32"}, {"name": "unknown_29", "shape": [], "dtype": "float32"}, {"name": "StatefulPartitionedCall/model/generate_waveform_layer/GEN/2c/stack", "shape": [4], "dtype": "int32"}, {"name": "StatefulPartitionedCall/model/generate_waveform_layer/GEN/2c/conv2d_transpose/Cast", "shape": [1, 4, 640, 768], "dtype": "float32"}, {"name": "StatefulPartitionedCall/model/generate_waveform_layer/GEN/2c/BiasAdd/Cast", "shape": [640], "dtype": "float32"}, {"name": "StatefulPartitionedCall/model/generate_waveform_layer/GEN/2r/Cast", "shape": [1], "dtype": "float32"}, {"name": "StatefulPartitionedCall/model/generate_waveform_layer/GEN/2r/random_normal/shape", "shape": [4], "dtype": "int32"}, {"name": "StatefulPartitionedCall/model/generate_waveform_layer/GEN/tf.math.reduce_std_13/reduce_std/reduce_variance/Mean/reduction_indices", "shape": [], "dtype": "int32"}, {"name": "StatefulPartitionedCall/model/generate_waveform_layer/GEN/tf.math.reduce_std_13/reduce_std/reduce_variance/Mean_1/reduction_indices", "shape": [], "dtype": "int32"}, {"name": "StatefulPartitionedCall/model/generate_waveform_layer/GEN/tf.__operators__.add_28/y", "shape": [], "dtype": "float32"}, {"name": "StatefulPartitionedCall/model/generate_waveform_layer/GEN/2ai/Conv2D/Cast", "shape": [1, 1, 128, 640], "dtype": "float32"}, {"name": "StatefulPartitionedCall/model/generate_waveform_layer/GEN/2ai/BiasAdd/Cast", "shape": [640], "dtype": "float32"}, {"name": "StatefulPartitionedCall/model/generate_waveform_layer/GEN/3c/Conv2D/ArithmeticOptimizer/FoldMultiplyIntoConv_scaled_StatefulPartitionedCall/model/generate_waveform_layer/GEN/3c/Conv2D_Cast", "shape": [1, 4, 640, 640], "dtype": "float32"}, {"name": "StatefulPartitionedCall/model/generate_waveform_layer/GEN/3c/BiasAdd/Cast", "shape": [640], "dtype": "float32"}, {"name": "StatefulPartitionedCall/model/generate_waveform_layer/GEN/3r/Cast", "shape": [1], "dtype": "float32"}, {"name": "StatefulPartitionedCall/model/generate_waveform_layer/GEN/3r/random_normal/shape", "shape": [4], "dtype": "int32"}, {"name": "StatefulPartitionedCall/model/generate_waveform_layer/GEN/tf.math.reduce_std_14/reduce_std/reduce_variance/Mean/reduction_indices", "shape": [], "dtype": "int32"}, {"name": "StatefulPartitionedCall/model/generate_waveform_layer/GEN/tf.math.reduce_std_14/reduce_std/reduce_variance/Mean_1/reduction_indices", "shape": [], "dtype": "int32"}, {"name": "StatefulPartitionedCall/model/generate_waveform_layer/GEN/tf.__operators__.add_29/y", "shape": [], "dtype": "float32"}, {"name": "StatefulPartitionedCall/model/generate_waveform_layer/GEN/3ai/Conv2D/Cast", "shape": [1, 1, 128, 640], "dtype": "float32"}, {"name": "StatefulPartitionedCall/model/generate_waveform_layer/GEN/3ai/BiasAdd/Cast", "shape": [640], "dtype": "float32"}, {"name": "unknown_15", "shape": [], "dtype": "float32"}, {"name": "StatefulPartitionedCall/model/generate_waveform_layer/GEN/0c/stack", "shape": [4], "dtype": "int32"}, {"name": "StatefulPartitionedCall/model/generate_waveform_layer/GEN/0c/conv2d_transpose/Cast", "shape": [1, 4, 768, 896], "dtype": "float32"}, {"name": "StatefulPartitionedCall/model/generate_waveform_layer/GEN/0c/BiasAdd/Cast", "shape": [768], "dtype": "float32"}, {"name": "StatefulPartitionedCall/model/generate_waveform_layer/GEN/0r/Cast", "shape": [1], "dtype": "float32"}, {"name": "StatefulPartitionedCall/model/generate_waveform_layer/GEN/0r/random_normal/shape", "shape": [4], "dtype": "int32"}, {"name": "StatefulPartitionedCall/model/generate_waveform_layer/GEN/tf.math.reduce_std_11/reduce_std/reduce_variance/Mean/reduction_indices", "shape": [], "dtype": "int32"}, {"name": "StatefulPartitionedCall/model/generate_waveform_layer/GEN/tf.math.reduce_std_11/reduce_std/reduce_variance/Mean_1/reduction_indices", "shape": [], "dtype": "int32"}, {"name": "StatefulPartitionedCall/model/generate_waveform_layer/GEN/tf.__operators__.add_25/y", "shape": [], "dtype": "float32"}, {"name": "StatefulPartitionedCall/model/generate_waveform_layer/GEN/0ai/Conv2D/Cast", "shape": [1, 1, 128, 768], "dtype": "float32"}, {"name": "StatefulPartitionedCall/model/generate_waveform_layer/GEN/0ai/BiasAdd/Cast", "shape": [768], "dtype": "float32"}, {"name": "StatefulPartitionedCall/model/generate_waveform_layer/GEN/1c/Conv2D/ArithmeticOptimizer/FoldMultiplyIntoConv_scaled_StatefulPartitionedCall/model/generate_waveform_layer/GEN/1c/Conv2D_Cast", "shape": [1, 4, 768, 768], "dtype": "float32"}, {"name": "StatefulPartitionedCall/model/generate_waveform_layer/GEN/1c/BiasAdd/Cast", "shape": [768], "dtype": "float32"}, {"name": "StatefulPartitionedCall/model/generate_waveform_layer/GEN/1r/Cast", "shape": [1], "dtype": "float32"}, {"name": "StatefulPartitionedCall/model/generate_waveform_layer/GEN/1r/random_normal/shape", "shape": [4], "dtype": "int32"}, {"name": "StatefulPartitionedCall/model/generate_waveform_layer/GEN/tf.math.reduce_std_12/reduce_std/reduce_variance/Mean/reduction_indices", "shape": [], "dtype": "int32"}, {"name": "StatefulPartitionedCall/model/generate_waveform_layer/GEN/tf.math.reduce_std_12/reduce_std/reduce_variance/Mean_1/reduction_indices", "shape": [], "dtype": "int32"}, {"name": "StatefulPartitionedCall/model/generate_waveform_layer/GEN/tf.__operators__.add_26/y", "shape": [], "dtype": "float32"}, {"name": "StatefulPartitionedCall/model/generate_waveform_layer/GEN/1ai/Conv2D/Cast", "shape": [1, 1, 128, 768], "dtype": "float32"}, {"name": "StatefulPartitionedCall/model/generate_waveform_layer/GEN/1ai/BiasAdd/Cast", "shape": [768], "dtype": "float32"}, {"name": "StatefulPartitionedCall/model/generate_waveform_layer/GEN/flatten_2/Const", "shape": [2], "dtype": "int32"}, {"name": "StatefulPartitionedCall/model/generate_waveform_layer/GEN/00d/MatMul/Cast", "shape": [256, 3584], "dtype": "float32"}, {"name": "StatefulPartitionedCall/model/generate_waveform_layer/GEN/00d/BiasAdd/Cast", "shape": [3584], "dtype": "float32"}, {"name": "StatefulPartitionedCall/model/generate_waveform_layer/GEN/reshape_1/Reshape/shape", "shape": [4], "dtype": "int32"}, {"name": "StatefulPartitionedCall/model/generate_waveform_layer/GEN/00n/Cast", "shape": [1], "dtype": "float32"}, {"name": "StatefulPartitionedCall/model/generate_waveform_layer/GEN/00n/random_normal/shape", "shape": [4], "dtype": "int32"}, {"name": "StatefulPartitionedCall/model/generate_waveform_layer/GEN/tf.math.reduce_std_10/reduce_std/reduce_variance/Mean/reduction_indices", "shape": [], "dtype": "int32"}, {"name": "StatefulPartitionedCall/model/generate_waveform_layer/GEN/tf.math.reduce_std_10/reduce_std/reduce_variance/Mean_1/reduction_indices", "shape": [], "dtype": "int32"}, {"name": "StatefulPartitionedCall/model/generate_waveform_layer/GEN/tf.__operators__.add_24/y", "shape": [], "dtype": "float32"}, {"name": "StatefulPartitionedCall/model/generate_waveform_layer/GEN/tf.expand_dims_2/ExpandDims/dim", "shape": [], "dtype": "int32"}, {"name": "StatefulPartitionedCall/model/generate_waveform_layer/GEN/00ai/Conv2D/Cast", "shape": [1, 1, 128, 896], "dtype": "float32"}, {"name": "StatefulPartitionedCall/model/generate_waveform_layer/GEN/00ai/BiasAdd/Cast", "shape": [896], "dtype": "float32"}, {"name": "StatefulPartitionedCall/model/generate_waveform_layer/GEN/tf.reshape_8/Reshape/shape", "shape": [5], "dtype": "int32"}, {"name": "StatefulPartitionedCall/model/generate_waveform_layer/GEN/tf.compat.v1.transpose_7/transpose/perm", "shape": [5], "dtype": "int32"}, {"name": "StatefulPartitionedCall/model/generate_waveform_layer/GEN/tf.reshape_9/Reshape/shape", "shape": [4], "dtype": "int32"}, {"name": "StatefulPartitionedCall/model/generate_waveform_layer/GEN/res1c/Conv2D/Cast", "shape": [1, 1, 448, 768], "dtype": "float32"}, {"name": "StatefulPartitionedCall/model/generate_waveform_layer/GEN/res1c/BiasAdd/Cast", "shape": [768], "dtype": "float32"}, {"name": "StatefulPartitionedCall/model/generate_waveform_layer/GEN/tf.reshape_10/Reshape/shape", "shape": [5], "dtype": "int32"}, {"name": "StatefulPartitionedCall/model/generate_waveform_layer/GEN/tf.compat.v1.transpose_8/transpose/perm", "shape": [5], "dtype": "int32"}, {"name": "StatefulPartitionedCall/model/generate_waveform_layer/GEN/tf.reshape_11/Reshape/shape", "shape": [4], "dtype": "int32"}, {"name": "StatefulPartitionedCall/model/generate_waveform_layer/GEN/res2c/Conv2D/Cast", "shape": [1, 1, 384, 640], "dtype": "float32"}, {"name": "StatefulPartitionedCall/model/generate_waveform_layer/GEN/res2c/BiasAdd/Cast", "shape": [640], "dtype": "float32"}, {"name": "StatefulPartitionedCall/model/generate_waveform_layer/GEN/tf.reshape_12/Reshape/shape", "shape": [5], "dtype": "int32"}, {"name": "StatefulPartitionedCall/model/generate_waveform_layer/GEN/tf.compat.v1.transpose_9/transpose/perm", "shape": [5], "dtype": "int32"}, {"name": "StatefulPartitionedCall/model/generate_waveform_layer/GEN/tf.reshape_13/Reshape/shape", "shape": [4], "dtype": "int32"}, {"name": "StatefulPartitionedCall/model/generate_waveform_layer/GEN/res3c/Conv2D/Cast", "shape": [1, 1, 320, 512], "dtype": "float32"}, {"name": "StatefulPartitionedCall/model/generate_waveform_layer/GEN/res3c/BiasAdd/Cast", "shape": [512], "dtype": "float32"}, {"name": "StatefulPartitionedCall/model/generate_waveform_layer/GEN/tf.reshape_14/Reshape/shape", "shape": [5], "dtype": "int32"}, {"name": "StatefulPartitionedCall/model/generate_waveform_layer/GEN/tf.compat.v1.transpose_10/transpose/perm", "shape": [5], "dtype": "int32"}, {"name": "StatefulPartitionedCall/model/generate_waveform_layer/GEN/tf.reshape_15/Reshape/shape", "shape": [4], "dtype": "int32"}, {"name": "StatefulPartitionedCall/model/generate_waveform_layer/GEN/res4c/Conv2D/Cast", "shape": [1, 1, 256, 384], "dtype": "float32"}, {"name": "StatefulPartitionedCall/model/generate_waveform_layer/GEN/res4c/BiasAdd/Cast", "shape": [384], "dtype": "float32"}, {"name": "StatefulPartitionedCall/model/generate_waveform_layer/GEN/8c/BiasAdd/Cast", "shape": [256], "dtype": "float32"}, {"name": "StatefulPartitionedCall/model/generate_waveform_layer/GEN/8r/Cast", "shape": [1], "dtype": "float32"}, {"name": "StatefulPartitionedCall/model/generate_waveform_layer/GEN/8r/random_normal/shape", "shape": [4], "dtype": "int32"}, {"name": "StatefulPartitionedCall/model/generate_waveform_layer/GEN/tf.math.reduce_std_19/reduce_std/reduce_variance/Mean/reduction_indices", "shape": [], "dtype": "int32"}, {"name": "StatefulPartitionedCall/model/generate_waveform_layer/GEN/tf.math.reduce_std_19/reduce_std/reduce_variance/Mean_1/reduction_indices", "shape": [], "dtype": "int32"}, {"name": "StatefulPartitionedCall/model/generate_waveform_layer/GEN/tf.__operators__.add_37/y", "shape": [], "dtype": "float32"}, {"name": "StatefulPartitionedCall/model/generate_waveform_layer/GEN/tf.split_9/split/split_dim", "shape": [], "dtype": "int32"}, {"name": "StatefulPartitionedCall/model/generate_waveform_layer/random_normal/shape", "shape": [3], "dtype": "int32"}, {"name": "StatefulPartitionedCall/model/generate_waveform_layer/strided_slice/stack", "shape": [1], "dtype": "int32"}, {"name": "StatefulPartitionedCall/model/generate_waveform_layer/strided_slice/stack_1", "shape": [1], "dtype": "int32"}, {"name": "StatefulPartitionedCall/model/generate_waveform_layer/strided_slice/stack_2", "shape": [1], "dtype": "int32"}, {"name": "StatefulPartitionedCall/model/generate_waveform_layer/GEN/tf.concat_9/concat/axis", "shape": [], "dtype": "int32"}, {"name": "StatefulPartitionedCall/model/generate_waveform_layer/GEN/tf.expand_dims_3/ExpandDims/dim", "shape": [], "dtype": "int32"}, {"name": "StatefulPartitionedCall/model/generate_waveform_layer/GEN/8ai/Conv2D/Cast", "shape": [1, 1, 128, 256], "dtype": "float32"}, {"name": "StatefulPartitionedCall/model/generate_waveform_layer/GEN/8ai/BiasAdd/Cast", "shape": [256], "dtype": "float32"}, {"name": "StatefulPartitionedCall/model/generate_waveform_layer/GEN/9c/Conv2D/Cast", "shape": [1, 4, 256, 128], "dtype": "float32"}, {"name": "StatefulPartitionedCall/model/generate_waveform_layer/GEN/9c/BiasAdd/Cast", "shape": [128], "dtype": "float32"}, {"name": "StatefulPartitionedCall/model/generate_waveform_layer/GEN/tf.concat_10/concat/axis", "shape": [], "dtype": "int32"}, {"name": "StatefulPartitionedCall/model/generate_waveform_layer/concat_1/axis", "shape": [], "dtype": "int32"}, {"name": "StatefulPartitionedCall/model/generate_waveform_layer/concat_2/axis", "shape": [], "dtype": "int32"}, {"name": "StatefulPartitionedCall/model/generate_waveform_layer/strided_slice_8/stack", "shape": [4], "dtype": "int32"}, {"name": "StatefulPartitionedCall/model/generate_waveform_layer/strided_slice_8/stack_1", "shape": [4], "dtype": "int32"}, {"name": "StatefulPartitionedCall/model/generate_waveform_layer/strided_slice_8/stack_2", "shape": [4], "dtype": "int32"}, {"name": "StatefulPartitionedCall/model/generate_waveform_layer/strided_slice_11/stack", "shape": [1], "dtype": "int32"}, {"name": "StatefulPartitionedCall/model/generate_waveform_layer/strided_slice_11/stack_1", "shape": [1], "dtype": "int32"}, {"name": "StatefulPartitionedCall/model/generate_waveform_layer/strided_slice_11/stack_2", "shape": [1], "dtype": "int32"}, {"name": "StatefulPartitionedCall/model/generate_waveform_layer/concat_17/axis", "shape": [], "dtype": "int32"}, {"name": "StatefulPartitionedCall/model/generate_waveform_layer/DEC2/conv2d_20/Conv2D_5/Cast", "shape": [1, 3, 64, 768], "dtype": "float32"}, {"name": "StatefulPartitionedCall/model/generate_waveform_layer/DEC2/conv2d_20/BiasAdd_5/Cast", "shape": [768], "dtype": "float32"}, {"name": "StatefulPartitionedCall/model/generate_waveform_layer/DEC2/add_noise_11/Cast_5", "shape": [1], "dtype": "float32"}, {"name": "StatefulPartitionedCall/model/generate_waveform_layer/DEC2/add_noise_11/random_normal_5/shape", "shape": [4], "dtype": "int32"}, {"name": "StatefulPartitionedCall/model/generate_waveform_layer/DEC2/conv2d_transpose_6/BiasAdd_5/Cast", "shape": [640], "dtype": "float32"}, {"name": "StatefulPartitionedCall/model/generate_waveform_layer/DEC2/add_noise_12/Cast_5", "shape": [1], "dtype": "float32"}, {"name": "StatefulPartitionedCall/model/generate_waveform_layer/DEC2/add_noise_12/random_normal_5/shape", "shape": [4], "dtype": "int32"}, {"name": "StatefulPartitionedCall/model/generate_waveform_layer/DEC2/conv2d_21/Conv2D_5/Cast", "shape": [1, 3, 640, 640], "dtype": "float32"}, {"name": "StatefulPartitionedCall/model/generate_waveform_layer/DEC2/conv2d_21/BiasAdd_5/Cast", "shape": [640], "dtype": "float32"}, {"name": "StatefulPartitionedCall/model/generate_waveform_layer/DEC2/add_noise_13/Cast_5", "shape": [1], "dtype": "float32"}, {"name": "StatefulPartitionedCall/model/generate_waveform_layer/DEC2/add_noise_13/random_normal_5/shape", "shape": [4], "dtype": "int32"}, {"name": "StatefulPartitionedCall/model/generate_waveform_layer/DEC2/conv2d_transpose_7/BiasAdd_5/Cast", "shape": [512], "dtype": "float32"}, {"name": "StatefulPartitionedCall/model/generate_waveform_layer/DEC2/add_noise_14/Cast_5", "shape": [1], "dtype": "float32"}, {"name": "StatefulPartitionedCall/model/generate_waveform_layer/DEC2/add_noise_14/random_normal_5/shape", "shape": [4], "dtype": "int32"}, {"name": "StatefulPartitionedCall/model/generate_waveform_layer/DEC2/conv2d_22/Conv2D_5/Cast", "shape": [1, 3, 512, 512], "dtype": "float32"}, {"name": "StatefulPartitionedCall/model/generate_waveform_layer/DEC2/conv2d_22/BiasAdd_5/Cast", "shape": [512], "dtype": "float32"}, {"name": "StatefulPartitionedCall/model/generate_waveform_layer/DEC2/add_noise_15/Cast_5", "shape": [1], "dtype": "float32"}, {"name": "StatefulPartitionedCall/model/generate_waveform_layer/DEC2/add_noise_15/random_normal_5/shape", "shape": [4], "dtype": "int32"}, {"name": "StatefulPartitionedCall/model/generate_waveform_layer/DEC2/conv2d_transpose_8/BiasAdd_5/Cast", "shape": [384], "dtype": "float32"}, {"name": "StatefulPartitionedCall/model/generate_waveform_layer/DEC2/add_noise_16/Cast_5", "shape": [1], "dtype": "float32"}, {"name": "StatefulPartitionedCall/model/generate_waveform_layer/DEC2/add_noise_16/random_normal_5/shape", "shape": [4], "dtype": "int32"}, {"name": "StatefulPartitionedCall/model/generate_waveform_layer/DEC2/conv2d_transpose_9/BiasAdd_5/Cast", "shape": [256], "dtype": "float32"}, {"name": "StatefulPartitionedCall/model/generate_waveform_layer/DEC2/add_noise_17/Cast_5", "shape": [1], "dtype": "float32"}, {"name": "StatefulPartitionedCall/model/generate_waveform_layer/DEC2/add_noise_17/random_normal_5/shape", "shape": [4], "dtype": "int32"}, {"name": "StatefulPartitionedCall/model/generate_waveform_layer/DEC2/cout/Conv2D_5/Cast", "shape": [1, 1, 256, 64], "dtype": "float32"}, {"name": "StatefulPartitionedCall/model/generate_waveform_layer/DEC2/cout/BiasAdd_5/Cast", "shape": [64], "dtype": "float32"}, {"name": "StatefulPartitionedCall/model/generate_waveform_layer/DEC2/tf.concat_8/concat_5/axis", "shape": [], "dtype": "int32"}, {"name": "StatefulPartitionedCall/model/generate_waveform_layer/concat_18/axis", "shape": [], "dtype": "int32"}, {"name": "StatefulPartitionedCall/model/generate_waveform_layer/strided_slice_14/stack", "shape": [1], "dtype": "int32"}, {"name": "StatefulPartitionedCall/model/generate_waveform_layer/strided_slice_14/stack_1", "shape": [1], "dtype": "int32"}, {"name": "StatefulPartitionedCall/model/generate_waveform_layer/strided_slice_14/stack_2", "shape": [1], "dtype": "int32"}, {"name": "StatefulPartitionedCall/model/generate_waveform_layer/concat_22/axis", "shape": [], "dtype": "int32"}, {"name": "StatefulPartitionedCall/model/generate_waveform_layer/DEC/conv2d_6/Conv2D_5/Cast", "shape": [1, 3, 64, 768], "dtype": "float32"}, {"name": "StatefulPartitionedCall/model/generate_waveform_layer/DEC/conv2d_6/BiasAdd_5/Cast", "shape": [768], "dtype": "float32"}, {"name": "StatefulPartitionedCall/model/generate_waveform_layer/DEC/add_noise/Cast_5", "shape": [1], "dtype": "float32"}, {"name": "StatefulPartitionedCall/model/generate_waveform_layer/DEC/add_noise/random_normal_5/shape", "shape": [4], "dtype": "int32"}, {"name": "StatefulPartitionedCall/model/generate_waveform_layer/DEC/conv2d_7/Conv2D_5/Cast", "shape": [1, 3, 768, 768], "dtype": "float32"}, {"name": "StatefulPartitionedCall/model/generate_waveform_layer/DEC/conv2d_7/BiasAdd_5/Cast", "shape": [768], "dtype": "float32"}, {"name": "StatefulPartitionedCall/model/generate_waveform_layer/DEC/add_noise_1/Cast_5", "shape": [1], "dtype": "float32"}, {"name": "StatefulPartitionedCall/model/generate_waveform_layer/DEC/add_noise_1/random_normal_5/shape", "shape": [4], "dtype": "int32"}, {"name": "StatefulPartitionedCall/model/generate_waveform_layer/DEC/conv2d_transpose_3/BiasAdd_5/Cast", "shape": [768], "dtype": "float32"}, {"name": "StatefulPartitionedCall/model/generate_waveform_layer/DEC/add_noise_8/Cast_5", "shape": [1], "dtype": "float32"}, {"name": "StatefulPartitionedCall/model/generate_waveform_layer/DEC/add_noise_8/random_normal_5/shape", "shape": [4], "dtype": "int32"}, {"name": "StatefulPartitionedCall/model/generate_waveform_layer/DEC/conv2d_12/Conv2D_5/Cast", "shape": [1, 1, 768, 513], "dtype": "float32"}, {"name": "StatefulPartitionedCall/model/generate_waveform_layer/DEC/conv2d_12/BiasAdd_5/Cast", "shape": [513], "dtype": "float32"}, {"name": "StatefulPartitionedCall/model/generate_waveform_layer/DEC/tf.clip_by_value_1/clip_by_value_5/Minimum/y", "shape": [], "dtype": "float32"}, {"name": "StatefulPartitionedCall/model/generate_waveform_layer/DEC/tf.clip_by_value_1/clip_by_value_5/y", "shape": [], "dtype": "float32"}, {"name": "StatefulPartitionedCall/model/generate_waveform_layer/DEC/tf.concat_4/concat_5/axis", "shape": [], "dtype": "int32"}, {"name": "StatefulPartitionedCall/model/generate_waveform_layer/DEC/tf.compat.v1.transpose_6/transpose_5/perm", "shape": [4], "dtype": "int32"}, {"name": "StatefulPartitionedCall/model/generate_waveform_layer/concat_24/axis", "shape": [], "dtype": "int32"}, {"name": "StatefulPartitionedCall/model/generate_waveform_layer/mul_7/y", "shape": [], "dtype": "float32"}, {"name": "StatefulPartitionedCall/model/generate_waveform_layer/concat_26/axis", "shape": [], "dtype": "int32"}]}]}